output_lxl/MASAC/weight/actor_agent_4_ep_200.pth (torch, 292124 bytes, 8 tensors)

fc1.weight f4 [256, 12]
0.17865661 0.09745124 0.08111012 -0.10823876 -0.19040674 0.028400838 0.1560939 -0.21718624
0.07016483 0.11919224 -0.0088739395 0.05763486 -0.2101062 -0.14629476 0.2122125 0.08079216
-0.17877999 -0.14594664 -0.0052865148 -0.09990963 -0.05361414 0.14182687 -0.25199062 -0.26704106
-0.20993248 -0.10360192 -0.0809644 0.10363492 0.20789823 -0.23472023 -0.23220761 -0.22445318
-0.23381016 -0.20157513 0.12569854 -0.13073014 -0.20466691 -0.20843732 -0.07681489 0.1722292
0.27784163 0.22602099 0.09928557 0.05787605 -0.11389023 -0.13936801 0.16194496 0.2387045
-0.25737357 -0.19292673 -0.2768198 -0.07392897 0.15437055 0.13432711 -0.2813092 -0.14981209
0.052346796 -0.048816353 -0.1995174 0.18666607 0.24624759 0.2573884 0.25474828 -0.14816914
0.27395755 -0.19509482 -0.01464501 -0.06840785 0.27603555 -0.027765036 -0.16836369 0.23171687
0.05760309 0.22623754 -0.22688901 0.20928428 -0.027711838 -0.21335366 -0.042385057 -0.09853436
-0.14069311 -0.17033407 -0.18293262 -0.0938364 0.15067029 -0.24517903 -0.23303515 -0.262957
-0.25927556 0.28669494 0.04284978 -0.021649867 0.12813476 0.09351745 -0.26210555 0.12791663
0.24860609 -0.0711323 0.030026376 -0.09821735 -0.2592992 0.045066983 0.20756665 0.035763323
0.23258656 -0.2040123 0.15652108 0.1899448 -0.010902405 -0.18273126 0.13014123 -0.21340236
-0.04781945 -0.14825098 -0.01659754 0.08131078 0.13640761 -0.20416683 -0.02368468 0.21372783
-0.074489266 0.041072547 -0.2290755 -0.10012099 -0.26557535 -0.263335 -0.11886452 0.15614739
0.058610708 0.091053426 0.17199838 0.09019241 -0.13967343 0.17584878 -0.2809359 -0.019845724
-0.04613109 -0.21388778 -0.25766355 0.10760304 0.06653628 -0.015237719 -0.10762341 -0.15210965
0.13164017 0.108961344 -0.054120973 0.07842332 0.032811105 -0.14316502 -0.13852078 -0.17775983
-0.058557913 -0.14936 0.24209392 0.27000785 0.13732788 -0.27162498 -0.27978963 -0.039243102
-0.005173236 0.19150075 -0.28389424 0.13024375 0.19536558 0.22649276 -0.042076588 0.03242603
-0.24533144 -0.03752905 -0.0027552247 0.22586298 -0.2123826 -0.07483463 -0.026354432 0.11948529
-0.070119604 0.096641004 -0.034828335 0.02425018 -0.19389883 0.2612871 -0.10220024 -0.09725988
-0.1722088 0.106447816 -0.17125034 -0.03256038 -0.10234584 0.26224083 -0.1002734 -0.09330428
-0.11818057 0.2549163 -0.17225516 -0.02784437 -0.014227718 0.17889813 -0.0030098557 -0.19339336
0.1725105 0.049836874 -0.03261906 -0.14127043 0.18499237 0.1273247 -0.13943237 0.061166257
-0.11994064 0.13660744 -0.18000165 0.13969731 0.20556024 0.025720268 0.1076957 -0.21751747
0.2036384 0.014860034 0.06613204 0.26776665 -0.19073746 0.03137228 0.0653995 0.13570908
0.056254864 0.0899246 -0.15503508 0.22146672 0.17082632 -0.08951549 0.2252245 0.08083373
0.24178362 0.25886464 -0.2190552 -0.27090055 -0.21016788 -0.036324173 -0.2373686 -0.00662446
0.2612326 0.15051407 0.11721337 -0.17606041 -0.2606772 -0.13411102 -0.14225608 0.054350704
-0.25124234 0.22005445 0.26168966 0.09283459 0.23541862 0.04433468 -0.043009818 0.21039802
00000000: c2f1 363e 8494 c73d 101d a63d 48ac ddbd
00000010: fcf9 42be e0a8 e83c 14d7 1f3e 1266 5ebe
00000020: 94b2 8f3d 101b f43d 0064 11bc 8812 6c3d
00000030: 1426 57be 4bce 15be 3c4e 593e 5c76 a53d
00000040: 1a12 37be 0973 15be 803a adbb 6c9d ccbd
00000050: 809a 5bbd 103b 113e ea04 81be 9bb9 88be
00000060: 8af8 56be 3e2d d4bd aad0 a5bd 8c3e d43d
00000070: 46e3 543e 805a 70be d5c7 6dbe 0ed7 65be
00000080: ee6b 6fbe b669 4ebe 1eb7 003e 1fde 05be
00000090: 3494 51be 9870 55be 2051 9dbd da5c 303e
000000a0: 4241 8e3e 0c72 673e 3c56 cb3d 700f 6d3d
000000b0: 483f e9bd 7db6 0ebe e6d4 253e f46e 743e
000000c0: 78c6 83be 968e 45be 53bb 8dbe 1268 97bd
000000d0: 5013 1e3e 0c8d 093e c207 90be 5768 19be
000000e0: 9869 563d a8f3 47bd 4a4e 4cbe 6425 3f3e
000000f0: 5428 7c3e 6ac8 833e 5e6e 823e a7b9 17be
00000100: 2a44 8c3e f0c6 47be a0f1 6fbc 6a19 8cbd
00000110: 8854 8d3e 8073 e3bc 8867 2cbe 3047 6d3e
00000120: 38f1 6b3d d0aa 673e 9855 68be 9e4e 563e
00000130: f003 e3bc 6279 5abe f49b 2dbd 62cc c9bd
00000140: db11 10be 0e6c 2ebe b052 3bbe 4c2d c0bd
00000150: 5049 1a3e 3610 7bbe c4a0 6ebe 4da2 86be
00000160: c4bf 84be aec9 923e 4083 2f3d 105b b1bc
00000170: c235 033e 1486 bf3d b332 86be 94fc 023e
00000180: 9892 7e3e d0ad 91bd e0f9 f53c 2e26 c9bd
00000190: ddc2 84be 2898 383d 5a8c 543e 907c 123d
000001a0: 2c2b 6e3e 9ae8 50be 1047 203e e480 423e
000001b0: 00a0 32bc e71d 3bbe be43 053e 2686 5abe
000001c0: 54de 43bd 1bcf 17be 90f7 87bc 4486 a63d
000001d0: 70ae 0b3e 1c11 51be 6006 c2bc 78db 5a3e
000001e0: d48d 98bd b03b 283d c592 6abe 3c0c cdbd
000001f0: 7ef9 87be d8d3 86be 3e6f f3bd 1ae5 1f3e
00000200: c811 703d 387a ba3d 5820 303e ccb6 b83d
00000210: 8d06 0fbe b411 343e d5d6 8fbe 8093 a2bc
00000220: f4f3 3cbd 6605 5bbe 7aec 83be fc5e dc3d
00000230: 2c44 883d a0a7 79bc aa69 dcbd a2c2 1bbe
00000240: aecc 063e 2027 df3d f4ad 5dbd 689c a03d
00000250: f064 063d da99 12be 64d8 0dbe ac06 36be
00000260: 6cda 6fbd d4f1 18be 78e7 773e 783e 8a3e
00000270: ae9f 0c3e 6e12 8bbe 9640 8fbe 60bd 20bd
00000280: 4084 a9bb c618 443e 965a 91be 9e5e 053e
00000290: ea0d 483e b8ed 673e 8058 2cbd 28d1 043d
000002a0: 2a38 7bbe 10b8 19bd 0091 34bb a048 673e
000002b0: d37a 59be e642 99bd 40e5 d7bc b4b4 f43d
000002c0: de9a 8fbd b8eb c53d 28a8 0ebd 50a8 c63c
000002d0: 6a8d 46be 6cc7 853e 5c4e d1bd 3030 c7bd
000002e0: 8157 30be 5001 da3d 405c 2fbe 085e 05bd
000002f0: b29a d1bd 6e44 863e 245c cdbd 5016 bfbd
00000300: a808 f2bd 6484 823e a863 30be e019 e4bc
00000310: 601b 69bc 1231 373e 0041 45bb e908 46be
00000320: 98a6 303e c021 4c3d 909b 05bd 32a9 10be
00000330: a46e 3d3e 6861 023e 5cc7 0ebe 7889 7a3d
00000340: 70a3 f5bd d2e2 0b3e 5a52 38be d00c 0f3e
00000350: 627e 523e 50b3 d23c 908f dc3d e6bc 5ebe
00000360: 9686 503e 8077 733c 3c70 873d b618 893e
00000370: ae50 43be 3880 003d 2cf0 853d 52f7 0a3e
00000380: 806b 663d 642a b83d 84c1 1ebe 2cc8 623e
00000390: 18ed 2e3e e653 b7bd 40a1 663e 288c a53d
000003a0: 2096 773e e889 843e 0250 60be 7ab3 8abe
000003b0: 4036 57be a8c8 14bd c110 73be 0012 d9bb
000003c0: 48c0 853e 5c20 1a3e 900d f03d 2e49 34be
000003d0: 7b77 85be 6654 09be 94ab 11be d89e 5e3d
000003e0: d6a2 80be f455 613e 30fc 853e 1020 be3d
000003f0: 9411 713e 4898 353d 102b 30bd 9472 573e

fc1.bias f4 [256]
-0.017974854 0.16743171 0.19414333 -0.08938652 0.26783317 0.2867539 0.10079366 -0.04327686
-0.08626521 0.076547086 -0.13659325 0.12825435 0.15858865 0.11986834 0.16835892 0.24816579
0.19351882 0.04645148 0.12435913 0.2671011 0.2229051 0.035918623 -0.1823979 0.04702297
-0.12791704 -0.03551644 -0.028890222 -0.17277843 -0.225627 0.19908705 0.19481969 -0.2838094
0.22536927 -0.06313461 -0.072538584 0.20480484 -0.060428485 -0.0056970716 -0.18433665 0.17100498
0.18116024 -0.17675993 0.14523911 -0.13488166 -0.10142909 0.13089147 0.012288302 -0.09543677
-0.15556909 0.28257024 0.092680305 -0.036907077 0.2586304 0.21827585 -0.20539574 -0.18123282
-0.1840558 0.12915838 -0.07335451 -0.035951942 -0.107015 -0.0264346 -0.18033597 0.13987175
-0.13579962 0.022557229 0.21102676 -0.053819284 -0.12292625 -0.28608918 0.14364916 0.05068201
0.2799123 0.022585958 0.00922513 -0.2791501 0.09957075 -0.04605952 -0.27174127 0.19771248
-0.27894542 -0.129153 -0.2320341 0.09746316 -0.007170737 0.14683193 0.2209261 0.2765832
-0.14258197 -0.19108815 0.26456857 -0.11837813 -0.111830145 0.23331285 -0.28137043 0.28120798
-0.21709925 -0.27807638 0.24210954 0.026427746 0.269305 0.14106765 0.2005566 -0.23006122
0.07294527 0.24659568 -0.26716498 -0.13828161 -0.22013807 0.16230267 -0.15919809 -0.106000796
0.2764042 -0.23005733 -0.2640223 -0.255681 -0.14143124 -0.043848604 -0.17785229 -0.13646345
-0.10152772 0.022031128 0.2565195 0.21767753 -0.10393496 0.28508765 -0.2310403 0.16331014
-0.26544356 0.16559574 -0.22025424 -0.1915232 -0.110543 0.05173382 -0.15032504 -0.2573241
-0.2525229 -0.06383109 0.044873625 -0.16400486 0.02318126 -0.18517184 -0.10493441 -0.004981935
0.13174516 0.07466254 -0.22117275 -0.19169226 -0.12588736 0.10591504 0.13763326 -0.03442481
-0.18349123 -0.02142623 0.0146589875 0.15531263 -0.06268118 0.123339534 0.0019640028 0.032909423
0.15533108 0.20458153 -0.077603176 -0.020537764 0.051356643 0.04666546 -0.21046439 -0.17042157
0.21237952 -0.28308865 0.18664292 0.19893241 0.10285109 0.21545702 -0.12131089 0.17482942
0.21425939 0.15400973 -0.21426374 0.106806904 0.15008974 -0.13859986 0.22630155 -0.10872741
0.2470349 -0.014102548 0.033844948 0.07100904 -0.056494907 0.06916168 -0.023973495 -0.15956518
-0.08295567 -0.16557103 0.02975589 -0.28519666 0.26552135 -0.002632022 -0.14185156 -0.16879228
0.0484986 0.26550424 0.26228034 0.18869275 0.19198191 0.24156576 -0.11541164 0.20516959
-0.12957136 0.042009503 -0.045781314 -0.10559076 0.04719311 0.12293893 -0.2686544 -0.051058546
-0.26626194 -0.06723715 -0.23047194 0.10266557 0.058370054 0.09621942 0.09584525 -0.26742226
-0.049668476 -0.025714219 -0.14913185 0.18656176 -0.1457085 -0.19308706 -0.026506424 0.00062164664
0.06321019 -0.021069199 0.06398401 -0.031858504 -0.24553317 0.07151535 0.15113533 0.2505535
0.27336746 -0.026129335 -0.041420773 -0.16606939 -0.04896626 0.20731935 0.12063229 0.035566658
0.12054092 0.22902209 0.16710842 -0.20397332 -0.27192774 0.10082546 0.19390172 -0.2522387
00000000: 0040 93bc 3873 2b3e 82cd 463e 4810 b7bd
00000010: 6e21 893e 68d1 923e e86c ce3d 1443 31bd
00000020: d0ab b0bd b8c4 9c3d 1adf 0bbe 1c55 033e
00000030: 1065 223e 887d f53d 4866 2c3e 2c1f 7e3e
00000040: cc29 463e e843 3e3d 00b0 fe3d 7ac1 883e
00000050: 3c41 643e 681f 133d 84c6 3abe 289b 403d
00000060: affc 02be b079 11bd 30ab ecbc d4ec 30be
00000070: c40a 67be 7add 4b3e d07e 473e 774f 91be
00000080: 34c7 663e b84c 81bd 1c8f 94bd 5cb8 513e
00000090: dc83 77bd 80ae babb bfc2 3cbe ee1b 2f3e
000000a0: 1282 393e 8e00 35be 90b9 143e 6b1e 0abe
000000b0: 0eba cfbd 6a08 063e e054 493c 5a74 c3bd
000000c0: 814d 1fbe 0cad 903e 2ccf bd3d e02b 17bd
000000d0: 346b 843e b483 5f3e 4353 52be 1995 39be
000000e0: 2079 3cbe 1842 043e e43a 96bd 5842 13bd
000000f0: ae2a dbbd 608d d8bc fea9 38be 8a3a 0f3e
00000100: 0e0f 0bbe f0c9 b83c 6617 583e 9c71 5cbd
00000110: c2c0 fbbd 487a 92be c418 133e f097 4f3d
00000120: aa50 8f3e 3006 b93c 0025 173c c3ec 8ebe
00000130: c0eb cb3d e8a8 3cbd ac21 8bbe 2475 4a3e
00000140: efd1 8ebe af40 04be 599a 6dbe c49a c73d
00000150: 80f8 eabb 1c5b 163e 743a 623e 509c 8d3e
00000160: 0201 12be 9dac 43be 8875 873e 3c70 f2bd
00000170: 3407 e5bd 90e9 6e3e c90f 90be 7efa 8f3e
00000180: 444f 5ebe 0760 8ebe 90eb 773e 007f d83c
00000190: 58e2 893e 0a74 103e b65e 4d3e 2b95 6bbe
000001a0: 5464 953d 9483 7c3e d9c9 88be b299 0dbe
000001b0: e06b 61be ac32 263e d304 23be f216 d9bd
000001c0: da84 8d3e 2694 6bbe ee2d 87be 9fe8 82be
000001d0: 5ad3 10be 989a 33bd e91e 36be 13bd 0bbe
000001e0: c4ed cfbd a07a b43c 8656 833e dce6 5e3e
000001f0: dadb d4bd 02f7 913e d495 6cbe c63a 273e
00000200: 38e8 87be ee91 293e 548a 61be a81e 44be
00000210: 5e64 e2bd d8e6 533d cfee 19be fcbf 83be
00000220: ae4a 81be e0b9 82bd 68cd 373d e4f0 27be
00000230: a0e6 bd3c b09d 3dbe dae7 d6bd 803f a3bb
00000240: 34e8 063e ace8 983d 1c7b 62be fa4a 44be
00000250: 9ee8 00be fce9 d83d bcef 0c3e 0801 0dbd
00000260: 20e5 3bbe 1086 afbc 402c 703c 460a 1f3e
00000270: fe5e 80bd 7099 fc3d 80b6 003b 08cc 063d
00000280: 1c0f 1f3e d27d 513e 6aee 9ebd d03e a8bc
00000290: 585b 523d 4824 3f3d fa83 57be fe82 2ebe
000002a0: 047a 593e fff0 90be 521f 3f3e f0b4 4b3e
000002b0: 98a3 d23d c4a0 5c3e d871 f8bd 7c06 333e
000002c0: d066 5b3e bab4 1d3e f467 5bbe 94bd da3d
000002d0: 20b1 193e 1fed 0dbe 98bb 673e 7aac debd
000002e0: b8f6 7c3e 600e 67bc 00a1 0a3d 306d 913d
000002f0: 3467 67bd a4a4 8d3d 1064 c4bc 0e65 23be
00000300: aae4 a9bd 748b 29be a0c2 f33c 4c05 92be
00000310: 6af2 873e 007e 2cbb 8941 11be e2d7 2cbe
00000320: 78a6 463d 2cf0 873e 9c49 863e ac38 413e
00000330: e896 443e 045d 773e f05c ecbd fa17 523e
00000340: 5bae 04be 2812 2c3d 3085 3bbd f83f d8bd
00000350: 904d 413d 68c7 fb3d 128d 89be c422 51bd
00000360: 7c53 88be a2b3 89bd d600 6cbe 5442 d23d
00000370: 7015 6f3d b00e c53d 844a c43d 92eb 88be
00000380: 2c71 4bbd a0a6 d2bc 05b6 18be 0c0a 3f3e
00000390: 9c34 15be 9db8 45be 0024 d9bc 00f6 223a
000003a0: 5874 813d 5099 acbc 0c0a 833d 107e 02bd
000003b0: 0c6d 7bbe a476 923d 38c3 1a3e 8c48 803e
000003c0: d2f6 8b3e 300d d6bc d4a8 29bd 180e 2abe
000003d0: d890 48bd 864b 543e 100e f73d 58ae 113d
000003e0: 28de f63d c484 6a3e 781e 2b3e 62de 50be
000003f0: 1d3a 8bbe 947d ce3d 2c8e 463e 6e25 81be

fc2.weight f4 [256, 256]
-0.048482142 -0.04399971 -0.04447887 -0.024530075 -0.039827876 0.05956015 -0.02708754 -0.0041255727
-0.022462934 -0.040440254 0.017933778 0.030203111 -0.054929577 0.017433703 0.03946746 0.024298996
0.053168282 -0.048952125 0.020472862 -0.062036276 0.019736648 -0.053348765 -0.0028687194 0.005914472
0.0041988716 0.057628132 -0.0017899424 -0.04950531 -0.012216136 0.055929594 -0.029340237 -0.020322777
-0.018285342 0.04500725 0.052242763 -0.024531126 -0.030637749 -0.05894438 0.032770544 -0.033878416
0.042983487 -0.042069323 -0.0052704588 -0.009766661 0.01996959 -0.024821699 0.04958812 0.0061435103
-0.037512265 -0.060164846 -0.011207022 0.00890892 -0.06206373 -0.035048455 0.040064648 0.039982647
0.049904913 0.020343795 -0.035294145 -0.0062530637 0.023593955 -0.032114312 -0.029192887 -0.037916988
-0.030357033 0.027442649 0.055419184 0.017408796 -0.037827797 -0.009690359 -0.061458886 0.011141285
0.052917823 -0.036553696 -0.061421514 -0.030805185 -0.04953041 -0.0049790666 -0.014809974 -0.036830172
-0.05193734 0.04339818 -0.013730876 0.041462153 0.058097444 0.0508646 -0.019690394 -0.04599502
-0.013141036 0.042126387 0.05555325 0.030337818 0.036873586 0.048034884 0.014458954 0.011380896
-0.055601 0.014020115 0.017420717 -0.030908152 0.02712284 -0.057510868 0.061805137 0.032405242
0.046574317 0.028539307 0.048949108 -0.04642097 -0.018890925 0.027874522 -0.05760079 0.0551024
0.042779356 -0.011621177 0.026590347 -0.028610572 -0.0007127151 -0.05252906 -0.019591734 -0.046767756
0.008225113 0.051514275 0.042616807 -0.0077215955 0.046697095 0.009114504 0.010325767 -0.034620017
0.05758188 -0.042715073 0.018604577 0.011993282 -0.009751499 -0.0077083856 -0.0012377724 0.051309943
0.007429689 -0.048817232 0.010582946 -0.04242284 0.031859778 -0.05665019 -0.008492872 0.0024146289
-0.047744386 -0.033502243 0.008892886 -0.026766218 -0.040131286 -0.046318486 -0.058527283 0.036069535
0.06014172 0.056026123 0.05225896 0.02868808 0.022143684 -0.013965078 0.028527893 -0.06105408
-0.04921274 0.0034682453 -3.7238002e-05 0.04794679 0.049429335 -0.0280364 -0.041325934 -0.014385439
-0.039436474 -0.023068368 0.05577237 0.004342474 -0.035982907 -0.049577124 0.045079872 -0.06076309
-0.061758585 0.055703074 -0.010017917 0.04193843 0.05917597 -0.024107873 -0.050137796 0.03761536
-0.05705124 -0.006034538 0.013639472 0.0046367124 0.0381807 0.059597597 -0.02006147 -0.030893363
-0.04320234 0.058727026 -0.057172284 0.043736048 0.035355933 -0.008027606 -0.059862524 0.011851557
0.00396654 -0.011325449 0.059019655 -0.042024843 0.043945707 0.05593454 -0.044105597 0.025549889
0.037288755 -0.020879805 0.008799851 -0.046387516 -0.021745339 -0.04635966 0.040978402 0.019012526
-0.031230919 0.051769443 -0.031189874 -0.03611747 0.0016102269 0.046877794 -0.062117808 -0.029743291
0.025546297 -0.025477901 -0.0619815 0.06087385 0.018578231 -0.025150806 -0.036318712 0.038681597
-0.013054438 -0.055417873 0.056271434 0.050888896 0.058186494 0.060013697 0.03987486 -0.056972586
-0.02355738 -0.04895448 0.049032442 0.047472887 -0.041825116 0.03677369 -0.058338523 -0.0128557235
0.058059797 0.024968222 0.03272775 -0.017099634 -0.010116406 -0.0043475777 -0.035455234 0.054195188
00000000: 3695 46bd 0a39 34bd 7a2f 36bd 4cf3 c8bc
00000010: 8e22 23bd 58f5 733d b0e6 ddbc d02f 87bb
00000020: 3004 b8bc aea4 25bd dce9 923c 846c f73c
00000030: d6fd 60bd 20d1 8e3c a2a8 213d b00e c73c
00000040: fcc6 593d 0682 48bd b4b6 a73c c019 7ebd
00000050: c0ae a13c 3c84 5abd 2001 3cbb 30ce c13b
00000060: b096 893b 7a0b 6c3d 809c eaba 14c6 4abd
00000070: 3026 48bc 6e16 653d f05a f0bc f47b a6bc
00000080: 24cb 95bc 8659 383d 82fc 553d 80f5 c8bc
00000090: 04fc fabc aa6f 71bd 683a 063d 18c4 0abd
000000a0: 740f 303d e250 2cbd d0b3 acbb 5804 20bc
000000b0: 4497 a33c e056 cbbc ea1c 4b3d 804f c93b
000000c0: 76a6 19bd 6a6f 76bd a89d 37bc b8f6 113c
000000d0: 8a36 7ebd f88e 0fbd d41a 243d d8c4 233d
000000e0: 1869 4c3d 08a8 a63c 9890 10bd 80e6 ccbb
000000f0: 1c48 c13c 4c8a 03bd ec25 efbc d84e 1bbd
00000100: 50af f8bc 68cf e03c 3aff 623d e49c 8e3c
00000110: 52f1 1abd 50c4 1ebc 50bc 7bbd f089 363c
00000120: 5cc0 583d 54b9 15bd 2095 7bbd 285b fcbc
00000130: 66e0 4abd 7027 a3bb 88a5 72bc 3cdb 16bd
00000140: 40bc 54bd 4ac2 313d 78f7 60bc 38d4 293d
00000150: 96f7 6d3d 6657 503d c04d a1bc 4665 3cbd
00000160: 804d 57bc b88c 2c3d ce8b 633d 0487 f83c
00000170: c208 173d 3ac0 443d 40e5 6c3c f076 3a3c
00000180: e0bd 63bd a0b4 653c e4b5 8e3c 1833 fdbc
00000190: b830 de3c 8490 6bbd 6227 7d3d 5cbb 043d
000001a0: b6c4 3e3d 44cb e93c dc7e 483d ea23 3ebd
000001b0: 24c1 9abc 1c59 e43c ceee 6bbd 0eb3 613d
000001c0: 6839 2f3d c066 3ebc 00d4 d93c b860 eabc
000001d0: 80d5 3aba b628 57bd d87e a0bc 8c8f 3fbd
000001e0: a0c2 063c a200 533d f68e 2e3d 7005 fdbb
000001f0: 7445 3f3d 0055 153c 682d 293c b8cd 0dbd
00000200: fada 6b3d 00f6 2ebd a068 983c 787f 443c
00000210: c0c4 1fbc a096 fcbb c03c a2ba 602a 523d
00000220: c074 f33b 94f4 47bd 1864 2d3c 92c3 2dbd
00000230: 667f 023d 080a 68bd b025 0bbc c03e 1e3b
00000240: 9e8f 43bd a639 09bd 78b3 113c d444 dbbc
00000250: b460 24bd 74b8 3dbd 4eba 6fbd a6bd 133d
00000260: 2a57 763d a67b 653d 7e0d 563d 4403 eb3c
00000270: ac66 b53c c8cd 64bc 54b3 e93c d813 7abd
00000280: 4c93 49bd 804b 633b 0030 1cb8 da63 443d
00000290: 6a76 4a3d 98ac e5bc 6245 29bd e8b0 6bbc
000002a0: 2488 21bd e0f9 bcbc 9271 643d 504b 8e3b
000002b0: d062 13bd 6211 4bbd aca5 383d b8e2 78bd
000002c0: 92f6 7cbd e828 643d 3022 24bc a2c7 2b3d
000002d0: 8062 723d e07d c5bc 4a5d 4dbd 9012 1a3d
000002e0: 90ae 69bd 60bd c5bb 1878 5f3c 90ef 973b
000002f0: 5e63 1c3d 9c1c 743d f457 a4bc 1414 fdbc
00000300: f0f4 30bd c08b 703d 7c2d 6abd 9224 333d
00000310: 62d1 103d 3886 03bc 6832 75bd 082d 423c
00000320: c0f9 813b 608e 39bc 98be 713d 3e22 2cbd
00000330: 6a00 343d 9e1b 653d 12a8 34bd 004e d13c
00000340: 18bc 183d 200c abbc 402d 103c d600 3ebd
00000350: 4823 b2bc a0e3 3dbd f8d8 273d 28c0 9b3c
00000360: fcd7 ffbc 320c 543d e881 ffbc eaef 13bd
00000370: 400e d33a ee02 403d 3e6f 7ebd 34a8 f3bc
00000380: 7846 d13c 08b7 d0bc 50e0 7dbd dc56 793d
00000390: 6031 983c 1009 cebc eec2 14bd 9870 1e3d
000003a0: 48e2 55bc dafd 62bd e07c 663d e070 503d
000003b0: f654 6e3d ecd0 753d d253 233d 165c 69bd
000003c0: 68fb c0bc 7e84 48bd 3ed6 483d ee72 423d
000003d0: d050 2bbd 02a0 163d 60f4 6ebd d0a0 52bc
000003e0: 1cd0 6d3d 288a cc3c 880d 063d 8814 8cbc
000003f0: 48bf 25bc 2076 8ebb 8239 11bd c6fb 5d3d

fc2.bias f4 [256]
0.050973684 0.026831023 0.0018262565 -0.027201407 0.03351284 0.028961733 -0.052768417 -0.008470245
-0.016760975 0.018212505 -0.04794862 -5.58421e-05 0.057066046 0.05451812 -0.041755192 -0.0050339475
0.007959381 0.02444762 0.032197624 0.01055555 -0.041104175 0.055980444 -0.041531146 0.04171881
-0.027536787 0.04036606 0.022804946 -0.016489454 0.036836036 0.017095365 0.06050647 0.03454881
-0.0341542 0.053968832 0.046078444 0.022467747 -0.032649674 -0.03815885 0.045603126 0.00511159
-0.028467923 -0.0010324493 -0.061572365 0.027162582 0.053375445 -0.023734324 -0.03237553 0.041874498
0.014378145 0.04516147 -0.048375197 -0.033106297 0.0043596774 0.0065334886 -0.014141962 -0.008131228
-0.006716296 -0.018700361 0.011152536 -0.01271008 0.04140652 0.0012263283 0.03677474 -0.0559118
0.04531058 -0.012071341 0.01535596 -0.048712693 0.010642797 -0.062232353 -0.026353307 -0.03551867
-0.05760292 -0.023407653 -0.056827046 -0.052836105 0.043993488 -0.059184834 0.05915332 0.049011633
-0.041481853 0.059987374 -0.00850939 -0.016653381 -0.0052862093 -0.018166192 -0.050005533 0.00218416
-0.03194461 0.03837575 -0.042038627 0.055523217 0.03654301 -0.039086707 -0.02202601 -0.015350372
-0.040650837 -0.051663548 -0.04471507 -0.037537657 0.05401104 0.020799994 0.05458284 -0.03636565
0.04712694 0.061139286 0.021921918 0.029320098 0.060246237 0.031106666 -0.006930709 0.040299706
0.01585862 -0.046769038 0.017337658 0.020478405 0.040763482 0.036582947 0.015516646 -0.03892996
-0.0356408 0.035816774 0.016582057 0.043692984 -0.020760164 0.017491743 -0.04043229 -0.033975326
-0.030832298 -0.033437304 0.014675826 -0.024820529 -0.04749441 -0.06111867 -0.058994234 0.03009469
0.05490885 -0.060111783 -0.02187223 0.036399424 -0.02480296 -0.013845503 0.007329911 0.023941427
0.01008971 -0.062272213 -0.020319946 -0.056379512 -0.055611745 0.044131547 -0.050940156 -0.036975503
-0.05692567 0.02153597 0.010759711 0.029762544 -0.02797307 -0.01750654 -0.03128814 0.05934062
0.054038674 0.05167841 0.02084522 -0.058468103 -0.061444335 0.037415944 0.060436726 -0.02688983
-0.022617131 0.01875139 -0.033301555 -0.0061796233 -0.007939532 0.04563085 -0.041420482 0.02333723
0.009508379 -0.047251277 -0.041703 -0.0389112 0.047995865 0.060049027 -0.04547196 -0.038494572
-0.0045061037 0.012515105 0.0067245364 -0.057399966 0.028708503 0.04795593 0.030573174 0.04823271
0.0029371679 -0.0101936385 0.014928736 -0.023488939 -0.051290266 0.04316239 0.0141810775 -0.00036256015
0.053376444 0.039943516 0.05290743 0.015360445 -0.0112513825 0.051700056 0.0066491812 0.055596046
-0.0012201965 0.010386333 0.030962355 0.007306032 -0.045297757 0.0009319857 -0.040385604 0.05560053
0.020785592 -0.03186567 0.04507213 -0.029260091 0.054851353 0.04996361 0.032699883 0.026092239
-0.014481626 -0.048166826 -0.050408147 -0.008152403 0.05457852 0.058065094 0.04996234 0.024812825
0.04301481 0.02039542 0.026967391 -0.060301363 0.024890773 0.006781757 0.017957754 -0.030267641
-0.046545982 0.016368397 0.010530457 -0.04064218 -0.03957647 0.0024427027 -0.0091009885 -0.018797137
-0.04015696 -0.007672131 -0.018773906 0.055018477 0.051959008 -0.05089868 0.00840652 0.023613654
00000000: c8c9 503d bccc db3c 005f ef3a 7cd5 debc
00000010: c244 093d 2841 ed3c b223 58bd c8c6 0abc
00000020: 504e 89bc 6432 953c c665 44bd 0038 6ab8
00000030: 16be 693d 644e 5f3d 7e07 2bbd d0f3 a4bb
00000040: 1068 023c 6046 c83c a8e1 033d 30f1 2c3c
00000050: da5c 28bd c04b 653d 901c 2abd 58e1 2a3d
00000060: d494 e1bc e256 253d 70d1 ba3c e414 87bc
00000070: 62e1 163d 940b 8c3c a2d5 773d 0e83 0d3d
00000080: 46e5 0bbd 6c0e 5d3d c0bc 3c3d 480e b83c
00000090: aabb 05bd 744c 1cbd 58ca 3a3d 207f a73b
000000a0: 9035 e9bc 4053 87ba 4e33 7cbd 1084 de3c
000000b0: 36a0 5a3d 7c6e c2bc 349c 04bd 9884 2b3d
000000c0: 5092 6b3c 3cfb 383d 1225 46bd 789a 07bd
000000d0: a0db 8e3b e016 d63b b0b3 67bc d838 05bc
000000e0: 6014 dcbb 8031 99bc 20b9 363c f03d 50bc
000000f0: e299 293d c0bc a03a 1ca1 163d c603 65bd
00000100: 9697 393d e0c6 45bc 9097 7b3c f686 47bd
00000110: 205f 2e3c 5ae7 7ebd e4e2 d7bc 067c 11bd
00000120: 0af1 6bbd 68c1 bfbc 7ac3 68bd ac6a 58bd
00000130: 8432 343d cc6b 72bd c04a 723d 6cc0 483d
00000140: e0e8 29bd 52b5 753d f86a 0bbc ac6c 88bc
00000150: f037 adbb 44d1 94bc 9ad2 4cbd 2024 0f3b
00000160: 5ad8 02bd e42f 1d3d b230 2cbd 506c 633d
00000170: 20ae 153d 6219 20bd e46f b4bc 2080 7bbc
00000180: 7e81 26bd 289d 53bd 2627 37bd 16c1 19bd
00000190: ae3a 5d3d c064 aa3c 4292 5f3d 26f4 14bd
000001a0: 2e08 413d 306d 7a3d 9895 b33c b430 f03c
000001b0: c2c4 763d 68d3 fe3c 001b e3bb 4e11 253d
000001c0: f0e9 813c e490 3fbd b407 8e3c 54c2 a73c
000001d0: 9cf7 263d 00d8 153d 8839 7e3c 0675 1fbd
000001e0: 16fc 11bd 9cb4 123d 18d7 873c 6af7 323d
000001f0: 3811 aabc d84a 8f3c 549c 25bd b629 0bbd
00000200: 0494 fcbc 8ef5 08bd e072 703c 6c54 cbbc
00000210: 8089 42bd 9257 7abd f0a3 71bd 2489 f63c
00000220: 1ae8 603d c637 76bd 642d b3bc 9017 153d
00000230: 942f cbbc 40d8 62bc c02f f03b d020 c43c
00000240: 504f 253c 2611 7fbd 0476 a6bc 34ee 66bd
00000250: 24c9 63bd 48c3 343d a0a6 50bd a073 17bd
00000260: e42a 69bd 346c b03c 8049 303c 94d0 f33c
00000270: c827 e5bc e069 8fbc fe27 00bd 260f 733d
00000280: a857 5d3d beac 533d 98c3 aa3c 407c 6fbd
00000290: 0ead 7bbd 7641 193d 808c 773d 1048 dcbc
000002a0: 9047 b9bc 849c 993c 3667 08bd 707e cabb
000002b0: d014 02bc 6ae7 3a3d 86a8 29bd b82d bf3c
000002c0: 08c9 1b3c 8e8a 41bd c4d0 2abd 5a61 1fbd
000002d0: 5097 443d f8f5 753d ce40 3abd 7cac 1dbd
000002e0: f0a7 93bb 280c 4d3c 8059 dc3b 3a1c 6bbd
000002f0: 182e eb3c 706d 443d 9874 fa3c aa8f 453d
00000300: 807d 403b 3803 27bc a897 743c e06b c0bc
00000310: be15 52bd 0ccb 303d c057 683c 0016 beb9
00000320: 42a1 5a3d d09b 233d 76b5 583d 60aa 7b3c
00000330: b857 38bc 70c3 533d 60e1 d93b aeb8 633d
00000340: 00ef 9fba 702b 2a3c c4a4 fd3c 7067 ef3b
00000350: 248a 39bd 8050 743a 606b 25bd 62bd 633d
00000360: 8c46 aa3c 9485 02bd 8e9d 383d dcb2 efbc
00000370: d0ab 603d a4a6 4c3d 50f0 053d 64bf d53c
00000380: 5844 6dbc 944a 45bd c678 4ebd a891 05bc
00000390: ba8d 5f3d aad5 6d3d 50a5 4c3d 4444 cb3c
000003a0: 4c30 303d 4c14 a73c b8ea dc3c 90fe 76bd
000003b0: bce7 cb3c 8039 de3b 241c 933c d8f3 f7bc
000003c0: 00a7 3ebd 0417 863c f087 2c3c 6a78 26bd
000003d0: f01a 22bd c015 203b 501c 15bc 74fc 99bc
000003e0: a07b 24bd 8066 fbbb bccb 99bc 0e5b 613d
000003f0: f8d2 543d 227b 50bd 80bb 093c 6c71 c13c

fc_mean.weight f4 [6, 256]
0.041195594 0.0116941035 -0.018541627 0.000747934 -0.013534471 -0.007694155 0.025734738 0.05360651
0.03623022 0.061289683 -0.038668476 0.061269723 -0.013751626 -0.03272848 0.015434146 0.032265536
-0.002846226 0.034703843 -0.009793669 0.00055290014 -0.005324468 -0.006652355 0.03749899 -0.06057199
-0.016320638 0.009060241 -0.014624722 -0.007918924 0.056247145 0.023352653 0.009520628 -0.052372195
0.050417848 -0.058031775 0.016325459 0.033763923 -0.00818152 -0.04201322 -0.02487278 0.060250245
0.062061734 -0.03715264 -0.047727562 -0.009641863 -0.0045636147 -0.055844285 -0.059457324 -0.056135036
-0.04155346 0.02869241 -0.002267629 0.03905034 0.036380142 0.048048906 0.006105788 -0.045023397
0.032317758 0.033554554 -0.035860263 0.01606255 0.036314107 0.035245262 0.029611938 -0.05347649
-0.037773885 -0.05134786 0.033591107 -0.01638905 -0.036022484 -0.0519455 0.039550595 -0.056690335
-0.053313516 0.05483058 -0.008439377 -0.027743168 -0.010411255 0.020567425 -0.0036232844 -0.037219673
0.0028557628 0.06013511 0.044927597 -0.025217414 -0.05208824 -0.015505716 0.052405186 -0.04837832
-0.0013021752 -0.049128704 0.020112582 0.04895427 -0.039430074 -0.05423361 0.01838354 -0.01189705
0.039457135 -0.057862185 0.026476637 -0.043483436 -0.03517648 0.008455925 -0.02463986 0.060602747
0.057745397 0.0619198 -0.023285486 0.05625418 0.031201482 -0.04437004 -0.05517806 -0.021513402
-0.0026133806 -0.041898474 -0.03983526 0.054188475 -0.052545868 0.04203149 -0.037159294 -0.04311572
0.044511028 -0.060714126 0.040575318 0.02023504 -0.03854277 -0.03650649 -0.033793077 -0.029767878
-0.042381875 0.004692726 -0.060374983 0.04574295 -0.035369128 -0.029720962 0.05290521 -0.04190191
0.038932934 0.054932244 0.030316979 -0.03312937 -0.03339558 -0.044592276 -0.045908436 -0.02487038
0.0042279214 -0.026705764 -0.026867114 0.04685992 -0.05710113 0.00083099306 -0.034251958 0.034379974
-0.015581168 0.060075194 -0.038315445 -0.03603617 0.008610427 0.03882321 -0.004495941 0.05676043
0.045833454 -0.01573886 0.03653814 -0.06061001 -0.023396127 0.017770976 -0.03604994 0.022401273
0.027047426 0.045037515 0.04453087 -0.027458385 0.009065449 0.023156337 0.062347107 -0.009659499
-0.02465503 -0.013978474 -0.011451155 -0.04897932 -0.04451417 0.038279355 0.015309952 0.01804506
0.045261264 -0.056536756 -0.06154292 -0.019857861 -0.045828886 -0.00853093 -0.014836505 0.028780542
-0.037047267 -0.007184617 -0.005055912 0.016134843 -0.050859787 -0.009809963 0.018915594 0.017192833
-0.04157702 0.0030502304 0.0485055 -0.029752314 -0.015258051 -0.04225795 0.057301566 0.041300043
-0.004737541 -0.054133005 -0.028282508 0.0497903 0.03167791 0.019412793 0.0030044988 -0.024112575
0.02379021 -0.047916323 -0.0481556 -0.023350984 -0.0011725426 0.020312414 0.059552237 0.050896302
0.030068822 -0.028519407 0.022735633 -0.061077215 0.0541813 -0.0047234893 -0.0038660392 0.008405499
0.010705315 -0.058386035 0.020655975 -0.015213922 0.0040246174 -0.007536769 0.06217344 -0.041936547
-0.024195604 0.018737689 0.015375368 0.02291409 -0.046660975 -0.049788795 -0.013234571 0.028509632
0.00090636313 -0.03397336 -0.05616992 0.05437717 0.041771285 0.056787297 0.037997276 -0.005613461
00000000: b6bc 283d a098 3f3c 9ce4 97bc 0011 443a
00000010: b0bf 5dbc 401f fcbb a8d1 d23c 8092 5b3d
00000020: 2466 143d e40a 7b3d d662 1ebd f6f5 7a3d
00000030: 804e 61bc 4c0e 06bd 80df 7c3c de28 043d
00000040: c087 3abb 9e25 0e3d a075 20bc 80f0 103a
00000050: e078 aebb 00fc d9bb 8a98 193d 561a 78bd
00000060: dcb2 85bc 6871 143c 889c 6fbc 60be 01bc
00000070: 6863 663d 104e bf3c 68fc 1b3c 3a84 56bd
00000080: f282 4e3d bab2 6dbd f8bc 853c 0a4c 0a3d
00000090: c80b 06bc 0e16 2cbd 00c2 cbbc f6c8 763d
000000a0: 7234 7e3d 5e2d 18bd fa7d 43bd e8f8 1dbc
000000b0: 608a 95bb fabc 64bd 8689 73bd daed 65bd
000000c0: f633 2abd 580c eb3c 809c 14bb 40f3 1f3d
000000d0: 5803 153d eece 443d 1013 c83b 746a 38bd
000000e0: a05f 043d 8070 093d 36e2 12bd 9c95 833c
000000f0: 1abe 143d 565d 103d bc94 f23c 2a0a 5bbd
00000100: cab8 1abd 2252 52bd d496 093d 5442 86bc
00000110: 508c 13bd cec4 54bd ceff 213d 2034 68bd
00000120: 465f 5abd 0896 603d 5045 0abc a445 e3bc
00000130: f893 2abc 047d a83c a074 6dbb a873 18bd
00000140: c027 3b3b 3c50 763d 0006 383d c094 cebc
00000150: 7a5a 55bd b00b 7ebc d2a6 563d 5828 46bd
00000160: c0ad aaba 2e3b 49bd 24c3 a43c 4684 483d
00000170: 6e81 21bd 1024 5ebd 1499 963c d8eb 42bc
00000180: ce9d 213d e600 6dbd 88e5 d83c b01b 32bd
00000190: 3615 10bd b88a 0a3c 88d9 c9bc 963a 783d
000001a0: 7086 6c3d 9e9f 7d3d 34c1 bebc c86a 663d
000001b0: 409a ff3c 5cbd 35bd 6402 62bd e03c b0bc
000001c0: 4045 2bbb bc9d 2bbd 4c2a 23bd bcf4 5d3d
000001d0: 563a 57bd 3629 2c3d 5834 18bd 1c9a 30bd
000001e0: 3251 363d 60af 78bd 4e32 263d f4c3 a53c
000001f0: 06df 1dbd d487 15bd 9c6a 0abd c4db f3bc
00000200: 9e98 2dbd 70c5 993b c24b 77bd f65c 3b3d
00000210: 38df 10bd 6079 f3bc 22b3 583d 56a1 2bbd
00000220: 2478 1f3d a200 613d 505b f83c aab2 07bd
00000230: cec9 08bd 64a6 36bd 7c0a 3cbd f8bc cbbc
00000240: 608a 8a3b 0cc6 dabc 6c18 dcbc 30f0 3f3d
00000250: e0e2 69bd 00d7 593a c84b 0cbd 04d2 0c3d
00000260: 2848 7fbc 6811 763d a8f0 1cbd aa9a 13bd
00000270: c012 0d3c 1605 1f3d b052 93bb a07d 683d
00000280: dcbb 3b3d c8ee 80bc 04a9 153d 3442 78bd
00000290: 3ca9 bfbc 7094 913c 1aa9 13bd e082 b73c
000002a0: 9092 dd3c 4279 383d 0066 363d 68f0 e0bc
000002b0: 4087 143c 5cb2 bd3c ae5f 7f3d e042 1ebc
000002c0: 58f9 c9bc f805 65bc a09d 3bbc 8a9e 48bd
000002d0: 7e54 36bd d0ca 1c3d 98d6 7a3c 3cd3 933c
000002e0: e063 393d 1693 67bd 6e14 7cbd f4ac a2bc
000002f0: 12b7 3bbd 50c5 0bbc d014 73bc 2cc5 eb3c
00000300: e0be 17bd f06c ebbb 10ac a5bb 382d 843c
00000310: 5a52 50bd f8b9 20bc e0f4 9a3c fcd7 8c3c
00000320: aa4c 2abd 60e6 473b b4ad 463d 20bb f3bc
00000330: e8fc 79bc ac16 2dbd 0cb5 6a3d 3c2a 293d
00000340: 603d 9bbb 92ba 5dbd b8b0 e7bc eaf0 4b3d
00000350: b2c0 013d 9407 9f3c 20e7 443b bc87 c5bc
00000360: b0e3 c23c e843 44bd ce3e 45bd 904a bfbc
00000370: 00b0 99ba 3866 a63c 0ced 733d a478 503d
00000380: e452 f63c 88a1 e9bc 1440 ba3c 1a2c 7abd
00000390: 36ed 5d3d 80c7 9abb 605d 7dbb 38b7 093c
000003a0: 5865 2f3c 3226 6fbd b836 a93c d043 79bc
000003b0: f0e0 833b 00f7 f6bb 94a9 7e3d a8c5 2bbd
000003c0: dc35 c6bc c87f 993c f8e8 7b3c 54b6 bb3c
000003d0: 941f 3fbd 56ef 4bbd d0d5 58bc 088d e93c
000003e0: 0099 6d3a a627 0bbd 6e12 66bd 98ba 5e3d
000003f0: 5e18 2b3d cc99 683d 08a3 1b3d 20f1 b7bb

fc_mean.bias f4 [6]
-0.009692922 0.0009037107 0.00023619086 -0.020645216 -0.0243522 0.049080357
00000000: 10cf 1ebc 00e7 6c3a 00aa 7739 2820 a9bc
00000010: 447e c7bc 7c08 493d

fc_log_std.weight f4 [6, 256]
-0.030693963 -0.058984876 0.060593672 0.036159962 0.019626826 -0.05878681 0.007881127 0.054696098
-0.05135507 0.029334255 -0.048327215 -0.05182869 0.008591391 -0.061917044 0.052583605 0.035427943
-0.005300887 0.05379595 -0.004553102 0.029203884 0.024971962 0.019361421 0.007892512 -0.016347334
-0.044328324 -0.042390436 -0.023295224 -0.030583024 -0.012163565 -0.009619579 -0.023098953 -0.01020658
-0.04436995 -0.027886495 -0.01051563 -0.042203136 -0.009507291 0.019148767 0.048268028 -0.033568144
0.04366088 -0.023495935 0.010666929 0.04116822 0.00864464 0.05124434 0.06096866 0.040972263
0.046344027 0.03050673 -0.056388415 0.049685113 0.012868874 0.060967974 -0.0028360635 0.019355096
0.016032778 -0.034266993 0.024702966 -0.030008525 0.013570607 0.045990624 -0.026363924 0.05361092
-0.060928985 -0.030279897 0.030610591 -0.05300311 -0.048039474 -0.056955762 0.019594781 -0.046999373
0.0024910644 -0.018112905 0.0324393 0.053926803 -0.034314796 0.045545526 0.0001745969 -0.011267386
-0.049036674 -0.029303834 -0.034940124 -0.04500162 -0.038377486 -0.036863334 0.02848503 0.02657026
-0.033937424 0.048533455 0.038182832 -0.04280694 0.02792196 0.061931252 -0.05886545 0.012713365
0.056554846 -0.0037496388 -0.04672052 -0.0097268075 0.040647738 0.05202336 0.022329003 -0.00048977137
0.018686853 0.0011717305 0.039761357 -0.0068043917 0.045484908 -0.012208462 -0.0028691366 -0.020598128
0.05825282 0.056395806 -0.046700962 -0.034137413 -0.048982784 0.01889491 -0.038190022 0.05286789
0.009601429 -0.025061488 -0.019625753 0.008551054 -0.002222836 -0.032078117 -0.00052235276 0.050209343
-0.04360018 -0.05038338 -0.057581924 -0.05151613 0.016415693 0.010942496 0.003718488 -0.042936318
0.051651575 -0.042686336 -0.05193448 0.020504288 -0.04680606 0.03692504 -0.008127943 0.014880024
0.0058410615 -0.0069661513 -0.060916238 0.0059573576 0.040324055 -0.04207833 0.00078751147 -0.0121447
0.042381793 -0.059136905 0.03769599 0.048271894 0.04601577 0.05901335 -0.049250662 -0.058016255
0.0050187707 -0.060434654 -0.027651802 0.044356957 0.05046002 -0.006428413 0.010635056 -0.04647308
-0.05357095 -0.011347882 -0.048290372 -0.015341967 -0.046740673 -0.05009026 0.04280459 -0.032464683
-0.061326824 0.034220293 -0.041821294 -0.039914213 0.058112793 -0.013216004 0.014619909 0.028957956
0.05979053 -0.008119173 -0.055101402 -0.021585561 -0.036902383 -0.00753168 -0.013013013 -0.026537567
0.059999786 -0.05090961 0.024119318 -0.037178345 0.031106979 -0.034724213 0.029744774 -0.009118684
0.04612229 0.05212065 -0.05540041 0.021768197 -0.016618572 -0.053861573 0.02639991 -0.047563203
-0.02498851 -0.02144438 -0.056316994 -0.03449674 0.052044064 -0.013914295 -0.0092226565 0.007625401
-0.0564142 -0.058638997 -0.050931506 0.03603811 -0.039169036 -0.05676058 -0.0071993396 -0.060918264
-0.008617967 -0.058480516 0.015541628 0.009622388 0.05685301 0.034619145 -0.0277289 -0.060148366
-0.042583697 0.028471917 0.037864774 0.028174773 0.057208173 0.026509345 -0.00390929 0.004480846
0.05320777 0.056212634 -0.049460694 -0.03452889 -0.004988268 0.024054706 0.002723679 0.00427296
-0.040305145 0.0041873083 -0.054912165 0.030491993 0.054730892 0.016090639 -0.038281932 0.053693384
00000000: e871 fbbc 209a 71bd 1231 783d 781c 143d
00000010: 70c8 a03c 70ca 70bd d81f 013c 0409 603d
00000020: b259 52bd 644e f03c c2f2 45bd 524a 54bd
00000030: e8c2 0c3c ba9c 7dbd e861 573d e41c 113d
00000040: 10b3 adbb 2459 5c3d 3032 95bb fc3c ef3c
00000050: 0092 cc3c d89b 9e3c 984f 013c d8ea 85bc
00000060: 9e91 35bd 98a1 2dbd a0d5 bebc 4089 fabc
00000070: b049 47bc 709b 1dbc 043a bdbc 8039 27bc
00000080: 44bd 35bd 3872 e4bc c049 2cbc 32dd 2cbd
00000090: 78c4 1bbc e0dd 9c3c b2b4 453d c07e 09bd
000000a0: c0d5 323d 8c7a c0bc 58c4 2e3c 02a0 283d
000000b0: 40a2 0d3c 96e5 513d 46ba 793d 88d2 273d
000000c0: 3cd3 3d3d 40e9 f93c 8af7 66bd 9e82 4b3d
000000d0: f8d7 523c 8eb9 793d 40dd 39bb 948e 9e3c
000000e0: 2c57 833c 8c5b 0cbd e05d ca3c 70d4 f5bc
000000f0: 4057 5e3c aa60 3c3d 28f9 d7bc 2097 5b3d
00000100: ac90 79bd 8c0d f8bc 10c3 fa3c ca19 59bd
00000110: 0ac5 44bd 724a 69bd 3c85 a03c 6a82 40bd
00000120: 2041 233b 8461 94bc 12df 043d 5ae2 5c3d
00000130: ac8d 0cbd f28d 3a3d 0014 3739 d89a 38bc
00000140: aeda 48bd 980e f0bc 601d 0fbd 9e53 38bd
00000150: b631 1dbd 02fe 16bd 7059 e93c e0a9 d93c
00000160: f801 0bbd 04cb 463d 9a65 1c3d 5456 2fbd
00000170: 98bc e43c a0ab 7d3d e61c 71bd b84b 503c
00000180: 0ea6 673d 80bc 75bb 045e 3fbd 305d 1fbc
00000190: 3e7e 263d 7216 553d 50eb b63c 0064 00ba
000001a0: 2c15 993c c094 993a cedc 223d 60f7 debb
000001b0: 624e 3a3d 0006 48bc 2008 3cbb 68bd a8bc
000001c0: 829a 6e3d 4aff 663d 8249 3fbd acd3 0bbd
000001d0: 2ca2 48bd 80c9 9a3c 246d 1cbd 008c 583d
000001e0: 504f 1d3c c04d cdbc 30c6 a0bc b819 0c3c
000001f0: 00ad 11bb 5864 03bd 80ee 08ba 50a8 4d3d
00000200: 1a96 32bd ce5e 4ebd 06db 6bbd 9402 53bd
00000210: 347a 863c 2848 333c e0b1 733b fedd 2fbd
00000220: 9a90 533d ded7 2ebd 40b9 54bd 9cf8 a73c
00000230: b6b7 3fbd b63e 173d 102b 05bc 58cb 733c
00000240: 6066 bf3b 5044 e4bb 4e83 79bd f035 c33b
00000250: d62a 253d 545a 2cbd 0071 4e3a 90fa 46bc
00000260: 8898 2d3d 8a39 72bd 1c67 1a3d c0b8 453d
00000270: 087b 3c3d fcb7 713d 10bb 49bd 74a2 6dbd
00000280: 8074 a43b 548a 77bd 0886 e2bc a4af 353d
00000290: 2aaf 4e3d 70a5 d2bb a83e 2e3c 8e5a 3ebd
000002a0: 366d 5bbd 78ec 39bc 20cc 45bd e05c 7bbc
000002b0: 2673 3fbd 722b 4dbd de53 2f3d b0f9 04bd
000002c0: d631 7bbd 942a 0c3d ce4c 2bbd 167d 23bd
000002d0: ae07 6e3d f087 58bc 5888 6f3c 3c39 ed3c
000002e0: eae6 743d 4806 05bc 02b2 61bd 34d4 b0bc
000002f0: f426 17bd 50cc f6bb 8834 55bc 5065 d9bc
00000300: 56c2 753d 9886 50bd e095 c53c 5248 18bd
00000310: 10d4 fe3c fa3a 0ebd 50ab f33c 8866 15bc
00000320: baea 3c3d 767c 553d 8aeb 62bd 3853 b23c
00000330: ac23 88bc f49d 5cbd a044 d83c a2d1 42bd
00000340: b4b4 ccbc 20ac afbc a6ac 66bd 744c 0dbd
00000350: 282c 553d c8f8 63bc a01a 17bc 80de f93b
00000360: 9412 67bd 722f 70bd 8e9d 50bd b29c 133d
00000370: b66f 20bd c87d 68bd 70e8 ebbb 6e85 79bd
00000380: 6032 0dbc 4489 6fbd 50a2 7e3c 38a7 1d3c
00000390: b4de 683d cecc 0d3d b827 e3bc 225e 76bd
000003a0: 3e6c 2ebd f03d e93c 1818 1b3d c8ce e63c
000003b0: 1e53 6a3d 202a d93c 8019 80bb 10d4 923b
000003c0: 64f0 593d 383f 663d 4c97 4abd 2a6e 0dbd
000003d0: a074 a3bb 600e c53c c07f 323b 3004 8c3b
000003e0: 0217 25bd b035 893b 94eb 60bd 58ca f93c
000003f0: 802d 603d 84d0 833c 84cd 1cbd 98ed 5b3d

fc_log_std.bias f4 [6]
-0.018843532 0.024584897 0.0031026825 -0.03135565 -0.03065259 -0.041079797
00000000: c05d 9abc 4466 c93c 6056 4b3b c86e 00bd
00000010: 241b fbbc 4a43 28bd
