output_lxl/MASAC/weight/actor_agent_0_ep_9800.pth (torch, 292136 bytes, 8 tensors)

fc1.weight f4 [256, 12]
00000000: cc40 4abe b4ba 7b3e d64f 70be 2851 4e3e
00000010: c40a 5bbe 125b 0a3e 780e 373d b8ae c13d
00000020: c072 95bc 8005 7cbe 44ce 733e c8f7 2e3d
00000030: 6281 cdbd 7468 4dbd bc7c 883e f259 42be
00000040: 5c7e 27be 4cfc 603e 9050 70bd 8210 3abe
00000050: 3620 923e 2ed1 e2bd 20e3 c83d b8e7 4dbd
00000060: 265d 36be d898 5bbd cce7 193e 108e 84be
00000070: f19d 89be d08e cbbc 929b 863e 8679 8abd
00000080: 3704 04be a46d 733e 0690 bbbd 9ce3 7e3e
00000090: 5cad 33be 58e0 88be e025 053c d57d 81be
000000a0: e8f7 22bd e6b3 fcbd e290 81bd 4aa9 b1bd
000000b0: 5860 283d f0cd 6b3e a200 e9bd 88f5 603d
000000c0: b401 443e ac3b d7bd 0894 2dbe 4c42 5c3e
000000d0: acfc 2abd 38d0 5a3e c8e1 80be 21b5 92be
000000e0: eca0 f23d 9687 23be 3ee1 8f3e b41d 2ebe
000000f0: 706f be3c 04ed 5b3e 6ef8 babd 6c4c 4c3e
00000100: 2ce7 c93d c019 0abc 73b0 52be 0ce1 8b3e
00000110: c805 3dbe dcdc e6bd 7041 233d a0c5 813e
00000120: 542f cc3d 450f 47be 6cc3 8d3d 201a 6f3d
00000130: f0e2 8d3c fd28 06be 1a7a 0e3e d46e de3d
00000140: a0f6 6cbd dae1 b4bd b22b 233e 3082 bfbd
00000150: 220d 30be dedb 393e a051 b43d 64d5 a1bd
00000160: 1ca6 7a3e 0c2a 323e c49f a43d 5859 513e
00000170: f68f 493e 90a0 433d 46b6 4b3e f6b4 2bbe
00000180: 3826 53be 98e9 5d3d 6cea c03d f829 633e
00000190: b56d 4cbe d8be 9f3d 4067 39bc aa95 8d3e
000001a0: 8eb5 493e 6666 213e 3ad6 453e 98b8 6f3d
000001b0: f877 663e c01f 8e3b 087b 883d 0667 51be
000001c0: 8a1d 4b3e 118c 86be b082 ee3d e061 4cbc
000001d0: a4c5 723e d701 86be 78d8 313e c40e 13be
000001e0: 4cc3 30be 00c5 0ebc c23d 80be 50c2 813d
000001f0: b01e d53c 341d bcbd 80ca f7bd 1246 02be
00000200: 68ac 4c3d bb07 86be 68fb ed3d dc94 91bd
00000210: 9249 65be 5a1e 193e 8686 94bd 042e bb3d
00000220: 3071 773d 5b7e 1fbe bc81 ac3d 4e77 493e
00000230: ff72 5dbe a453 9a3d dcab dd3d d0db 2ebd
00000240: 906a 69be 1efd 98bd b3cc 0cbe 629e b9bd
00000250: f4a3 9abd 9a88 82bd 2e73 44be 44da a6bd
00000260: e03b 6fbd a0eb 063d 76b6 233e dc8d 8dbd
00000270: 00c7 003e 4e2d 3a3e 84e8 6fbe 4089 1ebc
00000280: 1422 2abe 02ab 2dbe 28fc 6dbe 9a67 843e
00000290: 98b0 8dbe 1efc 4ebe 1aef 833e 06e8 59be
000002a0: 3ee5 7bbe 8aca 373e 2686 5bbe 4002 c63d
000002b0: c24a 1c3e 88b8 823e bcf4 683e a694 f9bd
000002c0: e2b9 0dbe 24d4 6d3e 2878 543e 24db 8abe
000002d0: d85a e9bd 9c3a d1bd 34c6 5fbd 0054 69bb
000002e0: 384a 923e ae5f 1d3e 2088 953c 9c49 c43d
000002f0: 40f7 16bc be11 85be c8be 1abd da66 833e
00000300: 74ab 813e 3690 323e 9458 4dbe 76c7 d6bd
00000310: 84ec 96bd e94c 1ebe 7225 523e 58a1 e13d
00000320: 440b f03d 0278 073e fad7 1abe 4cdf 813e
00000330: 8a77 19be 16a4 abbd 64f3 6e3e 01a7 82be
00000340: b19d 4dbe 5ab3 1ebe 606c 3f3c 783a 253d
00000350: 970e 7fbe c84a 553e 78c1 0dbd b8e9 193e
00000360: b2e1 833e f00b 203d 5e22 79be 0568 14be
00000370: dc01 8ebe 3251 bdbd 1034 f5bc 2cbc 8bbe
00000380: 6c7d 163e 406b b6bd ac25 37bd 92c3 90bd
00000390: c05a 653c 0eaa a3bd f4ca 7abe 30e6 703e
000003a0: 30aa 043e 521a 493e 3ed5 843e c830 12bd
000003b0: 5c8b 813e c8cd bb3d e41f 87be 24b0 f13d
000003c0: f84f 663e 58bc b23d dc6c 1b3e 5aaa 93bd
000003d0: 0dd9 90be 280d 69be 2b3a 8bbe 6940 91be
000003e0: 28f1 783d 828c 143e 9060 773d f0f0 a13d
000003f0: 3c66 babd 2cda 823e c0de a1bb 009e d23d
-0.1975128 0.2458294 -0.23467955 0.20148146 -0.21390826 0.13511303 0.044691533 0.09457153
-0.018243194 -0.24611473 0.23809153 0.04271677 -0.100344434 -0.050148442 0.26657665 -0.18979624
-0.16356796 0.21971244 -0.05867058 -0.1817036 0.285402 -0.11075054 0.09808946 -0.050269812
-0.17808971 -0.05361256 0.1502983 -0.25889635 -0.26878312 -0.024848372 0.26290566 -0.0676146
-0.12892233 0.23772293 -0.0915833 0.24891514 -0.175466 -0.2673366 0.008126706 -0.25291315
-0.039787203 -0.123390004 -0.06326462 -0.086748675 0.041107506 0.23027778 -0.11377074 0.054921657
0.19141275 -0.105094284 -0.16951 0.21509665 -0.041744873 0.21368492 -0.25172257 -0.28653815
0.118471 -0.1596969 0.28101534 -0.17003518 0.023246497 0.21477133 -0.091294155 0.19951028
0.09858546 -0.008428991 -0.20575123 0.27320135 -0.18459237 -0.11272594 0.039857328 0.25346088
0.099699646 -0.19439419 0.069220394 0.058374524 0.017320126 -0.13101573 0.13913766 0.108609825
-0.057852387 -0.0883214 0.15934637 -0.09351003 -0.1719251 0.18150279 0.08804631 -0.07902029
0.24477428 0.17398852 0.080382854 0.20444238 0.19683823 0.047760546 0.1989375 -0.1676825
-0.20620048 0.05417785 0.094197124 0.22183979 -0.19963725 0.078000724 -0.011316121 0.27653247
0.19698164 0.15761718 0.19320002 0.05852565 0.22506702 0.004337281 0.06664091 -0.20449457
0.19835487 -0.26278737 0.116460204 -0.012474507 0.23708206 -0.2617328 0.17367733 -0.14361101
-0.17262 -0.008713961 -0.25047117 0.0633589 0.02601561 -0.091852576 -0.12099171 -0.12722042
0.049969107 -0.26177773 0.116202176 -0.07108471 -0.22391346 0.14952984 -0.07252221 0.09139636
0.06041068 -0.15575545 0.08423182 0.19674417 -0.21625899 0.075354844 0.10823795 -0.0426901
-0.22794557 -0.07470153 -0.13749962 -0.09063412 -0.07550803 -0.06373711 -0.19184563 -0.081470996
-0.05840671 0.032939553 0.15987572 -0.06911823 0.12575912 0.18181345 -0.23428541 -0.009676278
-0.16614562 -0.16959766 -0.23240721 0.25860292 -0.27673793 -0.20213363 0.25768358 -0.21279916
-0.24599168 0.17948356 -0.21437892 0.09668398 0.15262893 0.2553141 0.22749609 -0.121865556
-0.1384044 0.23225456 0.20748961 -0.27120316 -0.1139428 -0.10216257 -0.05463238 -0.0035603046
0.2857225 0.1536853 0.018253386 0.095843524 -0.009214222 -0.259901 -0.0377796 0.25664407
0.2532612 0.17437825 -0.20053321 -0.10487263 -0.073693305 -0.15459026 0.20522097 0.11017102
0.11720899 0.13229373 -0.15121451 0.25365674 -0.14987007 -0.08380906 0.23335034 -0.2551804
-0.20079686 -0.15498105 0.011683553 0.040338963 -0.2490791 0.20829308 -0.034608334 0.15030563
0.2575813 0.039073884 -0.24329516 -0.14492805 -0.27735794 -0.092440024 -0.029932052 -0.27292
0.14696282 -0.08907175 -0.04471366 -0.07068552 0.013998687 -0.0799142 -0.24491483 0.2352531
0.12955546 0.19638947 0.2594394 -0.035691053 0.25301635 0.09170109 -0.26391518 0.11801174
0.22491443 0.0872733 0.15178245 -0.07210226 -0.28290597 -0.22758925 -0.27192816 -0.28369454
0.06077686 0.14506724 0.060394824 0.07907283 -0.09101531 0.25557077 -0.004939884 0.10284042

fc1.bias f4 [256]
00000000: 74fe 5d3e 9865 f93d 5675 eabd 92b6 8b3e
00000010: e4b9 7dbd ceb1 4d3e 4c4a bf3d 200a d53d
00000020: 8abd 5dbe 7665 61be d2ee 3a3e 74bb 593e
00000030: c0d8 ebbc 30c5 0b3d 8490 57bd be54 ffbd
00000040: 1a83 2fbe 9cab e73d 2c76 3b3e 8088 25bb
00000050: 6151 57be 7896 583e 6e89 8d3e 2853 903e
00000060: cc2d 6d3e 8a63 e7bd 28f6 f33d b073 f0bc
00000070: 4043 9dbd dcc9 67bd 16bf cbbd 60b7 803e
00000080: 3c9f 4f3e 9850 06bd 80a3 82bd 38f7 cf3d
00000090: 851b 11be d8a3 1d3d ccea fd3d 6068 0a3d
000000a0: 66ee 8fbe 4a52 aabd d93c 91be a839 633d
000000b0: ecd9 5d3e ced0 97bd c4b4 58be 1687 2b3e
000000c0: beea 873e b289 53be d46b f93d 3057 46be
000000d0: 325b 5cbe 60e4 8c3d a8ea 17be 00ec 713d
000000e0: a1ea 23be b670 cdbd d8d2 983d 2886 823e
000000f0: 1064 fb3d a847 1e3e dc70 9abd ee01 0e3e
00000100: 0ab2 383e 84c3 013e c5a1 68be fea4 12be
00000110: 52ff 2e3e da8c 913e 501b 83be 829b 193e
00000120: 708a bb3d dcae 91be 6ed1 403e d02b 8cbc
00000130: 4e55 28be 97c0 14be d4a6 3dbd 9eed 59be
00000140: ea84 833e c43c 6ebe 6ae8 91be 14fd 83bd
00000150: ac82 3fbd 30f3 dd3d 2413 6abd 22da 41be
00000160: 0456 353e f2a5 26be 3035 313d 50e7 563d
00000170: b83e ca3d e26e 79be e499 f0bd 7b29 4cbe
00000180: d079 9f3d 39d3 01be 840b 7c3e 426f 1bbe
00000190: 84c3 7f3e 06f0 223e 7e5a 4bbe 5898 46be
000001a0: 6a51 8f3e 1a66 843e a4d8 703e bc82 5b3e
000001b0: becc 8dbe 04d0 693e 409b 6e3d 9ad8 383e
000001c0: c080 d33b f9cf 65be e2b5 053e 780c 613e
000001d0: 00b6 a03d 8098 243e 6131 93be f056 dbbd
000001e0: 0179 85be 3a3a cdbd f0c1 913c 7082 7d3d
000001f0: 4a61 eebd 5795 11be a211 503e 66a8 66be
00000200: 453f 90be b663 8a3e 7047 e8bc c802 723e
00000210: 7bfc 15be 61dd 88be 5458 84be 5ac6 233e
00000220: ad39 88be ca32 863e ace7 793e b8c3 20be
00000230: f5e9 6abe 464b 373e 1913 8bbe 441d 763e
00000240: e8e4 793d 8443 0e3e 4d5d 37be e0c5 793e
00000250: 24be 3fbd e016 073d 6052 813c 1c08 bcbd
00000260: bebd 82be 841e e73d 2e02 8a3e f21e 203e
00000270: ba36 87be ea99 123e b070 013d deb3 2ebe
00000280: 3c23 5ebe b242 71be 1000 483e 900e 163d
00000290: 4449 123e 449f 8abe 3d11 09be 0d83 7dbe
000002a0: b6e1 2bbe 9c7d 743e 1a37 24be 98da c0bd
000002b0: 53f6 91be 8aaf 30be b5f8 85be ec37 8a3e
000002c0: 5084 b3bc 589e 503e a44f 7a3e fc89 6abe
000002d0: 287c 673d a0ab 84bd 86e3 87be 108e 07be
000002e0: 6e52 373e f4ad c73d 1032 8e3e a042 a73d
000002f0: 4018 efbc 78ec cc3d 9c3e 5cbe 20d3 3f3d
00000300: 38d7 8d3d ec4f 8f3e a51a 38be 80ac adbc
00000310: 00ba 9c3c 5874 583e fc03 643e f0f5 ed3c
00000320: 6239 84be 2882 553d b491 a63d c0d3 8a3c
00000330: 1e6f 8a3e c014 603c cac7 8ebe 1278 0bbe
00000340: f049 9b3d 70b8 633e 14ac 1bbe b0ca d8bc
00000350: 4d91 6cbe c042 b03c 1497 23bd 0218 85be
00000360: b86b 683e ca6c c1bd e0e2 7b3d cc81 ff3d
00000370: 001a 5ebc 4e90 9dbd 42a3 443e cc86 38be
00000380: 8eea 223e 36e1 063e 4620 1dbe 16e2 3f3e
00000390: f065 d8bc e0e6 34bc 22a1 23be 3008 7b3e
000003a0: ac48 763e 34fb ffbd 32b5 aabd d048 c33d
000003b0: e7b8 85be 75e4 48be 74a1 1a3e 76c0 46be
000003c0: 5ccf 2a3e a835 853e e4db 8cbe d0c6 d43d
000003d0: bcfd 80be 1e24 8e3e 744f 8dbe 2f21 93be
000003e0: 1e59 a0bd e018 a43c 8b8b 2bbe b0cc 6d3e
000003f0: b90a 86be 306b df3d 8ca8 06be 3427 ef3d
0.21679097 0.121775806 -0.11448161 0.27287728 -0.061944857 0.20087358 0.09340343 0.10402322
-0.21654335 -0.2201136 0.18255165 0.21262914 -0.028789878 0.0341236 -0.052628055 -0.12467335
-0.17139855 0.11312029 0.18306798 -0.0025258362 -0.21027137 0.2115115 0.27643913 0.28188443
0.23162001 -0.112982824 0.11912185 -0.02935204 -0.076788425 -0.056588992 -0.09948556 0.25139904
0.20275587 -0.032791704 -0.063788414 0.10154575 -0.14170654 0.03848633 0.123982996 0.033790946
-0.2811157 -0.08316477 -0.28366736 0.055474907 0.21665162 -0.07412873 -0.21162707 0.1675075
0.26546282 -0.20657995 0.1217877 -0.19369197 -0.21519163 0.068794966 -0.14835608 0.059062958
-0.16007473 -0.100312635 0.0746209 0.25492978 0.12274945 0.15457022 -0.075410575 0.13867924
0.18036667 0.1267224 -0.2271796 -0.14320752 0.17089584 0.28427774 -0.25606775 0.15000728
0.09157264 -0.2845372 0.18829891 -0.017110735 -0.16438791 -0.14526592 -0.046301678 -0.2128205
0.25687343 -0.23265368 -0.2849763 -0.06444755 -0.046755478 0.108374 -0.05714716 -0.18930867
0.17708594 -0.1627424 0.043263614 0.05246669 0.09875244 -0.24358705 -0.11748102 -0.19937699
0.07786906 -0.12678231 0.24613768 -0.1517916 0.24976927 0.15911874 -0.19858739 -0.19394052
0.27991802 0.25859147 0.23520142 0.2143659 -0.27695268 0.22833258 0.058253527 0.18051377
0.006454557 -0.22442617 0.13057664 0.21977413 0.07847214 0.16073799 -0.2874861 -0.107099414
-0.2606888 -0.100208715 0.017792672 0.061891973 -0.1163965 -0.14217125 0.20319226 -0.22525176
-0.2817327 0.27029198 -0.028354377 0.23633873 -0.14647095 -0.267314 -0.2584864 0.15993634
-0.26606503 0.26210624 0.24404782 -0.15699661 -0.2294081 0.17899808 -0.27163008 0.24034601
0.061009318 0.13892943 -0.17906685 0.2439189 -0.04681219 0.0329808 0.01578635 -0.09181234
-0.25535387 0.11285117 0.26954788 0.15636805 -0.2640894 0.14316526 0.031601608 -0.17060801
-0.21693128 -0.23560598 0.19531274 0.03663498 0.14285761 -0.27074635 -0.13385482 -0.24757023
-0.1678532 0.23876041 -0.16036645 -0.094166934 -0.28508243 -0.17254463 -0.2616631 0.2699579
-0.021913677 0.20372903 0.24444443 -0.229042 0.05651489 -0.06478047 -0.26540774 -0.13237786
0.17902538 0.09749976 0.2777257 0.081670046 -0.029186368 0.1000604 -0.21508259 0.046832204
0.06925815 0.27990663 -0.17978914 -0.021200418 0.01913166 0.21138132 0.22267145 0.029047936
-0.2582503 0.05212608 0.081332594 0.016946673 0.270379 0.013676822 -0.27886802 -0.13620022
0.07582462 0.22238326 -0.15202361 -0.026463836 -0.23102303 0.021516204 -0.039939 -0.2599488
0.22697341 -0.09444578 0.06149566 0.12475929 -0.013556004 -0.076935396 0.19202903 -0.18020171
0.15909788 0.13171849 -0.15344343 0.18738589 -0.026415795 -0.011041373 -0.15979436 0.24514842
0.2405116 -0.12499085 -0.083353415 0.09535372 -0.26117632 -0.196184 0.15100652 -0.19409356
0.16680664 0.260175 -0.27511513 0.10389483 -0.25193584 0.2776193 -0.2759968 -0.28736255
-0.07829498 0.020031393 -0.1675245 0.23222613 -0.26180056 0.10909116 -0.13150233 0.11677399

fc2.weight f4 [256, 256]
00000000: 00bc 3d3a e005 22bb 0cd6 afbc 0060 b0ba
00000010: a8ad 903c 38b5 523c 20ac 72bd 404c 60bc
00000020: 8aed 3e3d 3e7b 60bd 54f2 5a3d c0b5 d4ba
00000030: f06b a0bc b414 dfbc d06f b1bc 28f1 9b3c
00000040: 3424 62bd 9c6f 3bbd c60c 1b3d 0017 063d
00000050: 340b a03c f09f f5bc da5e 363d 1026 febb
00000060: b8ce cd3c 4457 8e3c b25f 05bd 843e 76bd
00000070: d287 59bd 2c23 63bd 8a45 58bd 2803 c3bc
00000080: 90ee 663c 289a 6fbc f2a4 60bd 065a 15bd
00000090: 7c99 333d e05c 47bc 8410 453d 6450 65bd
000000a0: 4028 943c 52ca 6fbd 08d1 773d 26b0 7fbd
000000b0: 207b 43bb 323a 51bd e462 4ebd 506d aa3b
000000c0: 209d 513b 7844 69bc 006f d53b c217 643d
000000d0: e057 ad3b 1c3e 703d 40fe a33c f0a8 b8bc
000000e0: 68b0 163c 12d4 5bbd 6259 32bd 0040 43bd
000000f0: f08f c03b b8d4 c53c 988b b9bc 6c71 d6bc
00000100: e0a5 4e3d a4c8 80bc 74fb 8abc 8c0e 2e3d
00000110: 80ec d7bb 1c4a 913c d0e1 45bc 7ac5 373d
00000120: 7411 733d d84e 353d 54bc 19bd 20f0 583c
00000130: 8430 f03c 34e6 ccbc 001e 2cbc 881e 923c
00000140: b6e9 5cbd 1898 7c3c d026 e5bb 042a 9bbc
00000150: 4476 7fbd a80e 98bc 7814 32bd baf2 593d
00000160: b458 e13c 20f7 1b3c 6860 6e3d 3e79 6fbd
00000170: 7abc 77bd b06e efbb fe0f 183d 00ae 2cb9
00000180: d2ac 743d a835 0e3c 002f f1bc 1650 3cbd
00000190: f281 49bd c686 03bd fcd1 f23c ec28 ec3c
000001a0: 5a6c 3cbd 4488 03bd a0d5 3c3d cce5 623d
000001b0: a4fd 64bd 302e 3b3c dad8 103d b485 113d
000001c0: c051 c73b 3805 f3bc e0ac 93bb 0205 77bd
000001d0: f2cd 48bd 7ac2 31bd d22f 093d 2499 d7bc
000001e0: eab5 74bd 0698 79bd a4ec 2c3d 346a 3bbd
000001f0: 30b0 a8bb daf8 073d c69c 44bd 8629 20bd
00000200: 0842 1ebd 6072 483b bc26 d1bc 88ed 113c
00000210: 20fd 233b da3d 45bd 14b8 6a3d 50bd 333c
00000220: 80f1 593c 28b8 1cbc a825 e33c 207b 49bd
00000230: b202 1bbd c4f0 7b3d 30b6 dd3c 20f3 cf3c
00000240: e0f7 11bb 7cb4 7c3d 5844 543d aca0 11bd
00000250: 80de 80bc d8e0 f13c 38c0 edbc fcff 353d
00000260: f02c 78bd 4c6d 63bd 78b3 24bd a448 263d
00000270: 928b 083d 5883 26bc a8d3 453c c0c5 5bbc
00000280: 18cc 84bc b840 543d e0bf 27bd b84f 563c
00000290: 0a32 083d 3c08 573d 1022 823b 4071 6fbd
000002a0: bec9 77bd 0043 20bb fcf3 0ebd 34d4 f33c
000002b0: 6c27 3bbd 74c9 973c 60b9 313d 6830 23bd
000002c0: 889e a03c b0b6 ea3c 60c8 4ebb f0cc ab3b
000002d0: 8033 10ba 8cc8 443d 8010 153d 22e5 5c3d
000002e0: 7ef6 2abd 204b b9bc 8caf 1d3d f4c3 babc
000002f0: 16c0 7e3d 4010 ea3c 784d b8bc 8e17 593d
00000300: 908a 803c 0047 47bd c0c7 afbb 9cc7 22bd
00000310: 78c0 673d 36f5 19bd 9092 95bb 1c14 9ebc
00000320: f6c6 51bd 4427 16bd 58cd 22bd 2210 473d
00000330: ee92 1abd a07d 3c3c 88f3 a53c 88e7 463d
00000340: 5ca0 43bd fc32 0b3d 6c2c 443d 7e5e 0e3d
00000350: 40c3 843a 80f5 84ba 1069 c33b 9010 893b
00000360: c284 29bd 804e 8aba 545a ca3c 70a7 0a3c
00000370: 824e 28bd e0a4 3dbd 9c9e dcbc 1825 18bc
00000380: 5855 52bc eed3 453d d80e 823c 6ae4 2e3d
00000390: 9822 72bd 409f c33b 708a 1d3d c6a8 2a3d
000003a0: b832 90bc 70e6 893b bc25 f93c 5c93 273d
000003b0: 3855 383c 40fc d23c 866b 50bd c8cf 913c
000003c0: 6ed3 72bd 8891 3a3c 0408 02bd f288 3f3d
000003d0: a6f9 6ebd 3807 6cbc b834 76bd 28a5 59bd
000003e0: 78b2 153c 0e6a 19bd e072 2c3b d2c2 17bd
000003f0: 806a efba f091 e43c 8085 caba 280b 84bc
0.0007237792 -0.002472274 -0.02146437 -0.0013456345 0.01766093 0.012860589 -0.059246182 -0.013690054
0.046613254 -0.054805033 0.05345376 -0.0016228482 -0.019582719 -0.027231552 -0.021659762 0.01903589
-0.055210307 -0.045760736 0.03785398 0.03273678 0.019536592 -0.02998349 0.04452405 -0.0077560022
0.025122985 0.017375596 -0.032561965 -0.060118213 -0.053108044 -0.055453464 -0.052800693 -0.023805216
0.014094964 -0.014624156 -0.054844804 -0.036462806 0.043847546 -0.012168139 0.048111454 -0.05598487
0.018085599 -0.058542557 0.060502082 -0.062423848 -0.0029828027 -0.05108089 -0.05038728 0.0052010193
0.0031984523 -0.014237516 0.0065134764 0.05568672 0.0052900165 0.058652982 0.020018697 -0.022541493
0.009197332 -0.053669043 -0.043542273 -0.047668457 0.0058765337 0.024149284 -0.022649571 -0.02617713
0.05045116 -0.015720673 -0.016965605 0.04249434 -0.0065894723 0.017735533 -0.012077764 0.044866063
0.059342816 0.044264644 -0.03753312 0.013240844 0.029320009 -0.025012113 -0.010505199 0.017836824
-0.05393382 0.015417121 -0.006993152 -0.018940933 -0.062368646 -0.018561676 -0.04347655 0.053209998
0.027508117 0.009519368 0.05819741 -0.058465235 -0.06048248 -0.007306896 0.037124626 -0.00016468018
0.059735127 0.008679785 -0.029441357 -0.045974813 -0.04919619 -0.03211095 0.029641144 0.028828107
-0.04600177 -0.032112375 0.046102166 0.055394933 -0.055905953 0.011424586 0.035363056 0.0355279
0.0060827434 -0.029665574 -0.0045066923 -0.06030751 -0.04902453 -0.043398358 0.03349287 -0.02631814
-0.0597438 -0.060935996 0.042217866 -0.04575558 -0.0051479563 0.033196308 -0.048001073 -0.0391021
-0.03863719 0.003058575 -0.025531165 0.0089067295 0.00250227 -0.04815469 0.057304457 0.010970429
0.013302207 -0.009565391 0.027727917 -0.049189687 -0.037844367 0.06150891 0.027064413 0.025384486
-0.002227299 0.06169556 0.05182299 -0.03555362 -0.015731096 0.02952616 -0.029022321 0.04443358
-0.06058973 -0.055524155 -0.040210217 0.04059662 0.03333623 -0.010163151 0.012074389 -0.0134138465
-0.0162106 0.051819533 -0.04095447 0.01308053 0.033250846 0.052498087 0.0039713457 -0.058457613
-0.06049513 -0.0024453998 -0.03490065 0.029764272 -0.045691893 0.018528678 0.043389678 -0.039841086
0.019606844 0.028651565 -0.0031552538 0.0052429363 -0.0005500838 0.04804282 0.03639269 0.053929456
-0.04173898 -0.02261883 0.038497493 -0.022798516 0.062194906 0.028572202 -0.022497877 0.05300098
0.015691072 -0.048651695 -0.005364388 -0.039741144 0.056580037 -0.037587367 -0.0045645908 -0.019296698
-0.051215135 -0.03665854 -0.039746612 0.04859937 -0.03773778 0.011504561 0.020257726 0.04856065
-0.047760352 0.03398417 0.047893927 0.034758084 0.001012899 -0.0010143965 0.005963452 0.0041828826
-0.041386373 -0.0010551959 0.024701275 0.008462772 -0.041090496 -0.046299815 -0.0269311 -0.009286188
-0.01283773 0.048297815 0.015876219 0.0426983 -0.059115022 0.005969912 0.038462102 0.04166486
-0.01760231 0.0042083785 0.030413501 0.040912017 0.0112507865 0.025755048 -0.050883792 0.017799273
-0.059283666 0.011387236 -0.031745926 0.04676146 -0.058343552 -0.014406018 -0.06010887 -0.05313602
0.009136789 -0.037454657 0.0026313588 -0.03705103 -0.0018265992 0.02790162 -0.0015451163 -0.016118601

fc2.bias f4 [256]
00000000: 2856 05bc b0db 9cbc 36ac 7a3d 104a b7bc
00000010: 7a6a 1dbd 50fa 103d 3c4d edbc d6bf 4bbd
00000020: e679 13bd a433 203d 60dc fdbb f831 313c
00000030: ceae 51bd 84b5 51bd 1290 30bd e886 75bc
00000040: 8ad4 5c3d 5e6b 563d eaec 05bd f8a3 41bc
00000050: fe5f 053d 60b2 69bb 68e8 e1bc 3ecf 5c3d
00000060: 7c11 cb3c dc81 d43c cab6 12bd a06c acbc
00000070: 301a 36bd ca19 14bd a479 a53c c835 1d3c
00000080: 3cdc 5abd d852 4c3d da9d 26bd de25 0bbd
00000090: b037 143d e8a8 3c3d 4c28 cd3c 8896 dcbc
000000a0: 40aa 2d3d aa4e 643d 58ae 6f3c 1095 efbb
000000b0: 38a7 bc3c e846 c6bc 50fd d63c 2072 30bb
000000c0: 545c 78bd f0f8 793c 28dd 3c3d 2083 56bb
000000d0: ac06 ae3c 72ef 473d 34ff f73c 0051 e0bb
000000e0: 6cd2 67bd fc2e 7f3d a42a dc3c aaa5 52bd
000000f0: 0023 57bc e091 18bc 6809 90bc 8c6a 99bc
00000100: c0f3 29bd 0e78 2bbd 0a91 4e3d 544b 5dbd
00000110: 8acf 0e3d c89f 8ebc e0b3 253b 80d9 27bc
00000120: 78ef 80bc e0ac a1bc 48f7 a03c d63b 773d
00000130: 4048 e83b e646 283d 8060 153a 50bb 3f3d
00000140: a8f0 773d 60a5 3c3d 2633 773d 70bb acbb
00000150: 46d0 2dbd bcad 3dbd e88e 063d 64cd 32bd
00000160: 9ef8 573d 74ad 823c 3081 673c d039 de3b
00000170: c446 d63c 78a0 ebbc f28f 233d ba72 083d
00000180: 1263 60bd 7030 b13b e883 ec3c 1ace 3cbd
00000190: 8c95 2b3d 3864 e7bc 5c6b 8fbc 0043 8639
000001a0: ce2f 583d 94d0 7d3d 7acc 7e3d 6871 c2bc
000001b0: 8e0e 22bd 00a8 7138 3892 1f3c 007c c138
000001c0: 40e9 f3bc 76ea 1ebd 762f 39bd 6011 a5bb
000001d0: b8bf a1bc b8e2 1cbc e80b 083c 0081 03bb
000001e0: 96cf 43bd e68c 4b3d f413 01bd 100c c5bb
000001f0: 6a73 40bd 82a2 053d 089d b9bc 9cf1 16bd
00000200: b601 5e3d b8bb 4fbc fadc 62bd 028d 253d
00000210: ba97 2d3d de30 26bd 9c2e 80bc 6a34 4d3d
00000220: 10cd aebb 884e 61bc cc7d d3bc a2e4 3f3d
00000230: 9895 7fbc 406e b83b 34fd 9c3c a0f6 7ebb
00000240: e866 6dbd a07c e4bb 2831 1dbc 5cbe eebc
00000250: ae17 13bd 2409 afbc e0e3 d9bb a896 20bc
00000260: f001 35bc 7eb2 183d f217 0abd 06f5 6e3d
00000270: 9491 86bc 7058 a03c 0e7a 69bd 0024 25ba
00000280: 501f 13bc dc5e a63c 1e63 57bd 08f9 35bc
00000290: 6881 4ebc a451 f33c e028 bb3b c027 f73b
000002a0: c065 ad3a 4cc4 51bd 9846 6cbd fc0f 41bd
000002b0: 7854 eabc e015 233b 90de 5fbd 0c24 913c
000002c0: c4b2 e93c b882 06bd e0df 323d 503e 113c
000002d0: e0b2 ab3b 7029 1fbc 802a e43a f047 a03c
000002e0: 0e74 7bbd 8a98 683d 34e6 5ebd 225e 47bd
000002f0: d02d 733c 0078 cc39 1a5c 07bd 54a5 d3bc
00000300: ec98 2e3d 968e 103d 9e58 303d 2089 5abd
00000310: b2a9 7a3d a057 76bd 7014 f83c 465b 1f3d
00000320: a0f6 e7bb e8b7 83bc 20b0 94bc 2c50 533d
00000330: dc97 f23c 605c 1b3b f6f2 673d e43b b53c
00000340: 40c4 4bbc 900e 783d f4fb 0ebd 2863 123c
00000350: 8c50 77bd 6c8a 813c ecfa 753d ce2d 5abd
00000360: c824 963c b032 92bb d008 073c 2c9a f73c
00000370: 70b2 5dbd a629 1e3d 4c89 fa3c 1005 ef3b
00000380: 949d 763d 7882 e63c 3cad 58bd ec76 adbc
00000390: 88d2 4a3d 8c74 67bd 5a0d 00bd c088 ed3c
000003a0: c8a5 09bc 584f 2abd 8cb8 f9bc ac14 04bd
000003b0: 128b 413d 5077 1fbd 0cb1 94bc c229 3bbd
000003c0: 00d3 da3a fa4d 6b3d 04a1 1ebd 0acf 0abd
000003d0: 2612 5b3d 74d5 96bc f876 4d3d 10ca b93b
000003e0: 2013 32bd 880a 74bc 50d0 c33b c869 2cbd
000003f0: 2047 6bbc ac1f 86bc 3ce1 1f3d 18c1 f7bc
-0.008138217 -0.019147724 0.06119939 -0.022374183 -0.038431622 0.035394967 -0.028967492 -0.049743496
-0.036004923 0.03911175 -0.007747218 0.010815136 -0.051192097 -0.051198497 -0.043106146 -0.014985777
0.05391363 0.052348487 -0.032696642 -0.011818878 0.03256225 -0.0035659298 -0.02757664 0.05390858
0.02478861 0.025940828 -0.035818852 -0.02104789 -0.044458568 -0.036157407 0.020199604 0.009595342
-0.053432688 0.049883693 -0.040677883 -0.03397166 0.03618592 0.04605952 0.02504363 -0.026927248
0.04239869 0.055739082 0.014628969 -0.007311471 0.023028955 -0.024203733 0.026243836 -0.0026923493
-0.060634926 0.015257105 0.04610935 -0.0032731965 0.021243416 0.048812337 0.030273058 -0.0068455935
-0.05659716 0.062300667 0.026875801 -0.05142752 -0.013130903 -0.009312123 -0.01758261 -0.018727563
-0.041492224 -0.04186254 0.05043129 -0.054026917 0.034865893 -0.017410174 0.0025284216 -0.010244727
-0.015739188 -0.019735754 0.019649163 0.0603598 0.007088691 0.04108324 0.00056982785 0.046809494
0.060532242 0.04605615 0.060351513 -0.0052713677 -0.042434953 -0.046308264 0.03285113 -0.043652907
0.052727334 0.01595185 0.014129922 0.006781794 0.02615679 -0.02876304 0.0399322 0.033312537
-0.05478198 0.0054073855 0.028871492 -0.04609499 0.041890666 -0.02824603 -0.017507248 0.0002560839
0.052779965 0.061966494 0.062206723 -0.023735717 -0.03956466 5.761534e-05 0.009739451 9.226054e-05
-0.029774308 -0.038797818 -0.045211278 -0.0050374717 -0.019744739 -0.009575538 0.00830362 -0.0020065904
-0.04780539 0.049694918 -0.03151317 -0.006013401 -0.046985067 0.032625683 -0.022657886 -0.03685151
0.05420085 -0.012679033 -0.05538652 0.04041768 0.042381026 -0.040573947 -0.015647225 0.050098814
-0.005334504 -0.013751633 -0.02581682 0.0468489 -0.015599631 0.005628377 0.019163705 -0.0038904324
-0.057959467 -0.0069728643 -0.009594239 -0.029143505 -0.035911255 -0.021366663 -0.0066494793 -0.009801544
-0.011047825 0.0372796 -0.033714242 0.05833914 -0.016426839 0.01957342 -0.057001166 -0.0006299615
-0.008979633 0.020308904 -0.05258476 -0.011106737 -0.012604095 0.029702015 0.00571166 0.0075425804
0.0013229176 -0.051212594 -0.05768451 -0.047134385 -0.028604731 0.0024884865 -0.05465561 0.017717384
0.028527625 -0.032839507 0.043670535 0.008864954 0.0052398294 -0.009714469 0.0017407686 0.019565552
-0.061389975 0.056786098 -0.054418758 -0.048673756 0.0148424655 0.0003899932 -0.03304682 -0.02583567
0.042626306 0.03529223 0.043053262 -0.05335343 0.06119699 -0.06014216 0.030283183 0.038905405
-0.0070789605 -0.016078904 -0.01815039 0.05159013 0.029613428 0.0023706183 0.05662819 0.022123285
-0.012436926 0.060560763 -0.03490825 0.0089347735 -0.06037955 0.015813075 0.06005375 -0.05326634
0.018328086 -0.004461609 0.008241847 0.030224882 -0.05412525 0.038613938 0.030583046 0.0072943047
0.060208872 0.028138384 -0.052899584 -0.02117487 0.049517184 -0.056507632 -0.031262733 0.028995872
-0.008401342 -0.041579574 -0.030483507 -0.032246277 0.04725177 -0.038932145 -0.018150829 -0.04569412
0.0016694963 0.05744741 -0.038727775 -0.033888854 0.053484105 -0.01841233 0.050162286 0.0056698397
-0.04347527 -0.014895089 0.0059757605 -0.04209307 -0.014360219 -0.016372524 0.03903316 -0.030243441

fc_mean.weight f4 [6, 256]
00000000: ca27 7b3d 1c64 87bc da54 4fbd 70d5 c4bc
00000010: a6f4 77bd f63f 4d3d 5cff 323d d050 1fbc
00000020: 32b4 5abd 58bc ebbc 587f b93c ec46 c7bc
00000030: f240 00bd 586c b83c b620 563d e087 06bc
00000040: 442f 293d e082 38bb 986e 983c 7061 c23b
00000050: 4a45 33bd f002 bc3c 802e 81ba cc20 70bd
00000060: 4866 dc3c dae9 4a3d 5281 593d dc9b d53c
00000070: 1879 93bc c8ad 84bc fee7 463d c2e6 6c3d
00000080: 50a1 7cbd 5839 253c d083 ff3c 00a4 2bba
00000090: 92ee 14bd 70fc a53b e238 373d 16c9 19bd
000000a0: b43f b2bc d4d9 0e3d 2877 393d bea8 3c3d
000000b0: cceb cbbc 0062 d7bb d215 37bd 6838 97bc
000000c0: f84b 53bc e029 7fbb 1ac2 49bd d879 b9bc
000000d0: 9c6b 61bd 9c62 febc 1892 753d 2e1a 03bd
000000e0: a4e1 54bd acdf 823c 9ab1 033d 1427 68bd
000000f0: 5e3a 11bd cc30 ebbc 6a38 523d 48b7 8bbc
00000100: a8d7 53bc 48c2 bebc ac22 d3bc c87e d93c
00000110: 00c8 283d 8008 3cbb 5471 903c 0e3a 373d
00000120: 3032 5ebc 4cba 613d 320e 50bd 80c3 ecba
00000130: 4058 14bb aa10 683d 00ce 89ba a64a 26bd
00000140: cc0a 64bd 9880 7cbc 6856 0dbd 00b9 b43c
00000150: 4aca 113d 2e20 4dbd 80c6 193a 609a ea3c
00000160: b84c 833c 3e40 683d a051 c33b ee53 6b3d
00000170: 80b5 053a 7073 c6bc 54b3 853c 9c4e e73c
00000180: 267f 2b3d 0040 8b3b e027 00bb 5662 383d
00000190: b8ae 0b3d 6409 d53c 7655 243d c42e 133d
000001a0: da20 23bd 48b5 c1bc 486c d6bc e42c f43c
000001b0: 06d7 7f3d baef 45bd 0685 51bd da03 453d
000001c0: 50e7 0dbd 60d5 3bbd ba8d 4e3d 5e19 403d
000001d0: 9259 6dbd f017 aa3b 8298 213d 2426 7abd
000001e0: d84b 2d3d 3084 4c3c c49d 3bbd 4ab5 39bd
000001f0: 503b 203d 909e fcbb 9626 62bd 94e2 813c
00000200: 0ab9 493d f0aa 21bd 0028 f5bc acee da3c
00000210: 7254 423d cc93 783d c08b ccba a0a3 b73b
00000220: 9c9e 86bc 90f3 cd3c a23c 583d 7cc1 a1bc
00000230: e23e 75bd 34f8 b2bc 4871 263c 6c25 113d
00000240: cc3a 8a3c 94d8 84bc d4f5 06bd b0c9 29bd
00000250: 8ce7 bdbc b8fe e43c 806c f13a 70c3 033c
00000260: 0012 b039 2012 a83c e46b 36bd 262c 783d
00000270: 34c5 2fbd c67e 2dbd dc72 d53c 484a 0fbd
00000280: e0f8 383b aa65 7e3d 4854 61bc 18db e33c
00000290: d0f3 303d 34b2 92bc 24a9 713d b09f 4fbd
000002a0: 60c6 563c 906b cdbc 9635 09bd f027 bbbb
000002b0: e0a7 ee3b e8db 253d 8889 e13c 16b3 5bbd
000002c0: ec27 473d 1cd5 4abd 585e d73c c200 673d
000002d0: 3856 b7bc 303e 46bd 40b8 1d3d 0049 c6b9
000002e0: d405 6fbd a690 7cbd f289 5bbd c0e9 f73a
000002f0: 28b4 e93c 5cdf 383d 0ac7 70bd f884 4cbd
00000300: 2063 b3bc 1a8b 32bd e0e2 eebc 7cd5 a23c
00000310: 7435 e0bc c0b9 d7bc 5ee4 11bd a0e9 08bb
00000320: 9839 813c 747f 903c 90bb a23b 2cc9 5e3d
00000330: fcc4 363d 180e e33c 24fe 6dbd a0e8 673c
00000340: 60ee c9bb d070 9a3b 1824 f43c c084 2f3d
00000350: 709d a8bb 025e 48bd f017 d2bb d8c9 49bc
00000360: 368f 2e3d 8469 033d 029d 27bd c08c f43c
00000370: 60f7 8bbc 981b 7ebc 8037 c23b 281c 6ebd
00000380: b4dd 11bd c08e f2bc 1ca9 a33c 00c9 673b
00000390: 885b d3bc 9235 003d 247c 533d a0f8 59bd
000003a0: e0a0 0a3b 24b1 163d 2c1f 5abd 6c08 393d
000003b0: b02f af3b bcc0 fa3c ac8b 26bd dcf0 6f3d
000003c0: 0085 a6ba 4060 233d 8c11 8cbc a6b1 5d3d
000003d0: f89b 9bbc 9078 24bd 5095 59bd ec09 063d
000003e0: 6895 8ebc c8ba 51bd d8f1 5dbc c8e4 58bc
000003f0: 6ea3 6dbd 3673 17bd 0c43 24bd 503e 80bc
0.061317243 -0.016527228 -0.05061803 -0.024027556 -0.06053605 0.050109826 0.04370056 -0.009723857
-0.053394504 -0.028776333 0.02264373 -0.02432581 -0.031311937 0.0225126 0.05227729 -0.008211106
0.04130484 -0.002815418 0.018607423 0.0059320256 -0.04376725 0.02295062 -0.0009855777 -0.058625028
0.02690424 0.049539424 0.053101845 0.026075296 -0.018002078 -0.016196147 0.04856109 0.057837255
-0.061677277 0.010084473 0.031190783 -0.000654757 -0.03636033 0.0050654933 0.044731982 -0.037545286
-0.021758892 0.034875706 0.045279652 0.046059363 -0.02489271 -0.006572962 -0.044698544 -0.018459514
-0.01289653 -0.0038934872 -0.049257375 -0.022641107 -0.055034265 -0.03105288 0.05995378 -0.03200739
-0.051973 0.015975796 0.032151796 -0.056677893 -0.035456054 -0.028709792 0.051323332 -0.017055169
-0.012929834 -0.023286 -0.025773369 0.026549712 0.04120636 -0.002869159 0.017632164 0.0447331
-0.01356177 0.055109307 -0.050794788 -0.0018063635 -0.002263561 0.056656517 -0.0010513663 -0.040598534
-0.05567436 -0.0154115185 -0.03450623 0.022060871 0.03559331 -0.050079517 0.00058660656 0.028638065
0.016027793 0.05670189 0.005960658 0.05745309 0.0005100593 -0.024224967 0.016320862 0.028235726
0.041869305 0.0042495728 -0.0019555017 0.045015655 0.03410217 0.026005454 0.040120564 0.03593327
-0.03982625 -0.023646012 -0.02617468 0.029806562 0.06246092 -0.048324324 -0.05115225 0.048099376
-0.034644425 -0.045857787 0.05042813 0.046899192 -0.05794675 0.005190842 0.039452083 -0.06107153
0.04230866 0.012482688 -0.045804754 -0.045338906 0.039119065 -0.007709332 -0.05521258 0.015855111
0.049248733 -0.03946966 -0.0299263 0.026725136 0.047443815 0.060687825 -0.0015605614 0.0056042224
-0.016433053 0.025140554 0.0527922 -0.01974558 -0.059874423 -0.021846868 0.010158844 0.03543608
0.01687374 -0.016216554 -0.032949284 -0.04145211 -0.0231817 0.02795349 0.0018419176 0.008042201
0.00033582747 0.020516455 -0.044536486 0.06058898 -0.042912677 -0.04235723 0.026055746 -0.03498295
0.0028224513 0.062108673 -0.013753004 0.027814433 0.043201268 -0.01790724 0.058999196 -0.0506894
0.01310882 -0.025075704 -0.03349837 -0.005711548 0.007283196 0.040492922 0.0275314 -0.053637587
0.048622057 -0.049519643 0.026290104 0.056397207 -0.02237998 -0.04839915 0.038505793 -0.00037819892
-0.058355168 -0.061661385 -0.05359835 0.0018914267 0.028528288 0.045134887 -0.05878357 -0.049931496
-0.021897852 -0.04358969 -0.029160917 0.019877188 -0.027369238 -0.02633369 -0.03561818 -0.0020891204
0.015774533 0.0176389 0.004966207 0.05439107 0.044621453 0.027716681 -0.058103696 0.014154583
-0.0061624497 0.0047131553 0.029802367 0.04285121 -0.005145721 -0.048917778 -0.006411545 -0.01231619
0.042617045 0.03208305 -0.04092122 0.029852271 -0.017085731 -0.015509509 0.0059270263 -0.05813232
-0.035611823 -0.029609084 0.019978099 0.0035367608 -0.025800481 0.03130109 0.05163206 -0.053215623
0.0021153018 0.03679003 -0.053252384 0.045174047 0.005346261 0.030609481 -0.040660545 0.05857931
-0.0012704432 0.039886713 -0.01709821 0.054124497 -0.01899527 -0.04015404 -0.05312091 0.032724306
-0.017405227 -0.05120352 -0.01354643 -0.013238139 -0.058017187 -0.036975108 -0.040103003 -0.015654713

fc_mean.bias f4 [6]
00000000: 00a4 d53a 005e 53bc 6e7e 41bd c84d f33c
00000010: 90eb 643c f67d 13bd
0.0016299486 -0.012900829 -0.047239713 0.029700175 0.013972178 -0.036008798

fc_log_std.weight f4 [6, 256]
00000000: 3cd8 d8bc 08b6 24bc 1049 ba3b 90df c8bb
00000010: 009a 6fbb e476 653d 607b 93bb 6a03 44bd
00000020: 7cd1 d3bc 3c25 e93c 0492 10bd b4f3 843c
00000030: 9e58 1c3d f85d f3bc 7869 d8bc 38c8 303c
00000040: d80c cfbc 1806 2c3c 6e81 093d 2cbf 03bd
00000050: 0e3e 10bd 4879 613d 8863 f8bc 6661 603d
00000060: d802 09bd 387f 1a3d f813 a83c 802e 44bc
00000070: c84b 8cbc c08b 813c 5803 41bc 4c65 883c
00000080: 82aa 73bd bcb0 75bd a41f bb3c 5cec 9d3c
00000090: 0a7f 05bd ac35 acbc 501a 2e3c 06bf 5fbd
000000a0: 88e1 57bd 8252 2ebd 588b f53c e4d7 eabc
000000b0: ea9b 1d3d b637 753d e0aa a03b d014 e63c
000000c0: d898 21bd 00b7 783a 4c3e 1dbd b486 78bd
000000d0: 0284 713d f869 05bc e48e 33bd e004 1cbc
000000e0: dc5c 86bc eceb 71bd f0ab 773c 30d2 7e3d
000000f0: 3e14 6dbd e60a 3d3d 7859 be3c 1823 4e3c
00000100: ea9a 483d 80ae 793c 3cbe 573d caca 1d3d
00000110: 6090 423d 70d4 b03b 4021 4abc 0828 c9bc
00000120: 6030 ebbc 0431 89bc dcb8 9ebc 840d 443d
00000130: 8242 1f3d 1e7e 2b3d d871 e8bc a0c8 de3c
00000140: 64d2 d0bc e689 1c3d 10fd 2bbc aee8 073d
00000150: 08f7 85bc f032 7dbd 8818 7dbc 18d7 4a3d
00000160: 907e 993c c417 d6bc 16d8 69bd 9431 e3bc
00000170: 3606 22bd 389f 453d 20a9 473d e463 cf3c
00000180: d827 393d ccae 41bd 80c5 c6bc d49c 35bd
00000190: 50aa a1bb 7089 1cbd d87a 593d d03b 863b
000001a0: f8c5 cabc c873 00bd d62a 29bd 6006 60bc
000001b0: f027 2bbc 002b 5e3d d4e8 4fbd 84c3 30bd
000001c0: ced0 583d 30b3 c1bb 4047 8f3b 369f 4abd
000001d0: 045b 1f3d fc7b 5e3d 98e0 1b3d 4c24 ec3c
000001e0: 18dd 17bd e022 c5bc a6c6 7d3d 807a 7dbb
000001f0: 34e0 21bd 2830 8ebc 649f 18bd 1028 21bc
00000200: 4c62 afbc f064 85bb d07a 9b3b c07d c23b
00000210: 2851 e73c bc24 cf3c dae8 6bbd 6c36 293d
00000220: 489e 5f3d d49b 10bd 1c67 0bbd 70e2 573c
00000230: 20ea 89bb aabb 703d f6f9 6ebd 088f edbc
00000240: b425 473d d620 7f3d 38f1 0ebd c82d cbbc
00000250: 0e57 4e3d ca06 67bd 000b f939 e4d7 d83c
00000260: 1a43 76bd 28fd 553d 00c9 303d 7882 1abd
00000270: ccc9 493d 987a 2bbd b8be afbc ac2a 34bd
00000280: 8014 fd3a 682a f23c 40cf 19bd 38a8 e33c
00000290: f00e e43b 769c 6a3d e6b8 11bd d294 4fbd
000002a0: 1cc8 ff3c ce73 15bd 16c7 7c3d 0ee6 613d
000002b0: 001d 9d39 c8c4 903c 1019 963b 0413 a3bc
000002c0: 00df b939 30ec 893c 58f2 f63c 6a76 4d3d
000002d0: f83a b63c 3cb4 0a3d b83e 17bd 805c bc3b
000002e0: f465 02bd ea4b 063d b085 b1bb d8ab 653c
000002f0: 76a8 3dbd c665 313d fc07 1f3d e00b 163d
00000300: 686f d43c e000 6b3d 9859 3dbd 7869 f6bc
00000310: c0ba 9cbb 6452 253d 1085 c73c 78c4 103c
00000320: 0024 4939 165b 27bd 188a 5bbc 74b8 6e3d
00000330: 3833 ebbc 7095 fbbc 3092 853b a461 333d
00000340: 80d3 dbbc 4841 8c3c 34b2 cebc 3480 a43c
00000350: b0f0 7f3c 08d7 7ebd 382c 6d3d 2adc 113d
00000360: d086 08bc 0ceb da3c c48e a6bc 80f0 b1bb
00000370: 6afb 6bbd 08fb 603d 7678 33bd 20a1 19bb
00000380: 8e89 293d f4dd 2f3d 585a 533d 56a6 0a3d
00000390: 48d8 d83c 2a06 28bd 7812 b43c d074 5d3d
000003a0: b8f5 053d 000d d73b 9616 473d 7a5a 20bd
000003b0: 267f 6f3d 1878 9a3c 9ef4 3b3d 34b4 7b3d
000003c0: a6a5 3cbd a4ea 1dbd 3a14 173d a029 273c
000003d0: a4d0 69bd b2b8 51bd c8b9 783c 981e 173d
000003e0: 60f4 2bbc f07b 113c 6202 67bd 7072 e4bb
000003f0: be9f 26bd 34c1 f8bc 805d 09bc 2c63 a3bc
-0.026470296 -0.010053165 0.0056849793 -0.0061301664 -0.0036560297 0.056021586 -0.0045007914 -0.04785482
-0.025856726 0.028460138 -0.0352955 0.016229488 0.03817045 -0.029707894 -0.026417479 0.010789923
-0.025274679 0.0104995 0.0335707 -0.032164738 -0.03521543 0.055047303 -0.030320898 0.054780386
-0.033449978 0.03771898 0.020517334 -0.011973977 -0.017125979 0.015813708 -0.011780582 0.016649865
-0.05948878 -0.059983 0.022842236 0.019277744 -0.032591857 -0.021021686 0.010626391 -0.054625534
-0.052705318 -0.042559154 0.02997367 -0.028667398 0.03847877 0.059867583 0.0049031824 0.028086096
-0.039452404 0.00094877183 -0.03838949 -0.060675338 0.058963783 -0.008142941 -0.043837443 -0.009522647
-0.0164017 -0.059062883 0.015116677 0.06221217 -0.057880633 0.04615297 0.023236021 0.012581609
0.048975863 0.015239358 0.052671656 0.038523473 0.047500968 0.0053964183 -0.012337029 -0.024555221
-0.02870959 -0.016747005 -0.019375257 0.047864452 0.038881786 0.04186832 -0.028374597 0.027195275
-0.025490947 0.038217448 -0.0104973465 0.033180885 -0.016353145 -0.061816156 -0.015447743 0.049521536
0.018737108 -0.02613438 -0.05709084 -0.027733602 -0.039556704 0.048247546 0.048745275 0.025316186
0.045204014 -0.04728584 -0.024264097 -0.044339016 -0.004933633 -0.038217008 0.05309567 0.0040964857
-0.024752602 -0.031360418 -0.041300617 -0.013673395 -0.010446534 0.054240227 -0.05075915 -0.04315521
0.052933507 -0.0059112534 0.0043725073 -0.04946824 0.03890516 0.05431746 0.038055986 0.028825901
-0.037076086 -0.024064481 0.061957024 -0.0038677752 -0.039520457 -0.017356947 -0.03726138 -0.009836212
-0.021409176 -0.0040708706 0.004744865 0.0059354007 0.02823694 0.025286071 -0.05759511 0.041311666
0.05459431 -0.03530486 -0.03403388 0.0131765455 -0.004208818 0.05877272 -0.05834385 -0.028998867
0.04861994 0.062287174 -0.034898013 -0.024802104 0.05037599 -0.05640296 0.00047501177 0.026470132
-0.060122587 0.05224338 0.04316044 -0.03772208 0.049264714 -0.04186496 -0.021453246 -0.043986008
0.0019308478 0.029561237 -0.037551165 0.027790174 0.0069597885 0.05727812 -0.035576724 -0.050679035
0.03122335 -0.036487393 0.0617133 0.055151038 0.0002996698 0.017671958 0.0045806244 -0.019906528
0.00035452098 0.016836256 0.030144855 0.050161757 0.022244915 0.03386329 -0.036925048 0.0057483315
-0.03183551 0.03278724 -0.005417548 0.0140180215 -0.046303235 0.04330995 0.038825974 0.03663242
0.025932029 0.05737388 -0.04622802 -0.030079588 -0.0047830045 0.040361777 0.024355441 0.008835904
0.00019182265 -0.04085835 -0.013399623 0.058281377 -0.028710946 -0.030710906 0.004076265 0.04379429
-0.02683425 0.017120972 -0.025231458 0.020080663 0.015621349 -0.06221679 0.0579035 0.035610355
-0.008332923 0.026723407 -0.020331748 -0.005430281 -0.057612814 0.054926902 -0.043816052 -0.0023441985
0.041390948 0.04293628 0.05159983 0.033850037 0.026470318 -0.041021504 0.021981463 0.05406648
0.03270504 0.006562829 0.048605524 -0.039148785 0.058470868 0.018856093 0.045887582 0.061451152
-0.046056412 -0.03855385 0.036884524 0.010202795 -0.05708374 -0.05120153 0.015181012 0.03689441
-0.010495275 0.008879647 -0.056398757 -0.00697165 -0.040679686 -0.030365564 -0.008384109 -0.01994475

fc_log_std.bias f4 [6]
00000000: 0a9c 4dbd 9808 003c 00f1 1e3a 8095 24bb
00000010: d6e4 10bd a455 b4bc
-0.05019764 0.007814549 0.00060631335 -0.0025113523 -0.035374485 -0.022013493
