output_lxl/MASAC/weight/actor_agent_3_ep_2100.pth (torch, 292136 bytes, 8 tensors)

fc1.weight f4 [256, 12]
000000 04 16 d2 3d 38 96 66 3e b8 90 33 3e a4 0a 4e be
       0.102581054 0.22518241 0.17535675 -0.20121247
000010 72 3b 46 3e 88 e5 45 3e f0 35 56 3e e6 f5 88 be
       0.19358614 0.1932584 0.20919013 -0.26750106
000020 00 9a 0e 3d 99 b6 81 be 60 bf 19 3d f4 28 97 3d
       0.034814835 -0.25334623 0.037536025 0.07380858
000030 b4 0e 2f 3e 5a cb 83 be e8 97 8f be 60 89 9d 3c
       0.17095453 -0.25741082 -0.28045583 0.019230545
000040 46 26 45 3e 38 07 66 be 78 16 77 be fe a2 b5 bd
       0.19252881 -0.22463691 -0.24129665 -0.08868979
000050 3c e5 8f be b0 83 f7 3d c0 be f6 3d c6 3c 23 3e
       -0.2810458 0.12085664 0.120481014 0.15941152
000060 b6 18 be bd f0 85 7a bd 26 1d db bd c0 0e 71 3c
       -0.09282057 -0.06116289 -0.10698919 0.014712989
000070 3a 78 4f be 8c 15 4f be 1e 16 8c 3e c4 c4 97 3d
       -0.20260707 -0.20223063 0.27360624 0.07410577
000080 1c 89 8c bd 26 e3 87 be 62 19 80 be 0f e6 19 be
       -0.06862089 -0.26540488 -0.25019366 -0.15029167
000090 8a 00 92 be 7c 66 37 be bc 3e 17 3e ec f0 49 3e
       -0.28516036 -0.17910188 0.14770025 0.1972081
0000a0 85 bf 89 be 5c aa 64 3e 80 82 43 bb cc c9 3d bd
       -0.2690393 0.22330612 -0.0029832423 -0.046335027
0000b0 d9 92 04 be e5 2a 2f be 75 ee 02 be c8 36 d2 bd
       -0.12946643 -0.17106207 -0.12786277 -0.10264355
0000c0 00 c3 14 3b 23 1c 71 be e2 9c 3b 3e 5a a1 87 3e
       0.0022699237 -0.2354589 0.18321565 0.2649029
0000d0 70 25 b9 3d 00 01 75 3c 18 f8 1b bd 06 9f 87 3e
       0.09040344 0.014953852 -0.038078398 0.26488513
0000e0 8b 91 86 be 40 e4 f6 3d cc 7b 7a 3e 35 03 8d be
       -0.26282915 0.12055254 0.24461287 -0.2754151
0000f0 9c 45 d0 3d f4 12 5f 3e b1 2a 5c be d4 ca 82 be
       0.10169527 0.21784574 -0.2150066 -0.2554537
000100 98 12 50 3d 6c a0 61 bd f0 94 07 3d a2 47 4e be
       0.050798982 -0.05508463 0.033101022 -0.20144513
000110 3f 65 26 be a0 10 c2 bc 60 7f fd 3c 90 23 f7 bc
       -0.1624956 -0.023689568 0.030944526 -0.030168325
000120 3a d9 55 3e 68 75 eb 3d e4 22 51 3e d8 a4 81 3e
       0.20883647 0.11497003 0.20423466 0.25321078
000130 6a 83 05 be 54 a1 d9 bd 58 bf bf bd 9c 3f 8d be
       -0.13038412 -0.10626474 -0.09362668 -0.27587593
000140 a0 00 89 3e 78 08 38 bd 17 7b 12 be ae ae 0f 3e
       0.2675829 -0.04492995 -0.14304768 0.14031479
000150 46 65 d3 bd c2 20 49 3e f0 c4 1f 3e b2 c9 33 be
       -0.10322051 0.19641402 0.1560247 -0.1755741
000160 8c 55 88 bd bb c6 6a be 46 64 14 3e ce 8c 4f 3e
       -0.06656942 -0.22927372 0.14491376 0.20268556
000170 2d c7 48 be 8a 14 ec bd a9 5d 90 be 61 90 91 be
       -0.1960723 -0.11527355 -0.28196457 -0.28430465
000180 40 43 55 bc 74 93 1e be c0 ae f0 3b c6 fe 91 be
       -0.013016522 -0.15485936 0.0073450506 -0.2851469
000190 58 11 90 be 0c ec 85 3e 90 8d 6f 3d 6b 60 25 be
       -0.28138232 0.26156652 0.058484614 -0.16150062
0001a0 b0 24 8d 3e 56 3b 25 3e c9 b2 6a be f8 b0 89 bd
       0.27567053 0.16135916 -0.22919764 -0.06723207
0001b0 d8 a4 32 be e7 e0 8f be a2 27 82 be ac 3b 45 be
       -0.17445695 -0.28101274 -0.25420862 -0.19261044
0001c0 f6 05 15 be fc fe 8f be ec 7a 87 3e 40 83 41 be
       -0.14553055 -0.28124225 0.2646097 -0.18897724
0001d0 77 cf 12 be dd 13 3d be 7e 51 44 be a8 e3 e5 bd
       -0.14336954 -0.18464608 -0.19171712 -0.112250626
0001e0 5c 01 56 3e 00 08 1e 3e 3d a4 56 be 70 5f d8 3c
       0.20898956 0.1543274 -0.2096109 0.026412696
0001f0 08 43 62 3e 59 84 7a be 0a ce 52 3e 28 a6 26 3d
       0.22095883 -0.24464549 0.2058641 0.040685803
000200 db d5 87 be ac e9 6b 3e 10 80 c1 bc 5e 4e 18 be
       -0.26530346 0.23038357 -0.023620635 -0.14873645
000210 50 e7 db 3c 00 63 72 3e 88 d6 89 3e 12 66 a5 bd
       0.026843697 0.23670578 0.26921487 -0.08076109
000220 d6 e2 0b be 25 ec 16 be 88 d5 c9 3d a0 55 aa bc
       -0.1366075 -0.1473852 0.09855181 -0.020792782
000230 cc b1 1e bd 49 ff 52 be 36 9f 48 3e d8 5c b3 3d
       -0.03874378 -0.20605196 0.19591984 0.08757943
000240 60 bf 5c 3e 9c 08 4e be 52 49 45 be ac ba 2b 3e
       0.21557379 -0.20120472 -0.1926625 0.16770428
000250 70 ad e8 3d a8 0f 71 3e 4d 33 78 be 26 8a 70 be
       0.113612056 0.23541129 -0.2423832 -0.234902
000260 9a b3 d9 bd cc 8b 41 bd 00 6f 68 3c a4 72 a1 3d
       -0.106299594 -0.04725246 0.014186621 0.07883194
000270 7e 58 05 3e d8 e9 19 bd 38 24 12 3d 82 c9 10 be
       0.13022038 -0.037576526 0.035679072 -0.14139369
000280 7c c4 8f 3d 88 24 90 3e 0c 36 1f bd c2 00 62 be
       0.07019898 0.2815287 -0.038869902 -0.22070602
000290 ea 3f ee bd 94 be 25 3e 00 0f ec ba bc 9c 35 be
       -0.116332844 0.16185981 -0.0018009841 -0.1773557
0002a0 58 b9 c1 bd 96 87 32 3e 38 39 86 3e 14 37 42 be
       -0.0945918 0.17434534 0.2621553 -0.18966323
0002b0 34 6c cd bd 4c 4a e8 3d f4 c1 9b bd 30 75 ea bc
       -0.10030404 0.11342296 -0.07605353 -0.028620332
0002c0 d4 c5 aa bd 14 04 17 3e 80 ab 05 bd 37 d6 91 be
       -0.08338514 0.1474765 -0.03263426 -0.28483745
0002d0 8b a6 87 be 40 94 64 bd e0 6a e2 bc 3c b4 6a 3e
       -0.2649425 -0.055805445 -0.027638853 0.22920316
0002e0 98 63 03 3d 60 b0 4e bc fc 60 5c 3e ad 04 1e be
       0.032077402 -0.012615293 0.21521372 -0.15431471
0002f0 14 94 68 bd f8 6d ec 3d 7a 31 b6 bd f6 36 11 3e
       -0.056781843 0.115444124 -0.08896156 0.14181122
000300 da 13 d6 bd 96 80 8c be 1d c6 1b be 60 0f 07 3d
       -0.10453005 -0.27441853 -0.15212293 0.032973647
000310 28 09 03 3e e8 81 2d 3d 40 cf e2 bc 40 00 7a bd
       0.12796462 0.042360216 -0.027686715 -0.061035395
000320 d0 62 b8 3c ac 88 2d 3e 0c 86 40 3e be aa 22 3e
       0.022508055 0.16946667 0.18801135 0.15885445
000330 36 1b 87 3e d4 51 a4 bd 7c ba 24 be 80 f4 78 bd
       0.26387948 -0.0802342 -0.16086763 -0.06078005
000340 90 37 2f 3e a8 4d 87 be 00 7e 6d 3a ae f1 4f 3e
       0.17111039 -0.26426435 0.0009059608 0.20307037
000350 b4 be 88 3e 80 f2 c2 3b 2b a5 87 be ce 94 42 be
       0.26707995 0.0059493184 -0.264932 -0.19002077
000360 b0 b7 0d 3e 28 e3 7c 3e 2a cd 2f 3e d4 72 a9 3d
       0.13839602 0.24696028 0.17168108 0.08273855
000370 7a 2f 6c be 68 61 2e 3d 50 3a 7d be 80 c6 57 3b
       -0.23064986 0.042573363 -0.24729276 0.0032924712
000380 ce ee 78 be 20 9d 89 3e a0 a6 f4 bc 9d 9a 3e be
       -0.24309847 0.2687769 -0.02986461 -0.18613668
000390 7c 59 aa bd 6c 3b 52 3e 8a 2b 5f be e8 38 04 3e
       -0.08317849 0.2053048 -0.21793953 0.12912333
0003a0 a9 16 14 be b6 38 46 3e 58 e0 7d 3e 20 bc ec 3d
       -0.14461769 0.19357571 0.24792612 0.115593195
0003b0 c6 aa 35 be b4 06 0f 3e 56 e7 88 3e 8c 39 de 3d
       -0.17740926 0.13967401 0.26738995 0.1085082
0003c0 44 a9 59 3e 98 04 0c be 54 56 1e be 9d fa 83 be
       0.21255976 -0.13673627 -0.15462619 -0.2577714
0003d0 d0 17 cf 3d 8a 66 68 be 46 02 2c 3e 88 b6 e1 3d
       0.10111964 -0.22695366 0.16797742 0.11021143
0003e0 f8 54 77 3d 00 38 8d bb 66 4f 7f be 94 ac b6 3d
       0.060383767 -0.0043096542 -0.24932632 0.089196354
0003f0 e4 7a 9a 3d 7b f9 8e be d4 a1 e0 3d 80 44 c8 3d
       0.07542971 -0.27924713 0.10968366 0.0977869

fc1.bias f4 [256]
000000 1c e1 06 be 98 bb 7c 3d 06 34 83 be 7c 57 06 be
       -0.1317181 0.06170234 -0.25625628 -0.1311931
000010 38 d4 3f 3e ae 4e 48 3e 60 6b 54 3c 10 c2 6a 3e
       0.18733299 0.19561264 0.012965053 0.22925591
000020 b1 39 89 be 38 ad 0e 3e f6 64 dc bd 05 fc 8f be
       -0.26801828 0.13933265 -0.10761444 -0.28121963
000030 f2 d9 8a 3e 40 fe 22 3d 38 00 73 3e 78 59 23 3d
       0.27119404 0.039793253 0.23730552 0.039880246
000040 50 25 a6 3c 40 ea 3a bd 52 62 39 be 71 91 1d be
       0.020281464 -0.045633554 -0.18103912 -0.15387513
000050 d0 68 f7 bc 2c e4 57 3e a8 48 5c bd d0 96 09 bd
       -0.030201346 0.21083134 -0.053780228 -0.03359109
000060 cc 8d f0 3d ce 8e 91 be 50 72 68 3e 60 8e 93 bc
       0.117457956 -0.28429264 0.22699857 -0.018012226
000070 d0 71 52 3e e0 80 1d 3d 66 59 21 3e 2c 49 d3 3d
       0.20551229 0.038452983 0.15756759 0.10316691
000080 99 e2 60 be e8 6e 98 3d 54 66 0b be d8 0d 63 3d
       -0.2196144 0.07443029 -0.13613254 0.055433124
000090 cc d9 4b 3e ba b8 8b be dc ca 26 3e 56 6d 8d 3e
       0.19907302 -0.27289373 0.16288322 0.2762248
0000a0 f0 00 d4 bc c5 61 14 be 2a 37 d7 bd d4 24 ef 3d
       -0.025879353 -0.14490421 -0.105085686 0.11676946
0000b0 22 32 1d 3e f0 17 0f 3d 82 24 4a 3e 75 a4 82 be
       0.15351155 0.034934938 0.19740489 -0.25516096
0000c0 54 43 58 3e ac 0b 04 3e 9e c7 0d 3e 40 96 32 3c
       0.21119434 0.12895077 0.13845679 0.01090008
0000d0 4a 32 8b bd 99 6e 48 be ce b5 53 3e b0 3e 58 3e
       -0.06796701 -0.1957344 0.20674822 0.21117663
0000e0 40 df 58 3c e4 9b 52 be 56 b9 5e be 12 0e 81 3e
       0.013236821 -0.2056728 -0.21750388 0.25206047
0000f0 a0 a5 93 3c 54 fb 85 3d cc 97 32 be 60 17 a7 3c
       0.018023312 0.06542078 -0.17440718 0.020396888
000100 fd a7 0a be 6c 4c af bd 88 cd 8b 3e da c6 27 3e
       -0.13540645 -0.08559498 0.27305245 0.1638445
000110 c5 66 4d be 94 be 90 3d e8 11 8c be 54 41 76 be
       -0.20058735 0.070676 -0.2735741 -0.24048358
000120 67 21 39 be b0 2b 88 bd 2c d1 4c 3e a8 b8 94 bd
       -0.18079148 -0.06648958 0.20001668 -0.07261783
000130 82 d0 18 3e 18 28 74 3e 68 0d 0d 3d c0 39 a8 bb
       0.1492329 0.2384342 0.034436613 -0.0051338375
000140 6b 7d 13 be b4 1b 8b 3e 16 42 c3 bd 50 fc ad 3c
       -0.14403312 0.27169573 -0.09534089 0.021238476
000150 ac e5 88 3e 34 7f 64 3e c0 01 83 bd a6 e6 b2 bd
       0.26737726 0.22314149 -0.06396818 -0.08735399
000160 80 13 92 bc 26 b2 8a 3e 20 e8 b7 3c 1c 89 08 3e
       -0.017831564 0.2708904 0.022449553 0.13333553
000170 81 25 88 be d7 60 89 be f4 f5 67 bd 80 fe 1e 3b
       -0.26591113 -0.26831695 -0.056631044 0.002426058
000180 4c bb e9 3d bb dc 01 be 32 32 28 be b4 6f 07 3e
       0.11412677 -0.12681858 -0.16425398 0.13226205
000190 76 21 85 be dd 61 88 be 00 da 90 ba f6 ae 87 3e
       -0.2600209 -0.26637164 -0.0011051297 0.26500672
0001a0 f0 80 c1 bd a0 6e 15 be 1e d5 83 bd 30 f1 6e be
       -0.09448421 -0.14592981 -0.06437133 -0.23334193
0001b0 00 32 77 bb 28 ef 1a bd fc 86 50 be 40 51 61 3e
       -0.0037719011 -0.037825733 -0.20363992 0.2200365
0001c0 20 4e cb 3d 9c 23 1c 3e 56 03 3c be 62 46 fb bd
       0.099270105 0.15247959 -0.18360648 -0.12269284
0001d0 16 d9 b0 bd 13 46 87 be 09 d0 71 be 90 44 b4 3c
       -0.08635156 -0.2642065 -0.23614515 0.02200535
0001e0 00 20 e4 b9 44 05 31 3e c8 9e 54 bd 0b 6a 09 be
       -0.0004351139 0.17287165 -0.051909238 -0.13419358
0001f0 ac 88 fe bd 28 38 0e 3e c2 32 52 be 2c a5 cd 3d
       -0.12428412 0.1388861 -0.20527175 0.1004127
000200 90 7e 70 3e 04 e3 3c be c5 d1 41 be cc 12 64 3e
       0.2348578 -0.18445975 -0.18927677 0.22272795
000210 c4 b0 d3 3d 85 51 13 be 4c da a5 3d 50 87 3a 3d
       0.1033645 -0.14386566 0.080982774 0.0455392
000220 a4 6a e4 3d ee 48 56 3e 78 bc 31 bd 14 fc 6e bd
       0.111531526 0.20926258 -0.04339263 -0.05834587
000230 98 12 77 3e a2 7c 8c 3e f1 96 4c be 10 8b fd 3d
       0.24128187 0.27438837 -0.19979455 0.1238004
000240 fa fd 50 3e 50 73 13 be a4 54 38 be 86 b7 65 be
       0.20409384 -0.14399457 -0.18001038 -0.2243329
000250 c0 be 83 be a9 e5 88 be 60 4d 57 bc 04 4c 8f be
       -0.25731468 -0.26737717 -0.013141006 -0.27987683
000260 44 e0 ff bd 00 fa 19 bc 02 30 3d be 88 89 aa bd
       -0.12493947 -0.009397984 -0.18475345 -0.08327013
000270 c4 d6 64 be 04 10 89 3e 30 75 ce bd 40 94 b8 bb
       -0.22347552 0.2677003 -0.100809455 -0.005632907
000280 76 18 ad bd 94 87 e1 3d 68 22 93 bd 30 f6 4d 3d
       -0.08451931 0.110121876 -0.07184297 0.05028361
000290 34 77 34 bd fe 38 95 bd 18 2e 05 3d 50 90 24 3d
       -0.044058993 -0.07286261 0.03251466 0.04017669
0002a0 b0 61 1d bd 54 85 c3 3d d2 27 74 be 84 c9 de 3d
       -0.03842324 0.09546915 -0.23843315 0.1087828
0002b0 bc 4f a8 3d 4c 2b 61 bd d4 b6 d5 bd 58 37 29 bd
       0.08218333 -0.05497293 -0.10435262 -0.041312546
0002c0 10 70 f0 3d b0 2a 99 bd bc c9 58 3e ae 1e 85 3e
       0.11740124 -0.07478845 0.21170706 0.2599997
0002d0 e0 f0 14 3c 40 a9 b3 3d 40 70 c1 3b e2 b2 74 be
       0.009090632 0.08772516 0.005903274 -0.23896363
0002e0 dc 37 a8 3d 6c 9f 71 3e b2 09 8a 3e 50 9a 8c 3e
       0.08213779 0.23595971 0.26960522 0.2746148
0002f0 a4 d7 39 3e 18 31 0d 3d 20 56 61 bd 12 ff d5 bd
       0.18148667 0.034470648 -0.055013776 -0.104490414
000300 8c b6 06 3e 04 23 fb bd 54 b1 3d 3e 58 bd 31 3e
       0.13155574 -0.12262538 0.18524677 0.17357385
000310 3f b3 80 be 14 32 90 3e a3 b3 8a be 14 77 63 bd
       -0.25136754 0.28163207 -0.27090177 -0.055533484
000320 38 c8 86 3e fe f8 c0 bd d0 be 96 3d 00 48 b4 b9
       0.2632463 -0.094224915 0.07360613 -0.0003438592
000330 d0 06 44 3e 82 0a 81 3e 6c fc 6a be fc 48 61 3e
       0.19143224 0.2520333 -0.22947854 0.22000498
000340 ac e3 fc 3d 7c 19 85 3e c0 12 bc 3b 38 6b 66 be
       0.123481125 0.25996006 0.00573954 -0.22501838
000350 da 37 64 be dc 52 3b 3e 00 8c e9 bc 90 0e 70 3e
       -0.2228693 0.18293327 -0.02850914 0.23443055
000360 ec 90 8a be ce 73 48 be c0 dc 03 3e d4 75 28 3e
       -0.27063692 -0.19575426 0.12877178 0.16451198
000370 38 ea 5f bd 98 a6 04 bd 1c d1 2a 3e 28 0b 62 3d
       -0.054666728 -0.03238544 0.16681331 0.05518642
000380 04 09 5d be 2c cd 71 3e d0 9d dd 3c 3a 51 87 be
       -0.2158547 0.23613423 0.02705279 -0.26429158
000390 e4 c4 c7 bd 58 52 ad 3d 28 2f 33 3d 10 0f c2 bd
       -0.09754351 0.084629714 0.043746144 -0.09475529
0003a0 70 08 87 3e 7f af 4b be 4c 44 6c be 66 99 39 3e
       0.26373625 -0.19891165 -0.23072928 0.18124923
0003b0 fa 64 8f be 06 a5 8d 3e cc 07 45 be 99 2d 05 be
       -0.28006727 0.27664965 -0.19241256 -0.13005675
0003c0 e0 97 84 be 70 05 3d be 10 89 c4 bd 74 f0 20 be
       -0.2589712 -0.18459105 -0.09596455 -0.15716726
0003d0 46 6b 4e be a0 ca e8 3c 50 90 ee bc 30 a6 5d 3e
       -0.20158109 0.028416932 -0.029121548 0.21645427
0003e0 90 a1 01 3d 8c 7a 7e 3e 79 f7 5e be 9a f5 59 be
       0.03164822 0.24851435 -0.21774091 -0.21285096
0003f0 48 2c 0b 3e 78 bc 31 bd 20 9e 73 3e 74 ef 38 be
       0.1359111 -0.04339263 0.23790789 -0.18060094

fc2.weight f4 [256, 256]
000000 32 56 33 bd b0 f5 01 bd 00 90 fe 3b 54 87 80 bc
       -0.043783374 -0.031728446 0.007768631 -0.01568953
000010 e0 68 1f 3d 04 f9 3a 3d 90 6f 42 bd 92 3e 5e 3d
       0.038918376 0.045647636 -0.047469676 0.05425889
000020 84 28 fb 3c 16 01 3c bd 82 3f 1f 3d b0 2e f1 3c
       0.030658968 -0.045899473 0.038878925 0.029441208
000030 3a db 4e bd 20 8f 81 3c 94 63 c1 3c 10 14 4a 3d
       -0.05050204 0.015815318 0.023607053 0.04933554
000040 90 f7 dd bb 62 73 1d 3d 2c d3 e1 3c a8 8d 7e 3c
       -0.0067738965 0.038440116 0.027566515 0.015536703
000050 10 81 04 3c 12 22 0b 3d 60 e8 18 bc 04 5c 5e 3d
       0.0080874115 0.03396804 -0.009332746 0.05428697
000060 80 bc af bb 2e 0f 1a 3d 34 23 78 bd cc 89 01 3d
       -0.005363047 0.037612133 -0.060580447 0.031625554
000070 52 16 48 bd f8 bb 06 3c 36 8d 77 3d ba 97 4f bd
       -0.04884941 0.008223526 0.060437404 -0.050681807
000080 14 16 ad bc 60 21 0d bb f8 fe 53 3d e0 06 2b bd
       -0.021128692 -0.0021534786 0.05175683 -0.041754603
000090 90 ae d2 3c ce 00 5a bd 54 39 1c bd 08 b9 26 bd
       0.025718004 -0.053223424 -0.03814061 -0.040703803
0000a0 10 4f c7 bb 0c 1a 62 3d 9a 3b 69 3d 94 13 e5 3c
       -0.006082423 0.05520062 0.056941606 0.027963437
0000b0 ac d5 01 bd 68 2c 33 3d d4 42 35 3d 72 f5 6e 3d
       -0.031697914 0.04374352 0.044253185 0.058339544
0000c0 c0 88 cf ba 98 36 1e 3d e8 43 b7 3c c4 76 ef bc
       -0.0015833601 0.038626283 0.022371247 -0.029231437
0000d0 64 b0 1b 3d 1a e1 5e 3d 6a 10 45 bd d8 d8 7b 3d
       0.038010016 0.054413892 -0.048111357 0.061486095
0000e0 6c ec ea 3c 88 18 52 bd 54 f9 49 3d 60 70 34 bb
       0.028677188 -0.051292926 0.049310043 -0.00275328
0000f0 04 16 cf 3c 94 9f 50 bd 04 a4 87 bc 48 61 96 bc
       0.025279053 -0.050933436 -0.016557701 -0.018356934
000100 5c 66 a4 3c 58 45 6f 3d 5c 41 91 bc d4 c1 f0 bc
       0.02006834 0.05841574 -0.017731361 -0.0293893
000110 60 de 57 3c 40 7a 6a 3c 04 1a db bc 9c 14 6d 3d
       0.013175577 0.014311373 -0.026745804 0.057880983
000120 00 c0 70 3d f0 43 40 bd f4 3f d9 3c 94 ec 24 3d
       0.058776855 -0.04693979 0.026519753 0.04026468
000130 08 95 02 bd 78 ee 1d bd 80 a1 4a bc 5a 30 31 bd
       -0.03188041 -0.0385575 -0.012367606 -0.043259002
000140 fc bd 3a bd 6c 00 f6 bc d8 05 02 bd a8 63 48 bc
       -0.04559134 -0.030029498 -0.031743854 -0.012230791
000150 88 89 36 bd 28 33 2e bd a6 0e 78 bd 80 0c 5f bb
       -0.044564754 -0.042529255 -0.060560845 -0.003403455
000160 dc c2 b8 3c 28 51 d9 3c 24 7f ce bc a0 25 03 3d
       0.022553854 0.026527956 -0.02520711 0.032018304
000170 56 0b 7e 3d 48 b4 ae bc b8 5c 82 3c b0 d6 ee 3b
       0.06202253 -0.0213262 0.015913352 0.0072887763
000180 8a 2e 03 3d d0 7e ce bc 88 94 1b bc 84 1c 07 bd
       0.032026805 -0.025206953 -0.009495862 -0.03298618
000190 30 86 31 bd 20 a0 b4 3b a8 aa 5a 3d c8 81 7d 3d
       -0.04334086 0.0055122524 0.053385407 0.061891347
0001a0 e8 3d ca 3c 16 34 54 3d b0 b8 97 bb 68 ca 98 3c
       0.024687722 0.051807486 -0.0046301708 0.018651202
0001b0 00 b1 3c 3b 40 09 4f 3c a0 60 b8 3b 32 1e 65 bd
       0.0028792024 0.012636483 0.005626753 -0.055937
0001c0 58 00 e9 3c dc 58 fe bc 04 a1 ff bc d0 41 2d bc
       0.028442547 -0.03104823 -0.031204708 -0.010574773
0001d0 30 b2 98 3c 14 69 e3 3c 5c a6 e5 3c dc 63 a2 3c
       0.018639654 0.027760066 0.028033428 0.019823007
0001e0 98 73 42 bc 86 58 43 bd b4 2e 02 bd 44 3d fe 3c
       -0.01186838 -0.047691844 -0.03178282 0.031035073
0001f0 62 1d 0f bd c4 73 93 bc e0 7d 7c 3c 80 db d6 bc
       -0.03494013 -0.017999537 0.01541087 -0.026227713
000200 6a 2f 17 bd 70 cc b8 bc cc 5e 36 3d d4 b3 81 3c
       -0.036910452 -0.02255842 0.044524 0.015832819
000210 12 6a 78 bd a8 c7 26 bd 80 c9 b7 bc 68 06 53 3c
       -0.06064803 -0.04071775 -0.02243495 0.012879945
000220 e0 60 ec bb d0 7e 5d 3d c0 7b fa bc 3a c1 15 3d
       -0.007213697 0.054076016 -0.030576587 0.03656123
000230 70 34 2d bd 40 07 1f bb 00 27 8b 3a 38 c5 39 3d
       -0.042286336 -0.0024265796 0.0010616481 0.045354098
000240 ca 25 19 bd e8 32 fb 3c 00 62 14 bd 80 c6 05 3a
       -0.037389554 0.030663922 -0.036226273 0.0005103126
000250 c0 42 de bb 34 2c 0d 3d 1c 2f 2d 3d f2 22 75 3d
       -0.0067828596 0.034465984 0.042281255 0.05984778
000260 38 3f 90 bc 12 25 37 3d 20 c4 4b 3d ae 50 07 bd
       -0.01760827 0.044713087 0.049747586 -0.033035927
000270 84 0f e9 3c 08 d8 a5 bc a0 4d 5d 3c ce e5 6f 3d
       0.028449781 -0.020244613 0.013507277 0.05856877
000280 38 ef 1c 3d 2c 66 06 bd b8 0f 5b bc 7c 8d 61 3d
       0.038314074 -0.032812282 -0.013370447 0.05506657
000290 4c 8c 9f bc 1e e1 5f 3d 72 76 46 3d ce 95 1a bd
       -0.019476078 0.054658048 0.048452802 -0.03774052
0002a0 e6 23 52 bd c4 f1 5f bd 60 91 63 3b e4 66 80 bc
       -0.051303767 -0.054673925 0.0034724101 -0.015674062
0002b0 f0 90 c2 3b 4a fa 52 3d 58 4f e5 3c 38 34 97 3c
       0.005937688 0.051508226 0.027991936 0.018457517
0002c0 7e f6 1b 3d 76 0a 04 3d e8 23 65 bc 18 ce 42 3c
       0.03807687 0.03223654 -0.0139856115 0.011889957
0002d0 fc 17 e6 3c d6 47 07 bd 06 e9 27 bd 9e 93 5f bd
       0.028087609 -0.033027492 -0.040993713 -0.054584138
0002e0 40 84 ac 3b f2 92 55 3d 54 3f 50 3d 70 b4 43 bd
       0.005264789 0.05214209 0.050841644 -0.0477795
0002f0 fc 8d b6 bc 46 58 6f bd b6 ca 2d 3d 18 ca 87 bc
       -0.0222845 -0.058433793 0.04242965 -0.016575858
000300 30 64 af 3c 18 3b 2c bd 50 4b 09 bc 32 d0 1f bd
       0.021410078 -0.042048544 -0.008379772 -0.03901691
000310 a4 3b ed bc e8 05 1a 3d a6 b3 09 bd a8 62 25 bc
       -0.028959103 0.03760329 -0.03361859 -0.010094322
000320 00 12 f3 3c 78 f9 68 3c a0 63 0d 3d d8 7d c2 3c
       0.029671669 0.014219634 0.034518838 0.023741648
000330 f0 02 1d bc f0 48 da bb 40 56 d8 3a 16 dc 40 bd
       -0.00958322 -0.006661527 0.0016505197 -0.04708489
000340 34 47 72 bd e6 ab 67 3d dc 9f a8 bc d0 57 2e 3c
       -0.059149936 0.05656042 -0.02058404 0.010641053
000350 76 89 1f 3d 78 d9 5d 3c 64 02 fd 3c 30 b3 d2 3b
       0.038949452 0.013540618 0.030884929 0.006430052
000360 e8 4c 3e bd 80 25 59 3c 60 b3 2c 3b 10 fc 04 bc
       -0.046460062 0.01325357 0.0026352033 -0.008116737
000370 dc f4 21 bd f6 90 23 3d a4 cb 2c bd 20 b7 73 bb
       -0.039540157 0.039933167 -0.042186394 -0.0037188008
000380 98 90 e3 bc 04 eb 22 3d 3c 41 80 bc a8 2a 47 3c
       -0.027778909 0.03977491 -0.015656106 0.012156166
000390 2c c1 16 3d f6 89 07 bd 4e 74 49 3d ac b2 9e 3c
       0.036805317 -0.033090554 0.049183182 0.019372307
0003a0 a8 ad 22 bc 84 f3 fa 3c b4 7e 35 bd 88 ba 75 3c
       -0.009929098 0.030633695 -0.044310287 0.014998086
0003b0 d4 00 a0 bc 70 62 6e bd bc 8f 4a bd 90 1b 1f bd
       -0.019531645 -0.058199346 -0.049453482 -0.038844645
0003c0 b6 50 01 3d 58 9a 3a 3d 9c 5b ae bc 42 d4 6d bd
       0.031571113 0.04555735 -0.021283917 -0.058063753
0003d0 e0 84 e5 bc c8 26 18 bd 00 f0 6d 3d f8 2d 99 bc
       -0.028017461 -0.03714636 0.05809021 -0.018698677
0003e0 e6 90 14 bd a0 95 01 bc 06 ed 13 bd 46 53 10 bd
       -0.036271 -0.007909209 -0.036114715 -0.035235666
0003f0 c2 ce 0f 3d b2 e6 30 bd cc 05 8f bc 68 e6 75 bc
       0.03510929 -0.04318876 -0.017458819 -0.015008546

fc2.bias f4 [256]
000000 6c de 0b 3d 60 9a 19 3c 38 d4 a9 3c c8 44 ae bc
       0.034147665 0.009375185 0.020731077 -0.021273032
000010 44 f8 9b 3c 60 30 69 3c 5e 1f 54 3d 1c b5 53 3d
       0.01903928 0.014232725 0.051787727 0.05168639
000020 98 36 58 3d 2c 75 b0 bc 7c 68 43 bd a0 16 0e 3c
       0.05278644 -0.021540247 -0.047707066 0.008672386
000030 a0 06 ea bc 38 12 69 bd 60 79 03 3c 40 25 9c 3a
       -0.028567612 -0.05690214 0.0080245435 0.0011912957
000040 3a 39 3e 3d a0 82 87 3c d4 63 1a 3d f6 7d 2c bd
       0.046441294 0.016541779 0.03769286 -0.042112313
000050 46 a0 5b bd c0 64 3b 3d ba 30 4e bd a0 8e c8 bb
       -0.053619646 0.04575038 -0.050339438 -0.006120518
000060 f0 26 93 bc aa 58 6b bd c0 72 1f 3c 78 5b 5e bd
       -0.017962903 -0.057457604 0.009731948 -0.05428645
000070 94 82 d0 3c 5e 96 18 bd b8 78 20 bc 00 53 be 3a
       0.02545289 -0.037252776 -0.009794407 0.0014520586
000080 f4 c0 db 3c b8 ca 80 bc ac 44 3e bd 64 50 3c 3d
       0.026825406 -0.015721664 -0.04645221 0.045975104
000090 a8 00 aa bc 1c 38 5e bd e8 65 8a bc 7a b8 53 bd
       -0.020752266 -0.05425273 -0.016894296 -0.051689602
0000a0 84 9a 68 3d 10 ee 2a 3c b0 e0 4c 3d 84 ea 45 bd
       0.056787983 0.010432735 0.050018966 -0.048319355
0000b0 56 e3 14 bd b0 70 f1 3b 3c 62 31 3d 14 97 27 bd
       -0.036349617 0.0073681697 0.043306574 -0.040915564
0000c0 a0 30 3d bd 0c 7a ed bc 8e 0e 42 3d a8 9e 42 bd
       -0.04618895 -0.02898886 0.04737716 -0.047514588
0000d0 cc b2 18 bd 10 4a ce bb a8 fa 25 3d 40 5c fe ba
       -0.03727989 -0.00629545 0.040522248 -0.0019406155
0000e0 00 7f db 3a 60 70 dc 3b 90 81 70 bc 00 88 49 3b
       0.0016746223 0.0067272633 -0.014679328 0.0030751228
0000f0 88 09 49 3c 80 a1 50 bb 32 1f 78 bd 3a 92 0d bd
       0.012270339 -0.0031834543 -0.060576625 -0.03456328
000100 98 b7 c8 bc 00 27 f9 39 70 6c 9b 3b 66 80 25 3d
       -0.024501607 0.00047522038 0.0047431514 0.040405653
000110 e4 05 77 bd 38 66 13 3d 00 0b 1a 3a 32 16 41 3d
       -0.060308352 0.035986155 0.0005876273 0.047140308
000120 74 88 f7 bc 20 08 f6 3b 30 39 0b 3c d8 9e a2 bc
       -0.030216433 0.007508293 0.008497521 -0.019851133
000130 40 89 d8 ba 30 ca b1 bb ac 70 a2 3c 9c e2 37 3d
       -0.0016520396 -0.005425714 0.019829117 0.044893846
000140 a4 7b e0 3c a8 a6 f9 bc 2e b1 0e 3d 84 ef 00 bd
       0.027402706 -0.030474976 0.03483694 -0.03147842
000150 84 db 9c bc f0 a6 6c bd 80 da 4b bb 8e d5 35 bd
       -0.019147642 -0.05777639 -0.0031105578 -0.044393115
000160 60 cd 17 3b dc 61 57 bd 80 ab f6 bc 48 b2 12 bd
       0.0023163185 -0.05258356 -0.030111074 -0.035814553
000170 68 4c 83 3c 5e 2f 07 3d 50 28 6e bd 70 33 d4 bb
       0.016027644 0.033004157 -0.058143914 -0.0064758584
000180 22 7f 6e bd 58 44 69 3d 5e 20 18 bd ec 0c db 3c
       -0.058226712 0.056949943 -0.037140243 0.02673956
000190 80 21 3e bb 34 7b 26 3d 04 9a 50 bd c0 34 78 3c
       -0.0029011667 0.04064484 -0.05092813 0.015149295
0001a0 08 09 0c bc e0 11 f7 bc 40 ce 27 3b 50 59 1d bd
       -0.008547075 -0.03015989 0.0025605112 -0.038415253
0001b0 80 ab e3 3a a0 63 6f bb 50 2c 7f bd 70 29 e4 3c
       0.0017369837 -0.0036527887 -0.06229812 0.02785179
0001c0 52 ac 5e 3d e0 d3 1b 3b f8 f9 18 bd 12 91 2a 3d
       0.054363556 0.002377741 -0.037347764 0.041642256
0001d0 b0 1e 1b bc 38 0c 2d bd d8 56 da 3c 1c 94 19 bd
       -0.009467766 -0.04224798 0.026652738 -0.037494764
0001e0 44 3d 6a bd 0c 4f 4e bd a0 30 0c bb 84 10 2b bd
       -0.057187334 -0.050368354 -0.0021391287 -0.041763797
0001f0 48 22 17 3c 2c cc 7d 3d f0 5b e3 bc 1c f1 e2 bc
       0.009224482 0.06196229 -0.0277538 -0.02770286
000200 48 ae 76 3c a0 78 e1 3c 60 d8 dc bb 22 ac 6d 3d
       0.0150562 0.027523339 -0.006739661 0.058025487
000210 04 cc 6d bd a6 21 12 bd f0 d3 96 3b 42 ff 21 bd
       -0.058055893 -0.03567662 0.0046029016 -0.039550073
000220 28 43 26 3c 34 cc 40 bd 7a a4 68 3d b8 94 10 bc
       0.010147847 -0.047069743 0.056797482 -0.00882452
000230 8a 6a 31 bd 80 4a 06 bc 92 1a 74 bd 24 c0 30 bd
       -0.043314494 -0.008196473 -0.059595652 -0.04315199
000240 60 67 cd bb 1c 9b 5b 3d 30 af be 3b e8 7f f9 bc
       -0.006268427 0.05361472 0.005819224 -0.030456498
000250 98 0f e6 3c 40 d3 63 bd fa a7 78 3d b4 1d f8 3c
       0.028083608 -0.055621386 0.06070707 0.030287601
000260 d8 2e 75 3c 92 64 7c 3d 60 fd 09 bd 30 51 5a 3d
       0.014964782 0.06161935 -0.033688903 0.053300083
000270 9c 10 7d bd d0 63 fd 3b 20 9a 45 3b 9a 91 72 3d
       -0.061783418 0.007732846 0.003015168 0.059220888
000280 a8 45 31 3c 78 2c d2 3c 6c 9c 9c bc 24 84 7a bd
       0.01081983 0.02565597 -0.019117557 -0.061161175
000290 d8 2f 3f 3c c8 7e 35 bd 70 40 6d 3c 60 9d 66 bd
       0.011669122 -0.04431036 0.014480695 -0.05630243
0002a0 0c 16 85 3c da fe 11 3d 20 92 a9 bc 64 fd b6 bc
       0.016245864 0.035643436 -0.02069956 -0.022337623
0002b0 9c b1 c7 3c 08 a0 0c bc a6 23 44 3d 4c 12 91 3c
       0.024376683 -0.008583076 0.04788556 0.01770892
0002c0 20 a2 f8 bb b4 fb 1d 3d 88 36 91 bc b0 58 0d bc
       -0.007587686 0.03857012 -0.017726198 -0.008627102
0002d0 f6 dc 1e 3d 7c 20 3e 3d 1c b5 d0 3c c0 00 06 bc
       0.038784944 0.0464177 0.025476985 -0.00817889
0002e0 f6 29 1f 3d 7c 33 2f bd 54 8a df bc 34 d7 2a 3d
       0.038858376 -0.04277371 -0.02728764 0.04170914
0002f0 16 ae 27 3d d8 e9 0a 3d 14 27 39 bd 88 a1 6a 3d
       0.040937506 0.033914417 -0.045203283 0.057282954
000300 6c 7b ba bc 90 a6 3a bc 20 8c d0 bb 50 c3 c3 bc
       -0.02276393 -0.011392251 -0.0063643605 -0.023896843
000310 58 21 6d 3d 02 65 0c 3d be 5c 48 bd ce 7c 53 3d
       0.057893127 0.034276016 -0.04891657 0.051632695
000320 7e ce 7b 3d 90 7f ee 3b 10 ec d4 bb 00 6b 44 ba
       0.061476223 0.00727839 -0.0064978674 -0.0007492751
000330 d0 d4 ff bc 64 03 c4 3c 4a ff 2b bd 60 42 7d bc
       -0.031229407 0.023927398 -0.04199151 -0.01545772
000340 d8 93 cf 3c b0 8f ae 3c 00 15 7a 3b a2 e5 02 bd
       0.025339052 0.02130875 0.003815949 -0.031957276
000350 a2 e4 20 3d 9c 2c e4 bc dc df c5 bc 60 69 86 3c
       0.03928054 -0.027853303 -0.024154596 0.016407669
000360 ca 49 3b bd 7c 6b cf 3c fa 81 34 3d 10 2d 7d 3c
       -0.045724668 0.025319807 0.044069268 0.015452638
000370 a0 45 6b 3b b0 ed 3f 3c 54 d7 50 3d d4 ec cd 3c
       0.0035899654 0.011714384 0.050986603 0.025137343
000380 36 46 66 3d ac 25 a4 bc 78 30 32 bd 68 23 58 bc
       0.056219302 -0.020037495 -0.043503255 -0.013192035
000390 fe 02 78 3d f8 81 6e bd 58 ba 76 3c 9c b1 a7 3c
       0.06054973 -0.058229417 0.015059076 0.020470433
0003a0 66 9e 3f 3d 42 02 0a bd 50 86 8a 3c 5c a9 07 bd
       0.04678192 -0.03369356 0.016909748 -0.033120498
0003b0 4e 80 40 bd 20 fa 16 3b 00 67 92 bb dc 7b 53 bd
       -0.04699736 0.002303727 -0.004467845 -0.051631793
0003c0 10 08 63 3d c0 28 45 bd 04 9e 25 3d 80 4f 8b bb
       0.05542761 -0.048134565 0.0404339 -0.0042514205
0003d0 20 7e f6 3c 32 53 1b bd b8 08 ca bc d2 7c 40 bd
       0.030089438 -0.037921138 -0.02466236 -0.046994038
0003e0 54 3d 10 3d 6e d5 06 3d 26 be 44 bd 94 99 eb bc
       0.035214737 0.032918386 -0.048032902 -0.028759755
0003f0 e2 c1 66 3d 5a 2c 16 bd c0 bd 82 3b 60 7c 33 bb
       0.056337245 -0.03666339 0.003989905 -0.0027387366

fc_mean.weight f4 [6, 256]
000000 60 04 59 3b 40 de eb 3a 5c 02 fa 3c 08 5a 3f 3c
       0.003311418 0.0017995313 0.030518703 0.01167918
000010 f0 5d bc 3b 62 35 1d bd 16 78 01 3d 40 e7 4a 3b
       0.005748503 -0.038380988 0.031608663 0.003096059
000020 70 65 6a bc 10 82 c8 bc c2 a4 3d bd 40 9b 2d 3d
       -0.014306411 -0.024476081 -0.046299703 0.042384386
000030 f8 26 84 bc 50 dc 0a bc 60 73 29 bc a0 55 9a 3c
       -0.016131863 -0.008475378 -0.010342449 0.018839657
000040 40 d3 0f 3c f0 ef b4 3b d2 ff 18 bd dc 68 75 3d
       0.008778393 0.005521767 -0.037353344 0.059914455
000050 64 d2 88 3c f8 c3 a1 3c ac fd e6 3c 0c e1 e2 bc
       0.016701885 0.019746765 0.028197132 -0.027695201
000060 2c e3 1d 3d a0 d7 01 bc fc 6f f4 bc b8 c6 4a 3c
       0.038546726 -0.007924944 -0.029838555 0.01237648
000070 00 80 17 b8 48 bf 55 bc 6c a0 2b 3d b8 f9 bf 3c
       -3.6120415e-05 -0.013046093 0.041901037 0.023434505
000080 18 ed 89 bc 9a 9c 61 bd 64 f9 26 3d 06 0c 5a bd
       -0.016836688 -0.055080988 0.04076518 -0.053234123
000090 7e 6d 09 bd 80 78 23 3b c0 ed 76 bc 60 e1 e8 bb
       -0.033551686 0.002494365 -0.015071332 -0.007106945
0000a0 76 4a 09 3d 60 df 4a bc bc 56 07 bd a8 5d c5 bc
       0.033518277 -0.012382358 -0.0330417 -0.02409251
0000b0 b8 3d 01 bc fc 0a a2 3c 68 ee 71 bc 90 df 67 3d
       -0.00788825 0.019780628 -0.014766313 0.05660969
0000c0 c0 ba 19 3c 50 23 23 3c bc cf b8 bc dc 56 98 3c
       0.009382904 0.00995715 -0.022559993 0.018596105
0000d0 c0 35 a5 bb 0e 10 39 bd 5a e5 51 bd 96 90 10 3d
       -0.005041808 -0.045181327 -0.051244117 0.035294138
0000e0 e4 c2 03 bd b0 49 d5 3b 00 a1 be ba 50 c9 e4 bc
       -0.032168284 0.0065090284 -0.0014543831 -0.027928025
0000f0 b8 d3 0d bc 86 f7 0c bd f0 63 76 bd 60 4b 0d 3b
       -0.008656435 -0.034415744 -0.0601539 0.002155982
000100 da ad 60 3d 4a 12 74 bd ba 68 04 bd 62 93 7f 3d
       0.054853298 -0.059587754 -0.032326438 0.062396415
000110 8e 9c 78 bd bc 5c a9 bc a0 ee ba bb f2 57 68 3d
       -0.060696177 -0.020674102 -0.005704716 0.056724496
000120 90 5a 17 bc d0 80 2f bd 6c b5 d1 3c 96 68 3b bd
       -0.0092379 -0.042847455 0.025599204 -0.045754038
000130 5e bf 72 bd 84 bb 5e 3d f0 3f 69 bc 40 c8 ea bb
       -0.059264533 0.054378048 -0.014236435 -0.007164985
000140 d8 86 05 bd 10 e9 91 bc f0 a7 f4 bb 00 97 0b ba
       -0.0325993 -0.017811328 -0.007466309 -0.000532493
000150 40 98 99 3b 52 a6 79 3d 7e b8 1d bd f0 0a a1 3c
       0.004687339 0.06094963 -0.038506024 0.019658536
000160 42 99 55 3d d8 e9 15 3c 18 92 7e 3c d2 48 27 3d
       0.05214811 0.009149991 0.015537761 0.04084093
000170 cc 8b a2 3c b4 48 75 3d 18 32 d1 bc 60 a9 e8 bc
       0.019842051 0.05988379 -0.025536582 -0.028401077
000180 38 09 a5 3c 7c a5 20 bd d4 49 c4 3c 70 30 7c bc
       0.020145997 -0.03922032 0.023960985 -0.015392408
000190 48 39 ee 3c a0 c6 a3 3b 60 ff 69 bd b0 db c0 bb
       0.029080048 0.004998043 -0.05712831 -0.005885564
0001a0 7c fa 4e bd d2 db 1c bd c6 5e 6c 3d f8 9e 3d 3d
       -0.05053185 -0.038295574 0.05770757 0.046294183
0001b0 1c 3e 72 3d 00 fc df 38 28 e6 ac bc 30 48 62 bd
       0.059141263 0.00010680407 -0.02110584 -0.055244625
0001c0 3c 0a 66 3d 2c 39 cd bc 28 3d 09 3c 14 10 42 bd
       0.056162104 -0.025051676 0.008376397 -0.047378615
0001d0 46 79 71 3d 14 c9 41 bd b8 04 aa bc aa 21 67 bd
       0.058953546 -0.047310904 -0.020754203 -0.05642859
0001e0 f8 47 17 3d 90 8c 0a bc a6 30 31 3d 58 c9 a0 bc
       0.03693387 -0.008456364 0.043259285 -0.019627258
0001f0 22 26 24 3d 48 a1 f0 3c b4 1c 50 bd 80 19 0c 3d
       0.04007543 0.02937378 -0.050808623 0.034204006
000200 00 67 3e bb 74 13 e5 bc be a1 19 3d b8 a7 7e 3d
       -0.0029053092 -0.027963378 0.037507765 0.062171668
000210 58 92 07 bd 20 fc 51 3d 1c 51 4a bd ae c6 6f 3d
       -0.03309855 0.051265836 -0.04939376 0.058539085
000220 1a 6b 46 bd 60 9e 3c 3c c0 c0 74 bd e4 4b 61 bd
       -0.048441984 0.011512369 -0.059754133 -0.055004016
000230 68 a3 2d 3d 48 d9 3b 3c 98 dc cf bc bc 73 6d 3d
       0.042392164 0.011465378 -0.025373742 0.0579717
000240 96 62 50 3d 90 36 37 bd 80 d0 7e 3d 0e 7b 40 bd
       0.05087527 -0.04472977 0.06221056 -0.046992354
000250 ce 6c 1d bd 64 89 db 3c 74 08 a5 3c 50 84 7e 3d
       -0.038433842 0.026798911 0.020145632 0.0621379
000260 b4 af 4e 3d d0 d8 83 bb 7a 32 72 bd 18 7f ee 3c
       0.050460532 -0.004023649 -0.05913017 0.029113337
000270 4c 02 d3 bc d6 89 68 3d 40 78 cd 3c a6 57 2c bd
       -0.025757931 0.056772076 0.025081754 -0.042075776
000280 60 63 4e 3b 88 a3 b4 bc de 0d 48 bd 30 1b 01 3c
       0.0031492338 -0.022050634 -0.04884135 0.007880017
000290 20 69 00 bc f4 dc 65 3d 54 8f 00 3d 96 b8 4a bd
       -0.007837564 0.05611892 0.03138669 -0.04949244
0002a0 80 88 a2 bb cc 22 87 3c 7c 63 d9 3c 3c 93 ad bc
       -0.0049601197 0.016496085 0.026536696 -0.02118837
0002b0 a0 7c 74 bb 64 ce 15 3d 74 85 d6 3c 60 b6 53 bd
       -0.0037305728 0.036573783 0.026186682 -0.0516876
0002c0 5c eb 55 3d bc 8f 62 bd 5e 67 78 bd 38 d3 df 3c
       0.05222641 -0.055312857 -0.060645454 0.027322397
0002d0 d0 18 b4 3c 42 97 79 3d 7c 57 91 bc 96 1f 77 bd
       0.021984488 0.060935266 -0.017741911 -0.060332857
0002e0 5c 7e 98 bc f0 91 3d bc 30 5f 20 3d 10 8a b4 3c
       -0.01861494 -0.011570439 0.039153278 0.02203849
0002f0 8c 8d 5f 3d 60 aa 33 3c a4 9b cf 3c c6 e8 5a 3d
       0.05457835 0.0109659135 0.02534277 0.053444646
000300 c0 84 85 bb 18 99 20 bd 88 22 81 3c 62 03 5f bd
       -0.004074663 -0.0392085 0.015763536 -0.054446585
000310 2c a6 ff 3c 5e 34 4e 3d 82 07 7b 3d 3c 54 f6 3c
       0.031207167 0.05034291 0.061286457 0.030069463
000320 14 e7 84 3c 1c 9e 21 3d 7c 3f be 3c 12 0a 0b 3d
       0.016223468 0.039457425 0.023223631 0.03394515
000330 78 6b 4b 3d 0a fa 2c bd 00 e8 88 bb 6e 2d 14 bd
       0.049663037 -0.042230643 -0.004178047 -0.036176138
000340 cc de c2 bc f0 20 63 bc b8 2a 1e 3c ca 84 37 bd
       -0.023787878 -0.013862833 0.00965374 -0.044804372
000350 f8 9f f3 bc 46 55 7c 3d 10 11 17 3d f6 3c 11 3d
       -0.029739365 0.06160476 0.036881506 0.035458528
000360 10 86 ba 3c 98 5c b8 3c 40 3f 37 3d 4a 94 27 3d
       0.022769004 0.02250509 0.044738054 0.040912904
000370 6c 25 29 bd 08 82 4b bc 74 01 e4 3c 7c 7d cd 3c
       -0.041295454 -0.012421139 0.027832724 0.02508425
000380 96 c1 2a 3d 58 67 73 bd c2 6a 0c bd 00 b4 bb 38
       0.041688524 -0.05942473 -0.0342815 8.9503825e-05
000390 f4 b9 72 3d f0 96 ef 3c 52 75 0f bd 6c 7f ae bc
       0.05925937 0.029246777 -0.035023995 -0.021300994
0003a0 40 f9 ba 3c 92 30 1f bd b0 e3 f4 bb 4c ca 26 3d
       0.02282393 -0.03886468 -0.0074734315 0.04072027
0003b0 f4 33 ef bc 42 31 17 3d 80 77 f3 bc 84 92 ca 3c
       -0.029199578 0.03691221 -0.029720068 0.024728067
0003c0 60 53 db bb 20 ca 5c 3d 64 f7 da bc 2c 7f 5d 3d
       -0.0066932887 0.0539037 -0.026729293 0.05407636
0003d0 a8 13 c3 3c 00 84 4e bb 08 6a 57 bc 50 05 2c 3c
       0.023813084 -0.0031511784 -0.013147838 0.0104993135
0003e0 dc f0 8a bc 00 0f 9e ba a0 fd cb 3c 6c bc 7b 3d
       -0.016960554 -0.0012058914 0.024901211 0.06145899
0003f0 7c df 5a bd 7a d3 1d 3d 0e 38 32 bd 10 03 f0 bc
       -0.053435788 0.038531758 -0.04351049 -0.029298335

fc_mean.bias f4 [6]
000000 6a 31 13 3d 68 42 44 bc fc 65 90 3c 9c 36 b0 bc
       0.035935797 -0.011978723 0.017626755 -0.021510415
000010 ec ac f7 3c f6 f4 53 3d
       0.030233823 0.051747285

fc_log_std.weight f4 [6, 256]
000000 48 8a 44 3d 82 7f 76 bd dc 8f 12 bd 10 fa 68 bd
       0.047983438 -0.060180195 -0.035781726 -0.056879103
000010 c0 27 1c 3c a0 06 6e bd e0 84 a6 bc b0 2a 88 bb
       0.0095309615 -0.058111787 -0.020327032 -0.0041554794
000020 dc 86 65 bd e0 4a b4 3c 82 4d 26 bd 10 4b d5 3b
       -0.056036815 0.02200836 -0.04060126 0.0065091923
000030 20 41 cc 3c 5e 47 0f 3d cc 54 c3 bc 10 25 14 bd
       0.024933398 0.03498017 -0.023844145 -0.036168158
000040 da 23 56 3d ba e7 76 3d 7e 11 6e bd 84 76 0a bd
       0.052280284 0.060279585 -0.05812215 -0.03380443
000050 e0 cb 74 3b da 4f 79 bd a0 0b a6 3c c2 84 60 3d
       0.0037352964 -0.060867168 0.020269215 0.054814108
000060 a8 74 39 bd 40 50 36 3c ea c1 56 bd 16 f1 3a bd
       -0.045277268 0.0111275315 -0.052431025 -0.045640074
000070 b0 14 56 bd 60 1d ce 3b f0 a1 89 bb c0 db 32 bb
       -0.052265823 0.006290123 -0.0042002127 -0.0027291626
000080 a8 53 6d 3c 2a 2b 1f bd 60 6a 0f 3d 3a a9 77 bd
       0.014485277 -0.038859524 0.035013556 -0.06046412
000090 d0 f5 cd 3b 30 4a 48 bc 5a be 75 bd e6 31 77 3d
       0.0062854066 -0.012224719 -0.059995987 0.06035032
0000a0 10 0c e0 3c 2c 54 b6 3c 38 f2 f2 bc 20 e2 34 3d
       0.027349502 0.022256933 -0.029656515 0.044160962
0000b0 6c 62 d2 bc d8 72 86 bc 70 8b d7 bc 98 6c 2d bd
       -0.025681697 -0.016412184 -0.026311606 -0.04233989
0000c0 b0 4a 0d 3c 2e 9e 4b bd 1e f3 67 bd 14 f6 99 bc
       0.008623764 -0.0497114 -0.05662834 -0.018794097
0000d0 cc af 6b 3d 22 67 72 3d b2 6c 03 3d 26 46 48 bd
       0.0575407 0.059180386 0.03208608 -0.048895024
0000e0 7c b0 ab bc b2 47 24 3d a0 75 f4 bb b8 74 01 bc
       -0.020958178 0.040107436 -0.007460311 -0.007901363
0000f0 b0 ff 1a 3d b8 6e 79 bc 18 d9 4e 3d 5a 86 15 bd
       0.0378415 -0.015224151 0.050500005 -0.03650508
000100 7c 2e ab bc f4 7a 6c 3d 3e d4 24 bd 0e c9 00 bd
       -0.020896189 0.057734445 -0.040241472 -0.03144174
000110 12 ef 14 3d a8 69 0e bd dc e6 b3 bc c0 b0 74 bc
       0.036360808 -0.03476873 -0.021960668 -0.014934719
000120 e4 5d ea bc c4 ab a4 3c f8 7f 77 3c a6 b0 5f bd
       -0.028609224 0.020101435 0.015106194 -0.054611824
000130 18 07 1f 3c c4 5e 22 bd a4 ed e4 3c 84 f0 19 3d
       0.009706281 -0.039641157 0.027945347 0.03758289
000140 a8 6e 37 3c ee d6 5b bd 4a 3c 36 3d 74 4b 19 bd
       0.011195816 -0.05367177 0.04449109 -0.037425473
000150 6e b4 3e 3d c4 ac c0 bc 60 10 39 3d 48 df 06 3c
       0.04655879 -0.023519881 0.045181632 0.008231945
000160 2a b9 71 bd 4e 59 28 bd ce 91 7a bd 04 86 db bc
       -0.059014477 -0.041100793 -0.061174206 -0.026797302
000170 5e 0a 6e 3d 20 c9 04 3d 6c 56 c4 3c 64 3c 61 bd
       0.058115356 0.03241837 0.02396699 -0.054989234
000180 38 81 8e 3c 56 27 39 3d 40 ca 52 bd ee 51 0e 3d
       0.0173956 0.04520353 -0.051462412 0.034746103
000190 10 09 62 3d 20 13 77 3c 40 ec f3 3b 98 56 dd bc
       0.055184424 0.015080243 0.0074439347 -0.02701883
0001a0 00 6b c4 b9 9c d8 1a 3d 8c 35 df bc 84 80 32 3d
       -0.00037463754 0.03780423 -0.027247213 0.043579593
0001b0 e8 60 61 bd f8 45 2a 3d ce fb 3d 3d 5e 42 7d bd
       -0.055024058 0.041570634 0.046382718 -0.06183087
0001c0 2a c8 35 bd 70 f7 83 3c 6c 53 26 bd 10 16 f9 bc
       -0.044380344 0.016109198 -0.0406069 -0.030406028
0001d0 80 a5 1a bc 00 47 d5 bb f0 0e e9 3c 5c 44 bd 3c
       -0.009438872 -0.006508708 0.028449506 0.023103885
0001e0 8c d0 bd bc 4c 3a 93 bc 54 ba 7a 3d c8 b2 9c 3c
       -0.023170732 -0.017972134 0.061212853 0.019128218
0001f0 40 ac da bc c0 ce 98 3a 80 81 bb 3c f4 02 8c 3c
       -0.026693463 0.0011658296 0.022888899 0.017091252
000200 84 70 2f bd 60 c5 a4 bc 00 53 d5 39 ec 63 9c bc
       -0.042831913 -0.020113647 0.00040688366 -0.019090615
000210 7c 78 db bc 10 40 15 bd 80 e2 08 ba 60 26 b7 3b
       -0.02679085 -0.036438048 -0.00052217394 0.0055892915
000220 aa 3e 2d 3d ec 14 26 bd c8 f8 7f bc 34 cf fe 3c
       0.04229609 -0.040547296 -0.015623279 0.031104662
000230 d8 f9 1b 3c 06 f5 53 bd b8 e8 99 bc 00 4e 73 3a
       0.009520017 -0.051747344 -0.018787727 0.0009281337
000240 f0 11 dd 3c 0c e5 f7 3c 00 15 a2 3a 00 b1 af bc
       0.026986092 0.030260585 0.0012365878 -0.021446705
000250 6c f8 18 3d 92 db 7d 3d 34 12 eb bc 38 9b e6 bc
       0.03734629 0.061976977 -0.028695203 -0.028150186
000260 c8 df cf bc 4c 5f e4 bc 94 54 0a 3d 1c 6b 6e bd
       -0.025375262 -0.027877472 0.033772066 -0.058207616
000270 b8 41 5c bc b0 9c 51 3c a4 df 10 3d 4c aa b4 bc
       -0.013443403 0.012793705 0.03536953 -0.02205386
000280 8c 6e 6b 3d 6a d1 7a 3d 9a 30 13 3d c0 c6 f7 ba
       0.057478473 0.06123487 0.035935022 -0.0018903837
000290 e0 66 0e bb d8 55 59 3d f2 19 75 3d 5c 74 be bc
       -0.0021728799 0.053060383 0.059839197 -0.023248844
0002a0 6e d5 0f bd 9c 52 9a bc 1e a3 73 bd c6 79 24 bd
       -0.03511565 -0.01883822 -0.059481733 -0.040155195
0002b0 40 c4 02 bc d8 4a 5e 3c 70 f1 d9 bb c8 15 bb bc
       -0.00798136 0.013567649 -0.006651096 -0.022837535
0002c0 fc 18 af 3c 48 5a f7 bc 80 c6 ce ba 1a c5 79 3d
       0.021374218 -0.030194417 -0.001577571 0.060978986
0002d0 9c 0d b2 3c c2 6d 13 3d 46 ec 5d bd 62 f6 76 3d
       0.021735005 0.035993345 -0.054180406 0.060293563
0002e0 68 fe 50 3d 9c 12 91 3c f4 e2 e2 bc 70 ca e5 3c
       0.05102387 0.017709069 -0.02769611 0.028050631
0002f0 b0 d3 6c bc e0 49 22 3d be 7f 2b bd a0 4f bd bb
       -0.014454767 0.039621234 -0.04186987 -0.0057773143
000300 c0 81 c4 bc f8 ef 0b bd 90 34 be 3c 58 d5 07 bd
       -0.02398765 -0.0341644 0.023218423 -0.033162445
000310 38 a2 6d 3d 92 c8 01 bd 40 91 7c bc 74 2e 16 bd
       0.058016032 -0.03168542 -0.01541549 -0.036665395
000320 c8 59 e8 bc cc 26 f9 3c c6 39 40 3d 10 0d 20 bc
       -0.028363124 0.030414008 0.046930097 -0.009768739
000330 9c f4 11 3d 50 10 ab 3b 00 d3 c1 3a 24 bf a0 3c
       0.03563367 0.0052204505 0.0014787614 0.019622393
000340 20 d0 6f 3c 6e a1 35 3d 56 e3 21 bd 0a b2 36 3d
       0.014637023 0.044343404 -0.039523445 0.044603385
000350 52 2a 49 bd 78 b8 40 3c be fd 04 bd 50 c4 48 bc
       -0.049112625 0.011762731 -0.03246855 -0.012253836
000360 1a b1 39 bd f0 d6 c6 3b 48 a6 eb bc c0 ff c4 ba
       -0.045334913 0.006068103 -0.028765813 -0.0015029833
000370 2c b9 47 bd c4 91 3c bd 68 70 4f bc 00 46 d7 39
       -0.048760578 -0.04603745 -0.012661077 0.0004106015
000380 68 35 cc 3c c8 4d 16 bd 76 29 79 bd de cf 28 3d
       0.02492781 -0.03669527 -0.060830556 0.041213863
000390 88 71 47 bd 2e 79 09 bd aa ba 74 bd b0 e0 22 bd
       -0.048692256 -0.03356283 -0.05974833 -0.03976506
0003a0 f0 41 8a 3b 88 c9 33 3c 42 b4 75 3d a8 8d 4a 3c
       0.004219286 0.010973342 0.05998636 0.012362875
0003b0 b0 f7 13 3c 1c ea 66 bd 28 5b ae 3c dc f2 80 3c
       0.009031221 -0.056375608 0.021283701 0.015740804
0003c0 8e 1c 58 bd d2 68 32 3d 0c 3c 3b bd 28 3f 5f 3d
       -0.052761607 0.043556996 -0.045711562 0.05450359
0003d0 8e 46 47 3d f4 37 e5 3c 0c 8f 6b bd e0 ed 76 bd
       0.04865127 0.027980782 -0.057509467 -0.06028545
0003e0 cc f8 ec 3c 20 d0 34 3c dc d7 6a bd 2a 88 6c 3d
       0.02892723 0.011035949 -0.057334766 0.057747044
0003f0 c4 c3 38 3d 78 09 5d 3d 92 0a 4e 3d a0 07 f9 bb
       0.04510857 0.05396411 0.05030305 -0.007599786

fc_log_std.bias f4 [6]
000000 38 a5 4b 3c e8 90 dd 3c fe 26 6d bd 58 87 dc 3c
       0.012429528 0.027046636 -0.057898514 0.026920006
000010 3a 4d 7c 3d f0 71 49 bc
       0.061597086 -0.012295231
