output_lxl/MASAC/weight/actor_agent_2_ep_200.pth (torch, 292124 bytes, 8 tensors)

fc1.weight f4 [256, 12]
00000000: 2c80 473e 4871 8f3d 0092 173b 744a 4bbd
00000010: 4ac9 c3bd e4a0 a1bd d077 a73c f063 413d
00000020: ae43 cbbd ce10 88bd b859 4cbe 94ca ca3d
00000030: 05ec 70be 92a2 8e3e 4c3b 9d3d 9441 77be
00000040: 2cd1 ba3d e8cd 52bd 749c 723e a061 16bc
00000050: 4006 d53b 8415 67be 4025 56be 0e23 81be
00000060: c209 62be 1869 be3d 879b 69be 9081 9abc
00000070: 52af 1ebe d0f6 713d 5102 7abe dc59 d5bd
00000080: 1015 6abd 2a50 8cbe 98ad 313e 7332 1cbe
00000090: 4e2c 0e3e 7c15 fa3d 3c85 ac3d d059 46be
000000a0: 04d1 f6bd dcbc 6e3e c965 84be 20cc 8d3c
000000b0: 52a4 903e 3a92 0c3e 77ee 7dbe 6064 64bd
000000c0: c08f 1abd f078 90bc a842 923d 3ac4 393e
000000d0: 20a2 83bc 8011 a03b 00a1 403d 1d29 8fbe
000000e0: 326f 113e eea1 65be 482f 773e bc2b d13d
000000f0: 96c8 debd d442 893d 6c5d 593e b648 83be
00000100: dc08 8c3e a31c 4fbe b945 79be 242a 33bd
00000110: 347e 3dbd 4000 cbbb c033 aebb a401 9c3d
00000120: beca b6bd 0064 7fba 0cef e53d c09e 8e3d
00000130: 8893 873e d50e 01be 0cdc 88bd 4e10 debd
00000140: db40 90be 802b 3e3c 2863 203e ba58 28be
00000150: 8c18 6c3e 585a 1e3e 0886 92be 7023 a43d
00000160: 99a8 8fbe d676 7bbe 18da 6ebe 4dd2 1abe
00000170: f082 d83d 646e d6bd 3699 dcbd e42f d8bd
00000180: 381f d03d 64e0 61be 44e8 5a3e 5c30 16be
00000190: f092 1a3e 53df 7cbe f826 f23d ae97 87be
000001a0: 8879 483d 007e 453e c459 ca3d eda1 46be
000001b0: 56b4 d4bd ae64 ffbd 2483 d5bd a012 b53d
000001c0: 8c1e aa3d 02b0 2fbe 8c1d 44be a649 083e
000001d0: 5007 50be 8ef7 073e a8fc 93bd 1a29 8b3e
000001e0: 24cb 843e 3012 853e 2452 66bd 16f3 05be
000001f0: 7ea8 52be 50af d03c 347e 933e 1ebd 3bbe
00000200: a64d 063e 9cb6 fd3d 803d e6bc 02d8 eebd
00000210: 38de 5e3e d04a 4abe 54b0 643e 70f6 583e
00000220: c6a8 62be dcdd ba3d 4083 a2bd c838 57be
00000230: bc85 903e b440 293e da81 86be 5a32 2d3e
00000240: 13ba 45be 08dc 303d fc4a ac3d 3a97 09be
00000250: 9091 3b3e c097 bb3c 78c2 82be eae7 c6bd
00000260: 58ca 0e3e 5457 6b3e 8068 48bb 8405 223e
00000270: 5639 303e f684 52be 34fa 803e 8774 4ebe
00000280: df5a 86be 0476 263e 0cc1 7f3e e42d 353e
00000290: 8a16 233e 0078 a93a 20a6 9dbc 68ee 553d
000002a0: f433 87bd 7cb7 fa3d da7b 3cbe 3ab6 00be
000002b0: a6d3 79be 02a3 133e 3b5d 88be b0e0 613d
000002c0: d0a6 103e 780b f73d 6c26 4fbd 5023 803d
000002d0: e89c 4f3e a405 acbd 4071 f43d c0fc a9bd
000002e0: c452 493e 0271 b9bd d0ce b3bc 8040 853d
000002f0: 6d35 0ebe c019 bf3c d084 28be 401c 633d
00000300: 6cbd 7c3e 549a 83be be12 8cbe 403e 8abc
00000310: cce2 ba3d 3c6d a43d a468 2fbd dc54 5dbe
00000320: 8ef4 50be 3257 1fbe af58 09be a057 4d3d
00000330: e77e 03be 8218 903e 4ce7 5fbe 3c20 923e
00000340: 1095 0e3d 29b2 4fbe d04f f43d c824 c5bd
00000350: a091 423e 004a f2ba 2cec 18be ba23 543e
00000360: 50f4 603d 1d34 13be c803 453e 50a2 a53d
00000370: 22d0 333e f5f6 6abe 7659 b8bd 467c 61be
00000380: 10a2 9c3c 4cba f03d de43 053e 205d 0c3c
00000390: d92c 11be 6be3 5dbe 4ca9 6e3e 1ae6 463e
000003a0: 070c 0fbe a047 843e dfd3 32be b2dd 4a3e
000003b0: 4fc7 93be d6b1 203e ec5d 8e3d 644d 733e
000003c0: 70c8 053e 601f c5bd fc59 08be 409e e2bb
000003d0: 08f8 a73d d849 7cbe 02ed 14be 928d 573e
000003e0: 7425 f33d 585f 093e ca27 933e 7a95 c7bd
000003f0: a4ff 83be fc19 8abe f0ba 233d 0493 a13d
0.19482487 0.070040286 0.0023127794 -0.04963155 -0.09559877 -0.078920156 0.020442873 0.04721445
-0.09925018 -0.0664383 -0.199561 0.0990192 -0.23527534 0.27858406 0.076773256 -0.2414611
0.091219276 -0.0514659 0.23692495 -0.009178549 0.006500989 -0.22566801 -0.20912647 -0.25222057
-0.22074035 0.09297389 -0.22813235 -0.018860608 -0.15496567 0.05907327 -0.24414946 -0.1041753
-0.057148993 -0.2740491 0.17351377 -0.1525362 0.13884088 0.12211129 0.0842385 -0.19370198
-0.12051585 0.23314232 -0.25858906 0.017309248 0.28250366 0.13727656 -0.24797998 -0.055759788
-0.037734747 -0.017635792 0.0714162 0.1814126 -0.016068518 0.0048848987 0.04702854 -0.27961054
0.14202574 -0.22425053 0.2413913 0.1021342 -0.108781025 0.067021996 0.21227044 -0.25641412
0.2735051 -0.20225768 -0.24343003 -0.04374136 -0.046262935 -0.006195098 -0.0053162277 0.076175004
-0.08925389 -0.0009742379 0.11227235 0.06963873 0.26479745 -0.12603314 -0.066825956 -0.108429536
-0.2817448 0.011607051 0.15662825 -0.16440096 0.23056239 0.15464151 -0.28617883 0.08014572
-0.28058317 -0.24557051 -0.23325384 -0.15119286 0.10571849 -0.10470274 -0.1077141 -0.105560094
0.101622045 -0.22058254 0.21377665 -0.14666885 0.15095115 -0.24694566 0.11823839 -0.2648291
0.048944026 0.19286346 0.09880403 -0.19397707 -0.10385959 -0.12470375 -0.10425404 0.08841443
0.083066076 -0.17156985 -0.19151896 0.13309345 -0.2031529 0.13278028 -0.07225925 0.27179796
0.25936234 0.25990438 -0.05623068 -0.13081011 -0.20572087 0.02547422 0.28807223 -0.18333861
0.13115558 0.123883456 -0.028105497 -0.11662294 0.21764457 -0.19755101 0.22332889 0.21187758
-0.22134694 0.091243476 -0.0793519 -0.21017754 0.2822703 0.16528589 -0.26270944 0.16913739
-0.19309263 0.04317859 0.0841274 -0.13436595 0.18317246 0.022899508 -0.25538993 -0.09712203
0.13944376 0.22982532 -0.0030579865 0.15822417 0.17209372 -0.20558533 0.2519089 -0.20161639
-0.26241204 0.16255957 0.24975985 0.17693287 0.15926567 0.001292944 -0.019244254 0.052229315
-0.06601706 0.12242028 -0.1840662 -0.12569514 -0.24397144 0.14417651 -0.2663363 0.05514592
0.14126134 0.12062734 -0.05057375 0.06256735 0.20274699 -0.08399513 0.11935663 -0.08300161
0.19660479 -0.09054758 -0.021949202 0.06506443 -0.13887568 0.023327708 -0.16456914 0.055446863
0.24681634 -0.2570368 -0.2735805 -0.016875386 0.09125289 0.08028647 -0.042824402 -0.21614403
-0.2040579 -0.15560606 -0.13412736 0.050132394 -0.12841378 0.28143698 -0.21865577 0.28540218
0.034810126 -0.20282806 0.119292855 -0.09626156 0.19000864 -0.0018485188 -0.14933842 0.20716754
0.054920495 -0.14375348 0.19239724 0.08087599 0.17559865 -0.22945769 -0.09001438 -0.22020063
0.019120246 0.11754283 0.1301417 0.008567125 -0.14177264 -0.21668784 0.23306769 0.19423714
-0.13969432 0.25835896 -0.17463635 0.19811133 -0.28862998 0.15692839 0.06951508 0.23759991
0.13064742 -0.09625125 -0.13315576 -0.0069158375 0.08201605 -0.24637544 -0.14543536 0.21050099
0.11872378 0.13415277 0.28741294 -0.09745307 -0.25780976 -0.2697295 0.0399732 0.07889369

fc1.bias f4 [256]
00000000: f0b9 bebc d868 e4bd a434 233e a289 8dbe
00000010: 4404 053e 2cc1 653e e8c0 033d 48d3 303e
00000020: 00d8 b63a c052 71bd dcb6 6cbd cab0 0d3e
00000030: be4c 4f3e 60e2 e3bc 8ee8 3cbe 7b95 0abe
00000040: e2c0 2b3e 1c95 89be e65e 303e 18f2 31bd
00000050: c495 77be 1cad 8b3e 661b 26be e91a 84be
00000060: 608d c8bc 267b 913e 8ce0 40be d7ef 37be
00000070: 94f0 73bd bf00 8cbe 2c24 8ebe bedb f0bd
00000080: ec6c 67be c826 183e f6f0 1b3e b46f 703e
00000090: 0896 3f3e 5409 193e f59a 0bbe 864c 88bd
000000a0: 3616 43be 7091 af3d c437 753e 15b1 24be
000000b0: 3e6d 50be 9260 513e 70cf aa3c 1083 39bd
000000c0: a07a 5e3e 1afd 3a3e f826 93bd dcbe 9c3d
000000d0: 8ab8 59be 424c dfbd 5855 3b3e 4e28 49be
000000e0: c050 733c 306f 5f3d 0018 2b3e 3e76 d7bd
000000f0: 549e eb3d 9a23 153e 3ad2 6fbe d07b d2bc
00000100: 9ca9 703e 29c1 93be c420 8f3e 5830 dcbd
00000110: d493 3fbe 24af 853e 761a 75be 3815 703d
00000120: 4044 21be 90a7 9bbc 2cd6 763e 2089 b3bd
00000130: 18bf 143d c038 c03b 2ee7 0e3e 66d5 063e
00000140: 00d8 df39 1c88 673e a4e3 af3d b8c5 743e
00000150: cad5 843e bbb2 2abe 082d 14be 9e7a 853e
00000160: 281a 523e 3c87 8abe b03f 783e 5c10 80be
00000170: 6811 e1bd ec23 543e 5e4d 5abe 4c40 dbbd
00000180: 5e61 453e a1a5 8fbe 8c64 923e cc9f 323e
00000190: a81c 243e 9ca3 89be 0aa9 573e b03a 3abe
000001a0: da44 933e b214 55be 043c 7c3e 48c8 6c3e
000001b0: c0e7 a63c 0699 80be a89d da3d 5c00 ffbd
000001c0: 90e1 8d3c 007f a83c 34d7 7ebd 3cf9 c23d
000001d0: 783e 05bd c057 5f3d f010 153e be20 aebd
000001e0: bb2d 10be fe88 f9bd f051 fcbc 80f7 df3d
000001f0: 48b6 e4bd 4689 8ebe f0d4 413d 2873 5d3e
00000200: 704f 073d 2c73 3cbe fe4b 07be c092 433e
00000210: 68d8 073d c862 883e f42e 8a3e a0a6 783e
00000220: 206e 65bd f245 2dbe f375 18be d00d cebc
00000230: ca75 083e c067 33bc 40cf 92be 2dec 4ebe
00000240: 60a9 e13c 081b 653e 90a3 8a3e 60be 793d
00000250: 5200 093e 7149 80be c0ce 12be 3cdc 333e
00000260: 2064 053c bc62 79bd 3a09 003e e00b 353d
00000270: 7ed6 3bbe 9687 32be 8d94 26be e62e a4bd
00000280: 2e9b 96bd c0ff d2bc 03ff 35be d486 5c3e
00000290: 7c08 633e b0bc ecbd 722b 95bd 2425 da3d
000002a0: 080b 87be 48c7 84be 24c5 adbd acba ebbd
000002b0: c406 8cbe d0a4 e73c fd02 0fbe e86a 2e3d
000002c0: d0c2 283e 907e 20be 4e99 2d3e 7213 1c3e
000002d0: c08d 983c e415 dc3d ac95 e03d 60ff 3abc
000002e0: 84c5 113e 20ef dbbd 1a94 75be e210 263e
000002f0: 2881 913d dcb9 933e 00c9 9dbc 728c 133e
00000300: f2f2 813e 0c57 2abd f033 cd3c e2ba afbd
00000310: 6632 87bd 8851 11bd c2d2 46be 0429 843e
00000320: ccc1 b43d 68b7 1f3d 28dc 673e d0f2 cbbd
00000330: d0a6 663e e83d edbd 4805 18bd be46 483e
00000340: 5c75 88be 2092 513e 36b5 3b3e 601f 783e
00000350: 5a80 18be 7857 913d 96db 0c3e 6ece 093e
00000360: a764 5cbe e310 82be 5001 86bc f44e 003e
00000370: 8cd5 fd3d 7cd1 bd3d a02e 7dbc e029 7ebe
00000380: b8fc 5abe 58ee 08be 8487 1fbd 86c6 2dbe
00000390: 905f c23c f8fe 0bbd f6f8 84be 6e00 0e3e
000003a0: cec7 3cbe c84a 693e d2c6 50be 5043 b0bc
000003b0: 5201 883e c0b4 f33b 5809 e2bd ba1d 8d3e
000003c0: 6321 71be ecb4 623e e675 85be c8b9 443d
000003d0: 3678 50be 18e6 9c3d b0ab f9bd 5c8a f63d
000003e0: e07f d33d 8262 8d3e b2a6 5abe 15aa 14be
000003f0: c023 c2bb 02ff 32be 88af 783e a0e0 5d3e
-0.023282021 -0.1115281 0.1593805 -0.27644068 0.12989908 0.2243697 0.03216639 0.17268097
0.0013949871 -0.058916807 -0.057791576 0.13836971 0.20244119 -0.027817905 -0.18448088 -0.13533585
0.16772798 -0.26871574 0.17223701 -0.04344377 -0.24178225 0.2728051 -0.16221389 -0.2580178
-0.024481475 0.28414267 -0.18835658 -0.17962585 -0.059555605 -0.2734432 -0.27761972 -0.117606625
-0.22600144 0.14858544 0.15228638 0.23480111 0.18709576 0.14944965 -0.1363333 -0.06655221
-0.19051442 0.08572662 0.23947054 -0.16083176 -0.20354173 0.20446995 0.020850867 -0.045291007
0.21726465 0.18260613 -0.07185167 0.07653591 -0.21261802 -0.10903217 0.18294275 -0.19644281
0.014850795 0.054549396 0.16708374 -0.105206 0.11504808 0.14564362 -0.23420039 -0.025693804
0.23502201 -0.28858307 0.27954686 -0.10751408 -0.18708736 0.26110184 -0.23935875 0.058613986
-0.15748692 -0.019000798 0.24105138 -0.08766389 0.036315054 0.00586614 0.13955376 0.13167343
0.00042694807 0.22610515 0.08588341 0.23903549 0.25944358 -0.16669743 -0.14470303 0.26070112
0.2051779 -0.270563 0.24243045 -0.2501248 -0.10989648 0.20716828 -0.21318576 -0.10705623
0.19275424 -0.28056052 0.28592336 0.1744377 0.16026556 -0.26882637 0.21060577 -0.1818645
0.28763467 -0.20808676 0.24632269 0.23123276 0.020374179 -0.25116748 0.10674602 -0.124512404
0.01731947 0.02056837 -0.062216952 0.09520194 -0.032530278 0.054527044 0.14557242 -0.08502339
-0.14079945 -0.12184332 -0.03080079 0.10935879 -0.1116758 -0.27839106 0.047322214 0.2162596
0.033034742 -0.1840331 -0.13212582 0.1909895 0.033165365 0.26637864 0.26988947 0.24282312
-0.056013227 -0.16921213 -0.14888744 -0.02515307 0.13326183 -0.010950029 -0.28673744 -0.20207281
0.027546585 0.22373593 0.27077913 0.06097257 0.13379028 -0.2505603 -0.14336681 0.17564481
0.008141547 -0.060885176 0.1250352 0.044200778 -0.18343541 -0.17434534 -0.16267605 -0.08016758
-0.07353817 -0.025756717 -0.1777306 0.21535808 0.22171205 -0.11559427 -0.07283677 0.10651615
-0.26375604 -0.2593329 -0.08484867 -0.11510214 -0.27348912 0.02827683 -0.13965984 0.042582422
0.16480565 -0.1567328 0.16953012 0.15241793 0.01862228 0.10746363 0.10966048 -0.011413425
0.14235502 -0.10738969 -0.23982278 0.16217378 0.07104713 0.28852737 -0.019260883 0.14409044
0.25380665 -0.04158692 0.02504918 -0.08580567 -0.066014096 -0.035478145 -0.19416335 0.25812542
0.08826026 0.03899327 0.22642577 -0.09958422 0.22524571 -0.11584073 -0.03711441 0.19558236
-0.26652038 0.20465899 0.18330845 0.24230719 -0.14892712 0.070967615 0.1375564 0.13457653
-0.21522771 -0.2540351 -0.016358048 0.12530118 0.123942465 0.092684716 -0.015453011 -0.24820662
-0.21385467 -0.13372171 -0.038947597 -0.16970262 0.023727208 -0.034178704 -0.25971192 0.13867351
-0.18435594 0.22782433 -0.20388344 -0.021516472 0.26563507 0.0074373186 -0.110369384 0.27561742
-0.23547892 0.22139329 -0.26066512 0.048028737 -0.20358357 0.076610744 -0.1219095 0.12038109
0.103271246 0.27614218 -0.21352652 -0.14518006 -0.005924672 -0.1748009 0.2428571 0.21667719

fc2.weight f4 [256, 256]
00000000: 50c9 83bc 56d1 05bd f807 aa3c 8c6a b53c
00000010: 50cd 4e3d 28f0 35bc 7068 60bc 7cb8 e23c
00000020: aed3 7ebd f40f 433d 3c66 603d 78a8 473d
00000030: fa34 3bbd 0a12 6a3d 7a77 713d 889a 6b3d
00000040: 3825 2f3d 80a3 3f3a 560c 6d3d 1e9f 153d
00000050: 4850 cc3c 42cd 16bd a67f 6cbd b614 4d3d
00000060: 88ed abbc 60c7 d0bb 0695 4a3d 801f 08bb
00000070: b85c e6bc 8c20 313d 62df 243d e61b 12bd
00000080: b091 bf3c bcbf 96bc f086 2b3d 3497 e73c
00000090: 74a5 f1bc 1c3d dbbc 4235 1bbd a091 a53c
000000a0: 003c 42bb 1809 f43c 0c49 b73c 002d e6b9
000000b0: 8e4b 31bd ba55 49bd 28f6 0abd 4019 b03b
000000c0: 40cd 673b 78c4 ffbc d4b5 4f3d e0d1 cc3b
000000d0: 4269 423d 6a99 303d 92b8 363d d0c8 3abc
000000e0: f4e3 763d 4073 ae3c 0e4d 26bd 02bc 6cbd
000000f0: 64eb 5e3d ce87 64bd 5080 23bd dc91 35bd
00000100: aa2c 63bd 1453 1e3d aa86 193d 2cd9 0dbd
00000110: 406a 67bc b820 3e3c 5002 a9bb 34a7 103d
00000120: e48e 6f3d 0e2a 763d 30c8 713d 30fa 73bd
00000130: f4bc 983c c46e ebbc b609 0f3d 50fd b13c
00000140: a873 4abd f086 703c b063 54bd d65b 303d
00000150: 540e 6a3d 06f1 62bd c089 12bc 3aec 1cbd
00000160: 3048 14bc 801b f2ba 58ef b93c f8df 5ebc
00000170: 386b 23bc 0a5d 43bd 361f 653d ac20 773d
00000180: 0001 4ebb d855 d23c 60ce 33bb 0a48 27bd
00000190: f033 a63b 1aac 303d a0b7 c63b 528b 20bd
000001a0: 4246 223d 460b 163d bc62 603d 0442 5cbd
000001b0: b0a1 6c3c 441f b23c f461 ab3c 3218 533d
000001c0: dcf8 ed3c 48b6 413c c83b 1b3c 523a 6a3d
000001d0: dc84 11bd bcaa c0bc d0fb 6fbd 80b4 ce3c
000001e0: b007 d73c a881 2dbd f4f2 8ebc fcf1 3ebd
000001f0: b027 043c 302c 1f3c 34c3 2e3d 98d7 1e3c
00000200: 68e5 ca3c c8ca cdbc 709a b73b 90c8 4f3d
00000210: 363b 163d ecb2 69bd 4000 49bd 4607 413d
00000220: b63e 64bd c0af 0dbb 284a b5bc 38c3 51bd
00000230: 78a6 2bbc 9430 c63c e46c 37bd 543b 5ebd
00000240: 54ad 5dbd 20f8 963b 8c16 653d cc7c 1dbd
00000250: ec71 09bd 6c09 943c 70b3 b3bc b049 8e3c
00000260: 72b3 44bd ae47 3f3d 08ec 023d ce37 463d
00000270: 0850 13bc 2473 cc3c b4a6 06bd e481 2bbd
00000280: 809f e33b 60ca f83b 7abf 5ebd b466 d2bc
00000290: 444e 14bd 56ab 4e3d 0448 733d 0069 a1bb
000002a0: 5422 2ebd bc5e 0b3d 7099 3f3d 286f 573d
000002b0: 08ef 6dbd 30e5 873c 287f 24bc 7618 5b3d
000002c0: d455 0bbd f0a1 e53b fe35 2f3d d88d 66bd
000002d0: b4c5 b63c f8eb 173c 7665 59bd 40a9 0a3b
000002e0: 5a65 5dbd fe74 78bd 8cb1 1b3d 08a4 993c
000002f0: fc92 873c ca90 60bd e8a2 59bd 005e 80bb
00000300: c0b2 ac3a 8815 4f3d d476 af3c 7a39 463d
00000310: 3451 56bd a0cd b7bc aad3 73bd 6084 003b
00000320: 365c 2ebd 8052 56bb 5630 133d c0e9 39bc
00000330: 04a8 af3c e670 66bd ac59 0b3d 1013 4f3d
00000340: 0042 44ba 9c72 1cbd 5a3a 19bd 9897 f73c
00000350: 1486 1cbd ea67 0fbd c00e a63c 70dc 82bc
00000360: d801 bd3c 4c65 76bd 004e 7abd 5037 0c3d
00000370: 3024 c73c d0ff fabb ec40 8ebc f03d c23b
00000380: ac35 bc3c 780f 153c de01 743d be7c 74bd
00000390: 7839 5d3d ace5 f1bc 2c66 75bd 946b febc
000003a0: 2c06 143d 0874 023d a826 6d3c 70bf 3bbc
000003b0: bc2c c0bc 20c4 813b ceb4 7e3d 5afe 123d
000003c0: d48b e73c 80bd 7a3b 0c5d 44bd 0c9d 8ebc
000003d0: a815 523d c03c a73c e828 3b3c 4647 393d
000003e0: f29c 2e3d a88b 08bc 8c8f 55bd 78b9 58bc
000003f0: 20a8 bbbc 126c 4dbd 5003 59bd 001b 83ba
-0.016087204 -0.03267034 0.020755753 0.022145532 0.05048877 -0.011104621 -0.013696775 0.02767586
-0.062213592 0.047622636 0.054785 0.04874465 -0.04570482 0.05714611 0.058951832 0.05752042
0.042760104 0.0007310435 0.057873093 0.0365287 0.024940625 -0.036816843 -0.057738923 0.05006858
-0.020987287 -0.0063714236 0.049458526 -0.0020770729 -0.028120384 0.04324393 0.040252097 -0.035671137
0.023384899 -0.018401973 0.041876733 0.028270341 -0.02949784 -0.026762538 -0.037892587 0.020211041
-0.0029637814 0.029789492 0.022373699 -0.00043902546 -0.043284945 -0.04915402 -0.03392616 0.005374104
0.0035370141 -0.031221613 0.050710514 0.006250605 0.047463663 0.043115057 0.044609614 -0.0114004165
0.060275987 0.02129519 -0.04060083 -0.057796486 0.054423705 -0.055793576 -0.03991729 -0.044328555
-0.055462517 0.03865345 0.03748194 -0.03463094 -0.014124453 0.01160448 -0.0051577464 0.035315707
0.05848588 0.0600987 0.059028804 -0.05956477 0.018644787 -0.02873934 0.03492137 0.021727234
-0.049426705 0.014680609 -0.051852882 0.04305633 0.05714257 -0.05540564 -0.008943975 -0.03831122
-0.009050414 -0.001847133 0.022697136 -0.013603203 -0.009974293 -0.04769615 0.05593797 0.060333893
-0.0031433702 0.0256757 -0.0027436242 -0.040840186 0.0050721094 0.04313288 0.0060643703 -0.039195366
0.039617784 0.036631845 0.05478166 -0.053773895 0.014442846 0.021743424 0.020920731 0.051536746
0.02904933 0.011823244 0.009474702 0.057184525 -0.035527095 -0.023518912 -0.058589756 0.025232553
0.026248783 -0.042359978 -0.017449833 -0.046617493 0.008066103 0.009715125 0.04266663 0.009694956
0.024767593 -0.025121108 0.005603127 0.05072838 0.03667756 -0.0570554 -0.049072504 0.047126077
-0.05572387 -0.0021619648 -0.022130087 -0.051211566 -0.010476701 0.024193086 -0.04478158 -0.0542558
-0.054120377 0.0046072155 0.055929706 -0.038449094 -0.03355591 0.018070899 -0.021936148 0.017369121
-0.048022695 0.04669922 0.03196338 0.048393063 -0.008991249 0.024957247 -0.032873824 -0.04187192
0.006946504 0.0075924844 -0.054381825 -0.025683738 -0.036207452 0.050456367 0.05939485 -0.004925847
-0.042513207 0.034025893 0.04677719 0.05259624 -0.058089286 0.016588777 -0.010040082 0.053490125
-0.0340174 0.00700783 0.0427761 -0.056287616 0.02231107 0.009272568 -0.053075276 0.002115801
-0.054051735 -0.060658447 0.03801112 0.018754974 0.01654958 -0.05482558 -0.053133875 -0.0039174557
0.001317583 0.050557643 0.021418966 0.048394658 -0.052323535 -0.022436917 -0.05952803 0.0019610152
-0.042568408 -0.0032702982 0.03593477 -0.011347234 0.02144242 -0.056260012 0.034021065 0.05055529
-0.00074866414 -0.038195238 -0.037409164 0.030223653 -0.038213804 -0.03501121 0.020270705 -0.015974253
0.023072168 -0.060155198 -0.061109543 0.034232438 0.024309248 -0.0076598898 -0.017364942 0.0059277937
0.022974811 0.009097926 0.059572093 -0.059689276 0.054009885 -0.029528461 -0.05991189 -0.031057157
0.0361387 0.031848937 0.014474548 -0.0114592165 -0.023458831 0.0039601475 0.062184148 0.0358871
0.028264917 0.0038259923 -0.0479403 -0.01740887 0.051290184 0.02041471 0.011423327 0.045233987
0.042630143 -0.008334078 -0.05213885 -0.013227813 -0.022907317 -0.050151892 -0.052981675 -0.0010002553

fc2.bias f4 [256]
00000000: e0b2 7c3b 9816 38bc 00dd fc3c 6ee9 7bbd
00000010: 20ac 8e3b b04f 203c aef1 3ebd 30a4 39bc
00000020: d47d 7a3d 8ccf 83bc a24d 723d 1ca8 403d
00000030: b23e 35bd 9c32 da3c f8bb 77bc 0055 ee3c
00000040: 781d db3c 68fa 543c 109e e83b 785d 6b3c
00000050: 0078 8eb9 8035 efbb 4402 a73c 4e7f 30bd
00000060: d03e 96bc 549c b03c c481 a13c dc82 b73c
00000070: 7acf 7f3d 58de 363d 6cd5 363d 6068 b63c
00000080: ec76 fa3c b863 5bbc 78e7 e63c c0d2 c7ba
00000090: 4ee5 7ebd d092 62bd b4af 763d 22c8 493d
000000a0: 987f 083c 8a5b 18bd 3cf2 f93c 4863 0f3d
000000b0: 9eff 3abd c0a8 30bb c02c 33bb a0c5 043b
000000c0: 3c1f 49bd f67c 543d f058 3cbc e025 f13c
000000d0: 041f 1fbd 4ac9 783d 849b 1e3d 28f2 c33c
000000e0: 680f 22bd 841d cdbc c03f cdbb b031 3dbc
000000f0: 2e56 34bd 001f ed3b 1896 17bd 403d dd3b
00000100: ac01 d43c 9241 1bbd 602f b4bc 36f0 74bd
00000110: 5039 e7bb 5c10 a4bc 9414 bfbc 4061 3cbc
00000120: 100d d1bb 3c2d 523d a6a2 703d e4b6 e0bc
00000130: 3a27 2fbd 1867 15bd 5042 14bc d0e6 013d
00000140: c0b9 f3ba 7c07 9a3c e6cf 40bd b4db 913c
00000150: 4c6b c8bc 30c2 1bbd f845 213d bc06 853c
00000160: 3a84 04bd d8af acbc 04d4 063d ccf6 f93c
00000170: 26f6 64bd 8039 473b b821 9bbc 240d b6bc
00000180: 98e2 aabc 7880 af3c 4028 2abd 647a 8cbc
00000190: acce d0bc 309e df3c 8cd3 e0bc d63b 713d
000001a0: fcad 8dbc e865 cb3c f808 73bd 105b 21bc
000001b0: c426 0d3d 06ee 76bd b666 2c3d 4451 38bd
000001c0: 8696 1f3d e2c1 26bd 50a6 47bc 2e1c 25bd
000001d0: 36c9 10bd 42b1 7d3d f4a8 a83c f6b2 64bd
000001e0: dcd2 7dbd fe93 7c3d 9afc 3fbd 380e 433d
000001f0: ccd1 e2bc 18a8 2f3c 040e 32bd 6e2c 573d
00000200: 0067 aabb c483 493d 98aa 693d d030 6dbc
00000210: 3817 9a3c 1c15 943c 5227 023d f4fe 9fbc
00000220: acae d8bc 944d 213d 0cec e5bc 201c 3abb
00000230: 8a10 47bd 90ca 34bc aee6 323d da3e 06bd
00000240: 1624 04bd ca48 563d 907a c2bb aeac 643d
00000250: a4ed 563d e059 3f3d 1a23 37bd ea76 5f3d
00000260: de01 23bd 920c 2d3d 6845 4dbc 84ae eabc
00000270: 6093 ffbb 5e03 543d 8e79 2abd 7094 26bc
00000280: 54a8 5fbd e806 6c3c 2046 7e3c b004 18bd
00000290: 72b5 223d 4a51 043d ba82 6e3d b01b 893c
000002a0: 921e 663d c068 c7bc a470 dd3c 8aa8 3c3d
000002b0: f0a5 8f3c 1e6b 3f3d 8cb4 43bd 7eb9 673d
000002c0: 4486 3a3d 1c9d 7bbd 2092 1cbd 76bc 6ebd
000002d0: 7c8c d73c 18f5 6e3d 28c8 2d3c b4c9 983c
000002e0: 2060 923c 544a cf3c 1287 643d 3098 c2bc
000002f0: b892 b7bc ccd9 8cbc 00c7 65ba 54ff a43c
00000300: ec55 19bd e6a8 373d 2686 2bbd aae1 28bd
00000310: 6421 47bd 10a9 9cbb ca70 66bd 187a 73bc
00000320: 3292 23bd ba39 573d b87b e4bc a80d 973c
00000330: fade 69bd c2bc 1cbd 6078 e9bb 7c7f 6f3d
00000340: 8c5a 4a3d 10d7 e3bb 906a fbbc ac30 96bc
00000350: bc74 fb3c 6855 e43c 34a7 07bd 946a fcbc
00000360: d85d 183c ec96 15bd 6ea3 2fbd a06c 53bb
00000370: a83c 78bc 3620 733d 40e9 d83b c814 063d
00000380: 60c7 f83c ae8a 7cbd b847 f9bc 647d 043d
00000390: 00b1 0f3d 0663 3d3d 6af0 373d 00c8 98bc
000003a0: 8674 05bd b487 34bd 0033 7d3b 36f1 4abd
000003b0: 6c61 ee3c 0881 75bc a49a 14bd a0b7 11bd
000003c0: ea1a 3fbd 2a86 57bd caee 6f3d 0498 983c
000003d0: 0a82 39bd 0c0a 293d 54d9 ebbc e000 f9bc
000003e0: e85c 30bc 3853 633c c2ab 2b3d 00a6 0f3d
000003f0: 40ee b0ba 16d1 403d e01b 273b 90ad 61bd
0.0038558766 -0.0112358555 0.0308671 -0.061501913 0.004354015 0.009784624 -0.046617202 -0.011330649
0.061155155 -0.016090177 0.059156068 0.04703532 -0.044249244 0.02663546 -0.015120499 0.029093266
0.02674745 0.012999155 0.0070989206 0.014365546 -0.00027173758 -0.007300079 0.020386823 -0.043090157
-0.018340498 0.021558918 0.019715197 0.022401266 0.062453724 0.044645637 0.04463713 0.022266567
0.030574284 -0.013390474 0.028186545 -0.0015245304 -0.0622304 -0.055315793 0.060226157 0.049263127
0.008331202 -0.037196673 0.030511014 0.03500679 -0.04565393 -0.0026956052 -0.0027339906 0.0020259395
-0.049102053 0.051876985 -0.011495814 0.029437006 -0.03884794 0.06073884 0.03872253 0.02391918
-0.039565474 -0.025038488 -0.006263703 -0.011547491 -0.0440275 0.0072363615 -0.037008375 0.0067516863
0.025879703 -0.03790433 -0.021995246 -0.059799396 -0.0070563927 -0.020027332 -0.023325242 -0.011497796
-0.006379731 0.05131267 0.058748864 -0.027430959 -0.04276202 -0.03647527 -0.009049013 0.03171426
-0.0018594787 0.018802397 -0.047073267 0.017804958 -0.024465226 -0.03802699 0.039373368 0.016238563
-0.032352664 -0.021079943 0.032917038 0.03051319 -0.055898808 0.0030399263 -0.018936977 -0.022223063
-0.020860001 0.021423563 -0.04154229 -0.017148204 -0.025489174 0.02729711 -0.027444623 0.058894955
-0.017294876 0.024828866 -0.059334725 -0.009848371 0.034460798 -0.06028559 0.04209014 -0.044999376
0.03896191 -0.040712245 -0.012185648 -0.040310077 -0.03534814 0.061936624 0.020588376 -0.055834733
-0.06196867 0.061664574 -0.04687176 0.047620982 -0.02768793 0.010721229 -0.043470398 0.052532606
-0.005200267 0.049197927 0.057047457 -0.01447697 0.0188099 0.018076472 0.03177578 -0.01953075
-0.026450478 0.039380625 -0.028066657 -0.0028398111 -0.048599757 -0.011034623 0.043677025 -0.032774784
-0.032260977 0.05231551 -0.0059350207 0.055828743 0.052472726 0.04671657 -0.04471121 0.054556765
-0.039796703 0.042248316 -0.012528755 -0.028647669 -0.007799551 0.051761024 -0.04161983 -0.010167226
-0.05460389 0.014405943 0.015519649 -0.037113845 0.03972382 0.032304086 0.05823014 0.016736835
0.056181498 -0.02434194 0.02703125 0.04605917 0.01753518 0.046733014 -0.047779605 0.056573384
0.045538202 -0.061429128 -0.038225293 -0.0582852 0.026312105 0.05833921 0.010606803 0.018650867
0.017868102 0.025303997 0.055792876 -0.02375421 -0.022408828 -0.017193697 -0.000876531 0.020141281
-0.037435457 0.04483881 -0.04187598 -0.041230835 -0.04861583 -0.004780896 -0.056259908 -0.014860652
-0.039934345 0.052545287 -0.027891025 0.018439129 -0.057097413 -0.03826595 -0.0071249455 0.058471188
0.04940276 -0.0069531277 -0.030690461 -0.018333755 0.030695312 0.027872756 -0.03311844 -0.03081254
0.009299718 -0.036520883 -0.042880468 -0.003226079 -0.01515118 0.05935689 0.0066196024 0.032734662
0.030368507 -0.061655693 -0.030429706 0.032346144 0.03508091 0.046237014 0.04490701 -0.018650055
-0.03258183 -0.04407473 0.0038635135 -0.049546443 0.029099189 -0.014984377 -0.03628029 -0.03557551
-0.046656527 -0.052618183 0.058577336 0.018627174 -0.04529003 0.041269347 -0.028790154 -0.030395925
-0.010764338 0.013874821 0.041911848 0.03507042 -0.0013498738 0.0470744 0.0025498793 -0.055097163

fc_mean.weight f4 [6, 256]
00000000: fe15 23bd 00be 7fbb da0d 6b3d 3cd5 7b3d
00000010: a070 4dbd 6452 153d 240d 15bd ec98 693d
00000020: ec20 e7bc 10e2 d5bc 6095 8abb bc36 5bbd
00000030: 6a46 21bd e8f5 dc3c f8e0 c53c 14bd 123d
00000040: 2cf8 993c b432 d3bc a6dc 3fbd acf5 0e3d
00000050: 58d0 52bc 94dd 23bd 289c 4f3c ac3f 2d3d
00000060: 6aec 14bd a415 42bd 7046 74bd 0040 1639
00000070: 9c00 49bd 900f 2a3d 18b9 0f3d 905d 3a3d
00000080: d48a 573d 34d4 843c a8e6 78bc 705e 27bd
00000090: 8c1f 423d 70c8 313d fc8a 6ebd 70dd a83c
000000a0: e0b4 613b 2abb 4b3d c890 1ebd 982f 0dbd
000000b0: 4cee 6bbd 2cfb d9bc fec2 4ebd 4258 1a3d
000000c0: a0b8 953b 5ec2 40bd fc5a 85bc c4d3 a23c
000000d0: a02f e83c 72f2 64bd e855 7d3c ce61 01bd
000000e0: 4023 93bb 7023 3abc 2aac 153d ea98 373d
000000f0: eaf3 6c3d 5abe 35bd 5c5f 1abd ae6d 19bd
00000100: 14e7 e8bc e851 b8bc 2a8f 09bd b074 0e3c
00000110: 10a4 1d3d 7c5f 06bd f86e 6c3d 485a 563d
00000120: 7023 55bd fa42 373d c2ba 56bd 32e3 31bd
00000130: cc4d 943c 4004 053d 58b3 4f3c 4896 7abd
00000140: 0035 e3b9 508d 6fbc 2c7c ba3c 00ef 3f3a
00000150: 9e9d 79bd 8872 11bc a81d 73bd 4091 56bc
00000160: e43d 613d 64d9 74bd b022 ef3c 5414 5e3d
00000170: 6cb5 f03c c0fb 5dbd 8efa 553d 009f b4ba
00000180: 001a 7cb9 6ac3 6f3d 707d 483d 407a c93a
00000190: 38c8 f8bc 3c74 35bd ba66 1ebd e0d2 10bd
000001a0: 8058 173a 8cd9 be3c b0d8 d83c 2af5 3fbd
000001b0: 6832 c8bc 606f 77bc a05a 06bc 105a 03bd
000001c0: b020 5ebd 48d1 a53c 1288 7abd d8ac 00bd
000001d0: e473 f7bc 3cf5 1d3d 5a13 4a3d 3464 a93c
000001e0: 5467 283d aaea 25bd 00c3 383c e6d8 4d3d
000001f0: 302a 463c e8f0 7abd 3cc3 bf3c 20c0 29bb
00000200: 4090 6fbb b4b3 cdbc b0d7 0abd 080f 8e3c
00000210: 4050 cd3a c026 2ebb aee9 79bd 60ee efbb
00000220: 5081 bcbb 001b f0ba 2873 863c 8895 74bd
00000230: 6c58 b8bc d87a fabc 5659 6a3d 186f 16bc
00000240: 40ad a33a 2838 9e3c 085b 663c c4fa 93bc
00000250: 48ee b43c c2fd 58bd 0014 bfbc d8a5 afbc
00000260: 4661 7f3d 52f2 5c3d a216 503d 8ca6 873c
00000270: 0a40 443d d681 1c3d 3c95 6c3d 38c0 bd3c
00000280: c256 4d3d e473 6dbd 90ec 0fbd 305d 89bb
00000290: 60a5 993b 162b 5bbd 709f 563d c6ec 083d
000002a0: c0fd 23bd b0a4 963c 44b1 8cbc ee38 613d
000002b0: e063 6bbc d8f3 7fbc 0089 33ba fc5b 803c
000002c0: 9c8b e03c 0c90 06bd a83a 74bc 9e06 293d
000002d0: 3026 62bd a0fd c93b 60f5 95bc d0fb 773c
000002e0: d2a7 3cbd 742c dd3c c830 0d3c 2428 4b3d
000002f0: 0abd 513d 6027 853b d04c 8a3b 302c 70bd
00000300: d865 863c 5ccf aabc 883e 0c3d 5207 6ebd
00000310: 521e 2dbd f0d1 873c 6826 e23c d080 43bd
00000320: 7cea 4d3d 48b1 073c 202e 0f3d 4e3b 65bd
00000330: 1c54 13bd e841 9f3c f40c a0bc 8890 aebc
00000340: b010 573d 5a20 02bd 6cd9 21bd 0806 fa3c
00000350: a8f9 febc 20b6 e4bc cca9 103d fc15 0bbd
00000360: 8039 06ba a68e 6f3d 5898 293d 6811 e93c
00000370: 300a 21bd 68ad d93c f451 f5bc 80d5 ae3c
00000380: 9c5c ff3c b050 70bd 8082 113c 607c 0ebd
00000390: 1a95 183d 38cb 773c 00a7 f639 18cc 2c3c
000003a0: 208d 7f3d b007 50bd 569b 6abd 803d 0fbc
000003b0: e80d 7ebc 72b2 2cbd 60f8 673c 60cf b73b
000003c0: ea80 2abd 0669 613d 3a52 06bd ae93 063d
000003d0: ae1d 3abd b05d 9b3c b290 03bd 98b4 183d
000003e0: daa7 4c3d 40cc 03bc 0899 0cbd ecac 88bc
000003f0: 8ca2 35bd 5414 02bd 28ce b03c cc75 f53c
-0.039815895 -0.003902316 0.057386257 0.061482653 -0.050156236 0.036455527 -0.036389485 0.057030603
-0.02821394 -0.026108772 -0.0042292327 -0.053518996 -0.039373793 0.026972726 0.024155125 0.03582485
0.018795095 -0.025781013 -0.046841286 0.03490226 -0.012867056 -0.040006235 0.012671508 0.04229705
-0.036358275 -0.04738392 -0.059637487 0.00014328957 -0.049072847 0.041518748 0.03508863 0.045499384
0.05262263 0.016214468 -0.0151917115 -0.040861547 0.047393367 0.043404043 -0.058238015 0.020613402
0.0034440085 0.04973904 -0.038712293 -0.034469217 -0.057600304 -0.026609026 -0.050478928 0.037681825
0.004569128 -0.047060363 -0.016278736 0.019876368 0.028343022 -0.055895276 0.015462376 -0.031587414
-0.004490286 -0.011360988 0.03654114 0.044823565 0.057849802 -0.044370987 -0.037688598 -0.037458114
-0.0284305 -0.022499993 -0.033583798 0.008694813 0.03848654 -0.032805905 0.057723016 0.052332193
-0.05203575 0.04474161 -0.0524242 -0.04342956 0.018103503 0.032474756 0.012677036 -0.061178476
-0.00043336302 -0.014621094 0.022764288 0.00073216856 -0.06094133 -0.008877404 -0.059354454 -0.013096154
0.054990664 -0.059777632 0.029191345 0.054218605 0.029383384 -0.054195166 0.0522409 -0.0013780296
-0.00024042279 0.05853597 0.04894775 0.0015371516 -0.03036891 -0.044300303 -0.038672186 -0.035357356
0.00057733804 0.023297094 0.026470512 -0.046864666 -0.024438098 -0.015102237 -0.008200318 -0.032068312
-0.054230392 0.020241395 -0.061164923 -0.031414837 -0.030206628 0.03856395 0.04933486 0.020677663
0.041114166 -0.040506996 0.01127696 0.05025568 0.012095019 -0.061264902 0.023408525 -0.002590187
-0.0036554486 -0.025110103 -0.033897102 0.017341152 0.0015664175 -0.002657339 -0.06101387 -0.0073221177
-0.00575272 -0.0018318594 0.016412333 -0.059712917 -0.0225031 -0.030576155 0.057214104 -0.00918176
0.0012487546 0.019313887 0.0140597895 -0.01806391 0.022086278 -0.052976377 -0.023324966 -0.021441385
0.062348627 0.053942032 0.050802834 0.016558908 0.047912635 0.03820976 0.05775951 0.023162946
0.050131567 -0.05797185 -0.035137713 -0.004192017 0.0046889037 -0.053507887 0.052398145 0.03342893
-0.040036917 0.018389076 -0.01717437 0.054985933 -0.014367074 -0.015622102 -0.00068487227 0.015668862
0.027410321 -0.032852218 -0.014906563 0.041266076 -0.0552122 0.0061642677 -0.01830548 0.01513572
-0.046058483 0.026998736 0.008617587 0.049598828 0.051205672 0.0040635318 0.0042205825 -0.05863589
0.016405985 -0.02085083 0.034239322 -0.05811245 -0.042265244 0.016579598 0.027606204 -0.047730267
0.05027245 0.008282013 0.034956098 -0.05596476 -0.035968885 0.019440606 -0.019537427 -0.021309152
0.05250615 -0.031769134 -0.03951399 0.030520454 -0.031124905 -0.027918875 0.03531818 -0.033956513
-0.00051202625 0.05848565 0.041405052 0.028450683 -0.039316356 0.026571944 -0.029946305 0.02134204
0.03117209 -0.0586707 0.008881211 -0.034786582 0.03725157 0.015124135 0.000470452 0.010546707
0.062390447 -0.05078858 -0.057277046 -0.00874269 -0.015506245 -0.042162366 0.014158338 0.005609438
-0.04162685 0.0550318 -0.03279326 0.032855682 -0.04543846 0.018965572 -0.032120414 0.037281603
0.049964763 -0.008044302 -0.03432563 -0.016684018 -0.04434447 -0.031757668 0.021582678 0.029963396

fc_mean.bias f4 [6]
00000000: 0828 f8bc b89b f3bc 62c0 31bd 0462 d7bc
00000010: e02d adbb 60e9 c73c
-0.030292526 -0.029737338 -0.04339636 -0.026291855 -0.0052850097 0.024403274

fc_log_std.weight f4 [6, 256]
00000000: 38f6 043c 86eb 33bd 3023 5f3c ee84 46bd
00000010: 842f 4dbd 80bc 6bbd 30d1 94bc 84b9 963c
00000020: 60b0 e83b d8f6 cb3c 1019 0c3c 904e 88bc
00000030: 1809 72bc 54f4 613d f0a5 593d b4f5 963c
00000040: a4be 1fbd 88a1 5dbd e007 47bc 6c02 3e3d
00000050: 5a21 48bd a401 efbc 0024 a03c 087d 09bd
00000060: 5af8 2d3d dc56 c33c 208e c73b e407 793d
00000070: 88bd e93c 901b 4abc c477 8d3c 5896 503c
00000080: 6884 57bd f049 dbbb 50ca 523c b2d5 77bd
00000090: bc4b 1cbd 081b 26bd f6e3 7abd 60b3 0b3d
000000a0: b85e 7f3d 7036 ef3c 28a8 55bd 001f a339
000000b0: 3881 39bc f4f0 b9bc 30cf 0ebc 6862 183d
000000c0: 580d 0c3d 8000 29bb 0292 223d fc02 bf3c
000000d0: 805e 7f3c c08a a13a b0c6 a8bb 0cfe febc
000000e0: 201b 50bd 52e2 3e3d 88f5 4b3c 607e 4a3d
000000f0: 5c94 80bc 748f 303d e091 77bc 34d9 24bd
00000100: 6067 9abb 2863 323d 0038 32ba 5a2b 603d
00000110: 9856 4e3d 1c85 d2bc 563b 5f3d 180e c2bc
00000120: 8254 223d 009f 36bb 0075 2a3b 6403 853c
00000130: baaa 32bd ac99 debc 50e5 433c b881 1a3d
00000140: 3684 123d e0ee a3bb c0c3 41bd fe1c 493d
00000150: 0c93 083d f87d c13c 88f2 30bc 8e95 39bd
00000160: 406f 9bbb 56af 6ebd cebf 683d da42 2fbd
00000170: 4a37 323d ec66 c1bc d8a0 1a3c 90f5 1ebd
00000180: 1c2f 20bd 2082 3cbc 96c8 69bd 2e30 183d
00000190: c6b3 48bd 38f6 e6bc f469 0fbd 80da 28bb
000001a0: 7407 ee3c fc15 cfbc 24cb 0e3d ac5e 80bc
000001b0: 907b c23c 0013 d4bb 90ed 15bc 48f7 0f3d
000001c0: 88e0 693d 24d6 adbc 289d 4bbc 3ace 613d
000001d0: 5892 48bd c065 3bbd 641d 243d 000c 683a
000001e0: a007 403d 3838 663d a008 20bc 3465 c2bc
000001f0: 28a9 753c f0a2 e93b 2ea6 3a3d ae53 33bd
00000200: 3af1 6abd c480 0dbd 38e2 8bbc 342f 3c3d
00000210: fc83 a63c 9447 4b3d c091 03bc a6aa 573d
00000220: 2089 c23b 3284 29bd 3829 3dbd 7232 5e3d
00000230: 4e68 063d a63e 4fbd ccb3 36bd 4800 2abd
00000240: 04f3 933c f826 743d 4843 003d 9828 f63c
00000250: b486 1abd 8aec 5bbd 3a05 14bd fe35 35bd
00000260: 0025 10bd b0d8 e6bc 3001 43bd b4ee 26bd
00000270: 0018 08b9 1863 7abd d00a 573d d01f a13b
00000280: f227 5f3d 1084 b73b e843 19bc 0634 783d
00000290: d43b e73c c04c 043b 7ca5 d53c 64a0 3e3d
000002a0: 4464 33bd 8a24 593d 66ec 3c3d 7885 48bc
000002b0: f805 79bd 605e b03b e022 5b3d 4c8e af3c
000002c0: 92e9 4d3d 0046 a2ba a87f 9bbc dce5 07bd
000002d0: 1cf9 8ebc a6fd 113d ee7b 4abd a80f 7f3c
000002e0: 4046 9f3b ec68 fbbc 38a8 76bd 84ba 9dbc
000002f0: f60a 113d 8a69 43bd e866 35bc 10b1 0fbd
00000300: 58c5 7fbd 4cf4 f43c e060 733b 9cbe 993c
00000310: dc9a 653d b811 38bd 0e0b 403d 5e0c 7c3d
00000320: 9401 b63c 3497 453d 6aaf 12bd 86a4 443d
00000330: f614 393d e8e9 513d 1858 60bd 8666 763d
00000340: 60b7 58bc 2662 4abd aa6d 09bd 1e16 243d
00000350: 72d5 483d 40e9 01bb 8cc7 933c 30d7 4e3c
00000360: 4ef5 703d 10c8 8a3c d8a0 a9bc 74a9 a9bc
00000370: 68d5 f23c ac22 b7bc 74ce f0bc 1c65 a8bc
00000380: 82c6 7f3d e4c1 88bc bc1d 4a3d e845 4e3c
00000390: 1a54 6bbd 16bc 60bd 40fa c5bc 4abd 59bd
000003a0: dc74 e93c f2e3 6a3d 0ca6 9abc 261c 5f3d
000003b0: 80a5 b7ba da32 04bd 70f0 42bd 2a7c 29bd
000003c0: 48f6 703c 5224 55bd cc48 a2bc 007a 66bb
000003d0: f614 723d b070 803c 4c48 563d 8a94 173d
000003e0: 14ec c23c 8a44 133d f45e 713d 3830 36bc
000003f0: 222b 4a3d 2026 c3bc 72f3 143d 6683 7dbd
0.008115344 -0.043925785 0.013619229 -0.048466615 -0.050094143 -0.057552814 -0.018166155 0.018399008
0.0071011037 0.024897978 0.008550897 -0.016639024 -0.014772676 0.05516465 0.053136766 0.018427707
-0.03900017 -0.054109126 -0.012147874 0.04638903 -0.04885993 -0.029175587 0.019548416 -0.033566505
0.042473175 0.023845129 0.0060899407 0.06079854 0.028532758 -0.012335673 0.017269023 0.012731157
-0.052616507 -0.0066921636 0.012865618 -0.06050653 -0.038158163 -0.040553123 -0.061252557 0.034106612
0.06234619 0.029200763 -0.05216232 0.0003111288 -0.011322312 -0.022697903 -0.00871639 0.037203223
0.034192413 -0.0025787652 0.039690025 0.023316853 0.015586495 0.0012324676 -0.0051506385 -0.031126998
-0.05080712 0.046602555 0.012448676 0.049436927 -0.015695743 0.043105558 -0.015110463 -0.040246204
-0.0047120303 0.043551594 -0.0006798506 0.054728843 0.05037555 -0.025698237 0.054499947 -0.023688361
0.039631374 -0.0027865767 0.002600968 0.016236968 -0.04361985 -0.027172886 0.011956528 0.037721366
0.035770617 -0.0050028414 -0.047305822 0.049099915 0.03334336 0.023619637 -0.010800011 -0.045308642
-0.0047434866 -0.058272682 0.056823544 -0.042788364 0.04350976 -0.023608647 0.009437762 -0.038808405
-0.039107427 -0.011505634 -0.05707606 0.037155323 -0.04899957 -0.028193578 -0.035013154 -0.0025765002
0.029056288 -0.025279038 0.0348617 -0.015670143 0.02374056 -0.0064719915 -0.009150878 0.035147935
0.057098895 -0.021220274 -0.012427606 0.055128314 -0.04896769 -0.045751333 0.04006709 0.0008851886
0.04688227 0.056205958 -0.009767681 -0.023729898 0.014993943 0.0071300194 0.045568638 -0.043780975
-0.057358958 -0.03454663 -0.017075643 0.045943454 0.020326607 0.04962881 -0.008030355 0.052652977
0.0059367567 -0.041385837 -0.046181887 0.054247327 0.032814316 -0.050596856 -0.04460506 -0.041504174
0.018060215 0.059607476 0.031314164 0.030048653 -0.03772612 -0.053692378 -0.036137797 -0.044240944
-0.035191536 -0.028179497 -0.047608554 -0.04075499 -0.00012978911 -0.06112966 0.052500546 0.0049171224
0.054481454 0.00560046 -0.009354569 0.06059649 0.02822677 0.0020187348 0.026079886 0.04653968
-0.043796793 0.053013362 0.046123885 -0.012238853 -0.060796708 0.005382344 0.053500056 0.021430157
0.050271578 -0.0012380481 -0.01898177 -0.033178195 -0.017452769 0.03564229 -0.049434595 0.015567698
0.0048606694 -0.03068968 -0.06021902 -0.019253977 0.035410844 -0.04770807 -0.011071898 -0.03508097
-0.06244406 0.029901646 0.00371366 0.018767647 0.05605589 -0.044938773 0.046885543 0.06153523
0.02221755 0.0482399 -0.03581182 0.048008464 0.045186006 0.05124846 -0.054771513 0.060156368
-0.013227314 -0.049410008 -0.03355185 0.040060155 0.049031682 -0.0019822866 0.018039487 0.012624547
0.05882769 0.0169411 -0.02070658 -0.020710684 0.029642776 -0.0223554 -0.02939532 -0.020556025
0.06244517 -0.016694017 0.049344763 0.012589909 -0.057453252 -0.054866873 -0.02416718 -0.053159036
0.028498106 0.05734629 -0.018878005 0.054470204 -0.0014011115 -0.03227506 -0.04759258 -0.041378178
0.0147071555 -0.05203659 -0.019810103 -0.0035167933 0.05910202 0.015678734 0.05231504 0.037006892
0.023794211 0.035954036 0.058928445 -0.011119895 0.04935754 -0.02382189 0.03636498 -0.06189289

fc_log_std.bias f4 [6]
00000000: 5859 333d a41f 11bd 12ae 013d e802 493c
00000010: 9205 0b3d b20d 153d
0.043786377 -0.035430565 0.031660147 0.012268759 0.03394086 0.036390014
