output_lxl/MASAC/weight/critic2_agent_4_ep_5500.pth (torch, 286504 bytes, 5 tensors)

fc1.weight f4 [256, 18]
000000 a0 a0 17 be 90 96 d1 bc 70 5d 7f 3c 06 3d c8 3d
       -0.14807367 -0.02558449 0.015586242 0.09777264
000010 b8 af 6c bd a0 38 44 3c 51 6c 54 3e 52 0c c0 3d
       -0.057784766 0.011976391 0.20744444 0.0937735
000020 0d 6f 2d 3e 1b c3 40 3e 6c 6f 58 3d 54 56 19 bd
       0.16936894 0.18824427 0.052840635 -0.037435845
000030 4e 66 0d be fe bc 86 3d db fe 05 3e f6 c1 58 be
       -0.13808557 0.06579016 0.13085501 -0.2116774
000040 0f f1 5f be b9 aa 55 3e 00 fb 46 3c 6f b6 57 3e
       -0.218693 0.20865907 0.012144804 0.21065687
000050 d9 14 65 3e 24 b1 21 3d 58 24 d1 3c 8a 22 e5 3d
       0.22371234 0.039475575 0.025530025 0.111882284
000060 41 dd 30 3e 5d d2 51 3e c6 8a a3 bd 5e 03 da bd
       0.17271902 0.20490403 -0.07985453 -0.106451735
000070 ce 3d e5 3d 4e db f6 3d 12 83 d7 3d a4 64 30 3d
       0.11193429 0.12053548 0.105230466 0.04306473
000080 e2 c3 2d be 4c cc 86 bd 95 96 32 3e 56 c3 aa 3d
       -0.16969255 -0.06581935 0.17440255 0.083380386
000090 69 1d 40 3e bd 15 42 3e 92 e4 5a be a2 ab 61 be
       0.18761219 0.18953605 -0.21376255 -0.22038129
0000a0 73 a9 3c be d4 cc 00 bd 96 14 84 3d c0 4f 88 bd
       -0.18424015 -0.03144534 0.06449239 -0.06655836
0000b0 7f e7 3b 3e dc 09 33 3d b4 de 5c be dc 63 32 be
       0.18350028 0.043710575 -0.2156933 -0.17420906
0000c0 74 9d 31 3d 20 16 b4 bc 2d ea 08 3e e2 a6 ac 3d
       0.04336305 -0.021983206 0.13370581 0.08430268
0000d0 81 ec 50 be c4 88 06 be 20 8d 00 bd 53 73 07 3e
       -0.20402719 -0.1313811 -0.031384587 0.13227586
0000e0 33 55 2b 3e 94 52 91 bd 21 94 34 3e 38 38 0b bd
       0.1673172 -0.07095829 0.17634632 -0.03398916
0000f0 3f de 5f 3e 88 c6 6a be b0 6c 45 3c 88 04 ff 3c
       0.21862124 -0.22927296 0.012049839 0.03113009
000100 ce 8d b0 3d 60 56 35 bc 78 fd 60 bd 99 5a 65 3e
       0.08620797 -0.011067957 -0.054929227 0.22397842
000110 6c a5 e0 bd 1e ea fd bd fe 24 22 be dc 24 53 bd
       -0.10969052 -0.1239817 -0.15834424 -0.051548824
000120 4f dd ec bd 50 3b 74 bc 45 68 6c be 76 bc 1a be
       -0.11565649 -0.014906719 -0.2308665 -0.15110955
000130 60 7f 4e be 24 eb 06 be 1c a8 6c 3d be 16 8e 3d
       -0.20165777 -0.13175637 0.05777751 0.069379315
000140 00 83 ac 3b ce 2e 8e 3d b8 64 2d bd fd 03 63 be
       0.00526464 0.06942521 -0.04233238 -0.2216949
000150 b3 43 16 3e 46 64 9d bd 20 67 85 bd e6 6f a6 3d
       0.14674263 -0.07685141 -0.0651381 0.08126812
000160 3c 9d 20 3d e0 14 c4 bd 6e 89 24 be ed 57 69 3e
       0.03921245 -0.09574294 -0.1606805 0.22787447
000170 6f 0e 22 3e 08 a4 90 3c 0c 1c 6c be 02 e7 de 3d
       0.15825818 0.017656341 -0.23057574 0.10883905
000180 1c 09 11 be 92 c7 d4 3d f8 d5 95 bd 0d 66 06 3e
       -0.14163631 0.103896275 -0.07316202 0.13124867
000190 b2 de e6 3d b1 92 1e be 2e c8 1e be 9d 4f 2d be
       0.112729445 -0.15485646 -0.1550605 -0.16924901
0001a0 2f 30 48 3e 8b 2e 61 3e 88 4d 8c 3c fc 04 70 bd
       0.1954963 0.21990411 0.017126814 -0.058598503
0001b0 f6 c0 08 be 0c c8 13 be d1 9f 6e 3e 20 6e 90 bd
       -0.13354859 -0.1443178 0.23303153 -0.07052255
0001c0 00 a1 92 ba 9a c7 96 bd 44 e7 eb bd 0e f5 e8 3d
       -0.0011186898 -0.0736229 -0.1151872 0.113748655
0001d0 00 95 27 bb ca a6 c6 3d 2a aa 32 be 10 d1 4b 3c
       -0.0025570989 0.09699781 -0.17447725 0.012439981
0001e0 3d 50 2f 3e 50 c5 1a be 0c 89 05 be c0 2e 2d bb
       0.17120452 -0.15114331 -0.1304056 -0.002642557
0001f0 2e 3e 1c be f2 d0 52 be b2 f1 2c be 12 60 2b be
       -0.15258095 -0.20587519 -0.16889074 -0.16735867
000200 9d 93 4b 3e 77 f8 50 3e 9b 44 70 be c7 67 55 be
       0.19880529 0.20407282 -0.23463671 -0.20840369
000210 9e 32 fe 3d 96 48 81 bd e3 07 41 3e 0e 1a 8f 3d
       0.12411998 -0.06312673 0.18850665 0.069873914
000220 74 4e 68 3d ee c6 b3 3d 82 24 80 3d 8c fd 2e be
       0.056715444 0.08778177 0.06256963 -0.17088908
000230 68 8b b6 bc cb 33 62 3e dd 0a 1c 3e fe 5d e5 3d
       -0.022283271 0.2209007 0.15238519 0.11199568
000240 af 83 16 3e 99 8a 48 be 0d b6 49 3e 56 e2 d8 bd
       0.14698671 -0.19584121 0.19698353 -0.10590045
000250 3d 95 5d 3e 54 a4 3f be 32 b4 b7 bd 84 73 0b 3d
       0.21638961 -0.1871503 -0.089699164 0.03404571
000260 08 9d cf 3c 10 f1 22 3c 1a 9b 4d be 05 2f 34 3e
       0.025343433 0.009945169 -0.20078698 0.17596062
000270 24 f1 39 be d3 2d 0d 3e 7a 90 c8 3d 06 99 00 be
       -0.18158394 0.13787012 0.09793182 -0.12558374
000280 5c 3d 49 3d c0 79 fe bc 20 c6 12 bd 39 16 6c be
       0.049130782 -0.031063914 -0.035833478 -0.23055352
000290 d2 c0 81 3d ba ef b9 3d fd 4a 15 be a9 d2 32 be
       0.06335606 0.09078927 -0.14579387 -0.17463173
0002a0 70 29 dc bd b8 ad 3b bd c8 41 ea 3c 4e 09 cd bd
       -0.10750091 -0.045819968 0.02859582 -0.1001154
0002b0 8c dd 24 be f1 d6 6a be 4a 37 e7 3d dc 96 ff bd
       -0.16100138 -0.22933556 0.112898424 -0.12479946
0002c0 d7 16 f7 bd b0 cd dc bd 0e 99 db bd a0 40 c5 bc
       -0.12064903 -0.10781419 -0.10722552 -0.024078667
0002d0 62 65 cc 3d 5c 89 0a bd 4c b2 15 bd 2e 02 2e be
       0.09980275 -0.033822402 -0.03654699 -0.16993019
0002e0 de cb ba bd 89 68 37 3e 8b 20 3a 3e 0a 54 de bd
       -0.09120916 0.17910971 0.18176477 -0.10855873
0002f0 db 69 e4 bd b4 8d 69 be ac ab 34 3d cd fd 46 3e
       -0.11153003 -0.22807962 0.04410903 0.19432755
000300 da a0 15 be b9 8a 09 3e 30 b7 d1 bc c9 80 04 3e
       -0.14612141 0.13431825 -0.025600046 0.12939753
000310 cd 30 2a 3e 25 f7 38 3e 48 0d 4a be 00 b6 3a bd
       0.16620179 0.18063028 -0.19731629 -0.045583725
000320 6d f3 57 3e 0c cf 44 3d 46 a7 38 be 08 e7 d0 3c
       0.21088953 0.048049018 -0.1803256 0.02550079
000330 aa e5 f2 3d 28 7f cf bc 7c 58 b2 bd e0 5e d4 bd
       0.11860211 -0.025329188 -0.08708283 -0.103696585
000340 bc 4a 71 3d c0 bc 1f be d4 40 3c be e2 c2 3f be
       0.058909163 -0.15599346 -0.18384105 -0.18726686
000350 28 7b 55 be 3b f5 37 be 88 ec 5d be 8c 31 f5 bd
       -0.20847762 -0.17964642 -0.21672261 -0.11972341
000360 00 e7 52 bc 31 8f 4f 3e f0 04 25 be fe ef 9d 3d
       -0.0128724575 0.20269467 -0.16115165 0.077117905
000370 fe 80 a1 bd d4 3e 1e 3d 81 e5 56 3e 56 85 8c 3d
       -0.078859314 0.038634136 0.20985986 0.06861369
000380 91 a0 3a 3e ba f8 0d be e9 75 4c 3e 42 57 11 be
       0.18225314 -0.13864413 0.19966854 -0.14193442
000390 5c 9c c8 bd a8 25 c1 3c 7e 90 c6 bd 52 07 f6 3d
       -0.09795448 0.023577526 -0.096955284 0.12013115
0003a0 46 3d f9 3d 31 45 6f be be 34 15 be 5c 1e 18 3d
       0.1216989 -0.23366238 -0.14570901 0.037138328
0003b0 10 cf e5 bc 82 35 e7 3d f0 ed 69 3c c9 09 66 3e
       -0.028052837 0.11289503 0.01427792 0.2246467
0003c0 bf 9d 21 be 9d fc 31 be cc 3a 47 be 64 2f d2 bd
       -0.15782832 -0.1738152 -0.19456023 -0.10262945
0003d0 2c 2e 55 3d 09 fb 16 3e fe 90 97 3d e1 3b 0b 3e
       0.052045986 0.147442 0.07400702 0.1359706
0003e0 cb ae 2d 3e 7c 18 27 be b8 65 a3 bc 39 65 3f 3e
       0.1696121 -0.16317934 -0.019945964 0.18690957
0003f0 fb 6b 5e 3e 44 d4 fa bd e8 f6 ff bd c7 8b 67 3e
       0.21720879 -0.12247518 -0.124982655 0.22611915

fc1.bias f4 [256]
000000 20 47 88 bc 15 36 4c 3e 56 4a ec 3d da 4f 90 bd
       -0.016635478 0.19942506 0.11537616 -0.070464805
000010 97 b5 2e 3e a2 6d 23 be a7 73 ea bd 89 14 71 3e
       0.17061459 -0.1595979 -0.1144784 0.2354299
000020 d4 9a 09 bd 80 38 4c 3c 00 80 70 be 2c bb 2f bd
       -0.03359492 0.0124646425 -0.23486328 -0.04290311
000030 e0 d2 b0 bb c9 cb e2 bd 51 64 f1 bd e0 7e c6 bc
       -0.005396232 -0.11074025 -0.11786712 -0.02423042
000040 9c af 62 bd 0e ad 89 3d b9 bf 1b 3e 5a cc ee 3d
       -0.055343255 0.06722461 0.15209855 0.11660071
000050 a5 b9 5a 3e 6d 74 1b be 3b 61 2b 3e 7a 7e 93 3d
       0.2135988 -0.15181132 0.16736309 0.07201858
000060 c8 91 9f bc f1 fb 0a be b0 6a 71 bc 8c 91 2f 3d
       -0.019478694 -0.1357267 -0.014734909 0.042863414
000070 74 1d 52 be f2 49 b2 3d 3c 61 79 3d ec 98 7a 3d
       -0.20519048 0.0870551 0.060883746 0.061180994
000080 60 53 db 3b 98 c1 1e be 72 ca 43 be d9 67 1f 3e
       0.0066932887 -0.15503538 -0.19120196 0.15566958
000090 7b d8 48 be 00 dc 18 bc ca 2e a8 bd ea a1 84 3d
       -0.19613831 -0.009329796 -0.08212049 0.06476195
0000a0 46 4c 15 be 4c 78 43 3d 89 75 38 3e 42 bf f0 3d
       -0.14579877 0.047722146 0.18013586 0.117552295
0000b0 84 98 01 3d c7 5c 62 3e 7e 39 c8 bd 00 c8 e5 3b
       0.03163959 0.22105704 -0.09776591 0.0070123672
0000c0 6a 5f 46 be eb 15 67 be e3 d6 66 3e 9a c8 6e be
       -0.19372335 -0.22566955 0.2254291 -0.23318711
0000d0 48 78 e5 3c 8e 52 cb 3d 8a 84 b4 bd 41 bd 51 be
       0.028011456 0.099278554 -0.08814342 -0.20482351
0000e0 00 31 10 bc 90 66 f5 bc 50 76 48 be 36 74 22 be
       -0.008800745 -0.029956132 -0.19576383 -0.15864643
0000f0 95 4d 44 3e 06 5b 29 be 20 09 ef bd 00 a0 14 ba
       0.1917022 -0.16538629 -0.11671662 -0.0005669594
000100 5f f1 68 3e 64 55 5f 3d 23 5f e6 bd 88 8c f1 bd
       0.22748326 0.054524794 -0.11248615 -0.11794382
000110 9e dc cb bd fc 7e 6f 3d 98 28 1a be d2 5f 84 3d
       -0.09954189 0.05847071 -0.15054548 0.06463589
000120 c0 64 08 bd f8 ae 85 3c 33 da 46 3e 09 ef 64 3e
       -0.033299208 0.016318783 0.19419174 0.2235681
000130 48 49 19 bd 5e 80 b3 3d e0 2d a5 3b 2f 56 41 3e
       -0.037423402 0.087647185 0.005040869 0.18880533
000140 d8 83 fa 3c 60 ff 5a be 13 72 4b 3e 80 91 14 3c
       0.030580446 -0.2138648 0.19867735 0.009067893
000150 1e e2 34 be 2c 67 5d bd 70 e2 5f 3c b4 6e 15 3d
       -0.17664382 -0.05405347 0.013664827 0.036482528
000160 f2 58 94 3d 87 42 64 3e be 86 dd bd fc 99 09 be
       0.072435275 0.22291003 -0.10816716 -0.13437647
000170 46 e4 a4 3d 69 b5 4c 3e b2 aa 11 be b0 53 6d bc
       0.08051352 0.19991077 -0.14225271 -0.014485285
000180 b9 48 55 3e de 37 d0 3d 08 95 04 be 2e dc 5d be
       0.20828523 0.10166906 -0.12947476 -0.21666023
000190 44 18 67 be 68 48 e4 3c 0c 59 1d bd b9 f0 5b 3e
       -0.2256785 0.027866557 -0.038415 0.21478547
0001a0 50 6b 0b 3c 2e de 69 be 50 fb 10 be c0 de ce bc
       0.008509472 -0.22838661 -0.14158368 -0.0252527
0001b0 b4 e8 bf bd b2 97 ea 3d 53 86 4f be 40 58 5a bb
       -0.093705565 0.11454715 -0.20266084 -0.0033316761
0001c0 03 b7 23 3e 5d 73 1c 3e 67 3f 23 be a0 de f5 bc
       0.15987782 0.15278383 -0.15942155 -0.030013382
0001d0 70 26 42 bc cc 37 12 be 30 17 98 bd 5f f9 1b 3e
       -0.0118499845 -0.14279097 -0.07426298 0.15231846
0001e0 4e 04 c9 3d 50 1c 68 3c 9e 73 2e be 00 9f 9e ba
       0.09815274 0.0141669065 -0.17036292 -0.0012101829
0001f0 e0 21 0d 3c b6 67 5c be 8b 9e 15 3e a0 75 c4 3b
       0.008614033 -0.21523938 0.1461126 0.0059954673
000200 e8 ba c3 3c 23 1d 15 be 66 19 bd bd e1 4b 4b 3e
       0.023892835 -0.14561896 -0.0923336 0.19853164
000210 00 82 f4 3b 4a c0 49 be 8a 15 d6 3d 2a 8b 40 be
       0.0074617863 -0.19702259 0.10453327 -0.18803087
000220 ce 0b 80 3d 5a f1 da 3d 77 39 11 be 6d ef 19 3e
       0.062522516 0.106905654 -0.14182077 0.1503274
000230 79 37 53 3e 17 8a 65 be 04 a3 0d 3d dc 1c 5b be
       0.2062663 -0.22415958 0.034579292 -0.21397728
000240 e0 ce 66 be 00 db 23 3c f5 a6 26 3e b2 7e 9b 3d
       -0.22539854 0.010000944 0.16274627 0.075925246
000250 6c c9 6f 3d 67 07 f0 bd 13 1c 53 3e 0e c1 ea 3d
       0.0585417 -0.11720162 0.20616178 0.114626035
000260 dd 0e 12 3e 2a b0 ca 3d ba 94 dc 3d 79 af 3d 3e
       0.14263482 0.09896882 0.10770555 0.18523969
000270 03 45 63 3e 3a db 36 be 98 32 9e bc f7 b7 46 be
       0.22194295 -0.17857066 -0.019311234 -0.19406115
000280 91 cc 29 3e 0a 61 07 be 38 95 74 bd e9 a4 0b 3e
       0.16581942 -0.13220611 -0.05971262 0.13637127
000290 a8 b8 ac 3c 81 f4 3a 3e cf d3 34 3e 10 7f c4 bd
       0.021084145 0.18257333 0.17658924 -0.09594548
0002a0 4d da e4 bd 40 32 3b bc 2a c9 2e be 38 37 db 3c
       -0.1117445 -0.011425555 -0.17068925 0.026759729
0002b0 7a 88 f1 3d ad 08 0b be 80 f9 39 be a2 13 80 3d
       0.11793609 -0.13577528 -0.18161583 0.06253745
0002c0 0e b6 f0 3d 38 b3 f8 3c 2a 3a fe 3d 16 b1 ac 3d
       0.11753474 0.030358896 0.12413438 0.08432214
0002d0 90 0e d6 bd 80 53 14 bc 8a 57 9c bd f2 65 be bd
       -0.10451996 -0.009053111 -0.07633884 -0.09296788
0002e0 20 1b e0 bb 60 24 2c be 82 0c cb bd f8 18 89 bd
       -0.006839171 -0.16810751 -0.09914495 -0.066942155
0002f0 c0 5a c4 3b 0e 9c a4 3d 32 a1 b3 3d 06 b6 2f be
       0.0059922636 0.080375776 0.0877098 -0.1715928
000300 65 2d 2f 3e 26 a6 0f be ca 58 b4 3d a6 07 8b 3d
       0.1710716 -0.14028224 0.08805998 0.06788568
000310 52 0d cd 3d bc cd bb bd 18 7d cd 3c f2 eb 84 3d
       0.10012306 -0.091701 0.025084063 0.064903155
000320 3a cb d7 3d 55 45 6c 3e e2 f5 58 be 91 75 6a 3e
       0.10536809 0.23073323 -0.21187547 0.2289641
000330 79 0d 2b 3e 1d 31 4b 3e 9c 7d 2b be 3f bf 0c 3e
       0.16704358 0.19842954 -0.16747135 0.1374483
000340 86 3a c0 bd 95 c0 38 3e e2 b4 f0 3d a8 e5 db bd
       -0.093861625 0.18042214 0.11753251 -0.10737163
000350 e0 f9 a3 bb 54 c2 22 3d f8 3d b6 bc 82 e4 4b be
       -0.0050041527 0.039736107 -0.022246346 -0.19911388
000360 f7 cf 40 be 88 90 e5 bc e7 42 50 be e0 22 9a bb
       -0.18829332 -0.02802302 -0.20338021 -0.0047038645
000370 cd 69 e6 bd 74 a1 71 3d 58 e6 29 bd 13 2c 33 3e
       -0.11250649 0.058991864 -0.04147944 0.17497282
000380 e3 71 20 3e f2 90 c6 bd 1e 39 e7 bd 0c 91 75 3d
       0.15668444 -0.09695615 -0.11290191 0.05995278
000390 be da aa bd 80 b4 c8 ba 4a fa 90 3d 42 ff b1 3d
       -0.08342503 -0.0015312582 0.07078989 0.08691265
0003a0 70 3f 64 3c fb 05 1a 3e 5b 64 60 3e a5 3a 48 3e
       0.01393114 0.15041344 0.21913283 0.19553621
0003b0 de 3d ff 3d 7e 83 61 be 16 c3 8a bd f8 0c ef 3c
       0.12462972 -0.22022817 -0.06775491 0.029180989
0003c0 78 07 04 bd 1a e2 a6 3d 44 88 df bd 00 3e 3d bc
       -0.032233685 0.08148594 -0.109146625 -0.0115504265
0003d0 be 3f bd bd 5c 27 5d bd b6 b6 aa 3d d9 2b 54 be
       -0.092406735 -0.053992614 0.083356306 -0.20719852
0003e0 be 33 23 be 00 80 61 be 70 2b 13 bd 65 11 1b be
       -0.15937707 -0.22021484 -0.035930097 -0.15143354
0003f0 a7 cd 4a 3e 2b 74 5f 3e 8d 78 21 3e 77 ec 4d 3e
       0.19805013 0.21821658 0.15768643 0.20109735

fc2.weight f4 [256, 256]
000000 08 6b 4c bd 84 c1 43 3d 48 16 64 3d b0 5c 60 bd
       -0.04990676 0.047791973 0.05568531 -0.054775894
000010 6c 65 8d 3c cc 97 d2 3c 38 1c 43 bd f4 8e a2 bc
       0.017260276 0.025707148 -0.047634333 -0.019843556
000020 d8 5f 21 bd 48 fd 54 3d a0 dd a6 3b fc 84 9c bc
       -0.039398044 0.05199936 0.0050923377 -0.01910638
000030 0e 9e 5a bd a0 cf 01 3b 90 72 42 bc 6c e8 a1 bc
       -0.05337339 0.0019807592 -0.011868134 -0.019764148
000040 68 e5 b5 3c 56 7c 3a 3d fc fd 9c 3c c8 bb 70 bc
       0.022204116 0.045528732 0.019164078 -0.014693208
000050 c4 fd a1 bc e6 7a 3c 3d 9e 9f 51 bd ce 55 64 bd
       -0.019774325 0.046015643 -0.051177613 -0.055745892
000060 f8 02 a3 3c a4 80 e5 bc 14 c3 b1 bc f2 2d 63 3d
       0.019898877 -0.028015442 -0.021699466 0.05546374
000070 62 ba 26 bd 16 7c 7b 3d 40 03 21 bc 66 fd 79 bd
       -0.040705092 0.061397634 -0.009827435 -0.061032675
000080 90 dc 3c bd 28 85 21 3c e4 5c 62 bd 14 eb 7d bd
       -0.046108782 0.009858407 -0.05526437 -0.061991766
000090 58 a0 3c 3c 98 25 22 3c e0 ac 49 bc 38 d5 41 3c
       0.011512838 0.009896658 -0.012309283 0.0118306205
0000a0 d4 9d b9 bc 00 a6 c8 39 38 fe c5 3c 70 cd 1f bc
       -0.022658266 0.00038270652 0.024169073 -0.00975357
0000b0 46 ea 66 3d 6c e8 b4 3c ea 1b 17 bd 90 e0 a3 3b
       0.056375764 0.022083484 -0.036891855 0.005001135
0000c0 a0 a2 5e 3b 40 9c 07 3b 34 e1 be 3c 18 63 3f bc
       0.0033971444 0.0020692497 0.023300745 -0.011681341
0000d0 ec 17 cd bc f4 4b 52 3d 8c e7 16 3d 28 4a 58 bc
       -0.02503582 0.051341966 0.036841914 -0.013201274
0000e0 2a d9 77 3d 28 52 85 bc c0 a0 6e bb ca 43 65 bd
       0.06050984 -0.016274527 -0.0036411732 -0.05597285
0000f0 c0 1c b6 3b 40 48 12 3d 98 6c 81 bc c0 48 7c bb
       0.0055576265 0.035713434 -0.015798852 -0.003849551
000100 f0 9e d9 bc 40 88 69 bc 4e fc 48 bd 80 27 6b 3c
       -0.026565045 -0.014253676 -0.04906874 0.014352679
000110 88 0c cb 3c 00 24 e0 b9 54 b4 53 bd 1c de 96 3c
       0.024786249 -0.00042751431 -0.051685646 0.018416457
000120 e0 5b 9e bb e8 7e 83 3c b4 d9 6d bd 2e ba 0b 3d
       -0.0048327297 0.016051725 -0.058068946 0.0341131
000130 28 64 44 bc 10 14 3e bd a0 f2 92 3b 62 9e 0b bd
       -0.01198677 -0.04640585 0.0044844896 -0.034086592
000140 80 27 b9 bb 40 80 ed ba 42 be 0d 3d d8 43 4a bc
       -0.0056504607 -0.0018119887 0.034605272 -0.012345277
000150 f0 68 63 bc b0 33 44 bc 90 16 61 3c 38 ca 0f bc
       -0.0138799995 -0.011975214 0.0137382895 -0.00877624
000160 80 fa 63 bc 08 5b 36 bc 2a 33 0a bd 50 3d 31 3c
       -0.013914704 -0.011130102 -0.0337402 0.010817841
000170 80 15 2a 3d f0 b4 b4 3c 42 1a 14 bd 9c 04 5c bd
       0.04152441 0.022058934 -0.036157854 -0.053715333
000180 00 f3 fa bb c2 fa 0f bd 84 4b f5 bc a8 da fe bc
       -0.0076583624 -0.03515125 -0.029943235 -0.031110123
000190 d8 64 f2 bc c8 ef 41 bc 7c c4 fa 3c 0a 5d 74 3d
       -0.029589102 -0.011836953 0.03061127 0.05965904
0001a0 00 da d6 b9 00 b0 8e bc 02 96 41 bd 60 fc a6 bb
       -0.00040979683 -0.017417908 -0.0472622 -0.0050960034
0001b0 5c 6b 17 3d b0 eb 64 bd 8a ec 20 3d 42 3a 26 bd
       0.03696762 -0.05588883 0.03928808 -0.040582903
0001c0 e4 5b 77 3d 14 e0 b9 bc 44 d9 b3 bc 98 6a 5f bd
       0.060390368 -0.022689857 -0.021954186 -0.054545015
0001d0 90 2b 0f 3c 02 d8 33 bd d4 5b 55 bd 36 e9 1d 3d
       0.008738413 -0.043907173 -0.052089527 0.038552485
0001e0 c0 d4 3c 3c bc 29 eb 3c 38 ea 01 bc 90 d6 ce 3c
       0.011525333 0.028706424 -0.007929377 0.025248796
0001f0 2c 50 d8 3c 06 5b 0b bd 9a c6 2f 3d 34 e9 8d 3c
       0.026405416 -0.034022354 0.04291401 0.017323114
000200 b8 24 e3 3c f8 77 98 3c c6 27 3d 3d f4 2d 9c bc
       0.02772747 0.018611893 0.04618051 -0.01906488
000210 7a a6 6a bd a8 d5 0c 3d 20 8b 41 3c a8 6b 63 3d
       -0.05728767 0.034383446 0.011812955 0.05552259
000220 40 d8 48 3b e8 6b 79 bd 98 7e 2a 3c 50 ff c7 3b
       0.0030646473 -0.060893923 0.010406159 0.0061034337
000230 10 52 32 bd d8 d7 73 bd 46 36 10 bd 28 d2 39 bd
       -0.043535292 -0.059532017 -0.03520801 -0.045366436
000240 7c 4e da 3c 24 6d ab 3c a8 a1 cc 3c 24 10 92 3c
       0.026648752 0.020926066 0.024979427 0.017829962
000250 90 9c e6 3b 1a a1 51 3d cc 53 39 bd 38 db c5 bc
       0.0070377067 0.05117903 -0.04524593 -0.024152383
000260 78 fa 3e bc 24 46 82 bc 1c c8 50 bd 80 ae d1 3c
       -0.011656396 -0.015902586 -0.05097209 0.025595903
000270 a4 ff 2a bd f0 cb 0f bc c0 41 97 3c 60 12 df 3b
       -0.041747704 -0.00877665 0.01846397 0.0068076104
000280 b4 35 2d bd b6 92 09 bd ea a0 29 bd 6c c5 4f bd
       -0.042287543 -0.03358718 -0.041413225 -0.050725386
000290 46 14 58 bd 84 7a 96 bc 8c 0b e7 bc 68 20 16 3d
       -0.05275371 -0.018368967 -0.028203748 0.036652
0002a0 de d6 3f bd 56 92 47 3d 08 df 31 bc c0 6d 34 3b
       -0.046835773 0.04872354 -0.010856397 0.0027531236
0002b0 e0 2e 2d 3c 78 8c 3b 3d 1c 56 6e bd 88 62 b9 bc
       0.010570258 0.04578826 -0.05818759 -0.022629991
0002c0 c4 ae 49 3d 76 8c 4a 3d b6 26 62 bd f4 11 b9 bc
       0.049238935 0.04945036 -0.0552127 -0.022591569
0002d0 e6 01 3d 3d 8a 14 57 3d 30 93 cb bc 40 a8 5d 3b
       0.04614439 0.052509822 -0.024850458 0.0033822209
0002e0 72 cd 07 bd ec 5e 10 bd 30 50 bd 3c b4 cd f8 bc
       -0.033154912 -0.035246775 0.023109525 -0.030371524
0002f0 24 93 2a bd ca 7a 62 bd 18 4b 78 bd da ea 1c bd
       -0.04164423 -0.055292882 -0.06061849 -0.03830991
000300 a0 d2 2c 3b 80 f0 0d bc 12 5e 08 bd 36 a4 42 3d
       0.002637066 -0.008663297 -0.033292837 0.047519885
000310 80 6e b1 ba 60 90 df bc e0 9e d2 bb 56 95 3c 3d
       -0.001353696 -0.027290523 -0.006427631 0.046040855
000320 34 b1 81 bc 06 c6 47 bd 00 41 78 bb 70 b9 7e bd
       -0.015831567 -0.048772834 -0.003788054 -0.062188566
000330 24 a3 19 bd 4a fe 75 3d 0e 6f 2b bd ec 31 82 bc
       -0.0375091 0.060056962 -0.041853957 -0.015892945
000340 24 71 14 3d fe 9c 56 bd 70 55 37 bd f0 21 b5 bc
       0.03624071 -0.052395813 -0.044759214 -0.02211091
000350 fc 1c 4d bd e0 ac 3a 3b 06 53 22 bd 38 8f fd 3c
       -0.05007647 0.002848439 -0.03962996 0.030952081
000360 2e 6d 3b 3d ca bc 09 bd 50 8e f4 bb 10 b4 dc 3b
       0.04575842 -0.03362731 -0.007463254 0.0067353323
000370 ee ba 54 bd 04 a3 df bc 58 9e 49 3c ca f5 62 3d
       -0.051936083 -0.027299412 0.0123058185 0.055410184
000380 0a 16 12 bd b2 c0 74 3d 00 25 f8 3b 9e 10 60 3d
       -0.03566555 0.05975408 0.00757277 0.054703347
000390 14 ed cf bc 82 8b 3b bd c8 19 8d 3c c2 55 6d 3d
       -0.025381602 -0.045787342 0.017224208 0.057943113
0003a0 f2 47 75 3d 06 f0 63 bd e8 7e 73 3c e8 1f 6d 3d
       0.059883066 -0.055648826 0.0148618 0.057891756
0003b0 24 4f b0 bc 94 10 05 3d 1c cb 4e bd 4c 0f 02 bd
       -0.021522112 0.032486513 -0.05048667 -0.03175287
0003c0 d0 ef 7e 3d 2a e9 0d bd 00 4b fd b9 42 c4 01 bd
       0.06224042 -0.03464619 -0.000483118 -0.031681307
0003d0 84 16 86 3c 06 f6 20 3d 22 75 6f 3d aa 13 65 3d
       0.016368158 0.039297126 0.058461316 0.055926956
0003e0 36 ac 6b 3d b0 c3 89 3c 42 fc 2e bd 1c 9e be 3c
       0.05753728 0.016816944 -0.04272104 0.023268752
0003f0 d8 53 ed bc 6c df e9 3c 1c 32 2a bd 20 68 94 bb
       -0.028970644 0.028548919 -0.041551694 -0.004529014

fc2.bias f4 [256]
000000 0c d7 4d bd 3e c4 5a 3d a4 44 be 3c 28 b8 52 3d
       -0.050253913 0.053409807 0.02322609 0.051445156
000010 60 ff f3 3c 1c 20 ab 3c 88 aa 16 3d e8 66 e8 3c
       0.029784858 0.020889334 0.036783725 0.028369382
000020 fa 0b 44 bd e0 70 5b bb 50 d1 f8 3c 20 fc 19 bc
       -0.047862984 -0.0033484027 0.030373245 -0.00939849
000030 00 ef 1a ba 86 88 1b 3d f0 33 3f 3d 40 ee a0 3c
       -0.00059102476 0.037971996 0.04668039 0.019644856
000040 54 9d 93 bc 62 d0 08 bd 6c 46 f7 bc a8 26 06 bc
       -0.018019356 -0.033401854 -0.030184947 -0.008187927
000050 10 26 5f 3c 9c 96 fc 3c 30 e9 f4 bc b4 de 9a bc
       0.013619915 0.030833535 -0.029896349 -0.018905021
000060 4c 19 04 3d d0 e3 02 3d 88 7a 7f bc 18 53 4f 3d
       0.032250687 0.03195554 -0.015593179 0.050616354
000070 68 b4 78 bc fa f1 33 3d 7c 97 db bc 9e 67 4d bd
       -0.015179731 0.04393194 -0.026805632 -0.050147645
000080 f0 97 26 bd 60 7c c1 bb 76 5d 13 3d 8c 9a 71 3d
       -0.040672243 -0.0059047192 0.035977803 0.058985278
000090 f6 cd 44 3d 78 3f d2 3c a4 5a 72 bd 3c 17 20 bd
       0.048047982 0.02566503 -0.059168473 -0.039084658
0000a0 90 ec b4 3b 38 12 d8 bc 60 05 7a 3c e0 94 49 3b
       0.0055213645 -0.026375875 0.015260071 0.0030758902
0000b0 14 f8 3d 3d c6 b9 7c 3d 74 af 97 bc f8 2c 3e 3c
       0.046379164 0.061700605 -0.01851628 0.011607401
0000c0 18 3b 3d 3d 3c b3 2f bd c6 88 78 3d 88 10 6d 3c
       0.046198934 -0.04289554 0.060677312 0.014469273
0000d0 28 31 60 3d 04 bd 95 3c 78 da b4 bc 20 e0 ce bb
       0.05473438 0.018278606 -0.02207683 -0.006313339
0000e0 0c 19 a9 3c b4 1b 83 3c 40 67 17 bc 16 8e 25 3d
       0.020641826 0.01600442 -0.009240925 0.040418707
0000f0 18 e1 45 bc 30 c2 6a bd 46 58 39 bd 00 9f 16 bd
       -0.012077592 -0.057314098 -0.0452502 -0.036772728
000100 50 b0 0f bc 08 05 45 3d 9c 20 d3 bc d6 83 20 bd
       -0.0087700635 0.0481005 -0.025772385 -0.03918823
000110 20 87 3e bb 8e d4 0d 3d ec 48 76 3d 68 56 30 3d
       -0.002907224 0.034626536 0.060128137 0.043051153
000120 70 3d 01 3d 48 46 6d bc 74 8e 97 3c 04 cc 3c bd
       0.031552732 -0.014482088 0.018500544 -0.046093002
000130 14 b4 60 3d c0 c2 5f bd d0 28 fb 3c 00 34 9b ba
       0.054859236 -0.054629087 0.03065911 -0.0011841059
000140 56 de 58 3d 00 a2 17 ba 46 6b 2b 3d f4 d5 94 bc
       0.05294641 -0.0005784333 0.04185035 -0.018168427
000150 5c 7a a6 3c 40 a6 b0 bc 10 77 64 bc 08 b1 bc bc
       0.020322017 -0.02156365 -0.013944402 -0.023033634
000160 38 25 5c 3c 94 32 76 bd 1a 61 42 bd 40 cf 08 bd
       0.013436608 -0.06010683 -0.047455885 -0.033400774
000170 5c 15 17 bd e0 ee 3d 3d 18 3d 7e bc 44 0b b4 3c
       -0.036885604 0.046370387 -0.015517496 0.021978028
000180 d0 2f 68 bc 80 b3 d9 3a 38 65 11 3d 62 1f 15 3d
       -0.014171556 0.0016609281 0.03549692 0.036406882
000190 c4 30 ce 3c c4 77 83 3c 90 c1 d7 3c fa 17 71 bd
       0.025169738 0.01604832 0.026337415 -0.058860756
0001a0 cc 93 0c 3d 30 dd ba bb 80 dc b0 3a f0 02 ee 3b
       0.034320638 -0.005702637 0.0013493448 0.007263534
0001b0 20 c6 b6 bb 10 56 d1 3c 82 72 27 3d c0 8d 63 bd
       -0.0055778176 0.025553733 0.040880688 -0.055555105
0001c0 92 a0 4e 3d 7c cc e6 3c 0e 0f 6b bd c0 93 0e bb
       0.0504461 0.028173678 -0.057387404 -0.0021755546
0001d0 8e d8 48 3d d0 b1 bc bb 9c 45 7a 3d 66 97 0b bd
       0.049034648 -0.0057585016 0.06110154 -0.03407993
0001e0 4e 64 04 3d 28 53 6a bc d0 b1 59 bc b6 e2 6d 3d
       0.03232222 -0.014302053 -0.013287023 0.058077537
0001f0 28 c4 3f bc 40 06 fe 3c 2c 91 f5 bc a4 25 4d 3d
       -0.011704482 0.03100884 -0.02997645 0.050084725
000200 e4 0f 37 3d 64 91 21 3d 70 5d af 3c c8 b8 29 3c
       0.04469289 0.039445296 0.02140686 0.010358997
000210 12 98 75 3d 08 c9 4f 3c 6c ba 38 bd 80 99 66 bb
       0.05995948 0.012682207 -0.04509966 -0.0035186708
000220 38 07 2e 3c 9a 2f 43 bd 18 80 d8 bc a0 b6 98 bb
       0.010621838 -0.04765282 -0.026428267 -0.0046604425
000230 04 fb 8c bc e0 dd 5d 3b e4 a7 f3 3c 34 3c 5f 3d
       -0.017209537 0.0033854172 0.029743142 0.054500774
000240 dc 56 fc 3c bc 9c 23 bd 80 e0 f3 3c 98 fd 30 3c
       0.030803137 -0.039944395 0.029770136 0.010802649
000250 70 33 bc bb b0 c0 50 3d 78 8f 6a bc 3a 37 10 bd
       -0.0057434365 0.05096501 -0.014316432 -0.03520892
000260 92 e5 0a 3d f4 ce 2f 3d e0 c2 03 3c 7a 25 46 bd
       0.03391034 0.042921975 0.008042067 -0.048375584
000270 1c f1 37 bd 74 b1 fe bc 80 b1 61 3d 92 bf 1d bd
       -0.044907674 -0.031090476 0.055100918 -0.038512774
000280 68 aa 42 bc c0 0a 32 bc e0 71 c1 bb d8 4f d5 bc
       -0.011881448 -0.010866821 -0.0059034675 -0.026039049
000290 f2 19 3c 3d b2 f6 7d 3d 34 7d 4a bd 40 5b 1a 3d
       0.04592318 0.062002845 -0.04943581 0.03768468
0002a0 20 63 b6 3c 3c f0 8d 3c e0 4f 18 3c e4 b5 ef 3c
       0.022264063 0.017326467 0.009296387 0.029261537
0002b0 10 be 82 bc 1e e6 7d bd 12 e7 68 bd 34 68 7b 3d
       -0.01595977 -0.061987035 -0.05686099 0.061378673
0002c0 74 62 3f bd 50 e5 fe bb 2a 74 79 bd c0 6c b9 ba
       -0.04672475 -0.007778801 -0.0609018 -0.001414679
0002d0 c8 ae 1f bd e0 34 17 3b de 27 3b bd e0 e1 1a bc
       -0.038985044 0.0023072287 -0.045692317 -0.009453267
0002e0 94 40 b0 3c 56 71 0f 3d 50 fd ad bc f2 b4 2a 3d
       0.021515168 0.035020195 -0.021238953 0.04167647
0002f0 00 96 b7 bb 38 ae a0 3c 32 05 1b 3d 30 ef 20 3d
       -0.005602598 0.019614324 0.03784675 0.039290607
000300 44 9b 8a 3c 4a 3f 13 bd 7c 29 eb 3c cc 48 46 bd
       0.01691974 -0.03594903 0.028706305 -0.04840927
000310 64 7e 6b 3d 2c b0 62 3d a8 65 b4 bc 24 d6 63 3d
       0.057493582 0.05534379 -0.02202113 0.055624142
000320 00 16 4f bb 6a d9 43 bd 82 d2 47 3d 1c 07 61 3d
       -0.0031598806 -0.047814764 0.04878474 0.05493842
000330 d2 7b 31 bd fa 33 2c bd 9a d6 29 3d 00 90 1f 3b
       -0.043330975 -0.042041756 0.041464426 0.0024347305
000340 cc 48 85 3c b6 af 50 3d 3a 1e 69 3d 6c c0 c8 3c
       0.016270064 0.05094882 0.056913592 0.024505816
000350 28 d2 1a 3d fa 72 73 bd ac f1 b3 bc 44 28 c4 3c
       0.037798077 -0.059435822 -0.021965824 0.023944981
000360 20 4a 27 3b c8 e7 fb 3c d0 c8 77 3d 1e 03 1a 3d
       0.002552636 0.03075017 0.060494244 0.03760063
000370 80 c2 ba 3a c8 74 7d bc 74 73 c5 3c 58 84 a2 bc
       0.0014248639 -0.015469737 0.024102904 -0.019838497
000380 b8 df 7f 3c 84 ba 15 3d f8 87 67 3d 98 fd 18 3c
       0.015617304 0.03655483 0.056526154 0.009337805
000390 0c 0a b7 3c 10 54 75 3c 4e 10 65 3d 00 8f f1 39
       0.022343658 0.014973655 0.055923752 0.00046073645
0003a0 88 aa fb bc b0 73 80 bc 56 e5 7d bd 00 c6 8b ba
       -0.030720964 -0.015680164 -0.06198629 -0.0010663867
0003b0 98 0f c7 bc 80 96 01 3d 9a 20 24 bd 7c 16 45 bd
       -0.024299428 0.03163767 -0.040070154 -0.048117146
0003c0 88 b5 ae bc 1a 65 08 3d 3c f1 42 3d 1c 49 b3 3c
       -0.021326795 0.033299543 0.04759334 0.021885447
0003d0 d6 2b 7b 3d ec 94 96 bc 8a e8 16 bd 1a e6 0f 3d
       0.061321102 -0.018381558 -0.03684286 0.03513155
0003e0 bc d8 26 3d c0 7f 7d bc b4 b4 62 3d b6 0c 4c 3d
       0.040734038 -0.0154723525 0.055348113 0.04981681
0003f0 f8 78 37 bc 4c eb 29 bd bc af 8c bc 1c 0d 40 3d
       -0.011198275 -0.041484162 -0.01717364 0.046887502

fc3.weight f4 [1, 256]
000000 2a d6 60 bd b4 4c d4 3c d8 50 56 bd d6 e8 67 bd
       -0.054891743 0.025915481 -0.052323192 -0.056618534
000010 b8 56 7b bc 6c 95 56 bd fe 94 6b 3d 30 10 46 3d
       -0.0153405 -0.052388594 0.057515137 0.04835528
000020 e8 ea 28 bd b4 58 cf bc 98 90 28 bd a4 be 62 3d
       -0.04123965 -0.025310852 -0.04115352 0.05535759
000030 f8 29 c0 3c 30 36 b6 3b a4 5d 85 3c b8 d1 83 3c
       0.023457512 0.005560659 0.016280003 0.016091213
000040 7c 25 6b bd b0 50 ee bb 5e aa 39 bd 74 2b 44 3d
       -0.057408795 -0.0072728023 -0.04532849 0.047893003
000050 b8 ec 52 3c f8 4c 0c bc 40 73 86 3b 92 e2 0a 3d
       0.012873821 -0.008563273 0.0041030943 0.03390748
000060 a6 a6 2d 3d 0c a1 6d bd 50 ce dd 3b f4 ac 78 bd
       0.042395256 -0.058014914 0.006768979 -0.060711816
000070 dc b8 33 3d 10 53 77 3c ee 28 19 3d 10 dd 38 3c
       0.043877468 0.015095487 0.03739255 0.011283174
000080 f0 dd bc 3b 22 40 45 3d 8e 5a 34 3d e0 c8 0a bb
       0.0057637617 0.048156865 0.044031672 -0.002117686
000090 aa cd 1f 3d f8 f3 26 3c 90 f8 e4 3c f4 30 0b bd
       0.039014496 0.010190003 0.027950555 -0.033982232
0000a0 e0 af 63 bc e4 5e 73 3d 8c 91 de 3c 9c 7c 3f 3d
       -0.013896912 0.059416667 0.027169012 0.046749696
0000b0 00 91 d3 3b 90 14 94 bc f0 aa 59 bd 48 ae e4 bc
       0.0064564943 -0.018076211 -0.053141534 -0.027915135
0000c0 e2 fd 28 bd 20 b3 84 3c 2e bc 1c 3d ba 02 33 bd
       -0.041257747 0.016198695 0.0382654 -0.043703772
0000d0 20 5d 26 bb 94 aa b5 bc d6 3a 38 bd 62 5d 40 3d
       -0.0025385097 -0.022176065 -0.044977985 0.046964057
0000e0 c8 26 15 bc 12 bc 70 bd 9c 73 7b 3d 96 f8 50 bd
       -0.009103484 -0.058773108 0.06138955 -0.05101832
0000f0 ae 26 4e 3d ca ab 3f bd c0 70 6c 3d 92 8d 0c 3d
       0.050329857 -0.04679469 0.057724714 0.0343147
000100 e4 33 3b bd d4 05 a5 bc 06 6b 5d bd 1c d7 e4 bc
       -0.045703784 -0.02014438 -0.054057144 -0.027934603
000110 6c 41 ec 3c fc 73 f9 bc ea 0d 4c bd 60 b2 2f 3c
       0.02883979 -0.030450813 -0.049817957 0.01072368
000120 20 33 2e 3d 1a c3 0d 3d 9e c8 37 3d 74 59 b1 3c
       0.042529225 0.03460989 0.044869058 0.0216491
000130 a0 a0 0d 3c 60 0b 24 bd cc 1e 38 3d 08 99 dc bc
       0.008644253 -0.04004991 0.044951245 -0.02692844
000140 e2 27 03 bd 9e 38 18 3d 20 dd c0 bb d0 ad 1f 3c
       -0.032020457 0.03716337 -0.005885735 0.00974603
000150 ec 94 e3 bc 4c 4d 4c bd 94 1d c8 bc 60 46 96 3b
       -0.027780972 -0.049878404 -0.024428166 0.004586026
000160 50 90 62 3d 60 84 6c 3b 94 cc 08 bd 3a 78 7b 3d
       0.05531341 0.0036089644 -0.033398226 0.061393954
000170 40 f2 fa 3a d0 b3 4f 3c 68 3b e1 bc 10 d2 9b 3b
       0.0019145682 0.012677148 -0.027494147 0.004755266
000180 da 48 42 3d 78 32 03 bd fa 5b 6d 3d 86 67 7a 3d
       0.047432758 -0.032030553 0.057949044 0.061133884
000190 ac dd 91 3c 00 41 64 3d 28 41 12 3d d0 5b b9 3b
       0.017805897 0.05572605 0.03570667 0.005656697
0001a0 68 ff 6e 3c 98 10 6b bd d4 55 ee bc 00 a7 ce bb
       0.014587261 -0.057388872 -0.02909366 -0.006306529
0001b0 56 ea 3a bd 38 84 b3 3c 0e 1c 63 bd 66 82 44 bd
       -0.045633636 0.021913633 -0.055446677 -0.04797592
0001c0 9c 16 5d 3d dc 72 21 3d ca 3c 0d 3d a4 c3 89 bc
       0.05397664 0.03941618 0.0344818 -0.016816922
0001d0 38 84 62 bc e4 e9 34 3d dc 22 79 3d 20 b7 d4 3b
       -0.013825469 0.044168368 0.06082426 0.0064915568
0001e0 48 93 8d bc 28 06 ee bc 60 69 a5 bc 40 4a 5b 3c
       -0.017282143 -0.02905567 -0.020191848 0.013384402
0001f0 40 03 3e 3c 1e 1b 2d 3d 9e 8d 3b bd f0 7b 01 3c
       0.011597455 0.04226219 -0.045789354 0.007903084
000200 ac 3d cb 3c 14 12 f6 3c e2 56 18 bd 44 b7 21 3d
       0.02480968 0.030037917 -0.037192233 0.039481416
000210 3c 46 2c 3d 34 a9 6d 3d 6c 2b 11 3d 74 42 ec 3c
       0.04205917 0.058022693 0.0354418 0.028840281
000220 e8 d4 e2 bc 66 ef 45 bd 64 4f b0 bc 86 89 7d 3d
       -0.027689412 -0.04832401 -0.021522231 0.06189873
000230 00 5a 45 ba 34 8c eb 3c e2 ff 54 bd a0 c4 87 3b
       -0.00075283647 0.028753377 -0.05200184 0.0041433126
000240 0a 16 40 3d 54 40 53 3d 00 5f 5c ba 60 2c 20 3d
       0.046896018 0.05157502 -0.000840649 0.03910482
000250 c0 a6 35 bb 70 2a 72 3c e2 50 56 3d 68 ae 65 bc
       -0.00277178 0.014780626 0.05232323 -0.0140186325
000260 34 1a 58 bd 90 b9 9f 3c f2 87 7e bd 10 e3 ed 3c
       -0.052759364 0.019497663 -0.062141366 0.029038936
000270 a0 3f fb bb fe 05 35 bd f0 d2 a6 bc 04 fd fb bc
       -0.007667497 -0.044195168 -0.020364255 -0.030760296
000280 e0 8f 4f 3c 60 59 94 bb aa 2e 26 3d 10 5d 92 3b
       0.01266858 -0.004527256 0.040571846 0.0044666603
000290 d8 16 8e 3c 1a e1 15 bd 4c e2 49 bd dc 51 83 3c
       0.017344877 -0.036591627 -0.04928808 0.016030245
0002a0 58 bf 9c bc b8 d4 71 bc b8 d0 09 3d 40 b7 85 3c
       -0.019134209 -0.014760189 0.033646315 0.016322732
0002b0 80 be 1e bd d0 19 b6 3c 80 b7 8f bb ac 5e ec bc
       -0.038755894 0.022229105 -0.0043858886 -0.028853737
0002c0 1c de 47 3d 04 b5 32 3d c4 64 f0 3c 00 58 95 3c
       0.048795804 0.04362966 0.029344924 0.018230438
0002d0 00 b9 5f 3d 10 0c b2 bc a0 7f 55 bd 76 f9 27 3d
       0.05461979 -0.021734267 -0.052123666 0.04100939
0002e0 08 1a 83 bc d4 3f 13 bd b0 38 d4 3b 84 af 94 3c
       -0.016003624 -0.035949543 0.0064764842 0.018150099
0002f0 6c 14 ed 3c da 45 4b bd a4 6f 69 bd d8 99 00 bd
       0.028940402 -0.049627163 -0.056991234 -0.031396717
000300 9c d0 5f 3d a8 d7 a3 bc a0 12 18 bb c0 65 7e 3d
       0.054642305 -0.020000294 -0.002320446 0.062108755
000310 e8 30 64 3d 08 ee 75 3c 72 ed 7e bd a0 a5 04 3d
       0.055710703 0.015010364 -0.062238164 0.032384515
000320 c8 d0 9e 3c 00 c7 ba bc 3e 8c 7c 3d 96 cd 1c 3d
       0.019386664 -0.022799969 0.061657183 0.038282
000330 66 5d 0a 3d 52 86 00 3d 50 b1 89 bc 40 86 6f bb
       0.033780478 0.031378098 -0.016808182 -0.0036548525
000340 84 16 22 3d 28 78 b4 bc e8 83 4c bc 8c fe f0 3c
       0.039572254 -0.022029951 -0.012482621 0.029418252
000350 e0 93 21 3b 58 97 29 bd 9c 80 ca bc 5a 41 79 3d
       0.002465479 -0.0414041 -0.024719529 0.06085334
000360 aa 2f 22 3d e6 66 08 3d d0 51 4a 3d 5c 02 ac 3c
       0.039596237 0.033301257 0.04939443 0.020997219
000370 00 fe 4f bd 1e 7b 52 3d c0 53 33 3c 48 33 ea 3c
       -0.050779343 0.051386945 0.0109452605 0.028588906
000380 b0 b1 db bc d8 b8 2c 3c ea 6a 44 bd 68 55 f4 bc
       -0.026818126 0.010542117 -0.047953524 -0.029825881
000390 24 a3 1d bd 8c d3 8b bc 20 c1 ca 3b 9c ee 98 bc
       -0.03848566 -0.017068647 0.006187573 -0.018668465
0003a0 00 bc e9 39 40 2c fa 3a 40 d1 fb ba a8 d9 b6 bc
       0.00044581294 0.0019086674 -0.0019212142 -0.022320583
0003b0 ee fd 39 3d e8 ad 4f bc 84 86 17 3d 1e 05 52 3d
       0.04540818 -0.01267574 0.03699352 0.05127441
0003c0 da d5 69 3d 70 c9 6e bd c0 43 0b 3b 74 07 3c 3d
       0.05708871 -0.058297575 0.00212501 0.045905545
0003d0 f0 83 bb bb 60 b0 1c bb 66 0f 3e bd 34 14 e3 bc
       -0.0057225153 -0.0023908839 -0.046401404 -0.027719595
0003e0 00 90 87 37 60 39 ae 3b 0c 79 33 bd e0 0b 35 bd
       1.616031e-05 0.005316898 -0.04381661 -0.044200778
0003f0 ca 5b 42 bd 0a 4c 38 3d f6 3c 32 bd e8 fb d7 bc
       -0.047450818 0.04499439 -0.043515168 -0.026365235
