output_lxl/MASAC/weight/critic1_agent_0_ep_3600.pth (torch, 286504 bytes, 5 tensors)

fc1.weight f4 [256, 18]
0	0xbe6974e1	-0.22798492
1	0x3e61b561	0.22041847
2	0x3e363ec1	0.17797376
3	0xbe360af4	-0.17777616
4	0xbe6fbbb5	-0.23411448
5	0x3dc476ba	0.09592958
6	0x3e70e611	0.23525263
7	0xbdf2fd51	-0.118647225
8	0xbdf655cd	-0.12028084
9	0xbd9e2952	-0.07722725
10	0xbd8fe8ea	-0.07026847
11	0xbc515c20	-0.012778312
12	0x3e5c9eed	0.21545
13	0xbe67c0ab	-0.22632091
14	0xbe61701c	-0.22015423
15	0x3e1f2327	0.15540753
16	0xbd9eb9e4	-0.077502996
17	0x3e2818c3	0.16415696
18	0xbe1c2da5	-0.15251787
19	0x3d8981a6	0.067141816
20	0x3e5ab6f3	0.21358852
21	0x3e67b5ff	0.2262802
22	0xbe62940f	-0.22126792
23	0x3da135fe	0.07871626
24	0x3e1a6f25	0.15081461
25	0x3e67f899	0.22653426
26	0xbe2fe800	-0.17178345
27	0xbe57d414	-0.21076995
28	0x3ca62cd8	0.020285055
29	0xbe305604	-0.17220312
30	0x3c6b6210	0.014366642
31	0x3e476819	0.19473304
32	0x3d0305b4	0.03198786
33	0x3e1b80f5	0.15185912
34	0xbde7af61	-0.11312748
35	0xbdaf84da	-0.08570261
36	0x3d6b416c	0.057435438
37	0x3d38443c	0.04498695
38	0x3e67f33f	0.22651385
39	0xbe605dee	-0.21910831
40	0xbe029669	-0.1275269
41	0xbe1c1242	-0.1524134
42	0x3d3471c4	0.044053808
43	0xbd94103a	-0.072296575
44	0xbe1df0e4	-0.15423924
45	0x3da60c9e	0.08107875
46	0xbd4614b8	-0.048359603
47	0x3d7d53cc	0.061847493
48	0xbde7bc45	-0.113152064
49	0xbe1de727	-0.15420209
50	0xbd433a18	-0.047662824
51	0xbe3ea0f8	-0.18616092
52	0x3ccd6398	0.025071904
53	0xbd7fbdb8	-0.06243679
54	0xbe2aa8b2	-0.16665915
55	0xbe1d7fbb	-0.15380757
56	0x3c1b43c0	0.009476602
57	0x3df36b8a	0.11885746
58	0xbe16848a	-0.14698997
59	0x3e472d97	0.19450985
60	0xbe1e97b7	-0.15487562
61	0x3e31adaf	0.17351411
62	0xbe13655a	-0.14394131
63	0x3d63e574	0.055638745
64	0xbe264c84	-0.16240126
65	0x3d71ca5c	0.059030876
66	0xbe28989e	-0.16464469
67	0xbe55af61	-0.20867683
68	0xbe62cfc7	-0.22149573
69	0xbbc882c0	-0.0061191022
70	0x3e5f30cb	0.21795957
71	0x3d91ad9e	0.07113193
72	0x3df71906	0.1206532
73	0x3dd49092	0.10379137
74	0x3cf19748	0.029491082
75	0x3dbcad1a	0.09212704
76	0x3dc9f8aa	0.09861882
77	0xbe034bbd	-0.1282186
78	0xbd2f46e0	-0.0427922
79	0xbe5714fe	-0.21004102
80	0xbdd25c72	-0.10271539
81	0xbe3be8a8	-0.1835047
82	0xbe1732a0	-0.14765406
83	0x3e69096f	0.22757505
84	0xbe30ea69	-0.1727692
85	0xbe225af1	-0.15855004
86	0xbd1b6798	-0.03794059
87	0xbe246155	-0.16052754
88	0x3dc78ce2	0.09743668
89	0x3e371db7	0.17882429
90	0x3cdd8d08	0.027044788
91	0x3db2e5ba	0.08735223
92	0xbe2e6976	-0.17032418
93	0x3de4987e	0.11161898
94	0xbe5507af	-0.20803712
95	0xbe2e79d8	-0.17038667
96	0xbc8e98d8	-0.017406866
97	0x3e46f327	0.19428693
98	0x3d089b14	0.03335102
99	0x3debb9ee	0.11510073
100	0xbe3ac953	-0.18240862
101	0x3dbb60ba	0.091493085
102	0x3d815582	0.063151374
103	0x3e08c4e7	0.13356362
104	0x3dffc68a	0.1248904
105	0xbe611d90	-0.21983933
106	0x3e0de833	0.13858108
107	0xbe0351a9	-0.1282412
108	0x3dc429ea	0.09578307
109	0xbd9708de	-0.07374738
110	0x3dfdd7e6	0.12394695
111	0x3d15fa1c	0.036615476
112	0x3e2d1bdf	0.16905163
113	0x3da9cad6	0.08290641
114	0xbd0d8554	-0.03455098
115	0x3cb92ba8	0.022603825
116	0x3e0e152b	0.13875262
117	0xbd98a372	-0.0745305
118	0x3dda6fb2	0.106658354
119	0xbe3a5072	-0.1819475
120	0xbde8053c	-0.113291234
121	0xbdf6f0e8	-0.12057668
122	0x3e3508eb	0.17679183
123	0xbbeed4c0	-0.0072885454
124	0x3e52e3cd	0.20594712
125	0x3cee2378	0.029069647
126	0xbdcf14b6	-0.10111372
127	0xbe1dbbd4	-0.15403682
128	0x3e476ccf	0.19475101
129	0x3db8d1e6	0.0902441
130	0x3e1c145b	0.1524214
131	0xbdd991a0	-0.10623479
132	0xbe554e03	-0.2083054
133	0x3dd7ba72	0.105336085
134	0xbe4e58a2	-0.20150998
135	0x3e48878f	0.19582961
136	0x3d9ae702	0.075635925
137	0x3e637cb5	0.2221554
138	0x3e32a94b	0.17447393
139	0xbdec9e15	-0.11553589
140	0x3d9012a2	0.07034804
141	0xbb548100	-0.0032425523
142	0xbc077bd0	-0.008269265
143	0x3e639cd3	0.22227792
144	0x3c3d9550	0.011571243
145	0xbc92b1c8	-0.017907038
146	0x3e58d157	0.21173607
147	0xbd9ed4a0	-0.07755399
148	0x3dbfe3e2	0.09369637
149	0x3e2184b5	0.1577328
150	0x3e1a61a9	0.15076317
151	0xbc91ee38	-0.017813787
152	0xbcb8b2f0	-0.022546262
153	0x3dbcf1fa	0.09225841
154	0xbe1e5a7e	-0.15464208
155	0x3d1666dc	0.036719188
156	0xbd1db2c8	-0.038500577
157	0x3e1d8a9d	0.15384908
158	0xbe197c97	-0.14988934
159	0x3da82bd6	0.08211486
160	0x3e217729	0.15768112
161	0x3d5cbca4	0.05389084
162	0xbe0a78a2	-0.1352258
163	0x3d677eb4	0.056517318
164	0xbdb85b58	-0.090017974
165	0x3e54461b	0.20729868
166	0x3ca021f8	0.019547448
167	0xbd218e18	-0.03944215
168	0x3dd860fa	0.10565372
169	0xbe443228	-0.19159758
170	0x3e491b81	0.19639398
171	0xbe34789b	-0.17624132
172	0xbd8ff314	-0.07028785
173	0x3e17ef7b	0.14837448
174	0xbe42d830	-0.19027781
175	0xbe13821e	-0.14405105
176	0x3e030def	0.12798284
177	0x3db325ce	0.08747445
178	0x3e14d673	0.14534931
179	0xbdf47c92	-0.119378224
180	0xbe62d83a	-0.22152796
181	0x3cdacbd8	0.026708528
182	0xbe34a6d3	-0.17641763
183	0xbdd3a27e	-0.10333727
184	0xbdd305fc	-0.10303876
185	0x3e32b94b	0.17453496
186	0xbd98908e	-0.074494466
187	0x3e37bb4b	0.1794254
188	0x3da0641a	0.07831593
189	0xbdda26e6	-0.106519505
190	0x3d77631c	0.060397252
191	0x3e5af4cb	0.21382444
192	0x3e43c483	0.19117932
193	0x3dc49bca	0.09600027
194	0x3da9c356	0.082892105
195	0x3d7940dc	0.06085287
196	0x3e662b91	0.22477557
197	0xbdd961e8	-0.10614377
198	0xbd556588	-0.05209878
199	0x3d8b4f4a	0.068022326
200	0xbe571c19	-0.21006812
201	0xbe0bdc80	-0.13658333
202	0xbdcfb5e2	-0.10142113
203	0x3e6312db	0.22175162
204	0x3e6f0211	0.23340632
205	0x3d851902	0.064989105
206	0xbe4f38ba	-0.20236483
207	0xbddb6248	-0.10712105
208	0xbd3c31a8	-0.045945793
209	0x3e55b89b	0.20871203
210	0xbe5d4b02	-0.21610644
211	0x3dba5e3e	0.091000065
212	0xbe059b5e	-0.13047549
213	0xbac8dd00	-0.0015324652
214	0xbd991eb8	-0.07476562
215	0x3cc4b248	0.024010792
216	0xbe05102e	-0.12994453
217	0xbe5f2a51	-0.21793486
218	0x3e54c409	0.20777906
219	0xbd5be664	-0.053686514
220	0x3daa6a7e	0.08321093
221	0x3e1d3eb7	0.15355955
222	0xbe510fda	-0.20416203
223	0x3e542bc7	0.20719825
224	0x3e060fdb	0.13091986
225	0x3d67f25c	0.056627616
226	0xbe445a0e	-0.19174978
227	0x3ddbf1ba	0.10739465
228	0xbd5f1530	-0.054463565
229	0x3de5e02a	0.112243965
230	0xbddf823e	-0.109135136
231	0xbd8c9436	-0.068642065
232	0xbe1e7fde	-0.15478465
233	0x3e1cc1d1	0.1530831
234	0x3e3fc561	0.18727638
235	0xbdaa5d1c	-0.083185405
236	0x3c9a2e98	0.018821046
237	0x3e0dd571	0.13850953
238	0xbce5ae98	-0.028037354
239	0xbcb23d70	-0.021757811
240	0x3e143d51	0.14476515
241	0xbe08fcd4	-0.13377696
242	0x3dee4436	0.11634104
243	0xbe0e146a	-0.13874975
244	0xbe18586e	-0.14877483
245	0x3e54c1fd	0.20777126
246	0xbe46a531	-0.19398953
247	0x3d82093e	0.06349419
248	0xbd46e68c	-0.04855971
249	0x3e0c2537	0.13686071
250	0x3d0488cc	0.032357022
251	0xbe4c896f	-0.19974302
252	0x3df52382	0.11969663
253	0xb9eb4e00	-0.00044880807
254	0x3e26b12f	0.16278528
255	0x3e63a733	0.2223175

fc1.bias f4 [256]
0	0xbd5bf0c4	-0.05369641
1	0xbd3f12d0	-0.0466488
2	0x3e320317	0.17383991
3	0xbd80ef30	-0.062956214
4	0xbe5c394b	-0.2150623
5	0xbd92c35a	-0.071661666
6	0x3e350475	0.17677481
7	0xbc9f0918	-0.019413516
8	0x3e2b71e5	0.16742666
9	0x3d2ef244	0.04271151
10	0x3d45f384	0.048327938
11	0x3e6c9503	0.23103718
12	0x3e483fa7	0.19555531
13	0xbdf2a083	-0.118470214
14	0x3c6ce270	0.014458284
15	0x3df12b1e	0.11775802
16	0x3e151ca7	0.14561711
17	0x3d3bef34	0.04588242
18	0xbe2238c2	-0.15841964
19	0xbd0b6570	-0.034032285
20	0x3e3872d5	0.18012555
21	0x3e61bdc1	0.22045042
22	0xbdbcd06c	-0.09219441
23	0x3e473be5	0.19456442
24	0xbd82e812	-0.0639192
25	0x3dd067c6	0.10176043
26	0x3e667c15	0.22508271
27	0xbe2f84e7	-0.17140542
28	0xbd77d858	-0.060509056
29	0xbe0717d0	-0.13192677
30	0x3e2bf87f	0.16794012
31	0xbe40c172	-0.18823794
32	0xbe558ef8	-0.2085532
33	0xbe11a6cc	-0.14223784
34	0x3d9c57ea	0.07633956
35	0x3de3c3d2	0.11121334
36	0x3de7667e	0.11298846
37	0xbe1bbe56	-0.15209326
38	0x3e1ff94f	0.15622447
39	0xbe18db84	-0.14927489
40	0xbe1993a5	-0.14997728
41	0x3d4589cc	0.048227116
42	0xbe4e3076	-0.20135674
43	0xbe65d411	-0.22444178
44	0x3d9feb72	0.078085795
45	0xbe32ff35	-0.17480166
46	0xbe30920d	-0.17243214
47	0x3e3be74d	0.18349953
48	0x3e429205	0.19001015
49	0xbdb9734c	-0.09055194
50	0x3e5f8737	0.21828924
51	0x3db2b86e	0.087265834
52	0xbe366b54	-0.1781438
53	0xbe62ca1d	-0.22147413
54	0x3d804fe2	0.062652364
55	0x3d7d359c	0.061818704
56	0x3e25fcb7	0.16209684
57	0xbdc1dc06	-0.09465794
58	0x3dd00a76	0.10158245
59	0x3cf62d98	0.030051038
60	0x3c9d20a8	0.01918061
61	0xbde7b135	-0.113130964
62	0x3cd81ea8	0.026381806
63	0xbd87202a	-0.06597932
64	0x3d9485ae	0.0725206
65	0x3dc6169e	0.09672283
66	0x3d9cce16	0.07656495
67	0x3e500967	0.20316087
68	0xbd59defc	-0.05319117
69	0x3e5bd277	0.21467005
70	0xbe188606	-0.14894876
71	0x3e31b7f7	0.17355333
72	0x3de45e5a	0.11150809
73	0x3e213c1f	0.1574559
74	0xbe1ce208	-0.15320599
75	0x3e392fe5	0.18084677
76	0xbd4ca5c0	-0.04996276
77	0xbe391097	-0.18072735
78	0xbde36939	-0.11104054
79	0xbe64dd81	-0.22350122
80	0x3e165085	0.14679153
81	0x3d9ae22e	0.075626716
82	0xbe3bb8a2	-0.1833215
83	0xbe465bb6	-0.19370922
84	0x3e078d5d	0.1323752
85	0x3dca7576	0.09885685
86	0xbd40d5c0	-0.047078848
87	0x3c917ad8	0.017758772
88	0xbe3a477b	-0.1819133
89	0xbd01a288	-0.031649143
90	0xbb8597e0	-0.004076943
91	0x3d89738e	0.067114934
92	0x3e04d081	0.12970163
93	0xbddd6ed6	-0.10812156
94	0xbe3ff061	-0.18744041
95	0xbe140194	-0.14453727
96	0x3da93566	0.08262138
97	0x3e6ba701	0.23012926
98	0xbe307303	-0.17231373
99	0xbe425154	-0.18976337
100	0xbe371c28	-0.17881835
101	0xbe4f6a50	-0.20255399
102	0xbb651780	-0.0034956634
103	0x3de1c6de	0.11024259
104	0x3e49e1e9	0.19715084
105	0xbe21cb50	-0.15800214
106	0x3d842ca2	0.064538255
107	0x3e4062e9	0.18787731
108	0x3aa5c580	0.001264736
109	0xbe29be9f	-0.16576622
110	0xbd30259c	-0.043004617
111	0xbd066164	-0.032807723
112	0xbd8836ea	-0.06651099
113	0x3bc65a40	0.006053239
114	0xbd6af390	-0.057361186
115	0x3e06b08b	0.13153283
116	0xbdb509ae	-0.08839737
117	0xbde1ad6c	-0.11019406
118	0x3e56728b	0.20942132
119	0xbe3eb261	-0.18622734
120	0x3e1017fb	0.14071648
121	0xbe0e151e	-0.13875243
122	0x3e0924df	0.13392971
123	0xbe0308c9	-0.1279632
124	0x3deba6de	0.11506437
125	0x3ce96b98	0.028493688
126	0xbe241a3f	-0.16025637
127	0x3d82ff6e	0.063963756
128	0x3c9b6348	0.01896824
129	0xbd1c91d8	-0.038225025
130	0x3e4d24d1	0.20033576
131	0xbd0f7e8c	-0.035032794
132	0x3df86e8e	0.12130462
133	0x3e10cea3	0.14141326
134	0x3d592684	0.053015247
135	0xbd59c290	-0.053164065
136	0x3e4fd4eb	0.20296066
137	0xbe492b78	-0.19645488
138	0xbe04a00c	-0.12951678
139	0xbdc3e806	-0.09565739
140	0x3e5af193	0.21381216
141	0x3e392fd3	0.1808465
142	0xbe40ba46	-0.18821058
143	0xbd8a6b1c	-0.06758711
144	0x3e0cc1d1	0.1374581
145	0x3c666a60	0.014063448
146	0x3def0622	0.116710916
147	0xbdc3a204	-0.095523864
148	0x3de06956	0.10957591
149	0xbdf6fb93	-0.12059703
150	0xbe52f623	-0.20601706
151	0x3dde7726	0.108625695
152	0xbe687d7b	-0.22704117
153	0x3d243a2c	0.04009454
154	0x3e34320d	0.17597218
155	0xbc68f6d0	-0.014219001
156	0x3e60440b	0.21900956
157	0x3d4b9cac	0.04970996
158	0x3da35d3e	0.07976769
159	0xbe55d815	-0.2088321
160	0x3e2d2233	0.16907577
161	0xbdba4ce4	-0.09096697
162	0xbe5f5a28	-0.21811736
163	0xbe6a0837	-0.22854696
164	0xbdee1b5c	-0.11626312
165	0xbe2e6d52	-0.1703389
166	0x3e5efe21	0.2177663
167	0xbce98a20	-0.028508246
168	0x3cd2a258	0.025712177
169	0xbdbb4202	-0.09143449
170	0x3d1ca5d4	0.038244084
171	0x3e1a62af	0.15076707
172	0xbe5f1546	-0.21785459
173	0x3e07a755	0.13247426
174	0xbe4296a2	-0.19002774
175	0xbe47c14b	-0.19507329
176	0xbd6866c8	-0.056738645
177	0x3e1c150d	0.15242405
178	0x3e4df641	0.2011347
179	0xbe033a5b	-0.1281523
180	0x3e3ad175	0.18243964
181	0xbe6ac810	-0.2292788
182	0x3e32d60f	0.1746447
183	0x3e3a808b	0.18213098
184	0xbe05e8ce	-0.13077089
185	0x3e1d4b97	0.15360866
186	0xbe3b64a1	-0.18300106
187	0xbb980dc0	-0.004640311
188	0x3de881c6	0.11352877
189	0x3e59ef35	0.21282656
190	0xbe4eefeb	-0.20208709
191	0xbe35a65d	-0.17739244
192	0xbe0ee732	-0.13955382
193	0x3e591803	0.21200566
194	0x3e4da335	0.2008179
195	0xbe389562	-0.18025735
196	0xbd9f8d72	-0.077906504
197	0xbc8b1788	-0.016978994
198	0x3e608a2f	0.21927713
199	0x3e3e2849	0.18570055
200	0x3dfb46ba	0.122693494
201	0xbe54bfaa	-0.20776239
202	0x3e4e2879	0.20132627
203	0xbc99f3b8	-0.018792972
204	0x3c5206e0	0.012819022
205	0xbdbaa0d2	-0.09112705
206	0x3e093d81	0.13402368
207	0xbe6ca898	-0.23111188
208	0xbde264f2	-0.1105441
209	0x3e0b7107	0.13617335
210	0xbd87da7c	-0.066334695
211	0x3e3b3f95	0.18285973
212	0x3d1c5f54	0.03817685
213	0xbe3769cc	-0.17911452
214	0xbd6cab68	-0.057780653
215	0xbe07a695	-0.1324714
216	0xbe09ef50	-0.13470197
217	0x3e0625b9	0.13100328
218	0x3e3a9c57	0.18223701
219	0xbe0c08aa	-0.1367518
220	0x3e57311f	0.21014832
221	0xbe5cd9d4	-0.2156747
222	0xbe23b8ae	-0.15988418
223	0xbe28fb1a	-0.16502038
224	0xbd8f4674	-0.0699586
225	0xbe3d038c	-0.18458384
226	0x3e4d57a7	0.20052968
227	0x3d6894cc	0.05678253
228	0x3d29c41c	0.04144679
229	0xbe49bcf2	-0.19700983
230	0xbe4db956	-0.20090231
231	0xbe21e223	-0.1580892
232	0xbe495c6e	-0.19664165
233	0x3dcc49c6	0.09975009
234	0xbe1d16e3	-0.15340762
235	0xbd590798	-0.052985758
236	0xbe61727a	-0.22016326
237	0xbd21bc04	-0.039485946
238	0x3cbad438	0.022806272
239	0x3e6fe59b	0.23427431
240	0xbd8066ca	-0.062696055
241	0xbdbff594	-0.09373012
242	0x3ba31c80	0.0049777627
243	0x3e6ee5f1	0.23329903
244	0x3b877660	0.0041339844
245	0x3d881e1e	0.066463694
246	0x3e008f23	0.12554602
247	0x3e2123f9	0.15736379
248	0xbe1fe352	-0.1561406
249	0xbe30e088	-0.17273152
250	0x3e12d5a5	0.14339311
251	0xbd3f4cec	-0.046704218
252	0x3e0abe33	0.13549118
253	0x3dece5e6	0.11567287
254	0xbd24620c	-0.040132567
255	0xbd5d7e08	-0.05407527

fc2.weight f4 [256, 256]
0	0x3cd4fe48	0.026000157
1	0xbd16c54a	-0.036809243
2	0x3c9a4c08	0.018835083
3	0xbbb379c0	-0.00547716
4	0xbd27fac2	-0.041010626
5	0xbc3a78d0	-0.011381343
6	0xbd2106f0	-0.039313257
7	0xba9e0440	-0.001205571
8	0xbc9a6de4	-0.018851228
9	0xbd03145c	-0.032001838
10	0x3ca7f30c	0.020501636
11	0xbc2df8f8	-0.010618441
12	0xbcbf99f4	-0.02338884
13	0xbd705e7a	-0.05868385
14	0xbd0793ac	-0.033099815
15	0x3d62dbb0	0.05538529
16	0xbd11d17c	-0.03560017
17	0x3c05da40	0.008169711
18	0xbcbe5fc8	-0.023239031
19	0xb9e5b700	-0.0004381463
20	0xbd1f596e	-0.038903646
21	0xbca5079c	-0.02014523
22	0x3cf99b38	0.030469522
23	0x3cbac7fc	0.022800438
24	0xbd017478	-0.031605214
25	0xbc2965a8	-0.010339178
26	0x3d2b950a	0.04189018
27	0x3ccb127c	0.024789087
28	0x3d073f80	0.033019543
29	0xbd52604e	-0.051361375
30	0x3d44e98c	0.04807429
31	0xbd5079b0	-0.0508973
32	0x3d244310	0.04010302
33	0x3ce2c3a0	0.027681172
34	0x3c381d10	0.011237398
35	0xbceaa630	-0.028643698
36	0xbd2f609a	-0.042816736
37	0xbd415b2a	-0.04720608
38	0x3d7e1200	0.062028885
39	0x3d3cecc0	0.04612422
40	0xbd1d322c	-0.038377926
41	0xbd686ac0	-0.05674243
42	0xbd06febe	-0.032957785
43	0xbd4ab9a8	-0.04949346
44	0xbcf4971c	-0.02985721
45	0x3d058d06	0.032605194
46	0x3d74e964	0.05979289
47	0xbd6a7a3a	-0.05724547
48	0xbd05af46	-0.032637857
49	0x3d0f6d3c	0.035016283
50	0x3d4998a0	0.04921782
51	0x3ca71154	0.020394005
52	0xbb70cfc0	-0.0036744922
53	0x3d0d087a	0.034431912
54	0x3d4db8ac	0.050224945
55	0x3bfb66c0	0.007672161
56	0xbd1705dc	-0.036870822
57	0x3d7374aa	0.05943743
58	0xbd216b1a	-0.03940878
59	0xba8b13c0	-0.0010610744
60	0xbd68219e	-0.056672685
61	0xbd27a766	-0.040931128
62	0x3be1c8a0	0.0068903714
63	0x3ca76838	0.020435438
64	0xb9fbf600	-0.00048057735
65	0x3cbdd2a0	0.023171723
66	0x3cc640d8	0.024200842
67	0x3ad83ec0	0.0016498193
68	0x3d18585c	0.03719364
69	0xbc99a004	-0.01875306
70	0x3c487360	0.012234539
71	0xbd182cd0	-0.03715211
72	0x3cc31dbc	0.02381789
73	0x3be7f930	0.007079266
74	0x3c05b7c8	0.008161493
75	0xbc78b4e8	-0.01517985
76	0x3b9ac240	0.0047228634
77	0xbd785ed4	-0.06063731
78	0xbc635dd8	-0.013877355
79	0x3b494920	0.0030713752
80	0x3c5de4f8	0.01354336
81	0xbd4fda54	-0.050745323
82	0xbd438272	-0.047731824
83	0x3d3c5180	0.045976162
84	0x3d545886	0.051842235
85	0xbc11e1a8	-0.008903898
86	0x3cc406ec	0.023929082
87	0xbcf54818	-0.029941604
88	0x3d7b19fe	0.061304085
89	0xbd5b7036	-0.05357381
90	0xbcc0ea30	-0.02354917
91	0x3d673880	0.056450367
92	0xbc909148	-0.0176474
93	0xbb4b8180	-0.003105253
94	0x3c3681c0	0.011139333
95	0x3d2ed2d0	0.042681515
96	0x3d5b1158	0.053483337
97	0xbd3de4ac	-0.046360657
98	0x3b8cb190	0.004293628
99	0x3d60c1dc	0.05487238
100	0x3d551a8c	0.05202727
101	0xbbcdf590	-0.006285377
102	0x3c90c654	0.017672695
103	0x3d42d950	0.047570527
104	0xbc83e4fc	-0.0161004
105	0x3d2a945e	0.0416454
106	0xbc8ec7dc	-0.017429285
107	0x3ce442a4	0.027863808
108	0xbb932630	-0.0044906363
109	0xbd3e4c02	-0.046459205
110	0x3d0e8afc	0.034800515
111	0x3d6e4cc6	0.058178686
112	0xbd608788	-0.054816753
113	0x3d2a1cd2	0.04153139
114	0x3c495f90	0.01229085
115	0x3bd1d0b0	0.0064030513
116	0x3b838310	0.0040134266
117	0x3d3c6c74	0.046001866
118	0xbbc39d80	-0.005969703
119	0xbb95bb80	-0.004569471
120	0xbd4f11a2	-0.050553925
121	0xbc188ae0	-0.009310454
122	0xbd34f128	-0.044175297
123	0xbd59ff10	-0.053221762
124	0x3d51abba	0.05118916
125	0xbcdd4700	-0.027011395
126	0xbbf03840	-0.0073309243
127	0x3d08ebf0	0.033428133
128	0xbd7d9914	-0.061913565
129	0x3bcb1470	0.0061975047
130	0xbd1d3144	-0.03837706
131	0x3c833df8	0.01602076
132	0x3c5c2c88	0.013438351
133	0x3cdb9118	0.026802585
134	0xbca6c804	-0.020359047
135	0xbc9b2790	-0.018939763
136	0x3cf26efc	0.029593937
137	0x3d66e5ba	0.056371428
138	0x3c974220	0.018464148
139	0xb91c5e00	-0.00014912337
140	0xbcc2cdc8	-0.023779765
141	0x3b0390c0	0.0020075291
142	0x3d43ce58	0.047804207
143	0xbd598f86	-0.05311539
144	0xbcc1ada0	-0.023642361
145	0x3d79e0e0	0.061005473
146	0xbcb0e84c	-0.021595143
147	0x3d42b9a2	0.047540314
148	0x3cbffe94	0.023436822
149	0x3b676fa0	0.0035314336
150	0xbd3e7666	-0.046499632
151	0xbd67609e	-0.056488626
152	0x3d7c34a2	0.061573632
153	0x3d7566fe	0.059912674
154	0x3b36d100	0.002789557
155	0x3d56469c	0.052313432
156	0x3ceb1cfc	0.028700344
157	0xbc88cd78	-0.016699538
158	0xbcdaa6c8	-0.026690856
159	0xbd48fc94	-0.049069002
160	0xbd47d13a	-0.04878352
161	0x3c7e3060	0.015514463
162	0xbd726666	-0.059179686
163	0x3d174a54	0.03693612
164	0x3c6ca340	0.014443219
165	0xbb835f60	-0.0040091723
166	0x3d061676	0.032736264
167	0xbceef9cc	-0.029171847
168	0xbd2a7522	-0.041615613
169	0xbcfd2048	-0.030899182
170	0xbd317772	-0.043326803
171	0x3d774930	0.06037253
172	0x3d1ad8e2	0.03780449
173	0xbca77a24	-0.020443983
174	0xbd06d766	-0.032920264
175	0x3d11a978	0.03556201
176	0x3d017cbc	0.031613097
177	0xbcc0a9b0	-0.023518413
178	0xbd5ba6d2	-0.05362589
179	0xbc89a840	-0.01680386
180	0xbb2c1360	-0.0026256666
181	0xbd2080a0	-0.039185166
182	0x3cdae0ac	0.02671846
183	0xbcde2a00	-0.027119637
184	0x3c441370	0.011967525
185	0xbcdc55e0	-0.026896417
186	0x3baea070	0.0053291842
187	0x3cba514c	0.022743843
188	0x3d4053fe	0.0469551
189	0x3d091146	0.03346374
190	0xbd35cdb6	-0.044385634
191	0xbcb8d874	-0.02256415
192	0xbbcedd30	-0.0063129887
193	0x3ca644b0	0.020296425
194	0xbbba63a0	-0.0056881458
195	0x3d75febe	0.060057394
196	0x3d60682c	0.054786846
197	0xbccde81c	-0.025135092
198	0xbd45948c	-0.04823737
199	0x3d1e130a	0.038592376
200	0xbcc96e34	-0.024588682
201	0x3d0505b0	0.032476127
202	0x3d52adae	0.051435165
203	0xbcbd1d24	-0.023085184
204	0x3d66f3da	0.0563849
205	0xbd2f886c	-0.04285471
206	0x3d23430e	0.03985887
207	0x3d001eb6	0.03127929
208	0x3d6155a0	0.0550133
209	0xbca0420c	-0.019562744
210	0x3d2e0bb8	0.042491645
211	0xbcc40150	-0.023926407
212	0xbce862a4	-0.028367348
213	0xbc820c20	-0.015874922
214	0xbcb466fc	-0.022021763
215	0xbc3d7708	-0.011564024
216	0x3b8866f0	0.0041626617
217	0xbd112ca8	-0.03544298
218	0xb9fc6600	-0.00048141181
219	0xbc910f14	-0.017707385
220	0x3d62539c	0.055255517
221	0xbd735be0	-0.05941379
222	0xbd4da362	-0.050204642
223	0xbc82dd20	-0.015974581
224	0x3c4f9ce8	0.012671687
225	0x3be8f310	0.0071090534
226	0x3d12e680	0.035864353
227	0xbd5d0a44	-0.05396487
228	0x3bbd41e0	0.005775675
229	0xbd04ce14	-0.032423094
230	0xbc9c9a08	-0.019116417
231	0x3d5720a0	0.052521348
232	0x3d68d026	0.05683913
233	0xbd0935de	-0.033498637
234	0x3c1be248	0.009514399
235	0x3c1792f0	0.009251341
236	0x3d731ad8	0.059351772
237	0xbbefb8e0	-0.00731574
238	0x3d79ffea	0.061035074
239	0xbb0b43e0	-0.0021250173
240	0x3c5b3ff8	0.013381951
241	0xbd5c812e	-0.053834133
242	0xbd37e302	-0.044894226
243	0x3c799c48	0.015235014
244	0x3ca30bdc	0.019903116
245	0xbd3f5426	-0.04671111
246	0x3d20f2f0	0.039294183
247	0xbc280728	-0.010255612
248	0xb9ac1300	-0.00032820553
249	0x3c9af82c	0.018917166
250	0xbd767c80	-0.060177326
251	0xbd2127fa	-0.039344765
252	0xba89b7c0	-0.0010507032
253	0xbd51c18e	-0.05120998
254	0x3c821c38	0.015882596
255	0xbc9ca8f8	-0.01912354

fc2.bias f4 [256]
0	0xbd5a9040	-0.053360224
1	0x3d7fe50a	0.062474288
2	0x3d25cc0c	0.040477797
3	0xbca52ca0	-0.02016288
4	0xbd4e7c58	-0.050411552
5	0xbc67bc88	-0.01414407
6	0x3d300e32	0.042982288
7	0x3d028146	0.031861566
8	0xbc597618	-0.013272785
9	0xbbbe6e80	-0.0058115125
10	0x3d62c57a	0.05536411
11	0xbc40b598	-0.011762045
12	0x39bb6500	0.0003574267
13	0xbba64150	-0.005073704
14	0x3ca1e5e0	0.019762933
15	0xbbac0060	-0.005249068
16	0x3cb90c58	0.022588894
17	0xbcaf8878	-0.021427378
18	0x3d39868e	0.045294337
19	0xbd39f6cc	-0.04540138
20	0x3d437690	0.047720492
21	0xbd322c80	-0.04349947
22	0xbcb672e4	-0.022271581
23	0xbcd62644	-0.026141293
24	0x3ce6d7bc	0.028179042
25	0x3c214b40	0.009844601
26	0x3af3f340	0.0018611923
27	0xbd364ba2	-0.044505723
28	0xbcb25ab8	-0.021771774
29	0x3d4d71b6	0.05015727
30	0x3d46c088	0.048523456
31	0xbd4ba7e0	-0.049720645
32	0xbc885c94	-0.016645707
33	0xbd457ac0	-0.048212767
34	0xbbd8e6a0	-0.0066192895
35	0x3d7b48fe	0.061348908
36	0x3d44f816	0.048088156
37	0x3d1ece98	0.038771242
38	0xbd475c36	-0.048671924
39	0x3cdb5890	0.026775628
40	0xbce92e78	-0.02846454
41	0x3bcca040	0.006244689
42	0x3c24ed40	0.01006633
43	0x3d06170c	0.032736823
44	0x3d439f50	0.047759354
45	0x3d054912	0.03254039
46	0x3d3e0ae6	0.046397112
47	0xbcc2cda4	-0.023779698
48	0xbc9ce7dc	-0.019153528
49	0xbd350790	-0.044196665
50	0xbd099e2a	-0.033598103
51	0x3d4e748e	0.050404124
52	0x3d18ef2e	0.037337475
53	0xbca541f0	-0.020173043
54	0xbd63d030	-0.055618465
55	0xbd4bf02c	-0.049789593
56	0x3b73fea0	0.0037230626
57	0x3d438678	0.04773566
58	0x3d5ab314	0.05339344
59	0xbc8af43c	-0.016962163
60	0xbd6bed08	-0.057599097
61	0xbd792788	-0.060828716
62	0xbcf3915c	-0.029732399
63	0x3c999590	0.018748075
64	0x3ab1f500	0.0013577044
65	0x3d773d3c	0.060361132
66	0x3d281a14	0.041040495
67	0x3d572988	0.05252984
68	0x3baf00c0	0.0053406656
69	0x3bb07040	0.005384475
70	0xbc94c41c	-0.018159918
71	0xbd0643f4	-0.03277965
72	0xbd1192fe	-0.035540573
73	0xbd44febe	-0.048094504
74	0xbd5c5658	-0.05379328
75	0x3d148f7e	0.036269657
76	0xbd4b1982	-0.049584873
77	0xbd30f64c	-0.043203637
78	0x3cf168e0	0.029468954
79	0xbcf4e2bc	-0.029893272
80	0x3c856224	0.016282149
81	0xbd63eac0	-0.055643797
82	0xbc083410	-0.008313194
83	0x3d3c6142	0.04599119
84	0x3d3b0db8	0.04566738
85	0x3cfdb784	0.030971296
86	0x3c044e50	0.008075312
87	0xbc1aaed8	-0.0094411
88	0x3d17ab40	0.03702855
89	0x3d1f63b8	0.03891346
90	0xbc80bafc	-0.015714161
91	0xbd229092	-0.039688654
92	0x3cf9d598	0.030497357
93	0xbcfd8bec	-0.030950509
94	0x3d6ee2f4	0.058321908
95	0x3ac97380	0.0015369505
96	0x3b874690	0.0041282848
97	0x3cb9b254	0.022668041
98	0x3d07487e	0.03302812
99	0xbcf11df4	-0.029433228
100	0x3d7a55d8	0.061117023
101	0xbc4ec330	-0.0126197785
102	0x3d79c3b6	0.06097766
103	0xbcb9f100	-0.022697926
104	0xbbca7820	-0.006178871
105	0x3bc10690	0.005890675
106	0x3d3e12aa	0.04640452
107	0x3c95a000	0.01826477
108	0xbd5f9d48	-0.054593354
109	0x3ce61600	0.028086662
110	0xbcf94988	-0.03043057
111	0x3ca92c78	0.020651087
112	0x3bd301b0	0.00643941
113	0x3d06dc94	0.032925203
114	0xbbd88d20	-0.0066086203
115	0xbbfcd5a0	-0.007715896
116	0x3d1ab80c	0.037773177
117	0xba8b0940	-0.0010607615
118	0xbd446c86	-0.04795506
119	0xbd7ae5d8	-0.061254352
120	0xbc5cd528	-0.013478555
121	0xbd0f5714	-0.034995154
122	0x3cc86c44	0.024465688
123	0x39078400	0.00012923777
124	0xbd256be2	-0.04038609
125	0xbd2621ea	-0.040559687
126	0xbd71a172	-0.058991857
127	0xbcc854a4	-0.024454422
128	0xbd3dc47e	-0.046329968
129	0x3bd9ad10	0.006642945
130	0xbc2e2f08	-0.01063133
131	0x3d49c542	0.049260385
132	0x3ce44354	0.027864136
133	0x3d3ece30	0.046583354
134	0xbd680f5a	-0.056655265
135	0xbd2966da	-0.041357853
136	0x3cfb6424	0.0306874
137	0x3c2541c0	0.010086477
138	0x3d02c42c	0.031925365
139	0x3b04b900	0.002025187
140	0x3c964000	0.018341064
141	0x3d5d6f6e	0.054061346
142	0x3d395dc8	0.045255452
143	0xbc38fb58	-0.011290394
144	0x3d17c68a	0.037054576
145	0xbd57eb28	-0.052714497
146	0x3d4a924e	0.049455933
147	0xbd15fadc	-0.03661619
148	0xbd2bab30	-0.041911304
149	0xbd267486	-0.04063847
150	0x3c7a61f0	0.015282139
151	0xbb578b80	-0.0032889545
152	0xbbbab9f0	-0.005698435
153	0x3cc51280	0.024056673
154	0x3c84f9dc	0.016232423
155	0x3d6ece28	0.058302075
156	0xbd395186	-0.045243762
157	0xbbd45bb0	-0.0064806566
158	0xbd675218	-0.056474775
159	0x3cb3c230	0.021943182
160	0x3cf10c4c	0.029424809
161	0xbc7353a0	-0.014851481
162	0x3cff8640	0.031191945
163	0x3cf0f17c	0.029412024
164	0x3d3e8cda	0.046521045
165	0x3d28355c	0.041066512
166	0xbb749300	-0.0037319064
167	0x3b95a7b0	0.004567109
168	0x3d7e08e4	0.062020198
169	0xbd0562cc	-0.032564923
170	0x3c061708	0.008184202
171	0x3cb7b4d4	0.022425093
172	0xbd00b33c	-0.03142093
173	0xbd48d310	-0.04902941
174	0x3d4433d8	0.047901005
175	0xbd780d1a	-0.06055937
176	0xbd34c0a4	-0.04412903
177	0xbc24c068	-0.010055639
178	0x3cfc2398	0.030778691
179	0xbd2fc170	-0.042909086
180	0x3d7f3c6c	0.062313482
181	0x3bcf96d0	0.006335117
182	0x3cd8d534	0.02646885
183	0xbd585400	-0.052814484
184	0x3cfb03b8	0.030641422
185	0x3d75a4be	0.059971564
186	0x3b63dc00	0.0034768581
187	0x3d6db272	0.058031507
188	0xbb75c6c0	-0.0037502497
189	0x3d71f696	0.059073053
190	0x3cb5b338	0.022180185
191	0x3ccd75ac	0.025080524
192	0xbc0e1e00	-0.008674145
193	0x3d4034ec	0.04692547
194	0x3d36d9de	0.044641368
195	0xbc2b4d78	-0.010455482
196	0xbc228290	-0.009918824
197	0xbc983584	-0.018580206
198	0xbd56dc92	-0.052456446
199	0xbcb113c0	-0.021615863
200	0x3d700082	0.058594234
201	0x3ca7c840	0.020481229
202	0xbc9c9348	-0.019113198
203	0x3c3cc130	0.011520669
204	0xbc07d658	-0.00829085
205	0x3d16ee02	0.036848076
206	0x3d1d1a64	0.038355246
207	0x3d33053c	0.043706164
208	0xbbd61580	-0.0065333247
209	0x3be9a440	0.007130176
210	0x3b80ab10	0.0039266422
211	0xbcebf578	-0.028803572
212	0x3cebe34c	0.028794907
213	0xbbc76210	-0.006084688
214	0xbc486ae8	-0.01223252
215	0x3d487b9c	0.048946008
216	0xbd3f9f66	-0.046782874
217	0xbb6724e0	-0.0035269782
218	0x3d58b5c2	0.052907713
219	0xbca16250	-0.0197002
220	0xbd072c54	-0.03300126
221	0xbd0dd7a0	-0.034629464
222	0x3cc7854c	0.024355553
223	0x3d77fed8	0.060545772
224	0x3cce0904	0.025150783
225	0x3b833920	0.0040046126
226	0xbd443140	-0.04789853
227	0xbca39c80	-0.019972086
228	0xbcc80844	-0.024418004
229	0x3d01f670	0.03172916
230	0x3d581f5a	0.052764274
231	0x3d2b3282	0.041796215
232	0xbcc6745c	-0.024225406
233	0xbc9288c0	-0.017887473
234	0x3d2928f0	0.041298807
235	0x3c994814	0.018711127
236	0x3c222590	0.009896651
237	0x3cfdde40	0.030989766
238	0x3d75aad2	0.05997736
239	0xbd1cfe74	-0.038328603
240	0xbd732fb2	-0.059371658
241	0x3d39209a	0.045197107
242	0xbd50d160	-0.050980926
243	0xbd337dfc	-0.04382132
244	0xbc8257d4	-0.01591102
245	0xbd6576a0	-0.056021333
246	0x3d261c9c	0.040554628
247	0xbd637bc0	-0.05553794
248	0x3d4a0510	0.049321234
249	0xbc8a15b4	-0.016856052
250	0x3d6e3c3e	0.05816292
251	0xbd29b038	-0.04142782
252	0xbc99da30	-0.018780798
253	0xbc985a80	-0.018597841
254	0xbc9c8504	-0.019106396
255	0xbcad4c24	-0.02115447

fc3.weight f4 [1, 256]
0	0x3c589cb8	0.013220958
1	0xbd59ed54	-0.05320485
2	0xbd4933a6	-0.04912152
3	0x3bbb0e10	0.0057084635
4	0x3b0b8da0	0.0021294132
5	0xbb2849e0	-0.0025678799
6	0xbd051e02	-0.03249932
7	0x3d21239a	0.039340593
8	0x3d7e0270	0.062014043
9	0x3c4586a0	0.012056023
10	0xbbf77f90	-0.0075530484
11	0xbb2b9620	-0.002618201
12	0xbd196780	-0.03745222
13	0x3d48007e	0.048828594
14	0xbd085e8a	-0.033293284
15	0xbcc7b5bc	-0.02437865
16	0x3d794404	0.06085588
17	0xbd43772c	-0.047721073
18	0x3d330f5e	0.043715827
19	0xbcd42e48	-0.025900975
20	0xbd3ec860	-0.04657781
21	0xbb6fb980	-0.0036579072
22	0x3bae6be0	0.0053229183
23	0xbbc28b50	-0.0059370175
24	0xbbcc00d0	-0.006225683
25	0xbca3a124	-0.019974299
26	0xba8cb0c0	-0.0010733828
27	0x3d5f3056	0.054489456
28	0xbcc86f5c	-0.024467163
29	0xbd78c936	-0.060738765
30	0x3d06c8ba	0.03290627
31	0x3d3465aa	0.044042267
32	0xbc95d198	-0.018288419
33	0xb7e78000	-2.759695e-05
34	0x3c966bc0	0.018361926
35	0xbd1882b4	-0.037234023
36	0x3cfdaeb4	0.030967094
37	0xbd5d8804	-0.054084793
38	0x3d19421a	0.037416555
39	0x3d36f408	0.04466632
40	0xbd495520	-0.049153447
41	0xbb152880	-0.0022759736
42	0xbd4c0214	-0.04980667
43	0x3d0c355c	0.034230575
44	0xbb60bc00	-0.0034291744
45	0x3d425082	0.04744006
46	0xbcbda47c	-0.023149721
47	0x3d54fb20	0.051997304
48	0x3cac122c	0.021004759
49	0x3b90c2b0	0.00441774
50	0xbd4d4d18	-0.05012235
51	0xbce30df8	-0.027716622
52	0x3d7ecbdc	0.062206134
53	0x3ca742b0	0.020417541
54	0x3d3d4fc0	0.046218634
55	0xbcb42e04	-0.021994598
56	0x3ca8dd0c	0.020613216
57	0xbd7dfc86	-0.062008403
58	0x3c6229e8	0.013803937
59	0x3d5d30f2	0.054001756
60	0x3d63a164	0.055573836
61	0xbcac7e7c	-0.021056406
62	0xbd63948a	-0.05556158
63	0x3cc9de20	0.02464205
64	0xbbf9a750	-0.007618822
65	0xbd50b4b0	-0.050953567
66	0xbd6f3028	-0.058395535
67	0xbd4dbb62	-0.05022753
68	0x3d408408	0.047000915
69	0x38e96c00	0.00011130422
70	0x3d12ca8a	0.035837688
71	0x3d1cbb50	0.038264573
72	0x3d19b712	0.037528105
73	0xbd57ba10	-0.052667677
74	0xbd26b82c	-0.040702984
75	0xbc54b888	-0.012983449
76	0xbc5380c8	-0.012909122
77	0x3c654760	0.013994068
78	0xbd2c2b96	-0.042033754
79	0x3d5780a0	0.0526129
80	0xbd70f19e	-0.058824174
81	0xbd20796e	-0.039178304
82	0x3d03ccf0	0.032177866
83	0x3c8e1c80	0.017347574
84	0xbba8ef90	-0.005155511
85	0xbd1dcf68	-0.038527876
86	0x3cc5929c	0.02411776
87	0x3b5152a0	0.0031940117
88	0x3b493aa0	0.003070511
89	0xbd5c1a9a	-0.053736307
90	0xbd5bfd56	-0.053708397
91	0x3bd338b0	0.0064459667
92	0xbd1a9032	-0.03773517
93	0x3cbe4438	0.023225889
94	0x3ce44290	0.02786377
95	0x3be7ea70	0.0070775077
96	0x3d456996	0.048196398
97	0xbc171de8	-0.009223439
98	0x3d6188c8	0.055062085
99	0x3cef3ae4	0.029202886
100	0xbad68b80	-0.0016368479
101	0x3d176b0e	0.03696733
102	0x3c9bb578	0.01900743
103	0xbc72f040	-0.014827788
104	0x3c788288	0.01516784
105	0xbc930334	-0.017945863
106	0xbd52cf70	-0.05146736
107	0xbd6b2ace	-0.05741387
108	0xbb3858e0	-0.0028129146
109	0xbd5a56be	-0.05330538
110	0xbd565b1a	-0.052332975
111	0xbd769c1a	-0.060207464
112	0x3c76f720	0.015073568
113	0x3d01cac0	0.031687498
114	0xbd686bc4	-0.0567434
115	0xbcf3d25c	-0.029763393
116	0x3c3fb800	0.011701584
117	0xbd77a27a	-0.060457684
118	0xbc90f594	-0.017695226
119	0xbd07207e	-0.03298997
120	0x3d552592	0.052037783
121	0xbbc56100	-0.006023526
122	0x3cdcd994	0.026959218
123	0xbd2afb90	-0.041743815
124	0x3d114150	0.035462677
125	0x3cc44918	0.023960635
126	0xbc85ed7c	-0.016348593
127	0x3b405720	0.0029348806
128	0xbad4f8c0	-0.001624845
129	0xbbaa1310	-0.0051902607
130	0x3c3cb350	0.011517361
131	0xbcc1f884	-0.023678072
132	0xbb510ce0	-0.0031898543
133	0xbcd67a74	-0.026181437
134	0x3d6b5d04	0.057461753
135	0xbc44bc30	-0.012007758
136	0xbd0eecee	-0.034893923
137	0xbce44dac	-0.027869068
138	0x3d37b780	0.044852734
139	0xbd57eece	-0.052717976
140	0xbc786e90	-0.015163079
141	0x3cdb9cb4	0.02680812
142	0xbb185d20	-0.0023248866
143	0xbcfc3068	-0.0307848
144	0xbcf5f758	-0.03002517
145	0xbd04710c	-0.032334372
146	0xbb299080	-0.0025873482
147	0x3d76923a	0.060198046
148	0x3bf14780	0.00736326
149	0x3d4623ac	0.048373863
150	0x3c4377e0	0.011930436
151	0xbc38fa40	-0.011290133
152	0x3d084ed0	0.033278286
153	0xbce6cbd0	-0.028173357
154	0xbced3128	-0.028954104
155	0xbc5cf1d8	-0.013485394
156	0x3c94ce78	0.018164858
157	0x3d725da4	0.059171334
158	0xbd1f215a	-0.038850166
159	0x3c8dac60	0.017294109
160	0x3d229a84	0.03969814
161	0x3cf949ac	0.030430637
162	0x3c348d68	0.011020042
163	0xbcb06c24	-0.02153594
164	0x3d619df0	0.05508226
165	0xbbbc8510	-0.005753167
166	0xbd4bd770	-0.049766004
167	0xbac1d4c0	-0.0014788136
168	0x3bccbda0	0.006248191
169	0x3d0be64e	0.034155183
170	0xbd22bcd0	-0.039730847
171	0x3c8586f0	0.016299695
172	0x3c446050	0.011985853
173	0xbd7971ba	-0.060899474
174	0x3d6c0b36	0.05762788
175	0xbc68e160	-0.01421389
176	0x3d0801e0	0.033204913
177	0xbd43a1fc	-0.047761902
178	0x3cfff9e8	0.031247094
179	0xbc9d4904	-0.019199856
180	0x3cf07838	0.0293542
181	0x3c80e980	0.015736341
182	0xbd541738	-0.051779956
183	0x3d22d89e	0.039757363
184	0x3d609930	0.05483359
185	0x3c89ee58	0.016837284
186	0xbd0922c4	-0.03348042
187	0xbd32967a	-0.043600537
188	0x3cf5067c	0.029910319
189	0x3ab1e980	0.0013573617
190	0xbb53c320	-0.0032312348
191	0xbc97b0b8	-0.018516883
192	0x3cfcd06c	0.030861102
193	0x3d45e18c	0.0483108
194	0xbd126ef8	-0.03575036
195	0x3d17910e	0.03700357
196	0xbd4206c0	-0.04736972
197	0xbd32ac1a	-0.04362116
198	0x3abcf140	0.001441516
199	0xbd33e29e	-0.04391729
200	0xbd1e07b2	-0.038581558
201	0x3bbc9a70	0.005755715
202	0xbd2e0e32	-0.042494006
203	0x3a8c0b40	0.0010684505
204	0xbd379cdc	-0.044827327
205	0xbd55cda0	-0.052198052
206	0x3c897424	0.016779013
207	0x3bd829d0	0.0065967813
208	0x3be09730	0.0068539605
209	0x3d45f716	0.048331343
210	0xbcc9e584	-0.024645574
211	0xbd79c796	-0.060981356
212	0xbd3ac898	-0.045601457
213	0x3d28f856	0.041252457
214	0x3cf343b4	0.02969537
215	0xbd29c36e	-0.041446142
216	0x3d777ad8	0.060419887
217	0x3d093442	0.033497103
218	0xbb98b5e0	-0.004660353
219	0xbd27dc4e	-0.040981583
220	0x3d4a9598	0.04945907
221	0x3cc7a6d8	0.02437155
222	0x3cf39d18	0.029737994
223	0x3d6054ac	0.05476825
224	0x3d4e8e70	0.050428808
225	0x3c731ea8	0.014838852
226	0xbd601662	-0.054708846
227	0xbbe3bbc0	-0.006949872
228	0x3c5ea500	0.013589144
229	0xbd5dd70e	-0.05416017
230	0xbc8557d0	-0.016277224
231	0xbd3cb2ea	-0.046069063
232	0x3d070f54	0.032973602
233	0xbd4faa94	-0.050699785
234	0xbcafb148	-0.021446839
235	0xbcfb9138	-0.030708894
236	0xbd7b9b60	-0.061427474
237	0xbcd085e8	-0.025454476
238	0x3ce2e308	0.027696148
239	0xbd2e55e8	-0.042562395
240	0x3cf8b78c	0.03036096
241	0x3d03850a	0.032109298
242	0x3d227066	0.039657973
243	0xbcf95538	-0.030436143
244	0x3c865414	0.016397513
245	0x3c2d0d18	0.010562204
246	0xbd2f49b4	-0.0427949
247	0xbd6b8cd2	-0.057507344
248	0xbd7856e0	-0.060629725
249	0xbca45cf8	-0.020063862
250	0x3caf62e4	0.02140946
251	0xbce88f00	-0.0283885
252	0xbd22d692	-0.03975541
253	0x3d46dd82	0.04855109
254	0xbd2947c6	-0.041328214
255	0x3d316260	0.04330671
