output_lxl/MASAC/weight/critic1_agent_5_ep_6000.pth (torch, 286504 bytes, 5 tensors)

fc1.weight f4 [256, 18]
00000000: 22e0 973d fce1 673d 0565 433e ffa6 16be
00000010: ce89 c63d 44f0 303d 52ff 973d 0682 bfbd
00000020: e405 61bd 9614 fd3d 206a 0cbe b6cc d03d
00000030: 2e5e 52be 38e1 0dbe 2a6b cfbd 55a1 2f3e
00000040: 401c e1bc 2caf 5d3d 6069 2bbc f0b1 dcbd
00000050: 379a 4e3e f875 3bbe 10c5 283c eb39 2a3e
00000060: 33e9 063e 38b9 f43c 1268 d13d 0dc0 4cbe
00000070: d4ef 3dbe e761 623e 251d 15be aa4b b63d
00000080: d25a fb3d 9723 653e 200e a7bc e82e 8b3c
00000090: 5b7d efbd 96a1 59be e84f a33c ea28 b1bd
000000a0: cc39 0fbe 3054 50be 0dd6 06be b64d d83d
000000b0: 8a60 993d a019 c4bc 889d 77bd 28cb 0abe
000000c0: 8049 193c 201e e33b 35b8 23be cd7d 0a3e
000000d0: cb27 0f3e 1a73 07be 075b 63be ca77 ddbd
000000e0: bb50 2f3e 0215 d93d 3694 9b3d 62d1 c23d
000000f0: 0c4f 8cbd 586e 963c ed19 543e 6235 08be
00000100: 2055 5fbe 01c5 3c3e b828 8e3c abe9 ecbd
00000110: 965d e43d 804b a7bd c8dc e0bd 8a9e 8a3d
00000120: 9682 34be c806 893c f1bd 703e 0e2f 2ebe
00000130: 11fb 46be cef8 fc3d 7c6e 24be 88f6 cc3c
00000140: 154c 103e c0dd fa3b 982d 1cbe 436a 573e
00000150: 484d a6bd 04b5 44be debd 4bbe d643 26be
00000160: 8ae9 f63d 70a5 0abe 7aca c13d 0eaf 9c3d
00000170: d84f ca3c bcef 5cbe 30c9 013c 6694 833d
00000180: 1545 65be ff07 6c3e c01d bebc 899a 6c3e
00000190: 6940 263e 20f6 c53b d1ab 5f3e be72 13be
000001a0: 0eee 21be 28e5 8c3c f43b 463d d773 2b3e
000001b0: 20c5 50be 4b33 07be ba19 c23d 2f50 62be
000001c0: b2d5 cb3d 9579 06be b050 08bc d292 e2bd
000001d0: eff1 3a3e 807f 7fbd 80ab 5bbd aa8a bbbd
000001e0: 88a4 a03c 9c58 223d 191b 333e 546f 2d3d
000001f0: bf92 35be 301c 22be fc35 39be 86f3 953d
00000200: 045b 18be 3ca3 3c3d 529a e2bd 4fd8 4c3e
00000210: 6bc6 19be b3d0 1e3e e3ae 503e 25f3 553e
00000220: 3e35 f03d 119d 5b3e 1c97 633d 052c 32be
00000230: 8cf7 2a3d 5e86 9f3d 3fdf 6a3e 3410 50bd
00000240: c845 e63c e004 e5bb c4d6 413d 1c9d 6a3d
00000250: 54a6 1c3d 78e2 9abd fe16 03be e813 2ebd
00000260: 287f 5ebd 6ec9 d23d 8445 68be 67eb 2b3e
00000270: 388b e63c cc21 8cbd df23 27be 8435 92bd
00000280: 3d62 433e 9830 ffbc cccd 113d ef5f 413e
00000290: 80e3 aaba 06bf ee3d 0486 2a3d fc28 84bd
000002a0: 5a9c 4dbe edf2 30be 8cbb cabd a890 97bd
000002b0: 2882 f73c f8c1 72bd 1c64 223d 1463 bbbd
000002c0: 7c7a c6bd 6efe 47be 97ab 263e c4c4 1cbd
000002d0: 6f05 26be 74e2 343d 7be4 3f3e 892a 1cbe
000002e0: 3040 87bc 3a53 ffbd c806 a03c 2144 683e
000002f0: 980e 83bd e8f9 fd3c 1e0c d43d febc 9d3d
00000300: 0420 dfbd dc09 56be 1b3d 0e3e 4241 8abd
00000310: 7df2 f1bd 0f7b 4dbe 469e 8abd 0416 1b3d
00000320: 5fbc 27be 9f59 073e 89f7 2cbe 580e b83c
00000330: 5869 68be 94c1 9dbd 5160 52be e7c5 533e
00000340: 2e52 dcbd 3630 bbbd 06a7 babd 1a41 a7bd
00000350: 6669 11be 2ebb 1ebe ecec 6c3d 345d 36be
00000360: 1b18 543e 3a24 983d 5a66 973d 6f57 3e3e
00000370: 9545 123e 4444 04be 7203 c33d bd6e 0f3e
00000380: 4cf1 44be 79e6 703e bf72 513e 4986 f7bd
00000390: 1d34 713e 82c7 6abe 790b 243e 15b7 113e
000003a0: ef40 41be 7c41 0fbe 6255 edbd 8456 0d3d
000003b0: c4ed 3b3d 761f de3d f9d8 153e 60ea 24bd
000003c0: 1c67 4fbe 5dc1 173e 0738 373e b298 34be
000003d0: 5b70 23be be72 e73d fef1 3bbe 082c c53c
000003e0: 3b37 603e 4b61 1cbe 809f 13bd 5426 90bd
000003f0: a8b2 77bd fc4b 8cbd 46bc 973d da0f 9bbd
0.07415797 0.056612 0.19081505 -0.14712141 0.09694253 0.043197885 0.07421745 -0.09350972
-0.05493726 0.12357442 -0.13712358 0.101952955 -0.20543739 -0.13855445 -0.10127862 0.17151387
-0.027479291 0.054122135 -0.010462135 -0.107761264 0.20176016 -0.1830672 0.01030089 0.16623656
0.13174896 0.029873475 0.10224928 -0.19995137 -0.18548518 0.2210766 -0.14561899 0.089011505
0.12273182 0.22376858 -0.020392478 0.01699014 -0.116938315 -0.21253046 0.019935563 -0.08650382
-0.13986892 -0.20344615 -0.13167591 0.10561697 0.074891165 -0.023938 -0.060452968 -0.1355406
0.009355903 0.0069310814 -0.15988238 0.13524552 0.13980024 -0.13227502 -0.22202693 -0.108138636
0.1712064 0.1059971 0.07596628 0.09512593 -0.068510145 0.018363163 0.20713015 -0.13301614
-0.21809816 0.18434526 0.0173534 -0.11568006 0.111506626 -0.08168697 -0.10979611 0.0676852
-0.1762794 0.016726866 0.23509957 -0.17010137 -0.19431712 0.12352143 -0.16057771 0.025019899
0.14091523 0.007655829 -0.15251768 0.2103663 -0.08120209 -0.19209677 -0.19896647 -0.16236815
0.12056263 -0.13539672 0.094624475 0.076505765 0.024696276 -0.21575826 0.007921502 0.06424789
-0.22389634 0.23049925 -0.023207545 0.23105825 0.16235508 0.0060413033 0.21842887 -0.1439924
-0.15813467 0.017199114 0.04839702 0.16743408 -0.20387697 -0.1320316 0.09477563 -0.221009
0.099528685 -0.13132317 -0.008320019 -0.1106316 0.18256353 -0.062377453 -0.053630352 -0.091573074
0.019609705 0.039635286 0.17490806 0.0423425 -0.1773176 -0.15831065 -0.18087 0.07321839
-0.1487847 0.04605411 -0.110645905 0.2000439 -0.15017097 0.155093 0.20379214 0.20893534
0.11728905 0.21446635 0.05556403 -0.17399605 0.041739985 0.077893004 0.22936724 -0.050796703
0.028109446 -0.0069891065 0.047323957 0.057278737 0.03824456 -0.07562727 -0.1280174 -0.042499453
-0.054320484 0.10292326 -0.22682768 0.16789018 0.028142557 -0.06842384 -0.16322277 -0.071391135
0.19080444 -0.031151101 0.035596654 0.18884252 -0.0013037771 0.116575286 0.041631714 -0.0645313
-0.20079175 -0.17280169 -0.09899053 -0.07400638 0.03021343 -0.059267014 0.039646253 -0.09149757
-0.09691331 -0.19530651 0.16276394 -0.038273588 -0.1621301 0.044161275 0.18739502 -0.15250601
-0.0165101 -0.12467046 0.019534484 0.22682239 -0.06399268 0.031002954 0.10353874 0.07702063
-0.10894778 -0.20902199 0.13890497 -0.06750728 -0.11813829 -0.20066474 -0.067684695 0.037862793
-0.16380452 0.13217781 -0.16891302 0.022467777 -0.22696435 -0.07702938 -0.20544554 0.20680963
-0.10757862 -0.09140055 -0.091138884 -0.08166714 -0.14200363 -0.15501091 0.057843134 -0.17808992
0.2071232 0.07428785 0.07392569 0.18588041 0.14284356 -0.12916666 0.095221415 0.14007087
-0.19232672 0.23525418 0.20453928 -0.1208616 0.23555036 -0.22927669 0.16020001 0.14229997
-0.18872426 -0.13989824 -0.11588551 0.034506336 0.045881048 0.108458444 0.1463355 -0.04026258
-0.20254177 0.14819856 0.17892466 -0.17636374 -0.15960829 0.11301182 -0.18354031 0.024068847
0.21896069 -0.1527149 -0.036040783 -0.070385605 -0.060473114 -0.0685043 0.07408957 -0.07571383

fc1.bias f4 [256]
00000000: a4c6 1b3d 96ab 22be 3702 063e 052f 553e
00000010: ea86 85bd c2de 09be 2da4 183e 15f3 23be
00000020: 9081 2dbd f99a 50be e62b fd3d c0da e8bb
00000030: 0c2b 423d 2c36 2fbd 3637 f53d b7e3 0dbe
00000040: 53b3 523e c803 9bbc 00dc a4ba 2281 f83d
00000050: 00f6 f6bc 043a a7bd 1193 1a3e 2eb2 d03d
00000060: 60e5 64bc de75 6dbe 912e 0bbe 8ad4 fb3d
00000070: ea14 b8bd 2e27 fa3d ec9b 33be 64af 3c3d
00000080: 8bcc 5dbe 9240 4fbe 6838 dbbc fe2b bfbd
00000090: a378 6f3e 9e08 90bd 5023 3cbe cc61 57bd
000000a0: 17b4 5c3e 687f 9e3c 7248 24be f821 bb3c
000000b0: 5692 eabd 1880 33be fa4c 19be c42c 7ebd
000000c0: 48f0 aebd 020f c03d aab7 933d 7c2c 37be
000000d0: 3f68 343e 8079 833a cccb 3abe d821 9bbd
000000e0: 6594 3c3e 3c20 54bd d5e5 003e eca2 26bd
000000f0: e92a 0e3e b218 b8bd e64b bb3d 6c76 113d
00000100: c0ee e0bb 3e37 acbd 9631 2bbe beac 12be
00000110: 5920 673e cb3d 6ebe d040 c0bd 9800 c93c
00000120: f143 0fbe 275b 63be b69a b4bd 428d 8e3d
00000130: e426 61be 1891 ddbc 9c84 89bd 04f1 36bd
00000140: 0abc df3d 8a49 d8bd d5aa 693e e13c 433e
00000150: 2c22 503d ae1c 09be 44b7 5c3d 3d66 113e
00000160: 89f9 31be 995e 013e 2a86 c63d 49bb 33be
00000170: 32b9 dc3d 4c2e 9ebd 3122 20be 63e2 0c3e
00000180: 0724 443e 70d4 97bd adf3 073e be4c c63d
00000190: c4ef d6bd 68cd d6bc b8bb 03bd 6460 32be
000001a0: f936 313e 4320 453e b340 483e f799 5a3e
000001b0: 4144 283e acfc 473d f6fb d03d 660a 23be
000001c0: c05b 1abd fcf2 7dbd e4a2 c6bd 6e61 c93d
000001d0: 4479 90bd 01d9 453e 500d e4bd 8d41 653e
000001e0: be64 d73d c0cb 39bc b0f7 6b3c 78e6 c03c
000001f0: 5c92 c4bd 4956 5cbe 0b3d 6a3e 4cfa 0d3d
00000200: e6be 4bbe 203a 0abe 800e e23a 38a4 debc
00000210: 8b93 323e 4db6 f4bd c40f 503d 9c86 b9bd
00000220: 5411 6e3d f51a 2e3e b449 93bd 30c2 42be
00000230: 9efc be3d d31b 213e 0021 393a 5a7a 943d
00000240: e7fc 5cbe 93da 3abe d3e0 6f3e 577b 0a3e
00000250: f7f5 0d3e a5e6 4c3e 857b 4cbe b3e4 0f3e
00000260: b3d3 51be a880 d5bc 60e6 04be 9e75 41be
00000270: 8912 4fbe f2a4 37be 0694 56be 1438 7b3d
00000280: 86b5 c4bd 9f62 503e 676f 2a3e 0dbd 2a3e
00000290: aaef e33d 8e56 01be a425 323d 0038 a43a
000002a0: 28cd ef3c e501 193e 761e d0bd 08c7 d6bd
000002b0: 568c cc3d d1c5 453e ff35 033e 59e5 4b3e
000002c0: 67cc 563e ac66 21be 7ebe fe3d f8a2 0dbd
000002d0: 243b 653d 7c85 093d aa52 813d 1083 38bd
000002e0: 5103 073e a4a8 b2bd 322f cebd bbe0 173e
000002f0: 48d4 5bbe b228 e1bd c05b 22be 157b 443e
00000300: d245 f43d 4735 633e 9c11 25be e61a bf3d
00000310: b385 ebbd cd44 113e ffc8 2c3e d568 eebd
00000320: 782a 893c 9403 763d 80fb 313c 6514 093e
00000330: 69f9 31be 3027 0c3c 00c7 2abc f5d8 583e
00000340: d2d7 913d 2a50 45be 3178 5abe 62e4 9b3d
00000350: e4c4 16be 8cb9 25bd 852b 5d3e f9c0 0c3e
00000360: 00bd 89ba ab55 683e ddc1 6bbe 12f6 a4bd
00000370: 9dc5 1e3e 5e9e 813d 7769 3abe 724c 8c3d
00000380: c0fb d0bb f4dd 083d 8047 023c 3085 69be
00000390: 97c4 20be c112 5a3e 6647 8f3d de75 59be
000003a0: 4ce7 13bd cf49 5f3e 2a39 febd 9200 60be
000003b0: 6261 80bd 0d90 3fbe 415f 54be d663 c73d
000003c0: 0b32 5ebe 080b bbbd 3bfc 0ebe 171d 0c3e
000003d0: 000b 90ba 464c f93d 7f3d 563e 3138 293e
000003e0: 5460 65bd 18b2 963c 2c60 253d 4991 efbd
000003f0: 06c6 49be 4e62 823d e412 4c3d 8cdc e7bd
0.038031235 -0.15885767 0.13086782 0.20818718 -0.065198734 -0.13463882 0.14906378 -0.16010697
-0.04235989 -0.20371617 0.123618886 -0.007106155 0.047404334 -0.04277627 0.11973421 -0.13856398
0.2057622 -0.018922701 -0.0012577772 0.12134005 -0.030146599 -0.081653625 0.15095164 0.10190235
-0.013970703 -0.23189494 -0.13591982 0.12296398 -0.08988364 0.12214504 -0.17539948 0.046065703
-0.21660058 -0.20239475 -0.026760295 -0.09334563 0.23385863 -0.070328936 -0.18372846 -0.0525835
0.21553074 0.019347861 -0.1604326 0.022843346 -0.114536926 -0.17529333 -0.1497077 -0.06205441
-0.08541924 0.093778625 0.072127655 -0.17888063 0.17617892 0.0010030717 -0.18241805 -0.075748146
0.18415983 -0.051788554 0.12587674 -0.04068272 0.13883556 -0.08989085 0.09145336 0.035513327
-0.0068643987 -0.08408974 -0.16718134 -0.14323708 0.22570933 -0.2326576 -0.09387362 0.024536416
-0.13990761 -0.2220274 -0.08818571 0.069605365 -0.21987492 -0.027046725 -0.06714746 -0.044663444
0.109245375 -0.105609015 0.22819073 0.19066192 0.05081384 -0.13389847 0.053885713 0.14199157
-0.17380346 0.12633742 0.096935585 -0.17551912 0.10777511 -0.07723674 -0.15638043 0.13758235
0.19154368 -0.07413566 0.13276549 0.09682606 -0.104949504 -0.026220992 -0.032161444 -0.17419583
0.17306127 0.19250588 0.19555931 0.21347795 0.16432287 0.04882495 0.10204308 -0.15921935
-0.037685156 -0.061999306 -0.09699038 0.09833036 -0.070543796 0.19321062 -0.11135352 0.22388287
0.10517262 -0.011340082 0.014402315 0.023547396 -0.09598228 -0.2151729 0.22874849 0.03466253
-0.1989704 -0.13498735 0.0017246753 -0.027177915 0.17439096 -0.119488336 0.050796285 -0.09058878
0.058121994 0.17002471 -0.07191792 -0.19019389 0.09325527 0.1573327 0.00070621073 0.07249899
-0.2158085 -0.18247442 0.23425607 0.13523613 0.1386336 0.20009859 -0.19968994 0.14052086
-0.20490913 -0.026062325 -0.12978506 -0.18892524 -0.20221914 -0.17934015 -0.20954904 0.061332777
-0.09604935 0.20350121 0.16644059 0.1667368 0.11129697 -0.12630674 0.04349293 0.0012528896
0.02927263 0.14942129 -0.1016206 -0.10487181 0.099877045 0.19313742 0.12813567 0.19911708
0.20976411 -0.15761822 0.12438677 -0.034579247 0.055964604 0.033574566 0.06314595 -0.045046866
0.13184859 -0.08723572 -0.100675955 0.14831822 -0.21467698 -0.1099409 -0.15855312 0.19187577
0.1192738 0.22188292 -0.16119999 0.09331302 -0.115001105 0.14186402 0.16873549 -0.11641089
0.016743883 0.060062006 0.010863185 0.13386686 -0.17380299 0.008554265 -0.010423422 0.21176513
0.071212426 -0.19268861 -0.21334912 0.0761192 -0.14723545 -0.040460154 0.21598633 0.13745488
-0.0010508597 0.2268893 -0.23023172 -0.08054747 0.15505071 0.06329034 -0.18204294 0.06850518
-0.006377667 0.033414796 0.007951617 -0.22804713 -0.15699993 0.21296217 0.0699604 -0.21236369
-0.036109254 0.218055 -0.12413247 -0.21875218 -0.06268574 -0.18707295 -0.20739461 0.09735839
-0.21698777 -0.091329634 -0.13963406 0.13682972 -0.0010989606 0.12172751 0.20921896 0.16525342
-0.05600007 0.018395469 0.04037492 -0.11697633 -0.19704446 0.063664064 0.049822703 -0.11321363

fc2.weight f4 [256, 256]
00000000: f495 6fbd f410 33bd ceef 3b3d 6c27 4d3d
00000010: 764b 7e3d 5838 0f3c 3673 483d 080e 44bc
00000020: e616 40bd a432 5a3d 64fe 1a3d de8b 683d
00000030: 5431 e8bc 2a01 483d 805b 1ebd 4030 28bb
00000040: b0fc 0b3d 5062 d8bb 6487 a23c b6a6 5d3d
00000050: 82a4 35bd 3005 7f3c ec5a c7bc 0663 6e3d
00000060: 3cdf 133d 2074 2cbd f048 75bd b478 013d
00000070: aa29 793d f2cb 463d 38a8 6d3d 94be 7e3d
00000080: b0f3 dd3c 802b 67bb f475 b6bc 5422 203d
00000090: f4aa ec3c d82b 51bc 9e20 783d b488 6e3d
000000a0: dcea af3c 18ba 2bbd 6894 92bc 5a1a 7fbd
000000b0: 48bb dfbc 048f 423d e8f8 633d 6853 b53c
000000c0: 4090 063d 44bc b23c 76bf 48bd e8f7 dabc
000000d0: dad3 25bd d05f b13b 7053 513d e81f 98bc
000000e0: e882 c3bc 826c 603d 6845 493d 2274 703d
000000f0: d2a9 27bd 2c99 43bd 6a1e 3bbd 4ea1 36bd
00000100: 206a 50bc 4c49 15bd 1012 7abd 9af6 64bd
00000110: 4e70 4d3d 9eac 063d d8da ec3c 4878 e7bc
00000120: 06df 183d 4c85 a2bc 0237 2d3d 4470 f73c
00000130: f026 003d 0a91 5d3d 7c76 583d e804 f3bc
00000140: 506a 9c3c 8000 22bb 8048 27bb a8cc d13c
00000150: 9207 153d ac65 8f3c 705f a2bb 42fe 16bd
00000160: bcd9 5bbd 3ce3 193d 7c8d f43c 0034 cc3a
00000170: fa60 1e3d c0cd c0bc a4ba 01bd b27a 3b3d
00000180: 30db 5b3d 4cb3 57bd 90a6 c3bc 48e8 7fbd
00000190: de92 4cbd 583d 7b3c 2001 b83c 0099 e239
000001a0: 4222 6dbd 1430 10bd 98f6 12bd 0ae3 783d
000001b0: 502c 2bbc 5a20 763d 404b 5d3d 72bf 75bd
000001c0: 301d f0bb d048 543d 2046 d3bc 9067 7a3d
000001d0: 167d 2a3d b47e 9abc 40d8 17bc e493 39bd
000001e0: e651 4dbd b4e8 b83c e8a2 4b3d 6e0b 1fbd
000001f0: a06c 283b f63f 513d cc75 75bd c8bc 1bbd
00000200: ecfa 86bc f04b 903c 60f9 023c fa04 1f3d
00000210: 1c48 6abd e014 fabb 8c96 27bd 7e5c 4c3d
00000220: 503e 15bc c056 f43c 3ca4 3e3d a494 903c
00000230: 0a77 75bd 6059 3bbd 28cd 353d 14af e1bc
00000240: d0a5 82bc 1889 5cbd d0d1 e4bb 8279 69bd
00000250: 8004 303c bcb9 c73c 5616 27bd 80dc 7c3a
00000260: 802b 8f3b 96ff 3e3d 84c1 55bd c8ff 43bc
00000270: 34ae 9b3c e486 0dbd 5cbd 78bd 0400 5f3d
00000280: d0c6 8b3b 7aa3 593d 7274 043d 38f5 56bd
00000290: c015 623b 6809 533d d6fe 503d 2021 16bd
000002a0: f446 403d 8849 05bc 7c08 3b3d a0a3 81bb
000002b0: c07a 933b 4409 543d 8442 f43c 3c64 b53c
000002c0: e441 6b3d a2d5 143d 0404 653d 7861 283d
000002d0: f036 29bd 0871 dabc a4fa b73c 22a5 53bd
000002e0: f0ac d2bb 221f 4f3d 6854 113c ee60 62bd
000002f0: 1c32 f0bc e09a 643c 48d1 1c3c a80a 733c
00000300: 8c11 e33c a01f f1bb 2c1b 153d 004d 8f3c
00000310: f454 f33c d854 68bc fac9 00bd a0a4 2d3c
00000320: 60ae 233b d0d4 4d3d 2008 3c3b f88f 6d3c
00000330: 5492 e23c 80fb b3bb 90c5 14bd a81a f4bc
00000340: b450 97bc f613 1a3d 6864 9dbc a257 713d
00000350: 00c0 a5b8 9a30 78bd ee6e 78bd 5488 91bc
00000360: f2a7 5f3d 8864 5ebd 60a9 01bd 1018 99bb
00000370: b891 80bc a072 f6bc 0e16 28bd e84c 53bc
00000380: da0f 61bd b8c5 3cbd 26c0 1cbd d61d 00bd
00000390: aeb4 783d 40fa 63bc 983a 143c 04df fd3c
000003a0: 228d 6b3d 3252 513d caa1 773d bca6 bbbc
000003b0: f8e0 d3bc 4a42 34bd 0093 bf3b 0034 1cba
000003c0: 50e4 f43c 1649 593d 9cf9 bebc 3057 bbbc
000003d0: 34db f93c 54c1 b13c c2a3 2f3d 6a9b 43bd
000003e0: a8e3 57bc a83f 6ebc 763f 16bd 38b8 9f3c
000003f0: 2e3b 3a3d ece5 8ebc a27c 4a3d 0851 bb3c
-0.058492616 -0.04371734 0.045882992 0.050086424 0.062083684 0.008741461 0.048938 -0.011966236
-0.046896838 0.05327095 0.037840262 0.056774013 -0.028343834 0.048829235 -0.03866148 -0.0025663525
0.03417653 -0.0066035166 0.01983995 0.054114066 -0.04434634 0.015565202 -0.024335347 0.058199905
0.036101565 -0.042102933 -0.05988401 0.031609252 0.06083075 0.04853434 0.058021754 0.06219347
0.027093738 -0.003527373 -0.022273041 0.039095238 0.02889011 -0.012766801 0.06057798 0.05823584
0.021474294 -0.04192552 -0.017893031 -0.06228099 -0.027310982 0.04749967 0.055657297 0.022134498
0.03285241 0.021818288 -0.049010716 -0.026729539 -0.04048524 0.005413033 0.051104963 -0.018569902
-0.023866132 0.05479098 0.049138457 0.058704503 -0.040933438 -0.047753498 -0.045683302 -0.044587426
-0.012720615 -0.036446854 -0.061052382 -0.05589924 0.05015593 0.032879464 0.028912947 -0.028255597
0.037322067 -0.019838952 0.042288788 0.0302049 0.031287134 0.0540934 0.05284737 -0.029665425
0.019093663 -0.0024719536 -0.002552539 0.025610283 0.036384173 0.017504536 -0.0049552247 -0.036863573
-0.053674445 0.037570223 0.029852621 0.0015579462 0.038666703 -0.02353561 -0.031672135 0.04577131
0.05367583 -0.052661225 -0.023883134 -0.06247738 -0.04994475 0.01533445 0.022461474 0.00043220073
-0.057894 -0.0352021 -0.0358797 0.060763396 -0.010447577 0.060089447 0.054026842 -0.05999703
-0.007327698 0.051827252 -0.025790274 0.06113392 0.041623197 -0.018859245 -0.009267867 -0.045307055
-0.050126933 0.022571899 0.049715906 -0.03882926 0.0025699511 0.05108639 -0.059926793 -0.038021833
-0.01647707 0.017614335 0.007994026 0.038823105 -0.057197675 -0.007631883 -0.040915057 0.049892895
-0.009109095 0.029826522 0.046543345 0.017649002 -0.059927978 -0.04573953 0.044385105 -0.027549304
-0.015948206 -0.05384168 -0.0069830194 -0.057000645 0.01074326 0.024380557 -0.040792786 0.0009645894
0.0043691993 0.046630464 -0.052186504 -0.0119628385 0.019003965 -0.03455247 -0.060727462 0.054443374
0.0042656437 0.05313442 0.032337613 -0.052479953 0.0034497827 0.051522642 0.05102428 -0.036652684
0.046942666 -0.008135207 0.04566239 -0.003956273 0.004500717 0.05176665 0.029816873 0.022142522
0.057435885 0.03633655 0.055912033 0.04110858 -0.041312158 -0.026665226 0.022458382 -0.051671155
-0.006429307 0.0505668 0.008870222 -0.05526822 -0.029320769 0.013952941 0.009571381 0.014834084
0.027718328 -0.0073585063 0.036402866 0.017492771 0.029703595 -0.014180385 -0.03144262 0.010598332
0.0024975762 0.050251782 0.0028691366 0.014499657 0.027657665 -0.0054926276 -0.036321223 -0.029797867
-0.0184711 0.037616692 -0.019212916 0.058921464 -7.903576e-05 -0.060593225 -0.060652666 -0.017765202
0.054603525 -0.054295093 -0.03165567 -0.004672058 -0.015694484 -0.030083954 -0.041036658 -0.012896754
-0.054946758 -0.046086997 -0.038269185 -0.031278454 0.060719185 -0.013914645 0.009047173 0.030990131
0.05750764 0.05110378 0.06045703 -0.022906654 -0.02586411 -0.04400853 0.005846381 -0.00059586763
0.029894024 0.053048216 -0.023312382 -0.022868723 0.030500032 0.021698631 0.04288078 -0.047755636
-0.013176836 -0.014541544 -0.036681615 0.019497022 0.045466594 -0.01744362 0.049435265 0.022865787

fc2.bias f4 [256]
00000000: d801 85bc 8aab 70bd e025 e03c 041f 5a3d
00000010: ee07 5f3d 2088 313d fc72 c6bc f491 40bd
00000020: 70b3 86bc 60de a63c 642e 1dbd 908c 2a3c
00000030: 2a10 71bd 2462 143d d88a 38bd f803 23bc
00000040: 70ab b8bc 80f9 6d3b d068 293d 30ab 14bd
00000050: 6401 15bd fce5 3bbd e0e3 ae3c 7cfd 0ebd
00000060: d040 7c3d 32ac 053d 70d3 5e3d d2f7 2b3d
00000070: 6c8d ed3c 304f 473c f05c fabc 282f 85bc
00000080: 0018 10ba 745b 0fbd 7a4a 623d 4c23 0c3d
00000090: 4078 623d 90a5 65bc e652 203d b222 23bd
000000a0: 7472 cebc e0f6 08bb 5ef7 723d 4848 923c
000000b0: e4e2 0bbd a4c4 9fbc d488 00bd 5026 51bc
000000c0: fc3f 043d 88cc 3abd c801 84bc 88b7 5dbc
000000d0: 4c47 15bd 18d8 883c 2c79 943c 8e03 3d3d
000000e0: ba50 4e3d 6084 8d3b 48b8 4ebd c038 8abc
000000f0: c879 19bc ac41 5abd fe1b 053d 3090 72bd
00000100: c0cf 273b 0045 9f3c 20fc 903b 4859 133d
00000110: c46c debc 90e0 963b 90e8 9ebc 28f4 7b3c
00000120: 4866 93bc 4038 39bd 3810 37bc d8b3 cabc
00000130: 2239 75bd b6a3 48bd 5ab0 3bbd 5a34 4d3d
00000140: de0c 41bd d053 2fbc 1eef 22bd a0d7 143b
00000150: eccf 213d e688 34bd c2c7 4b3d 1485 7c3d
00000160: c01e b0bb a056 183c cc56 ba3c 8474 9e3c
00000170: 3027 edbb 82e9 03bd 88f8 04bc 1041 56bd
00000180: eee6 0ebd 1249 0f3d 5a49 26bd 38b2 d6bc
00000190: 1c34 1b3d 4c96 0a3d 522c 6ebd 2855 b8bc
000001a0: 180a dcbc 5838 f33c e065 55bd 0020 2e39
000001b0: 60a8 de3c d03e 2ebd 105e 793c d8d4 753c
000001c0: 401b 0f3d fc07 fe3c 0451 813c c08c 9ebc
000001d0: 3ecf 083d bc23 ed3c 00fd 81bc 0444 79bd
000001e0: 142b e83c b899 2a3c 5412 783d f8fd 21bc
000001f0: 9491 6e3d 3852 37bc 70b5 10bc 5427 43bd
00000200: a0fe 0f3b 96df 653d 789e 2f3c d25e 5c3d
00000210: 109d 8dbb 9081 2dbc c496 ecbc 1a87 373d
00000220: 8820 70bc a08c b1bb 94ab 1d3d 60d2 eb3b
00000230: d819 6b3c b453 9bbc 6025 4f3c f8f3 0a3c
00000240: fe9c 5bbd c07d 703d 5288 7f3d 3000 10bd
00000250: 80e9 be3b 8cc0 c53c 3866 0f3c c44d f8bc
00000260: 6aea 2d3d a659 4c3d 281f 8d3c bc15 a03c
00000270: c4da 953c da3f 373d 1290 683d e8e9 4f3c
00000280: 685c 353d 10b3 01bc 88df 793c 8278 54bd
00000290: 4415 c6bc 0c96 003d 4077 abbc 30fe acbb
000002a0: e40a f53c 9cad e23c 20cc ddbc 98c7 6cbc
000002b0: 904f 833b ba2f 31bd 183e 9a3c 40cc ff3b
000002c0: fce9 63bd ce29 613d 2015 aebb a081 ce3b
000002d0: 8cca e13c ead5 283d 60fe 043d 3011 373d
000002e0: 3221 1a3d b0f2 243c 2486 783d b6e5 283d
000002f0: 80e4 5d3d a49f 66bd cc58 c7bc 3020 c63b
00000300: c859 743c 6cce 48bd 889b a7bc 621a 063d
00000310: 42c8 523d c039 073d 70aa c5bb 7615 7fbd
00000320: 84a1 ac3c 9038 cf3b 50a0 253d 60d9 723c
00000330: 88b7 2c3c 6e32 5cbd 80f1 6e3a 621c 5dbd
00000340: f2c5 1cbd 96a3 303d a446 cd3c 702b 15bc
00000350: ae98 78bd e85a b43c 1cb8 4dbd 2896 b53c
00000360: 64cb 49bd 62b2 663d c096 07bd 4c96 9a3c
00000370: 0810 56bc c82a 3e3d f86b 94bc 786e 0d3c
00000380: d277 7c3d 80e7 3eba 08a2 383d 1098 62bc
00000390: 1ca6 e13c b2d9 22bd 40ff 06bb c055 4dbb
000003a0: 30b5 99bc 8803 893c 40db 19bd be22 343d
000003b0: b013 9e3c 605f 18bb 82bb 48bd f8b4 5e3c
000003c0: ce91 4abd ca22 4d3d f489 acbc 1605 09bd
000003d0: 40de 633d a0fe 433d 9653 56bd 62be 2bbd
000003e0: 90eb febc 6414 b0bc ec70 42bd 121f 39bd
000003f0: e01a 33bc 3093 903c a69f 02bd 56d7 1fbd
-0.01623623 -0.058757342 0.02736181 0.053252235 0.05445092 0.04334271 -0.02422475 -0.04701419
-0.016442984 0.020369709 -0.03837432 0.010409489 -0.058853306 0.036226407 -0.045054287 -0.009949677
-0.022542685 0.0036312044 0.041359723 -0.03629607 -0.03637828 -0.045873627 0.021348894 -0.03490971
0.061585248 0.03263492 0.05440086 0.041984387 0.0289981 0.012164876 -0.030561894 -0.016257837
-0.00054967403 -0.034999326 0.055246808 0.03421335 0.05529046 -0.014016524 0.039141558 -0.03982801
-0.02520106 -0.0020899102 0.05931794 0.017856732 -0.034151927 -0.019502945 -0.03138049 -0.012765482
0.032287583 -0.045605212 -0.01611413 -0.013532527 -0.036444947 0.016704604 0.018124186 0.04614597
0.050369956 0.004318759 -0.050468713 -0.016872764 -0.009367414 -0.053285286 0.0324974 -0.05921954
0.0025606006 0.019442081 0.004424587 0.035973817 -0.027151473 0.0046044067 -0.019398004 0.015378036
-0.017993107 -0.04521966 -0.0111733 -0.02474396 -0.05986894 -0.048984252 -0.04582248 0.050098754
-0.04713141 -0.010701135 -0.03977882 0.002271153 0.03950493 -0.04407587 0.04975105 0.06165035
-0.0053747594 0.009297997 0.022746466 0.019342668 -0.0072373375 -0.032205112 -0.008115895 -0.052308142
-0.0348882 0.034981795 -0.040597297 -0.026208028 0.037891492 0.03383474 -0.058147736 -0.022501543
-0.026860282 0.029689953 -0.05209911 0.00016605854 0.027179897 -0.04254037 0.01522018 0.015004359
0.034938097 0.031009667 0.015785702 -0.019354224 0.033400767 0.028947704 -0.01586771 -0.06085588
0.028340854 0.010412626 0.060564354 -0.009887211 0.058244303 -0.011189036 -0.008832321 -0.047644928
0.0021971837 0.05612143 0.010718934 0.053801365 -0.004321702 -0.010589972 -0.028880484 0.044806577
-0.014656194 -0.005418375 0.038493708 0.0071967095 0.014349423 -0.018960811 0.012643188 0.008481018
-0.053616516 0.058713675 0.062385865 -0.03515643 0.005826175 0.024139665 0.008752398 -0.030310519
0.042459883 0.049890183 0.01722677 0.019541614 0.018292792 0.044738628 0.05677802 0.012690045
0.04427758 -0.007916227 0.015251048 -0.051872738 -0.024180062 0.031393096 -0.020930886 -0.005279325
0.02991242 0.027670674 -0.027074873 -0.014451884 0.0040072873 -0.043258406 0.018828437 0.007806331
-0.055643067 0.05497151 -0.005312577 0.0063020736 0.027562402 0.04121963 0.032469153 0.044694126
0.037629314 0.010067627 0.0606748 0.041234694 0.054172993 -0.05630459 -0.024334334 0.0060463175
0.014913984 -0.049024984 -0.020459905 0.032740004 0.051460512 0.03301406 -0.0060322806 -0.062276326
0.02107311 0.0063238814 0.04043609 0.014822334 0.010541804 -0.05375903 0.0009114966 -0.053982146
-0.038274713 0.043124758 0.025058098 -0.009104595 -0.06069248 0.022016004 -0.05022441 0.022166327
-0.049266234 0.056322463 -0.03310275 0.018870495 -0.013065346 0.046427518 -0.01811789 0.008632295
0.061637707 -0.0007282421 0.0450764 -0.0138302 0.027545027 -0.03975839 -0.0020598918 -0.0031331629
-0.018763155 0.016725317 -0.03756261 0.043978445 0.019296497 -0.0023250207 -0.049006946 0.013592951
-0.049455456 0.050082006 -0.021061875 -0.033452116 0.055631876 0.04785025 -0.052325808 -0.04192961
-0.031118184 -0.021494098 -0.047470972 -0.045195647 -0.0109317005 0.01764831 -0.031890534 -0.03902372

fc3.weight f4 [1, 256]
00000000: 00f5 743c d0fd e3bb 288b 293d fc2f 593d
00000010: 54ac b63c e060 ffbb 0c87 c33c c080 e33b
00000020: 08f3 103d f0c9 a8bc 0092 f23b 281f 50bc
00000030: 0284 3e3d 4c06 23bd a047 f1bc 602c 5f3b
00000040: e4cf 603d ee4e 00bd d407 a23c eeff 523d
00000050: 5c9e 8bbc 8894 7fbc e8c7 2bbc 3e1f 32bd
00000060: b865 35bd 141a 50bd 9eba 533d 389e 36bd
00000070: ec46 2c3d 9068 513c 2e67 47bd b21e 143d
00000080: d8d2 d23c 2ad0 303d 6c4a 97bc 06e1 263d
00000090: a8f4 c03c d47f 2fbd 98ae 0bbc 4467 e03c
000000a0: cc13 56bd e4cb 263d c203 4cbd 6cc6 d13c
000000b0: 48ae 0fbc 1cd1 a1bc f453 6fbd 4048 9f3a
000000c0: 4647 24bd 0085 f5bb 7c3e 15bd c47a 333d
000000d0: 68a2 f7bc 508e e8bb 5c6a 28bd e87c 64bd
000000e0: 188c 16bd d041 7abd e84a 88bc c653 373d
000000f0: dcbf 8f3c a0b3 3abd 6090 2dbb ba74 43bd
00000100: 008b ab39 e88f a3bc 2c9c 4a3d 802e 5dbd
00000110: 68df 84bc 4046 74bd ecac d1bc 8054 e8ba
00000120: 4a6c 0cbd 6095 46bd 64b0 fabc 80b8 5c3d
00000130: a64f 613d bcf7 5bbd ac6a a3bc 0066 333b
00000140: e486 cfbc 88c8 41bd 6066 a1bb 4807 323c
00000150: dc76 b83c 3043 5fbd f87f 163d 566b 5a3d
00000160: a40e c7bc 9242 383d 00ab bcba 8005 353b
00000170: a606 723d ec78 063d 14f8 833c cc09 f33c
00000180: 644d a5bc 48f6 f1bc 1cf1 f9bc 0a2d 453d
00000190: 5884 10bd 2c40 113d 28c7 30bd 62bc 78bd
000001a0: 4e79 143d cc33 483d 7208 28bd 6471 12bd
000001b0: c236 26bd 7c82 9c3c cc69 493d 20f6 113c
000001c0: c0ae 89ba a0fb 463d 401b 583b da25 603d
000001d0: 00e4 eb39 306c 93bc 548b ce3c 20aa a43c
000001e0: 5cab 5abd 1093 873b 9a8d 2d3d c095 0cbc
000001f0: ea65 7fbd b0fc 2f3d b065 573c b031 4bbd
00000200: f854 473d 06e6 0dbd 186b 01bc 847b 5cbd
00000210: 447e a6bc 044c d5bc 146f 46bd d817 c6bc
00000220: e86f 2abd dc4e f7bc e0be 24bc a2ad 49bd
00000230: 94ab 4b3d c886 833c ccb4 e73c 98c6 18bd
00000240: c0cc 9b3c 9816 b13c 7005 aebc e0a4 f63c
00000250: d06f c43c 4886 c23c 3877 f13c ac21 383d
00000260: b0c0 f13c 28d0 a8bc 6c4b f43c b8b9 893c
00000270: fc7e dbbc 28eb 803c 4061 56bb 1246 593d
00000280: cc98 a73c 3a23 5fbd 3c00 953c 503b 1e3c
00000290: c299 51bd 40ea f7bc 7c6a b5bc f200 4f3d
000002a0: 147e f33c cc84 73bd c8b1 5d3d 642b e9bc
000002b0: 6845 913c be6c 333d 343c 23bd 3ce4 5b3d
000002c0: 0c30 7cbd 607c c3bc f4fe 0a3d 164d 3c3d
000002d0: 54fc 4bbd c4d4 203d 281d 793d 58dc c9bc
000002e0: 7067 59bc d8b6 56bd 8c4d 1dbd 08fd 31bc
000002f0: d65c 3f3d b441 4bbd 5c38 f73c a22a 76bd
00000300: 3644 4fbd d8fb 643d dc29 173d 14bc c2bc
00000310: 4048 2bbb 0447 a5bc 1a8c 073d 8631 1e3d
00000320: 62e3 0fbd 0ad4 4bbd 2414 343d e6ea 383d
00000330: 0014 1e3b f475 7cbd d0e5 4f3d d0c9 b53c
00000340: c278 4e3d 1a1f 5e3d e0c9 2b3b ecac 6b3d
00000350: fce9 1b3d 10b7 5c3c ecb1 96bc 5889 2abc
00000360: 3024 e33b c65c 6b3d 0c89 d1bc 701c 5e3c
00000370: 10ba 30bc ae23 4abd 3021 a9bc f84e 14bc
00000380: 0035 fd39 8a05 043d 3849 0d3c c076 b73b
00000390: c83c 83bc 6a60 3fbd e07a 043c 104f 83bb
000003a0: 121d 7cbd 9c53 8bbc ce12 2c3d 6024 a63c
000003b0: e0f8 263b 4453 a3bc b0d2 063c cec0 253d
000003c0: 1667 6f3d 3c0a 5cbd 3808 b33c 966d 72bd
000003d0: 4049 8aba 482b fa3c 40cb f3ba 8098 dd3b
000003e0: 28a3 0dbc f0d1 fd3c f8a1 743d c633 5b3d
000003f0: b8bf 0dbc 88fc 323c 0250 743d 3012 503d
0.014950991 -0.006957747 0.041392475 0.053024277 0.02229897 -0.007793531 0.023868106 0.0069428384
0.035388023 -0.020604104 0.0074026585 -0.012702741 0.04651261 -0.039800927 -0.029453099 0.003405355
0.05488576 -0.031325273 0.019779123 0.051513605 -0.017043285 -0.015599377 -0.010484673 -0.043486826
-0.04428646 -0.05080612 0.051691644 -0.044584483 0.042059824 0.012781277 -0.048682384 0.036162086
0.025735304 0.04316727 -0.018468104 0.040741943 0.023554161 -0.042846516 -0.008525513 0.02739299
-0.052264974 0.04072179 -0.04980827 0.02560731 -0.008769579 -0.019753031 -0.058429673 0.001215227
-0.040107034 -0.0074926615 -0.036436543 0.04381825 -0.030228809 -0.007097043 -0.041117057 -0.055783182
-0.036754698 -0.06109792 -0.01663728 0.044757627 0.01754754 -0.04558146 -0.002648376 -0.04771874
0.00032719225 -0.01996608 0.049465343 -0.053999424 -0.01621981 -0.059637308 -0.02559515 -0.0017725378
-0.03428296 -0.0484823 -0.030601688 0.05388689 0.0550076 -0.053703055 -0.019948326 0.002737403
-0.025332876 -0.047310382 -0.004925534 0.010865994 0.022517614 -0.054507434 0.036743134 0.05332502
-0.024298973 0.04498536 -0.0014394224 0.0027621686 0.05908837 0.032830164 0.016109504 0.029667757
-0.020178504 -0.029536381 -0.030510478 0.048138656 -0.035282463 0.03546159 -0.04315868 -0.06072653
0.036248498 0.048877522 -0.04102368 -0.03575267 -0.040579565 0.019105189 0.04917316 0.008908778
-0.001050435 0.048579812 0.0032975227 0.054723598 0.00044992566 -0.017995924 0.025212921 0.020100653
-0.053386077 0.0041374043 0.04237137 -0.008580625 -0.062353052 0.04296559 0.013146803 -0.049607933
0.048665017 -0.034643196 -0.007899068 -0.05382873 -0.02032388 -0.026037224 -0.048445776 -0.024181291
-0.04161063 -0.03018897 -0.010055274 -0.049237855 0.049724177 0.01605548 0.028284453 -0.03729877
0.01901853 0.021617219 -0.021242827 0.030107915 0.023979098 0.02374567 0.029475793 0.044953987
0.029510826 -0.02060707 0.02982112 0.01681219 -0.02679395 0.015737131 -0.0032711774 0.05304534
0.020458601 -0.054476954 0.018188588 0.009657696 -0.051172026 -0.030263066 -0.022145502 0.05053801
0.029723205 -0.059452817 0.054124624 -0.028463073 0.01773329 0.043804877 -0.039852336 0.053684458
-0.06156926 -0.023863018 0.03393455 0.045971952 -0.049801186 0.03926541 0.06081882 -0.0246412
-0.01326929 -0.052420467 -0.038404033 -0.01086355 0.046719395 -0.049623206 0.030178241 -0.06009925
-0.05060216 0.05590424 0.036905155 -0.023771323 -0.0026135594 -0.020175464 0.033092596 0.038621448
-0.03512896 -0.049762763 0.04396452 0.04514589 0.0024120808 -0.061635926 0.050756276 0.022190958
0.050408132 0.05422888 0.0026212856 0.057537958 0.03806494 0.01347138 -0.018395387 -0.010408722
0.006931804 0.057461523 -0.025578044 0.013556585 -0.010786548 -0.049350433 -0.020645708 -0.009052031
0.00048295408 0.032231845 0.008623414 0.005598873 -0.016020194 -0.046722807 0.008085936 -0.0040072277
-0.06155116 -0.017007641 0.04201012 0.020281017 0.002547793 -0.019937165 0.008228943 0.040467076
0.05844792 -0.053720698 0.021854505 -0.05918654 -0.0010550395 0.030538216 -0.0018600002 0.006762564
-0.0086448565 0.030983895 0.059724778 0.053516172 -0.008651666 0.010924466 0.059646614 0.050798595
