output_lxl/MASAC/weight/critic2_agent_0_ep_7400.pth (torch, 286504 bytes, 5 tensors)

fc1.weight f4 [256, 18]
0	0x3e63dc09	0.22251906
1	0xbdfa76b4	-0.12229672
2	0x3b3f8980	0.0029226243
3	0x3ac95b00	0.0015362203
4	0x3c643ef0	0.013931021
5	0xbe5c86d7	-0.21535812
6	0xbdb64524	-0.08899906
7	0x3df864e6	0.1212862
8	0xbdb9c75a	-0.090712264
9	0x3e5c0d1d	0.21489377
10	0x3e41322b	0.18866794
11	0x3d041f5c	0.03225647
12	0x3e0ec73d	0.13943191
13	0xbe577241	-0.21039678
14	0xbdc09d8c	-0.0940505
15	0x3e265f9f	0.16247414
16	0x3e22fe09	0.15917219
17	0xbd451724	-0.04811777
18	0x3db410da	0.08792277
19	0x3ddf512e	0.10904156
20	0xbe33a69e	-0.17544028
21	0xbe60f2ae	-0.21967575
22	0xbe24216a	-0.16028371
23	0x3e58c715	0.21169694
24	0xbe1a2172	-0.15051821
25	0xbdf544df	-0.11976027
26	0xbd5cbab4	-0.05388899
27	0xbdc451ca	-0.095859125
28	0xbe606762	-0.21914437
29	0xbdadddd6	-0.084895775
30	0xbd5bb3a0	-0.0536381
31	0xbe1f2f0b	-0.15545289
32	0x3c6c6dd0	0.014430478
33	0x3e6657b3	0.22494392
34	0xbdaf80a4	-0.08569458
35	0x3e238adf	0.15970944
36	0x3da52a96	0.08064763
37	0x3e510875	0.20413382
38	0xbdfa4b16	-0.12221353
39	0x3e0c7aad	0.13718672
40	0xbd5b694c	-0.053567216
41	0x3d7c042c	0.061527416
42	0xbbc6c4a0	-0.00606592
43	0xbe1a4d8a	-0.15068641
44	0xbe30701a	-0.17230263
45	0x3e6e7a05	0.23288734
46	0xbe5d7edd	-0.21630426
47	0x3e03e029	0.12878479
48	0x3d84893e	0.06471489
49	0xbd859100	-0.06521797
50	0x3e036601	0.1283188
51	0x3e563e07	0.20922099
52	0xbda72f24	-0.08163288
53	0xbe0881b2	-0.13330725
54	0xbdabb1f2	-0.0838355
55	0x3e20c909	0.15701689
56	0x3e1124b7	0.14174162
57	0xbae83b80	-0.0017717928
58	0x3e4ad93f	0.19809435
59	0x3de98592	0.1140243
60	0xbda910c2	-0.082551494
61	0xbe2a1cf4	-0.16612607
62	0xbe603deb	-0.2189862
63	0xbe4f52cf	-0.20246433
64	0xbdc3f77a	-0.09568687
65	0xbd88a9d8	-0.0667302
66	0x3e6e9d91	0.23302294
67	0x3d31edbc	0.04343961
68	0x3e6cd5f1	0.23128487
69	0x3e3c0889	0.18362631
70	0x3c096810	0.008386627
71	0xbb60be00	-0.0034292936
72	0x3d886a32	0.0666088
73	0x3da59a0a	0.08086021
74	0x3d95895a	0.07301588
75	0xbe4d6f40	-0.2006197
76	0xbd45d888	-0.048302203
77	0xbe02f7e2	-0.12789872
78	0xbdb1f792	-0.086897984
79	0xbe206e7e	-0.1566715
80	0xbe1402be	-0.14454171
81	0x3e1f488d	0.1555502
82	0xbd424b04	-0.04743482
83	0xbdf93f89	-0.121703215
84	0xbd2c75a0	-0.042104363
85	0xbe5de242	-0.21668342
86	0x3e25f0a7	0.16205083
87	0xbe301aed	-0.17197771
88	0x3e0307ad	0.12795897
89	0xbc9ad888	-0.018902078
90	0xbe3bbf60	-0.18334723
91	0x3c94dfe8	0.018173173
92	0xbe14861e	-0.14504287
93	0x3d135b24	0.03597559
94	0x3d2a40ec	0.04156582
95	0x393e2800	0.00018134713
96	0xbd8faefc	-0.070157975
97	0xbd8937d4	-0.067001015
98	0x3da61fe6	0.08111553
99	0x3d55133c	0.052020296
100	0x3e2540d5	0.16138013
101	0x3dea1c6e	0.11431204
102	0xbddd7778	-0.108138025
103	0xbe40cb0b	-0.18827455
104	0xbe6d775f	-0.23190068
105	0x3e41437d	0.18873401
106	0x3b2d7300	0.002646625
107	0x3e61abbf	0.22038172
108	0xbd2bdf7c	-0.04196118
109	0xbddb19fa	-0.10698314
110	0xbdeded6a	-0.11617549
111	0xbe20aa88	-0.15690053
112	0xbcd83620	-0.026392996
113	0xbd8c6808	-0.0685578
114	0xbe17e736	-0.14834294
115	0xbd592450	-0.053013146
116	0xbdac6b60	-0.08418918
117	0x3e4046c9	0.18777002
118	0x3c410770	0.011781558
119	0x3e52562b	0.20540683
120	0xbdb77e84	-0.08959678
121	0x3e318547	0.17335998
122	0x3ccb7228	0.024834707
123	0xbe23024a	-0.15918842
124	0xbc8b6da0	-0.017020047
125	0xbe62e8f4	-0.22159177
126	0xbd8d3d58	-0.06896466
127	0x3de3869e	0.111096606
128	0xbdd4c748	-0.103895724
129	0xbdc0a1f4	-0.0940589
130	0xbdfa5e80	-0.12225056
131	0x3de65c76	0.11248104
132	0x3e408049	0.18798937
133	0x3e4fe445	0.20301922
134	0x3da745aa	0.08167584
135	0x3db731ee	0.0894507
136	0xbd75d180	-0.060014248
137	0xbe070264	-0.13184506
138	0x3e005b55	0.1253484
139	0xbd02e570	-0.03195709
140	0xbdf0e4b6	-0.11762373
141	0xbd8b16f0	-0.06791484
142	0x3dd14b7a	0.10219474
143	0xbdd71390	-0.10501778
144	0xbe188bcc	-0.14897078
145	0x3d047ac4	0.03234364
146	0xbd9c710e	-0.07638751
147	0xbe64f095	-0.223574
148	0xbdd9eb04	-0.10640529
149	0xbe4c1f99	-0.19933929
150	0xbd1e726c	-0.03868334
151	0x3dee0776	0.11622517
152	0x3e32d2eb	0.17463271
153	0x3e47f48b	0.1952688
154	0xbe09f59e	-0.13472602
155	0x3e3a47e5	0.18191488
156	0xbce9f840	-0.028560758
157	0x3d742f14	0.05961521
158	0xbd63ba30	-0.055597484
159	0xbe5b7923	-0.21432929
160	0x3e70d853	0.23520021
161	0xbd84178e	-0.06449805
162	0xbcecef08	-0.028922573
163	0xbdb51fc0	-0.088439465
164	0xbdadbbf4	-0.08483115
165	0x3e44d9f7	0.19223772
166	0xbd9732c6	-0.07382731
167	0xbce8c0c8	-0.028412238
168	0xbcede1e0	-0.02903837
169	0xbd899052	-0.0671698
170	0xbd78a2a0	-0.060701966
171	0x3db7c716	0.089735195
172	0x3d9466da	0.0724618
173	0xbb8b7340	-0.004255682
174	0x3e171c15	0.14756806
175	0xbd785988	-0.06063226
176	0xbe1164ba	-0.1419858
177	0x3ca34ea8	0.019934967
178	0xbe25f0ce	-0.16205141
179	0xbda583e2	-0.08081795
180	0x3d17700c	0.03697209
181	0xbe51d019	-0.20489539
182	0xbe2a850c	-0.16652316
183	0x3b4cca40	0.003124848
184	0x3d96424a	0.073368624
185	0x3e45c84f	0.19314693
186	0xbdc8ec6c	-0.09810719
187	0xbdfd265a	-0.123608306
188	0x3e51f65d	0.20504136
189	0x3daa590e	0.08317767
190	0xbe30766e	-0.17232677
191	0x3e64cb83	0.22343259
192	0x3d82d776	0.06388752
193	0x3e12ac83	0.1432362
194	0xbcd82aa8	-0.026387528
195	0x3c17e110	0.009269968
196	0x3db1089a	0.08644219
197	0x3dc8bf26	0.09802084
198	0xbe266daa	-0.16252771
199	0x3d982392	0.074286595
200	0x3d518824	0.051155224
201	0xbdff2ed7	-0.12460106
202	0x3d68ecb4	0.056866363
203	0x3d3bd98c	0.045861766
204	0x3e5089e1	0.20365097
205	0xbd87b65a	-0.06626578
206	0x3dcc03ba	0.09961648
207	0x3e1eb339	0.15498056
208	0x3d97a86a	0.07405169
209	0x3e45e247	0.19324599
210	0x3ddeb156	0.10873668
211	0x3c19bff0	0.00938414
212	0xbe293e96	-0.16527781
213	0x3e6a35a3	0.22872023
214	0x3e537635	0.20650561
215	0x3d14ba9c	0.036310777
216	0x3d9f0f6a	0.07766612
217	0x3e06053d	0.13087936
218	0xbdf9a0bb	-0.1218886
219	0x3e6f6bf1	0.2338102
220	0x3e5e66d3	0.21718912
221	0x3dd2947e	0.10282229
222	0x3e65a7db	0.22427313
223	0xbda3016c	-0.079592556
224	0xbd90ae00	-0.07064438
225	0x3c8e2958	0.017353699
226	0xbe677cf8	-0.22606266
227	0xbdaaf44c	-0.08347377
228	0xbd311378	-0.043231457
229	0xbe44f8bc	-0.1923551
230	0x3e1c29bf	0.152503
231	0x3d96eebe	0.07369755
232	0xbd2163b8	-0.03940174
233	0x3e4f083f	0.2021799
234	0xbdda3088	-0.10653788
235	0x3e2b041d	0.16700788
236	0x3deafcb2	0.11473979
237	0x3df8d9a6	0.12150888
238	0xbdfd82a9	-0.12378437
239	0xbbc70480	-0.0060735345
240	0xbe226748	-0.15859711
241	0xbe02d634	-0.12777025
242	0xbdd5ebd0	-0.10445368
243	0x3e550a87	0.20804797
244	0xbbf03be0	-0.0073313564
245	0xbe0f2089	-0.13977255
246	0x3d9377be	0.072005734
247	0xbdd16a28	-0.10225326
248	0x3d92f206	0.071750686
249	0x3e0d26a7	0.13784276
250	0xbe3fa66e	-0.18715832
251	0x3e21f0e9	0.15814556
252	0xbe6b6ec5	-0.22991474
253	0x3dd32ffe	0.10311888
254	0x3e3e1e5f	0.18566273
255	0xbe08c4a2	-0.1335626

fc1.bias f4 [256]
0	0x3e11c745	0.14236172
1	0xbe236fe0	-0.15960646
2	0x3dfc3312	0.123144284
3	0x3c5421d0	0.012947515
4	0xbe587592	-0.211386
5	0x3d8a01aa	0.06738599
6	0xbb555c40	-0.0032556206
7	0x3e1dde4f	0.15416835
8	0xbdb3a906	-0.08772473
9	0xbe23aa1c	-0.1598286
10	0xbe1de844	-0.15420634
11	0x3c3ca450	0.0115137845
12	0xbb9e3560	-0.00482814
13	0xbd84a812	-0.06477369
14	0x3d7a312c	0.06108205
15	0xbd83ad4c	-0.06429538
16	0xbe29b9c6	-0.16574773
17	0xbd09d3cc	-0.03364925
18	0xbe57ca1f	-0.21073197
19	0xbe36ffd2	-0.17871025
20	0xbd22b300	-0.03972149
21	0xbdfddcba	-0.12395616
22	0xbe1557ac	-0.14584225
23	0xbe0fd89e	-0.14047477
24	0xbd9f4c1a	-0.07778187
25	0x3e0d3163	0.13788371
26	0x3de2db0a	0.11076935
27	0x3dc5092a	0.096208885
28	0x3b856200	0.0040705204
29	0x3e64db07	0.22349177
30	0xbe6214ef	-0.22078298
31	0xbd73c5f0	-0.05951494
32	0xbe0bfdc2	-0.1367102
33	0x3d7457fc	0.05965422
34	0x3e337ddf	0.17528485
35	0xbe067be7	-0.13133202
36	0xbd8b515c	-0.068026274
37	0xbc951ad0	-0.018201262
38	0x3e6444bd	0.22291847
39	0xbdb1677e	-0.08662318
40	0x3df32786	0.11872773
41	0x3daa599a	0.083178714
42	0xbdad2308	-0.08453947
43	0xbe5b995a	-0.21445218
44	0xbe543528	-0.20723403
45	0xbe5b60c9	-0.2142364
46	0xbe294eb0	-0.16533923
47	0x3e560d71	0.20903565
48	0xbe506cdb	-0.20354025
49	0x3da82cfa	0.082117036
50	0x3ca1ef88	0.019767538
51	0x3d86a46a	0.06574328
52	0x3e6dd445	0.23225506
53	0x3de82c26	0.11336546
54	0x3e50fe85	0.20409591
55	0x3e16b6fd	0.14718242
56	0xbc6e5660	-0.014546961
57	0x3e5281ab	0.20557277
58	0xbe16ea9f	-0.14737938
59	0xbdbbb3c8	-0.0916515
60	0xbd6c2828	-0.057655483
61	0xbd977388	-0.07395083
62	0xbcdb82e8	-0.02679582
63	0x3da311ae	0.079623565
64	0x3d23e004	0.04000856
65	0xbb555080	-0.0032549202
66	0x3e26b427	0.1627966
67	0x3cb13e38	0.021636114
68	0x3de51062	0.111847654
69	0xbd45db2c	-0.04830472
70	0x3e55b4e7	0.2086979
71	0xbe551e08	-0.20812237
72	0x3d9a8bc6	0.07546191
73	0x3e6c346f	0.23066877
74	0xbcbdaf70	-0.023154944
75	0x3e448bb7	0.19193922
76	0x3e24fb3d	0.16111465
77	0x3d0e14bc	0.034687743
78	0x3de4a16e	0.11163603
79	0xbce66b50	-0.028127342
80	0xbd4836b0	-0.04888028
81	0x3df3b5aa	0.11899884
82	0xbdfdd8c0	-0.123948574
83	0x3d94cede	0.07266019
84	0x3e574557	0.21022545
85	0xbd265910	-0.04061228
86	0xbd39d4ac	-0.045368835
87	0x3e6bcd59	0.23027553
88	0xbe4cc8fe	-0.19998547
89	0xbe56f1bd	-0.20990653
90	0xbdae412c	-0.08508524
91	0xbd6a70dc	-0.057236537
92	0xbdf5e5a3	-0.1200669
93	0xbca83480	-0.020532846
94	0x3dbbc68e	0.09168731
95	0xbe3f6b15	-0.18693192
96	0x3c544600	0.012956142
97	0x3e3e4677	0.18581568
98	0x3e6bf2cb	0.23041837
99	0xbe103cb2	-0.14085653
100	0xbe50aede	-0.20379207
101	0xbdc1ed0e	-0.09469043
102	0xbe590d9c	-0.21196598
103	0x3d3f7734	0.04674454
104	0x3d90c04e	0.07067929
105	0x3d90800a	0.070556715
106	0x3e56632f	0.20936273
107	0xbc42b1b0	-0.011883184
108	0x3e04b5ed	0.12960024
109	0x3e64e90d	0.22354527
110	0x3e5799b9	0.21054734
111	0xbb930300	-0.0044864416
112	0xbdc7ab52	-0.09749474
113	0xbccaae90	-0.024741441
114	0x3e4bc3cb	0.19898908
115	0x3d07ea34	0.033182338
116	0x3e0eceed	0.13946123
117	0x3e33063f	0.17482851
118	0xbe0a0184	-0.1347714
119	0xbe0d1855	-0.13778813
120	0xbd875a56	-0.06609027
121	0xbe56abcf	-0.20963977
122	0xbd745aa4	-0.059656754
123	0x3df48056	0.11938541
124	0xbded439e	-0.115851626
125	0x3cb69b68	0.0222909
126	0x3d391d7c	0.045194134
127	0x3e704071	0.23462082
128	0xbe3d3b5d	-0.18479677
129	0x3de3793e	0.111071095
130	0xbe69f75f	-0.22848271
131	0x3e49445f	0.19654988
132	0x3c80d648	0.015727177
133	0xbde38ada	-0.11110468
134	0x3e3bf39b	0.18354647
135	0xbd08fb68	-0.033442885
136	0x3c897e78	0.016783938
137	0x3db3f6c6	0.08787303
138	0x3e4ac96f	0.19803403
139	0xbd132cc4	-0.035931364
140	0x3d6335c4	0.055471197
141	0xbe4252ea	-0.18976942
142	0x3d12c14c	0.035828874
143	0x3e4b99b1	0.19882847
144	0x3e6152dd	0.22004266
145	0xbd4571d0	-0.048204243
146	0x3bc039a0	0.0058662444
147	0x3e1b038b	0.1513807
148	0xbe68b482	-0.22725108
149	0x3cec4fa8	0.028846577
150	0xbe15a51e	-0.14613768
151	0xbe4bbd2d	-0.19896384
152	0x3e59590d	0.21225376
153	0xbe343ab6	-0.17600521
154	0xbcb31ed0	-0.021865278
155	0x3b2be140	0.0026226789
156	0xbd94bc68	-0.07262498
157	0xbe6cd10f	-0.23126625
158	0xbcd33218	-0.025780722
159	0x3e5d4e81	0.21611978
160	0x3cfc6018	0.03080754
161	0xbe1c1b14	-0.15244704
162	0xbe49b2b4	-0.19697076
163	0xbe1ce6ae	-0.15322372
164	0xbe199c29	-0.15000977
165	0x3b9172a0	0.004438713
166	0xbc8e34a0	-0.017359078
167	0x3d71b31c	0.059008703
168	0x3e2aa8e9	0.16665997
169	0xbc995a68	-0.018719867
170	0x3c99b518	0.01876311
171	0xbe3aa7cb	-0.1822807
172	0x3e29fa73	0.16599445
173	0x3e447381	0.19184686
174	0x3e029203	0.12751012
175	0x3e0598a7	0.13046513
176	0x3d9684ce	0.07349549
177	0x3dbaf21e	0.091282114
178	0xbe37d213	-0.1795123
179	0xbd06638c	-0.03280978
180	0x3dbf5da6	0.09344034
181	0xbe0fd61c	-0.1404652
182	0x3c77d1d0	0.015125707
183	0xbcb4ab90	-0.022054464
184	0x3d8d2e6e	0.068936214
185	0x3e3776df	0.1791644
186	0xbe032e3c	-0.12810606
187	0xbe4fe7cc	-0.20303267
188	0xbda3891c	-0.07985136
189	0x3de400fe	0.11133002
190	0xbe30c012	-0.17260769
191	0x3dc01652	0.09379257
192	0x3e2c1f6d	0.16808863
193	0xbd91fe64	-0.07128599
194	0xbe0150a4	-0.12628418
195	0xbd702858	-0.058632225
196	0xbd7a1588	-0.06105569
197	0x3c95f3b8	0.01830469
198	0xbe6c132a	-0.23054186
199	0xbe41d3c4	-0.18928438
200	0x3cadf718	0.021235988
201	0x3e38d4a1	0.18049861
202	0x3de63a8a	0.11241634
203	0x3e517433	0.20454483
204	0xbc53f7e0	-0.012937516
205	0x3e5a6249	0.21326555
206	0xbe3305c2	-0.17482665
207	0xbd852612	-0.06501402
208	0xbe60011c	-0.21875423
209	0xbdbd1bbe	-0.09233807
210	0xbe3fd851	-0.18734862
211	0xbe36953d	-0.17830367
212	0xbd9b3172	-0.0757779
213	0x3d99f052	0.075165406
214	0x3d6170c4	0.055039182
215	0x3d247a44	0.040155664
216	0x3e049979	0.1294917
217	0xbe3c5522	-0.1839185
218	0x3e271fad	0.16320677
219	0x3e117673	0.14205341
220	0xbe3ca069	-0.18420567
221	0xbc578e60	-0.013156503
222	0xbcd0e078	-0.02549766
223	0xbe663af5	-0.22483428
224	0x3e638525	0.2221876
225	0xbda932e2	-0.08261658
226	0xbe4ecc64	-0.20195156
227	0xbd5c1f7c	-0.053740963
228	0xbd2895e0	-0.041158557
229	0xbd30694c	-0.04306917
230	0xbc2fbde0	-0.010726422
231	0x3db7ba8e	0.08971129
232	0xbe32f8c3	-0.17477708
233	0xbe37ca39	-0.17948236
234	0xbd263050	-0.04057342
235	0x3d77fbac	0.060542747
236	0xbe23161e	-0.15926406
237	0x3e17415b	0.14771025
238	0xbe2bd097	-0.1677879
239	0x3c8f26f8	0.017474636
240	0x3e528347	0.20557891
241	0xbe408efc	-0.18804544
242	0xbdc1d4b8	-0.09464401
243	0xbe33bde0	-0.175529
244	0x3d5d12ec	0.053973123
245	0xbccdeb78	-0.025136694
246	0x3d9d577a	0.076827005
247	0xbe674e5a	-0.22588482
248	0x3d1c34cc	0.03813629
249	0xbe41627c	-0.18885225
250	0xbd030c4c	-0.03199415
251	0x3dd1c4fe	0.102426514
252	0xbe688789	-0.22707953
253	0x3dafc232	0.08581962
254	0xbe254bae	-0.16142151
255	0x3d657e74	0.0560288

fc2.weight f4 [256, 256]
0	0x3d12039e	0.03564798
1	0x3cc695ac	0.024241291
2	0xbc2bc688	-0.010484345
3	0x3d38c0ba	0.045105673
4	0xbd36acee	-0.044598512
5	0x3baabc70	0.005210452
6	0xbcf70254	-0.030152477
7	0xbb714120	-0.00368125
8	0xbc2213c0	-0.009892404
9	0x3cc0331c	0.02346187
10	0x3cd2dc88	0.025739923
11	0xbc973e68	-0.018462375
12	0x3d433be4	0.047664538
13	0xbd2ca0ae	-0.042145424
14	0x3d66895a	0.056283332
15	0x3d2f986a	0.042869963
16	0x3bd0ceb0	0.0063722953
17	0xbd1159e4	-0.035486117
18	0x3d58303e	0.052780382
19	0xbd0e476e	-0.03473609
20	0x3b3a9f60	0.0028476343
21	0x3d79b390	0.06096226
22	0xbc6deed0	-0.014522269
23	0x3d753998	0.05986938
24	0x3cf4be1c	0.029875807
25	0xbc931268	-0.017953113
26	0xbd398348	-0.045291215
27	0x3cd50cc0	0.026007056
28	0xbd771ff4	-0.060333207
29	0x3d144e70	0.036207616
30	0x3cad02a4	0.021119423
31	0x3c5fca60	0.01365909
32	0x3cc362c4	0.023850806
33	0xbd2ae4c8	-0.04172209
34	0x3d3eb61a	0.046560384
35	0x3d0d4778	0.034491986
36	0x3d26533c	0.040606722
37	0x3cb275f4	0.02178476
38	0x3d27c4cc	0.040959165
39	0x3a398a80	0.0007077828
40	0xbc562bd8	-0.013071977
41	0xbd64745c	-0.05577503
42	0x3d1f3524	0.03886904
43	0x3d768244	0.060182825
44	0x3d4b3a5c	0.049616203
45	0x3d4b4d12	0.049634047
46	0x3c6d8260	0.014496416
47	0xb9ed6000	-0.00045275688
48	0xbd183bb4	-0.037166312
49	0xbb4bb200	-0.0031081438
50	0xbd0073bc	-0.031360373
51	0x3d6d01fc	0.05786322
52	0x3bab2d20	0.005223885
53	0x3c3fb0b0	0.01169984
54	0x3b93fea0	0.0045164376
55	0xbc49a8b8	-0.012308292
56	0x3d7e1bf6	0.062038384
57	0x3d4d75d8	0.050161213
58	0xbc1b8e28	-0.009494342
59	0xbd4d1466	-0.05006828
60	0xbc87fae8	-0.016599134
61	0x3d16d32e	0.03682249
62	0xbc863d90	-0.016386777
63	0xbd4a3a76	-0.04937216
64	0xbcf92a58	-0.030415699
65	0xbcfe4cc8	-0.031042472
66	0x3c4d4ae8	0.012530066
67	0x3d32ad70	0.043622434
68	0x3c48ae58	0.012248598
69	0x3cd2bdec	0.025725327
70	0x3d4ec4c2	0.05048061
71	0xbd30faea	-0.04320804
72	0xbcf25f90	-0.029586583
73	0x3cf35d2c	0.029707514
74	0xbc9ff560	-0.019526184
75	0x3d49b638	0.049246043
76	0xbd573a76	-0.052545987
77	0xbd2a84cc	-0.04163055
78	0xbd37782e	-0.044792347
79	0x3cd7f19c	0.026360326
80	0x3d018f70	0.031630933
81	0x3bc7a6d0	0.0060928836
82	0x3a4f1d00	0.00079007447
83	0xbd2f4e94	-0.042799547
84	0x3d203a24	0.039117947
85	0x3c1c2c78	0.009532087
86	0x3c989ed8	0.01863043
87	0x3c376d10	0.011195436
88	0x3c34d718	0.0110376105
89	0x3c24b5c8	0.010053106
90	0x3cb1eb3c	0.021718614
91	0xbbb63700	-0.0055607557
92	0x3d223b32	0.039607234
93	0x3cc88a94	0.024480142
94	0xba070600	-0.00051507354
95	0xbd7a2db4	-0.061078742
96	0x3b1ebe60	0.002422236
97	0xbc8754f0	-0.016519994
98	0x3c852ebc	0.016257636
99	0xbd502d16	-0.050824247
100	0x3d547bb8	0.0518758
101	0x3ce6b8bc	0.02816426
102	0x3cb2be84	0.02181936
103	0x3ccd9bc8	0.025098696
104	0xbd4ebe3a	-0.050474383
105	0xbb3ec300	-0.0029107928
106	0xbd241cac	-0.040066406
107	0x3ca73518	0.02041106
108	0x3d73ab7a	0.059489705
109	0xbd1353ec	-0.035968706
110	0xbd16595e	-0.03670632
111	0xbd2a114e	-0.04152041
112	0x3d0bbc72	0.034115262
113	0xbcc335a0	-0.023829281
114	0x3aeb6ec0	0.0017962083
115	0x3bf83fd0	0.0075759664
116	0x3d3bd60e	0.045858435
117	0x3bb3b4a0	0.0054841787
118	0xbd640ca4	-0.055676118
119	0x3d4ebf06	0.050475143
120	0x3d4f44d4	0.05060275
121	0x3c2b9f18	0.010474943
122	0x3b040360	0.0020143613
123	0xbd411286	-0.047136806
124	0xbd1ddb3a	-0.03853915
125	0xbd3724a0	-0.044712663
126	0xbd0017ba	-0.031272627
127	0x3d2c1f3e	0.042021982
128	0x3cd72b50	0.02626577
129	0x3cc50cb4	0.024053909
130	0xbcbdeedc	-0.023185186
131	0x3d2d37d0	0.042289555
132	0xbcebb16c	-0.028771125
133	0x3c3891c0	0.011265218
134	0xbd1f9998	-0.038964838
135	0x39f21500	0.00046173483
136	0x3cd23c48	0.02566351
137	0xbb34c600	-0.0027583838
138	0xbae6b240	-0.001760073
139	0xbcb24b44	-0.021764405
140	0x3c501fb0	0.012702867
141	0x3c1dafd8	0.009624444
142	0x3d513b36	0.05108186
143	0xbd214a06	-0.039377235
144	0xbd5dbd74	-0.054135755
145	0xbd3841da	-0.044984676
146	0x3d6900e2	0.056885608
147	0x3aa60340	0.0012665763
148	0x3c7b3cd0	0.015334323
149	0x3d624178	0.055238217
150	0x3c427970	0.011869773
151	0xbd012d1a	-0.031537153
152	0x3be72810	0.0070543364
153	0x3c247df0	0.010039791
154	0x3d4186bc	0.047247633
155	0xbc8bce14	-0.01706604
156	0x3d1fd0fe	0.03901767
157	0x3c161040	0.009159148
158	0x3d681b1c	0.05666648
159	0xbcc9d8f0	-0.024639577
160	0x3d6bd6d8	0.057577938
161	0xbd6e4776	-0.05817362
162	0xbca73688	-0.020411745
163	0xbd5f56b8	-0.05452606
164	0xbd2229a0	-0.039590478
165	0x3b9601a0	0.0045778304
166	0x3b8cdd50	0.0042988434
167	0xbd161046	-0.036636613
168	0xbc229960	-0.009924263
169	0xbceada50	-0.028668553
170	0xbc363c78	-0.011122815
171	0xbc849eec	-0.016189061
172	0x3d708e0e	0.058729224
173	0x3c8a0e8c	0.01685264
174	0x3cc17eb8	0.023619995
175	0x3d28813c	0.041138873
176	0xbc336918	-0.010950349
177	0x3d59f900	0.05321598
178	0xbd7ddd60	-0.061978698
179	0x3d46e3a2	0.04855693
180	0x3d1e1152	0.038590737
181	0xbc2f8b98	-0.010714434
182	0x3c4c3940	0.012464821
183	0xbcfd4584	-0.030916937
184	0x3b296240	0.0025845915
185	0x3ce53f8c	0.027984403
186	0xbd48467a	-0.048895337
187	0xbcc55a68	-0.02409096
188	0x3c82bafc	0.015958302
189	0x3d58e63c	0.052953944
190	0xbcbe2844	-0.02321256
191	0x3caa6634	0.020800687
192	0xbcd5c814	-0.026096381
193	0x3c063168	0.00819049
194	0xbd50a114	-0.050934866
195	0xbc7307c8	-0.014833398
196	0xbcb93758	-0.022609398
197	0xbc8d3b1c	-0.0172401
198	0x3d36c22a	0.044618763
199	0xbce2d598	-0.02768974
200	0x3cc9e19c	0.024643712
201	0xbd54b196	-0.05192717
202	0x3ca15e04	0.01969815
203	0xbd4f8716	-0.050665937
204	0xbc8992f0	-0.016793698
205	0xbd0087a4	-0.031379357
206	0xbd2bce72	-0.04194493
207	0xbd4871cc	-0.04893665
208	0x3c0e4e00	0.008685589
209	0x3cd4e640	0.025988698
210	0xbb8a7520	-0.004225388
211	0x3c67c2a0	0.014145523
212	0x3d1599fa	0.036523797
213	0xbba344b0	-0.0049825534
214	0x3d5dd832	0.054161258
215	0x3d6219fe	0.05520057
216	0xbc3b7808	-0.011442192
217	0x3d6d917c	0.058000073
218	0x3d6a99d6	0.057275616
219	0x3cc6ca2c	0.024266325
220	0xbd7680b2	-0.060181327
221	0x3d0a75e6	0.033803843
222	0x3c95b5bc	0.018275134
223	0x3c18b528	0.009320535
224	0x3ca43368	0.020044044
225	0xbc526ad0	-0.012842849
226	0x3c50fe40	0.01275593
227	0xbd66b8a6	-0.05632844
228	0x3d39963e	0.045309298
229	0x3cf60888	0.030033365
230	0x3d37556a	0.04475919
231	0x3c037480	0.008023381
232	0x3cf22178	0.029556975
233	0xbd4ccc72	-0.04999966
234	0x3d0cf884	0.03441669
235	0xbbdc06d0	-0.0067146793
236	0xbd211d4e	-0.039334588
237	0xbd4db08a	-0.05021719
238	0x3d252992	0.040322848
239	0xbd000d8e	-0.031262927
240	0xbcd7b28c	-0.026330255
241	0xbd4c5e96	-0.04989489
242	0x3d2ecef4	0.042677835
243	0xbca38a30	-0.019963354
244	0x3d2fb18a	0.042893924
245	0x3cc6d274	0.024270274
246	0x3d038504	0.032109275
247	0x3cf56244	0.029954083
248	0x3d695e80	0.056974888
249	0x3cd69748	0.026195183
250	0xbd4aaed2	-0.049483128
251	0x3d6c03e8	0.057620913
252	0xbd0c6508	-0.03427604
253	0xbcad15e0	-0.021128595
254	0x3c8baf10	0.01705125
255	0xbcf828d4	-0.030292906

fc2.bias f4 [256]
0	0xbcde7b30	-0.02715835
1	0xbce8fccc	-0.028440855
2	0xbd284ef0	-0.041090906
3	0xbd352b4a	-0.044230737
4	0xbd542fb4	-0.051803306
5	0xbcecfe64	-0.028929897
6	0xbc1c3218	-0.009533428
7	0xbcc189e4	-0.023625322
8	0xbad12640	-0.0015956834
9	0x3c901958	0.01759021
10	0xbce811f8	-0.02832888
11	0xbcc57d28	-0.02410753
12	0x3cf36f58	0.029716179
13	0xbc1b6f98	-0.009487055
14	0x3d374cb8	0.0447509
15	0x3c0072a0	0.007839829
16	0xbac76f00	-0.0015215576
17	0x3cc6849c	0.024233155
18	0x3d65e2a4	0.056124344
19	0x3cd1ba08	0.025601402
20	0xbc3cf3b0	-0.011532709
21	0xbd47d9a2	-0.048791535
22	0xbcaeef68	-0.021354392
23	0xbd025800	-0.031822205
24	0xbd5eac1e	-0.054363362
25	0xbd52b8a8	-0.051445633
26	0x3c7b1b28	0.015326299
27	0x3d4c3d9c	0.049863443
28	0x3d663cbe	0.056210272
29	0xbcff6c34	-0.031179525
30	0x3bd72350	0.006565489
31	0x3d01f93e	0.031731836
32	0xbd24f066	-0.040268324
33	0x3d3ea1ac	0.0465409
34	0x3d060516	0.032719694
35	0xbd397a58	-0.04528269
36	0xbcea3544	-0.028589852
37	0x3cca1360	0.024667442
38	0xbd2ae5e2	-0.04172314
39	0x3c84d238	0.016213521
40	0xbd43df5e	-0.04782044
41	0xbd48defc	-0.04904078
42	0xbbefb8f0	-0.0073157474
43	0xbcf34cd0	-0.029699713
44	0xbd68a328	-0.056796223
45	0x3c795d10	0.015219942
46	0xba007a80	-0.00049010664
47	0xbd57945a	-0.052631713
48	0xbca9fc1c	-0.020750098
49	0xbcb9c194	-0.022675313
50	0x3d7aa874	0.061195806
51	0xbc9dbc30	-0.019254774
52	0x3ca725b8	0.020403728
53	0x3d330760	0.043708205
54	0x3d695528	0.056965977
55	0xbae43f80	-0.0017413944
56	0x3c213db8	0.009841375
57	0x3d303704	0.043021217
58	0xbba13ec0	-0.0049208105
59	0xbc957334	-0.01824341
60	0x3c40cbe0	0.011767358
61	0xbb7bf500	-0.0038445592
62	0xbd1cd2a6	-0.038286828
63	0xbc3103f0	-0.010804161
64	0x3c07b010	0.008281723
65	0x3ce73ab0	0.028226227
66	0x3cfb6444	0.030687459
67	0xbd36aa38	-0.044595927
68	0x3c8aa30c	0.01692345
69	0xbd068f22	-0.032851346
70	0x3d4d6878	0.050148457
71	0x3c7bce40	0.015368998
72	0xbd731e88	-0.05935529
73	0x3d047f8e	0.032348208
74	0xbb2b6960	-0.0026155338
75	0xbc9d33e8	-0.01918979
76	0xbd1a6756	-0.037696205
77	0x3c189a10	0.009314075
78	0x3d29acc6	0.041424535
79	0x3cadb964	0.021206565
80	0xbd1f7446	-0.038929246
81	0xbd4c6732	-0.049903102
82	0xbd350bf2	-0.044200845
83	0x3cd43f58	0.02590911
84	0x3c386030	0.011253402
85	0xbd53d040	-0.051712275
86	0xbbcf2fb0	-0.0063228235
87	0xbd2b0990	-0.041757166
88	0x3d771136	0.060319148
89	0x3bc48850	0.005997695
90	0x3d2c4b16	0.042063795
91	0xbcda3824	-0.026638098
92	0x3d00d366	0.031451605
93	0x3d65592a	0.055993237
94	0x3c521728	0.012822904
95	0xbd322a16	-0.043497168
96	0x3d641696	0.055685602
97	0xbd45a73c	-0.04825519
98	0xbd40cb42	-0.04706884
99	0x3d49bd4c	0.049252793
100	0x3d7d42fc	0.06183146
101	0xbd18d1fa	-0.037309624
102	0xbd7f3438	-0.06230566
103	0xbbfd7820	-0.0077352673
104	0xbcdfec24	-0.02733428
105	0xbccfaec8	-0.025351897
106	0xbd42232e	-0.04739683
107	0x3c006f90	0.007839099
108	0x3d6d561c	0.05794345
109	0xbc8a9128	-0.016914919
110	0xbca7d450	-0.02048698
111	0xbd7af178	-0.06126544
112	0x3d00d26e	0.03145068
113	0x3d2dfa76	0.042475186
114	0xbbe62840	-0.007023841
115	0x3d06f756	0.03295072
116	0x3c78a5f0	0.015176281
117	0xbb6e7f00	-0.0036391616
118	0xbd16dc78	-0.03683135
119	0x3d3efbc8	0.046626836
120	0xbcd4c154	-0.025971092
121	0xbd307b00	-0.043086052
122	0x3d14ac44	0.036297098
123	0xbc97e30c	-0.018540882
124	0x3d7860c2	0.06063915
125	0x3c5df2d8	0.013546668
126	0xbd722008	-0.05911258
127	0xbcbba034	-0.02290354
128	0xbd7c0d42	-0.06153608
129	0xb9978100	-0.00028897077
130	0xbd7cefe8	-0.06175223
131	0x3d07bc36	0.033138476
132	0xbb4c07c0	-0.003113255
133	0xbcabd9dc	-0.020977907
134	0xba822ac0	-0.0009930953
135	0xbc2f6778	-0.010705821
136	0xbbd0f140	-0.0063764155
137	0x3d0fe53a	0.035130717
138	0x3d0c39fa	0.03423498
139	0xbc54ede0	-0.012996167
140	0x3d1db98c	0.03850703
141	0x3d088e0c	0.03333859
142	0xbbf2c720	-0.0074089915
143	0x3d0c9540	0.034322023
144	0xbc8c4480	-0.017122507
145	0xbd7f6710	-0.062354147
146	0x3c520db8	0.012820654
147	0xbc26b140	-0.010174096
148	0x3c1b0800	0.009462357
149	0x3d1d5ae4	0.03841676
150	0x3c5b72a0	0.013394028
151	0xbc698ab8	-0.0142542645
152	0x3d47ed6c	0.048810408
153	0x3ccd7774	0.025081374
154	0x3d2d63ea	0.042331614
155	0x3cd17768	0.025569633
156	0xbd6e6376	-0.058200322
157	0xbd48b04a	-0.048996247
158	0xbd3f5b44	-0.046717897
159	0x3d6095e2	0.05483044
160	0x3d7bce22	0.06147588
161	0x3cf59b8c	0.029981397
162	0xbb866930	-0.004101895
163	0xbd0f9bd8	-0.035060734
164	0x3b53ff60	0.003234826
165	0x3c5e5590	0.013570204
166	0x3d546432	0.051853366
167	0xbd6c269c	-0.05765401
168	0x3d6438fa	0.0557184
169	0x3d662492	0.05618722
170	0x3d26b27c	0.04069756
171	0xbd5212d8	-0.051287502
172	0xbd449144	-0.0479901
173	0x3ca92be4	0.020650811
174	0xbce3749c	-0.027765565
175	0xbcc798d8	-0.024364874
176	0x3d49437e	0.04913663
177	0x3d7c1d0a	0.06155113
178	0x3c632f88	0.013866313
179	0xbc23a830	-0.0099888295
180	0xbd21895c	-0.039437637
181	0xbd13f356	-0.036120735
182	0xbd1ee8ba	-0.038796164
183	0xbc7e2a40	-0.015513003
184	0xbd1eb142	-0.038743265
185	0x3c18fac0	0.009337127
186	0x3c48e2e0	0.012261122
187	0x3d1ef394	0.038806513
188	0x3d743c18	0.059627622
189	0x3cb0e480	0.021593332
190	0x3a732080	0.0009274557
191	0x3d7d9c4c	0.061916634
192	0xbd4b8e6a	-0.049696364
193	0x3d0e7788	0.034781963
194	0x3d76fb62	0.06029833
195	0xbba46dc0	-0.005017966
196	0x3ca50218	0.0201426
197	0xbc1207d0	-0.008912995
198	0xbcf347cc	-0.029697321
199	0xbd34976c	-0.04408972
200	0xbcbe05c4	-0.023196109
201	0xbc3a26a8	-0.011361755
202	0xbd5f74e6	-0.054554842
203	0xbc0d69d0	-0.008631185
204	0x3d19b1d8	0.03752312
205	0xbbd97710	-0.006636508
206	0x3d1cc23c	0.038271174
207	0x3d3a8d82	0.04554511
208	0x3d3c8c72	0.046032377
209	0x3d01a20e	0.031648688
210	0x3d3e9f10	0.046538413
211	0x3d3ad53a	0.045613505
212	0x3c744660	0.014909357
213	0xbc81768c	-0.015803598
214	0x3b77bfa0	0.0037803426
215	0xbca16efc	-0.019706242
216	0xbd7a96ae	-0.061178856
217	0xbcf06474	-0.029344775
218	0xbd4262f8	-0.047457665
219	0x3d79cf3e	0.060988657
220	0x3d2358d2	0.039879628
221	0xbd0dbf66	-0.03460636
222	0xbc00edd0	-0.007869199
223	0xbc327378	-0.010891788
224	0xbc6e78a8	-0.014555134
225	0x3cf78d44	0.030218728
226	0x3c5c25f0	0.013436779
227	0x3d26de38	0.040739268
228	0xbd50c3da	-0.05096803
229	0x3d42afbe	0.047530882
230	0x3d7c2534	0.061558917
231	0xbd1347aa	-0.035957016
232	0xbd2026be	-0.039099447
233	0x3d706a7e	0.05869531
234	0xbd38ae5e	-0.045088165
235	0xbc958ce8	-0.018255666
236	0x3c2c2f10	0.010509267
237	0x3c7dc9f8	0.015490048
238	0x3d24ff20	0.04028237
239	0x3d321288	0.043474704
240	0xbc56fd08	-0.013121851
241	0xbd2756dc	-0.04085432
242	0x3c1433c8	0.009045549
243	0x3d0505cc	0.03247623
244	0x3d6bc116	0.057557188
245	0x3c600628	0.013673343
246	0x3d3e118e	0.04640346
247	0x3b948f80	0.004533708
248	0xbd29fde0	-0.04150188
249	0x3adcea00	0.0016854405
250	0x3b397c80	0.0028302968
251	0xbd24f4c2	-0.04027248
252	0xbd4e43e6	-0.05035772
253	0xbcba788c	-0.02276256
254	0xbd75ccc2	-0.060009725
255	0x3ca6dbb4	0.020368434

fc3.weight f4 [1, 256]
0	0xbd41addc	-0.047284946
1	0xbd001d84	-0.03127815
2	0xbc434ea0	-0.011920601
3	0xbcf57ac0	-0.029965758
4	0x3cec1bf4	0.028821923
5	0x3d6f0884	0.05835773
6	0x3d1e767a	0.038687207
7	0xbd4019f0	-0.046899736
8	0xbd61499c	-0.05500184
9	0xbd7e39ee	-0.062066965
10	0x3d3f0b62	0.046641715
11	0xbd7bcb98	-0.06147346
12	0x3bb3dd20	0.0054890066
13	0x3d66367c	0.056204304
14	0xbabd90c0	-0.0014462695
15	0xbc60c3b8	-0.013718538
16	0xbb872250	-0.0041239634
17	0xbc8fe84c	-0.017566822
18	0x3b317420	0.0027077273
19	0x3d4c77ce	0.049918942
20	0x3d0f6952	0.03501255
21	0xbd3f6132	-0.046723552
22	0x3cca14f4	0.024668194
23	0x3d1e1148	0.0385907
24	0x3be3ed50	0.00695578
25	0xbcd3dac0	-0.025861144
26	0x3d120016	0.035644613
27	0xbb722d20	-0.0036953166
28	0x3d7e1fa2	0.062041886
29	0x3c67e438	0.014153533
30	0x3cf4c368	0.029878333
31	0x3d54fb7e	0.051997654
32	0xbd5f4124	-0.054505482
33	0xbd196dfe	-0.037458412
34	0xbd0f7d04	-0.035031334
35	0xbcaef528	-0.021357134
36	0xbcc9a514	-0.024614848
37	0x3d7fca74	0.062448934
38	0xbd0bc548	-0.03412369
39	0x3c30e7f0	0.010797486
40	0x3b7f10a0	0.0038919821
41	0x3d3ecdc4	0.046582952
42	0xbd0fa128	-0.0350658
43	0x3d4a84f0	0.049443185
44	0xbc8ed4fc	-0.017435543
45	0x3d405836	0.046959125
46	0xbd7989bc	-0.06092237
47	0xbcb9a810	-0.022663146
48	0xbd3b414a	-0.04571656
49	0xbcd1dfc4	-0.025619395
50	0x3d13796c	0.03600447
51	0x3d17179a	0.036887743
52	0x3d07ac9e	0.033123605
53	0x3b71d360	0.003689967
54	0xbd1a7840	-0.037712336
55	0x3d62383c	0.05522941
56	0xbd7ca564	-0.061681166
57	0xbd096b76	-0.03354975
58	0xbbd04c60	-0.006356761
59	0x3d03208a	0.032013454
60	0xbc687048	-0.014186926
61	0x3d1ff72c	0.03905408
62	0xbc9a2328	-0.018815592
63	0x3c97acf4	0.018515088
64	0x3d17e0f8	0.03707978
65	0xbcd3fbd8	-0.025876924
66	0xbd21cf92	-0.039504595
67	0x3d632fca	0.055465497
68	0x3d499576	0.049214803
69	0x3d67ed54	0.056622818
70	0x3ce1db74	0.027570464
71	0x3d6a8d54	0.057263687
72	0x3c7cac40	0.015421927
73	0xbca5b994	-0.020230092
74	0xbb241a20	-0.0025039986
75	0xbce20fdc	-0.027595453
76	0x3bf4bd20	0.0074688345
77	0xbd706126	-0.058686398
78	0x3d2a5640	0.04158616
79	0xbd6ad0a0	-0.057327867
80	0x3d08ad0a	0.033368148
81	0x3c788d30	0.0151703805
82	0xbd52b448	-0.05144146
83	0xbbc2cd70	-0.0059449
84	0xbd42cd66	-0.047559164
85	0xbc5d2178	-0.013496749
86	0xbcfaa950	-0.030598313
87	0x3d710e9e	0.05885183
88	0x3b351a00	0.0027633905
89	0x3d6aca56	0.05732187
90	0x3d0d0a6c	0.034433767
91	0xbc69c080	-0.014267087
92	0xbbb9e100	-0.005672574
93	0x3bbd4b90	0.00577683
94	0x3cb20ad0	0.021733671
95	0xbcc37020	-0.023857176
96	0xbc2d4950	-0.010576561
97	0x3d14ce3e	0.0363295
98	0xbd50aa66	-0.050943755
99	0x3c3bfd58	0.011473976
100	0x3cab1918	0.02088599
101	0xbd60503c	-0.054764017
102	0x3d767b26	0.060176037
103	0x3d13f9c4	0.036126867
104	0x3c812480	0.015764475
105	0xbc4e7d90	-0.012603179
106	0xbb343a80	-0.002750069
107	0xbcd15648	-0.025553837
108	0x3d62bf64	0.055358306
109	0x3b9235f0	0.0044619963
110	0x3d24f152	0.040269203
111	0xbd2694ec	-0.040669367
112	0x3d7c1f56	0.06155332
113	0x3d1306aa	0.035895027
114	0xbccae014	-0.024765052
115	0x3ce80fec	0.028327905
116	0x3d182678	0.03714606
117	0xbd4fe98a	-0.05075983
118	0x3bbfd420	0.0058541447
119	0xbd0a43f0	-0.033756196
120	0x3d4ca8d8	0.04996571
121	0x3d21ae3c	0.039472803
122	0xbc3c1278	-0.011479013
123	0xbd4a68ca	-0.04941634
124	0x3d463058	0.048385948
125	0xbd2c104a	-0.042007722
126	0xbd578a46	-0.052622102
127	0xbd08401e	-0.033264272
128	0x3d67da18	0.056604475
129	0xbc576e20	-0.013148814
130	0xbcf9584c	-0.030437611
131	0xbc2c5030	-0.010517165
132	0xbcd6c364	-0.026216216
133	0xbd23a13e	-0.039948694
134	0x3d3e043e	0.046390764
135	0xbcd44a1c	-0.025914244
136	0xbd7e095c	-0.062020645
137	0x3d4127e6	0.04715719
138	0xbd2e004c	-0.042480752
139	0xbd326504	-0.043553367
140	0x3bc655f0	0.006052725
141	0xbd4e53fa	-0.050373055
142	0xbd1e6680	-0.03867197
143	0x3d1a1714	0.037619665
144	0x3d40544c	0.04695539
145	0x3c9448c0	0.018101096
146	0xbbec89b0	-0.007218562
147	0xbcb9f050	-0.022697598
148	0xbb00bb80	-0.0019643009
149	0x3d1c8602	0.038213737
150	0x3cce58c0	0.025188804
151	0x3ba875c0	0.00514099
152	0xbd3fd11a	-0.046830274
153	0xbcfdf15c	-0.030998878
154	0x3d464a00	0.048410416
155	0xbd3a7cf2	-0.045529313
156	0xbc6cc8f0	-0.014452204
157	0x3d106c88	0.035259753
158	0x3b84ec30	0.004056476
159	0x3d6c7176	0.057725392
160	0xbd4d8330	-0.05017394
161	0x3c689288	0.014195092
162	0x3ccc40a8	0.024933174
163	0x3c237448	0.009976454
164	0xbd79c0b6	-0.0609748
165	0xbd661e8a	-0.056181468
166	0x3c4bfd40	0.012450516
167	0x3cce9ce8	0.025221303
168	0xbd04dd9c	-0.032437906
169	0xbd6b0792	-0.057380266
170	0x3d4753e8	0.048664004
171	0x3d21c606	0.03949549
172	0x3d2e784a	0.042595185
173	0x3d369cfa	0.0445833
174	0x3bbfc490	0.0058522895
175	0x3d6e1502	0.058125503
176	0x3a3e5480	0.0007260516
177	0xbd03806e	-0.032104902
178	0xbd040b46	-0.032237314
179	0x3c8d0210	0.017212898
180	0xbc72c738	-0.014818005
181	0xbb688f80	-0.0035485923
182	0xbd1b44ae	-0.037907295
183	0xbb923380	-0.0044617057
184	0xbd6c334a	-0.0576661
185	0xbca6e484	-0.020372637
186	0x3c39f000	0.011348724
187	0x3d326f3c	0.043563113
188	0x3c99eebc	0.018790595
189	0x3b8971c0	0.0041944683
190	0x3bec05e0	0.007202849
191	0xbd1c641e	-0.038181417
192	0xbcaed394	-0.021341123
193	0x3bd33e40	0.0064466298
194	0xbd39f068	-0.045395285
195	0xbccbd5c4	-0.024882205
196	0xbbffab20	-0.007802382
197	0xbd26db44	-0.04073645
198	0xbbafbcb0	-0.0053630695
199	0x3ce2f418	0.027704284
200	0xbcc02c54	-0.023458637
201	0xbc0e2b70	-0.0086773485
202	0xbc3b84e8	-0.011445262
203	0x3cf9c27c	0.030488245
204	0x3c930a24	0.017949171
205	0x3d4d4c6e	0.050121717
206	0x3ad320c0	0.0016107783
207	0xbcdc76b4	-0.02691207
208	0x3d355d66	0.044278525
209	0xb97ace00	-0.00023918599
210	0x3d7420ec	0.05960171
211	0x3d0b3e62	0.03399504
212	0xbc714cf8	-0.014727823
213	0x3ce2e068	0.027694896
214	0xbd56e032	-0.052459903
215	0xbd490e70	-0.049086034
216	0xbc62bc90	-0.013838902
217	0xbcd81350	-0.026376396
218	0xbd3267f2	-0.04355616
219	0xbcc81edc	-0.024428777
220	0xbcc16c30	-0.023611158
221	0xbcdd18bc	-0.026989333
222	0xbc6a9c80	-0.014319539
223	0xbd480064	-0.048828498
224	0xbc8bcda8	-0.017065838
225	0xbd2c046c	-0.041996405
226	0xbd51eb8c	-0.051250026
227	0x3cb36c4c	0.021902226
228	0xbd1a005c	-0.037598
229	0x3d081c74	0.03323026
230	0xbd002706	-0.031287216
231	0x3d02b0b8	0.031906813
232	0xbd446644	-0.04794909
233	0xbcb00d88	-0.021490827
234	0xbd42495c	-0.047433242
235	0x3cca995c	0.02473133
236	0x3b0f5fe0	0.0021877214
237	0xbd25d852	-0.040489502
238	0xbd2631be	-0.04057478
239	0x3ce1611c	0.027512126
240	0x3bdb1220	0.0066855103
241	0xbd364ff8	-0.044509858
242	0x3c98a890	0.018635064
243	0x3d143094	0.03617914
244	0x3cf296cc	0.029612921
245	0xbc5040b8	-0.012710743
246	0xbc2e7708	-0.010648496
247	0xbd38462e	-0.044988804
248	0x3d52f418	0.051502317
249	0xbcd8b034	-0.026451208
250	0x3d2fde92	0.04293687
251	0x3c9a9438	0.018869504
252	0xbc23ea38	-0.010004573
253	0x39ba2700	0.00035505742
254	0x3bba2040	0.005680114
255	0xbc806bc4	-0.015676387
