output_lxl/MASAC/weight/critic1_agent_1_ep_4800.pth (torch, 286504 bytes, 5 tensors)

fc1.weight f4 [256, 18]
000000 60 68 c9 bb 12 d3 f4 3d f8 c3 fd bc e6 c5 b8 3d
       -0.0061464757 0.11954321 -0.030977234 0.09022121
000010 f7 3f 5b 3e 36 bb 07 be 82 89 38 be ec 46 5e 3d
       0.2141112 -0.13255009 -0.18021205 0.054266855
000020 a0 f8 80 bd 69 ed 6b 3e 5a 9f f5 3d 7a 91 83 3d
       -0.062974215 0.23039784 0.119932845 0.06424232
000030 1b 82 22 be 66 c6 f1 3d d3 26 3e 3e b1 59 46 3e
       -0.15869944 0.118054196 0.18569498 0.19370152
000040 20 fe 4a be f1 ff 18 be bf 02 42 be 12 4e 10 be
       -0.19823503 -0.14941384 -0.1894636 -0.14092281
000050 f7 f7 07 3e d6 9a ea bd 92 c0 16 be ae f1 9e 3d
       0.13278185 -0.11455314 -0.14721897 0.077609405
000060 e0 3a 9d bb 46 3b c0 bd ef dd 0a be ea 0c 92 3d
       -0.004798278 -0.093863055 -0.13561223 0.071313694
000070 dc ae 28 3d 0c 25 c2 bd 5c 7d 30 bd 80 e4 a9 bb
       0.041182384 -0.094797224 -0.043088302 -0.00518471
000080 72 93 a2 3d 78 37 99 3c 81 dd 1d 3e b0 06 29 3c
       0.07938279 0.018703207 0.15416528 0.010316536
000090 18 2b 88 bd 90 00 00 bd 48 d2 60 bd 3a 8c 85 3d
       -0.066488445 -0.031250536 -0.05488804 0.06520887
0000a0 4d fc 48 3e 03 5f 64 3e 58 53 d0 3c e8 97 1e be
       0.19627495 0.22301869 0.025430366 -0.15487635
0000b0 67 2c 4a be 23 9e 66 be 88 db 60 bd ac 39 04 3d
       -0.197435 -0.22521262 -0.05489686 0.032281563
0000c0 df f9 eb bd 46 38 e6 3d 4a b3 b1 3d 4f f0 6d 3e
       -0.115222685 0.11241202 0.08676775 0.23236202
0000d0 80 b9 e0 bb 7b de 56 3e a0 9c 0e 3c cd ac 1b 3e
       -0.006858051 0.20983307 0.0087043345 0.15202637
0000e0 87 c8 68 be 26 22 2b be c9 ae 36 3e e6 b0 fd 3d
       -0.22732745 -0.16712245 0.17840113 0.12387256
0000f0 d6 89 80 3d a3 ae 4d 3e 9d d6 50 3e a0 12 f3 bc
       0.0627629 0.2008615 0.20394368 -0.029671967
000100 88 32 63 bd cf de 62 3e bf 00 6d be f3 32 29 3e
       -0.055468112 0.22155307 -0.23144816 0.16523342
000110 cf 57 1e 3e 40 f9 35 3c 08 61 b5 3c 3c 31 7a 3d
       0.15463184 0.011106789 0.022140995 0.06108211
000120 32 e3 3c be 98 95 22 be 10 01 23 be 97 42 2d 3e
       -0.18446043 -0.15877378 -0.15918374 0.16919933
000130 0a 7d 9f 3d ae 9c f9 3d 45 a0 3b be 84 0c a3 bd
       0.07787521 0.121880874 -0.18322857 -0.079613715
000140 bb 48 23 3e cb c4 49 3e f9 e7 33 3e 69 5b 50 3e
       0.15945713 0.19703977 0.1756896 0.2034737
000150 40 6b 4b bc 8c 92 33 bd 7e ff 22 be ab 6f 01 3e
       -0.012415707 -0.04384093 -0.15917775 0.12640254
000160 4e 16 b0 bd 9c b8 c6 bd ea 29 be 3d 5a 99 b9 bd
       -0.08598004 -0.0970318 0.09285338 -0.090624526
000170 a8 63 d3 bc 8a 1d 51 be 1e 5a 96 bd 7c ea e0 bd
       -0.025804356 -0.20421425 -0.07341407 -0.10982224
000180 d4 7a ad bd 2f 62 1a 3e 2c 34 6c be 32 6c a5 3d
       -0.08470693 0.15076517 -0.23066777 0.08077277
000190 4f 3a 01 3e 98 6f 9e 3c 6d c6 4b 3e c0 f0 c0 bd
       0.12619899 0.019340321 0.19899912 -0.094209194
0001a0 8d 9b 6e 3e 68 79 4b bd e0 ec 23 be 5a d2 85 3d
       0.23301525 -0.04967633 -0.1600833 0.06534262
0001b0 14 57 2f bd 4e 95 46 be 78 34 a6 bd cc 80 3e 3d
       -0.042807654 -0.19392893 -0.08115476 0.04650955
0001c0 6a 19 fd 3d f8 f6 9d bd 80 41 c4 3a fe 98 9a 3d
       0.12358363 -0.07713121 0.0014973134 0.07548712
0001d0 42 71 a9 3d ec 8d 5d 3d 71 7d 66 3e f0 71 03 bc
       0.08273555 0.054090425 0.2250879 -0.00802277
0001e0 6a 36 2d be 6a 07 0c be 0c 35 30 be 7c f4 01 3d
       -0.16915289 -0.13674703 -0.17207736 0.0317273
0001f0 90 dc c0 bc 37 4e 26 be 5a 7f bb bd b8 e7 98 3c
       -0.023542672 -0.16240774 -0.0915515 0.01866518
000200 e6 cc 06 be 74 67 52 be d8 96 27 be 48 96 29 be
       -0.131641 -0.20547277 -0.16366136 -0.16561234
000210 d8 5c cc 3c d8 f7 a1 bd e5 c8 47 be 1c 9b 40 bd
       0.024946615 -0.079086006 -0.19510229 -0.047022924
000220 0d 5f 3b 3e 18 58 95 bc 12 db b9 3d c0 c3 61 3c
       0.18297978 -0.018230483 0.090749875 0.013779581
000230 0a 62 ee bd b8 7c 92 bd 30 fc 46 bc 48 1f 9b bd
       -0.11639793 -0.071526945 -0.012145087 -0.07574326
000240 4d 66 2a 3e a3 42 44 3e 46 5b 8c 3d 47 66 6d 3e
       0.16640587 0.19166045 0.068533465 0.23183547
000250 ee ff 15 be 7a cb 89 bd 52 38 d8 bd 11 99 38 be
       -0.1464841 -0.06728263 -0.10557617 -0.1802714
000260 15 e6 26 3e c8 0e 30 bd a5 a4 28 3e 62 66 b3 3d
       0.16298707 -0.042982846 0.16469057 0.08759762
000270 ab d7 46 3e f7 b4 07 3e 51 b8 22 be 03 fc 35 be
       0.19418208 0.13252626 -0.15890624 -0.17771916
000280 54 9b 0a be c0 10 ae bb 6c 8b 0c be c2 07 ef 3d
       -0.13535815 -0.0053120553 -0.1372506 0.116714016
000290 39 d7 16 3e 27 24 4a be 67 10 61 be 46 d5 23 be
       0.14730538 -0.19740354 -0.21978913 -0.15999326
0002a0 82 86 1e be ee 6a dd bd ce 13 9f 3d 26 b0 9c 3d
       -0.15480998 -0.10811411 0.07767449 0.07650785
0002b0 68 87 a6 bd 68 d9 e6 bc 8e 59 0b be 02 70 9c 3d
       -0.081312954 -0.02817984 -0.13608381 0.07638551
0002c0 a9 94 07 3e ec 51 15 bd 41 27 09 be e2 74 b8 bd
       0.13240303 -0.03645508 -0.1339388 -0.090066686
0002d0 00 cd 68 be 30 58 70 bd 50 67 36 3c e2 19 a7 3d
       -0.22734451 -0.058677852 0.01113303 0.08159234
0002e0 3b 42 53 be 35 9d 14 3e 06 e8 c7 3d 18 f3 f7 bc
       -0.20630734 0.14513095 0.09761052 -0.030267283
0002f0 65 89 32 3e 9a 08 3b be 03 59 17 3e 32 ba 06 be
       0.17435224 -0.18265 0.14780049 -0.13156965
000300 f0 0e 47 bc fb 2d 0b 3e 00 9c d6 b9 48 48 6d be
       -0.0121495575 0.13591759 -0.0004093349 -0.23172104
000310 d8 3d bf bc 6a f7 f7 3d a2 c9 22 be e2 6d b5 bd
       -0.02334492 0.12107737 -0.1589723 -0.08858849
000320 f3 96 11 3e 26 15 1c be 81 3b 43 3e 10 61 90 bd
       0.14217739 -0.15242442 0.19065668 -0.07049763
000330 34 02 48 3d e4 6e 62 be 39 08 6e be 38 7c 0b bd
       0.048830226 -0.22112614 -0.23245324 -0.03405401
000340 18 aa db 3c 38 2e 49 bd ff b2 41 3e 75 cb 40 be
       0.026814505 -0.049116343 0.18915938 -0.18827613
000350 53 90 5a 3e 2a 44 dc 3d 14 f8 58 3d 80 30 cc bc
       0.21344118 0.10755189 0.05297096 -0.02492547
000360 a9 4a 08 be 48 48 c8 3c a6 9c 16 be 5f 45 6a be
       -0.1330973 0.024448529 -0.14708194 -0.22878025
000370 67 0c 2b 3e fc d0 48 bd e1 f8 2a 3e 37 d0 6a 3e
       0.1670395 -0.049027428 0.16696502 0.2293099
000380 86 3f c6 3d 1c 92 6b 3d 40 d0 2d 3c 8e 81 15 be
       0.09680085 0.057512388 0.010608733 -0.14600202
000390 5e f2 b0 3d de 90 3c be 8a b9 99 3d 31 d7 ea bd
       0.08639978 -0.18414637 0.07506092 -0.11466826
0003a0 3c 4a 29 be b6 0f aa bd be 29 35 be ff ef 25 3e
       -0.16532224 -0.08303778 -0.17691705 0.16204832
0003b0 c2 9a d9 3d 00 5d 11 be 36 11 a6 3d 9c 2d 0b 3d
       0.10625221 -0.14195633 0.081087515 0.033979043
0003c0 40 2c 2b bb e1 bd 2b 3e 9a 56 83 bd dc 47 72 3d
       -0.0026118904 0.16771652 -0.06413002 0.05915056
0003d0 fe 9b 52 be 5c 11 3a bd 88 e0 f1 3c 48 b4 26 bd
       -0.20567319 -0.04542671 0.02952601 -0.040699273
0003e0 d0 bd 2a 3c e7 22 05 3e 3e 9e 85 3d 35 21 1e 3e
       0.010421231 0.13001595 0.06524323 0.15442355
0003f0 27 d5 0d 3e 8e 65 d0 bd 57 09 24 3e 9c 44 86 bd
       0.13850842 -0.1017562 0.16019188 -0.06556055

fc1.bias f4 [256]
000000 e6 60 c1 bd 88 6f 63 bd 6c 45 3f be f4 e9 cd bd
       -0.0944231 -0.055526286 -0.18678826 -0.10054389
000010 28 e9 f1 3c 7a c7 87 3d 31 4a 54 3e 42 4d 4d be
       0.029530123 0.06629844 0.20731427 -0.20049003
000020 0d e3 02 be 88 23 a4 bc 10 f8 60 bc 0a 78 ce 3d
       -0.12781925 -0.020036474 -0.013731018 0.100814894
000030 fa be 5e be c2 b6 05 be ba 79 4e be 22 3c 1c be
       -0.2175254 -0.13057998 -0.20163622 -0.15257314
000040 34 4e f7 bd b0 72 8b bc d0 78 6c bc e0 cf 28 3c
       -0.12075463 -0.01702246 -0.014433101 0.0103034675
000050 13 2d 4a 3e 38 30 b7 bd 32 41 d9 3d 04 e9 22 bd
       0.19743757 -0.08944744 0.10608138 -0.039773002
000060 30 67 de bc 06 cd e5 3d 82 09 3c be ad 11 5a be
       -0.027148813 0.11220746 -0.18363002 -0.21295805
000070 ae 53 93 bd dd f4 59 3e 5f 06 5a 3e 33 04 0b be
       -0.07193695 0.21284814 0.21291493 -0.1357582
000080 58 fe d2 3c 00 4d c3 ba 32 af 36 be 30 a9 84 bd
       0.025756046 -0.0014900267 -0.17840269 -0.064775825
000090 ae a9 94 3d 1f a7 1b 3e f3 fd 11 3e 02 6a 1e be
       0.07258926 0.1520047 0.1425703 -0.15470126
0000a0 0a e5 9f bd af af 2e 3e cb 80 f9 bd 58 b5 dd bd
       -0.078073576 0.17059205 -0.121827684 -0.10825604
0000b0 17 67 52 3e 33 81 1b 3e aa 47 bf 3d f8 62 d4 bc
       0.20547138 0.15186004 0.09339841 -0.025926098
0000c0 d4 50 33 3d a1 62 52 3e bd a8 44 3e a9 4e 5f 3e
       0.043778256 0.20545436 0.19204994 0.2180735
0000d0 59 be 5a 3e 40 0f 3d be be 7d b2 3d ed 52 5c 3e
       0.21361674 -0.18462849 0.0871539 0.21516009
0000e0 e0 a2 c4 bb 18 ff 9a 3c 43 de 6c 3e 6c 35 4d 3d
       -0.0060008615 0.018920466 0.23131661 0.050099775
0000f0 b1 eb 60 3e f3 0e 0a be b0 46 44 bd 96 be 0e be
       0.21964909 -0.13482265 -0.047918975 -0.1393989
000100 bb 9f 4f be 00 87 11 3c 37 65 13 be 84 b2 07 be
       -0.20275776 0.008882284 -0.14394079 -0.13251692
000110 43 0f 66 be f3 af 5c 3e ba bd 08 be 96 e4 00 be
       -0.2246676 0.21551494 -0.13353625 -0.12587199
000120 81 a0 6b be 35 3d 17 3e 3d a8 65 3e 00 8d a7 3a
       -0.23010446 0.14769442 0.22427459 0.001278311
000130 16 a8 cc 3d d0 37 00 bd 61 50 46 3e 9a 0c 65 be
       0.09992997 -0.031303227 0.193666 -0.22368088
000140 98 4a 4f bd 58 1c f3 bc 1e f1 b3 3d c2 58 a1 3d
       -0.050608248 -0.029676601 0.08786224 0.07878257
000150 9b 95 60 3e 9e a4 a4 bd f6 0c f5 3d 45 7a 32 3e
       0.2193207 -0.08039211 0.11965363 0.17429455
000160 10 9b 5d bc d7 ce 70 3e 0b 5d 33 3e 6c c1 2e 3d
       -0.013525739 0.23516403 0.17515962 0.04266493
000170 23 87 58 3e bb 97 18 be d2 fc 35 be 00 51 27 bc
       0.211453 -0.1490163 -0.17772225 -0.010212183
000180 14 48 f3 bd 80 ee f9 bd c8 61 58 be 04 5e ca bd
       -0.11878982 -0.122036934 -0.2113105 -0.09881213
000190 28 b2 6e be 72 f5 eb 3d 6b be 57 3e 1c f8 1b be
       -0.23310149 0.11521424 0.21068732 -0.15231365
0001a0 00 76 15 bc f0 83 cb bc 4a 83 24 be 5a 11 1f be
       -0.009122372 -0.024843186 -0.16065708 -0.15533963
0001b0 54 7d 50 be 4b d7 2c 3e bf 98 3e be ec 05 04 be
       -0.20360309 0.16879003 -0.18612956 -0.12892884
0001c0 c0 5b e7 bb 20 e0 fb bc 0b a0 09 3e 14 f9 04 3d
       -0.007060498 -0.03074652 0.13439958 0.032464102
0001d0 59 8c 49 3e 20 2f de bd 18 0b 84 3c 1a 84 61 be
       0.19682445 -0.10848832 0.016118571 -0.22023049
0001e0 86 84 38 be 50 36 ab bd 40 51 95 3b 04 a0 4f bd
       -0.18019304 -0.08359969 0.004556805 -0.050689712
0001f0 fb 4f 05 3e e8 e1 f3 3c 90 62 61 bd 8a 85 d7 3d
       0.13018791 0.029770806 -0.055025637 0.105235174
000200 a5 d3 69 be a0 ed 21 be 00 f7 1b 3c 75 09 20 be
       -0.22834642 -0.15813303 0.009519339 -0.15628608
000210 35 74 38 3e d4 bf 5a be c9 03 65 be 70 71 62 bd
       0.1801308 -0.21362239 -0.22364725 -0.055283964
000220 d5 49 02 3e 10 ef 25 bd 99 21 5f 3e 13 37 02 3e
       0.12723477 -0.04051119 0.2179016 0.12716322
000230 12 85 99 bd 3d 16 fe bd 02 28 c3 bd fa 24 db 3d
       -0.07496084 -0.12406585 -0.09529115 0.10700412
000240 62 c3 9b 3d a6 57 89 bd f0 69 1b be cb cc 04 3e
       0.07605626 -0.06706171 -0.1517713 0.12968747
000250 33 88 48 3e 1b 59 47 3e ef 42 2d 3e a8 66 89 bd
       0.19583206 0.19467585 0.16920064 -0.06709033
000260 80 4a 5b bc 45 f6 24 3e 05 b0 37 3e dc 0e 76 3d
       -0.013384461 0.1610957 0.1793824 0.060072765
000270 c8 ba 6a be 67 1d 0c 3e ac d0 20 be 50 e1 47 bc
       -0.22922814 0.13683091 -0.15704602 -0.012199715
000280 6d 53 36 3e e9 34 3e 3e e0 ff 07 be 17 c2 68 3e
       0.17805262 0.18574871 -0.13281202 0.2273029
000290 78 2d 8d 3c eb 6c 4a be 5d b5 5a be 6f 77 17 3e
       0.017233595 -0.19768111 -0.21358247 0.14791654
0002a0 a2 93 59 be 2b a9 62 3e ae 0b c8 bd 2b 74 6a 3e
       -0.21247724 0.22134845 -0.09767853 0.22895877
0002b0 f4 d9 d9 bd 15 98 6a be 7b fe 15 3e 83 dd 04 3e
       -0.106372744 -0.22909577 0.14647858 0.12975125
0002c0 64 9f 65 3d 48 01 47 be be e5 20 be 30 09 78 3c
       0.05606021 -0.19434083 -0.1571264 0.015138909
0002d0 39 2f 4f 3e 32 d7 bd 3d f8 5e 3b bd ea db 15 be
       0.20232858 0.09269561 -0.045744866 -0.14634672
0002e0 4b be 2f 3e 8e b8 d8 3d d0 13 bb bd 2b e4 35 be
       0.17162435 0.10582076 -0.09134638 -0.1776282
0002f0 12 c2 24 be 43 bf 17 be 51 34 54 3e dc 8f 0c 3d
       -0.16089657 -0.14819054 0.20723082 0.034316882
000300 92 56 17 be b4 a6 4a be e8 5d 38 be 66 3d ec 3d
       -0.14779118 -0.19790155 -0.18004572 0.11535148
000310 00 fa 30 3c b0 fc 08 be 80 50 1d bd 9c a7 28 be
       0.010801792 -0.13377643 -0.03840685 -0.16470188
000320 dd bd 06 3e d4 11 4a be 1c 87 45 3d 0b 6c 2d 3e
       0.13158365 -0.19733363 0.048224553 0.16935746
000330 53 72 5c be e8 76 c5 3c 5e 53 8d bd c0 b8 4b 3c
       -0.21527986 0.02410455 -0.06900667 0.012434185
000340 f8 cb 97 bd 1d 5b 31 be 14 40 4e bd 8f c0 5d be
       -0.07411951 -0.17319913 -0.05035408 -0.21655487
000350 6c d9 16 be 4d 90 34 3e 60 58 99 bc 9e d2 99 bd
       -0.14731377 0.17633171 -0.018718898 -0.07510875
000360 f6 cb bd bd d4 e3 ac bd 54 4d 68 3d 7e 52 40 be
       -0.09267418 -0.08441892 0.05671437 -0.18781468
000370 12 c6 87 3d 37 05 04 be ae 70 9e 3d 9a 34 9a 3d
       0.06629576 -0.12892614 0.07736336 0.07529564
000380 90 75 7c bd f7 0f 3e 3e 4c 3f 10 be 1f 24 e5 bd
       -0.061635554 0.18560778 -0.14086646 -0.1118853
000390 92 68 9b bd ca 00 d4 bd 3a 41 f5 3d 0b 68 16 3e
       -0.075883046 -0.10351713 0.119753316 0.14688127
0003a0 08 5d 24 be f2 90 eb 3d 8a 47 bb 3d cd 86 40 be
       -0.16051114 0.115022555 0.09144504 -0.18801422
0003b0 04 54 a7 bd ec 16 6c bd 96 c3 5e be b2 e4 48 be
       -0.081703216 -0.057639048 -0.21754298 -0.1961849
0003c0 3b bb 31 3e 80 61 f5 3a 2b 00 3c 3e 36 d4 ee 3d
       0.17356579 0.0018721074 0.18359439 0.1166157
0003d0 ce e5 86 3d 34 7a ef bd 73 46 70 3e ea 41 8f 3d
       0.065868005 -0.1169323 0.23464374 0.06994994
0003e0 72 a7 2d be a4 71 31 3d 00 dc 5d 3c 36 d4 2a be
       -0.16958407 0.043321267 0.013541222 -0.16682515
0003f0 fc fc 74 3d 88 e0 ff 3c 66 bf 49 be 0a bb 95 bd
       0.059811577 0.031234995 -0.19701919 -0.073110655

fc2.weight f4 [256, 256]
000000 b4 0f 69 3d 80 ed 33 bb 78 8b 7e 3d e4 c2 7b 3d
       0.05689974 -0.0027454793 0.062144727 0.06146516
000010 06 fd 2b 3d 16 52 4a bd 62 50 18 3d 64 14 c9 bc
       0.04198935 -0.04939469 0.037186034 -0.024545856
000020 b8 e8 95 bc 60 26 3e bb e0 c4 03 3d 48 68 b8 3c
       -0.018299446 -0.0029014573 0.032170177 0.022510663
000030 68 b4 c3 3c 80 ea 24 3a 1a 37 79 bd da 6d 7e bd
       0.023889735 0.0006291047 -0.060843565 -0.06211648
000040 3a 8c 7a bd 18 9a 85 bc 24 4b 47 3d 70 90 17 bc
       -0.061168887 -0.01630883 0.048655644 -0.009250745
000050 b4 3d 48 bd 30 d4 70 3c f0 b1 fe bc ec a5 03 3d
       -0.04888697 0.014699027 -0.031090707 0.032140657
000060 ac 03 76 3d 70 94 4d bc 38 6a d0 3c 18 5f c9 bc
       0.060062096 -0.012547597 0.025441274 -0.024581477
000070 80 64 38 bc 2c c4 8f bc a4 46 6c bd 8e 6b 22 3d
       -0.01125443 -0.017549597 -0.057684556 0.039653353
000080 d0 72 68 3c 34 6b b8 3c 9a 82 1b 3d 48 73 67 bc
       0.01418753 0.022512056 0.03796635 -0.014126606
000090 c0 b4 81 3b e8 62 7d 3d 78 c5 4e bd f8 db cd bc
       0.0039583147 0.061861902 -0.05048129 -0.025129303
0000a0 38 b2 73 bd a0 4a 35 bc 0a 1a 4a 3d 4a b9 1b 3d
       -0.059496135 -0.011065155 0.04934124 0.038018502
0000b0 20 25 d1 3c fc 4d 2c bd 7c ff 6a bd 1c fa e8 bc
       0.025530398 -0.04206656 -0.057372555 -0.028439574
0000c0 6a a3 5f 3d 42 cc 23 3d 80 eb ea bb 00 01 29 bd
       0.054599203 0.039989717 -0.007169187 -0.04126072
0000d0 5c 00 19 bd d0 e2 c9 bc 24 a5 c1 3c d2 27 49 bd
       -0.03735386 -0.024644285 0.023638315 -0.04911024
0000e0 8c 8d ef bc a4 3a bd 3c bc 86 9c 3c 18 b8 0c bd
       -0.0292423 0.023099251 0.019107215 -0.034355253
0000f0 b4 00 dc bc 96 d7 10 bd 70 f8 5a bd fa ea 56 bd
       -0.026855804 -0.03536185 -0.053459585 -0.052470185
000100 7c 1c 1c 3d 74 4a e0 bc 24 0f fc bc 80 bc 8e bc
       0.038113102 -0.027379252 -0.030768938 -0.017423868
000110 6c 28 ab bc 40 b4 2a bc 78 6f fb 3c c6 e8 07 bd
       -0.020893298 -0.0104189515 0.0306928 -0.033180974
000120 00 de 1d 3c f6 de 0e 3d a2 96 72 3d 40 af c9 3a
       0.009635448 0.0348806 0.059225686 0.0015387312
000130 80 55 30 ba 10 2d 9d 3b 20 50 7a 3c 6e be 65 3d
       -0.00067266077 0.0047966316 0.015277892 0.05608981
000140 20 79 de 3b dc a2 41 bd e8 a9 e3 bc b0 03 a5 3b
       0.0067893416 -0.047274455 -0.027790979 0.00503584
000150 d4 e9 61 bd a8 43 77 bc 3a 6b 02 bd f8 1c 3f 3c
       -0.055154637 -0.015091814 -0.03184054 0.0116646215
000160 94 27 a3 bc 00 dc e2 39 2a 45 60 bd 2a 96 17 3d
       -0.019916333 0.00043269992 -0.05475346 0.037008442
000170 62 d1 3f 3d 0c ae 3a 3d 8a 11 2e bd 80 5f b3 bb
       0.046830542 0.04557614 -0.042497195 -0.005474031
000180 a0 ca b8 3c e0 d2 e9 3b 24 92 78 3d 64 b9 11 bd
       0.022557557 0.007135734 0.060686246 -0.035577193
000190 c8 80 92 3c 98 0f 25 3d 22 0f 53 3d 88 8a d1 bc
       0.017883673 0.040298074 0.051528104 -0.025578752
0001a0 c0 35 80 ba 98 ff 08 3c e0 41 49 3c f0 c0 06 3d
       -0.0009781644 0.00836172 0.012283772 0.032898843
0001b0 ce d6 78 bd c0 1e 75 3d 60 b2 13 bb c0 e4 7c 3c
       -0.06075173 0.05984378 -0.002253674 0.015435398
0001c0 f0 46 54 bd 30 29 cf bc 5e 0f 41 bd 68 da 1b 3c
       -0.051825464 -0.025288194 -0.047133796 0.009512521
0001d0 8a 58 59 bd 38 77 1b bd 4c 13 2d bd f4 68 99 bc
       -0.053062953 -0.037955493 -0.04225473 -0.018726803
0001e0 58 2f 54 bc d0 1f db bc d8 ee 7a 3d b8 62 1d bd
       -0.012950741 -0.026748568 0.061262935 -0.038424224
0001f0 78 a3 7d 3c 90 a4 61 3d d0 9c b8 bb 34 3f 48 3d
       0.0154808685 0.05508858 -0.005633928 0.0488884
000200 88 c6 69 bd 72 bf 7a bd 28 e4 6a 3d 04 d4 bd 3c
       -0.0570741 -0.061217733 0.057346493 0.023172386
000210 00 d7 6b bc ae c9 0e 3d ec a2 0d 3d 1e d4 08 3d
       -0.014394522 0.034860305 0.034579203 0.033405416
000220 00 90 fc 38 70 8d 2c bc e0 9f 22 3d 0c 50 8e 3c
       0.000120431185 -0.010531768 0.03970325 0.017372154
000230 b4 d6 a9 bc a0 30 4e 3b 14 58 8f bc c2 f3 75 3d
       -0.020732261 0.0031462088 -0.017498054 0.06004692
000240 98 6c 57 3c 82 c9 44 bd d0 e7 a5 3c a2 5c 21 3d
       0.013148449 -0.048043735 0.020252138 0.039394982
000250 94 09 dd 3c f8 68 2f bc 2c 0c 12 bd e0 43 d0 3c
       0.026982106 -0.010706179 -0.03565614 0.02542299
000260 d0 f8 b2 3c b6 ae 1e bd 44 45 cd 3c 64 26 da bc
       0.021847159 -0.038740836 0.025057442 -0.026629634
000270 a0 82 de bb 64 19 6a 3d 90 04 54 bd ac 85 1a bd
       -0.006790474 0.05715312 -0.051762164 -0.037725136
000280 3c d0 b4 3c 70 08 ac bb c0 2c 35 3d 7e 29 0e 3d
       0.02207195 -0.0052500293 0.04423213 0.03470754
000290 bc f1 c1 bc b0 43 68 3d ec 07 1b bd e0 62 d7 bb
       -0.023674838 0.056705177 -0.03784935 -0.006573066
0002a0 54 60 4d 3d e8 37 56 3c 64 6e 6a bd 40 b3 84 3a
       0.050140694 0.0130748525 -0.057234183 0.0010124221
0002b0 88 4a 7f 3d 80 7e cf 3b d0 e3 c1 3b 88 b7 d5 bc
       0.062326938 0.0063322186 0.00591705 -0.026088491
0002c0 24 21 53 3d c0 75 63 bc f0 f9 69 bc e0 20 16 3d
       0.051545277 -0.013883054 -0.014280781 0.036652446
0002d0 90 61 94 3c 30 eb 04 bd 8e 30 18 3d 0c e4 c8 3c
       0.018112928 -0.032450855 0.03715568 0.024522804
0002e0 d4 c7 75 3d a4 66 d2 bc 2e e0 6a 3d 60 e6 94 3c
       0.060005024 -0.025683708 0.0573427 0.018176258
0002f0 e8 07 08 3c f2 68 27 bd c0 eb b4 bb 78 cb 5a 3c
       0.008302666 -0.040871568 -0.0055212677 0.013354175
000300 38 70 8f 3c 40 8f bd 3c a0 05 1a 3d c4 a9 c4 3c
       0.017509565 0.023139596 0.03760302 0.024006732
000310 e2 43 54 bd e8 67 6c bd 30 70 b3 3b f0 b7 77 bc
       -0.05182255 -0.05771628 0.0054760203 -0.015119538
000320 28 5b 42 bc ac d4 3a 3d 54 f8 95 3c ae 36 24 bd
       -0.011862554 0.045612976 0.018306889 -0.04009121
000330 80 13 09 3a f0 ef 0d 3c d4 4f 45 3d 08 1c af bc
       0.0005229041 0.008663163 0.048171833 -0.021375671
000340 30 b8 5d bd e0 89 29 bb bc 9e 5a bd 20 6f ed bb
       -0.054130733 -0.0025869533 -0.053374037 -0.007245913
000350 c4 56 51 3d ba 1c 5b 3d 54 f9 da 3c 00 26 3a 3d
       0.051108137 0.053494193 0.026730217 0.045446396
000360 28 f6 b0 3c d8 68 36 3c 44 c3 5e 3d 4a 4d 03 3d
       0.021601751 0.011133395 0.05438544 0.03205613
000370 50 eb b3 bc 98 c7 2d 3c ac c3 85 bc 4e 07 50 bd
       -0.021962792 0.010606669 -0.016328655 -0.050788216
000380 e8 97 17 bd 00 c5 74 3b 66 8c 1e 3d dc 68 3c 3d
       -0.037010103 0.0037348866 0.038708113 0.04599844
000390 f8 cd f8 bc 40 86 5c 3d 60 0b 7c bd b4 45 98 3c
       -0.030371651 0.05383897 -0.061534286 0.018587925
0003a0 aa d9 7a bd 50 fb 0a 3d c0 c5 d9 ba e8 84 bf bc
       -0.061242737 0.033931077 -0.001661472 -0.023378804
0003b0 54 d5 b6 bc 38 f0 2a bc ac 64 68 3d 90 1a db bb
       -0.02231852 -0.010433249 0.056736633 -0.006686516
0003c0 3a 38 1a bd f0 98 07 bc 58 50 e0 3c 3c 11 2c 3d
       -0.037651278 -0.008276209 0.02738206 0.042008623
0003d0 f6 34 65 bd 44 d3 75 bd d4 63 d3 bc a8 48 c5 3c
       -0.05595871 -0.06001593 -0.025804438 0.024082497
0003e0 68 8f 33 3d 28 72 25 3c d0 44 b6 bc d4 c4 c7 bc
       0.043837935 0.010098018 -0.02224961 -0.024385847
0003f0 72 de 7b bd 64 6e 27 bd 10 0f d8 bb 98 f6 dc bc
       -0.061491437 -0.04087676 -0.0065935925 -0.026973054

fc2.bias f4 [256]
000000 a8 fa 2c bd 80 9a a3 3a aa 7a 1e 3d f8 fd 38 3c
       -0.042231232 0.0012481958 0.0386912 0.01129102
000010 20 bc 4e 3d c0 b9 2b 3c a6 88 2c bd 34 38 b7 bc
       0.05047238 0.010481298 -0.042122506 -0.022365667
000020 e0 0e 5c bd e2 fe 02 bd 5e 9a 1b 3d b6 33 7d 3d
       -0.053725123 -0.031981356 0.037989013 0.061816894
000030 ac 1e ab 3c 30 9e 03 3d d6 b4 2b bd 62 02 3d bd
       0.020888649 0.03213328 -0.041920505 -0.04614485
000040 90 ce d0 3b 6e 4d 20 3d 18 17 58 3c c0 80 5e 3d
       0.0063722804 0.039136343 0.0131891 0.054322004
000050 a8 3e 7f bd 4c e2 59 3d d0 43 46 3c 98 d0 62 bd
       -0.062315613 0.05319433 0.012101129 -0.05537471
000060 30 f2 cc bb 04 a4 f4 bc 18 50 96 3c 58 7e 25 bd
       -0.006254457 -0.029863365 0.018348739 -0.040403694
000070 24 b8 68 bd 58 5b 82 bc 00 76 24 b9 30 0f 2f 3c
       -0.056816235 -0.015912697 -0.00015684217 0.010684773
000080 d0 e7 23 bc 60 bc 27 3d 00 ac d4 b8 9c 37 00 bd
       -0.010003999 0.040951133 -0.00010140985 -0.031303033
000090 a2 52 7a bd ce d1 7e 3d a0 fc 41 3d 5e 15 5f bd
       -0.06111396 0.062211804 0.047360063 -0.054463737
0000a0 00 de 15 39 44 c1 92 3c bc b9 64 3d ac 52 4c bd
       0.00014292449 0.017914422 0.055841193 -0.04988353
0000b0 78 fa c4 bc 54 48 ee 3c 80 61 31 3a 00 c3 fd 39
       -0.024045214 0.029087223 0.0006766543 0.00048401207
0000c0 80 ac a3 3a 40 63 a9 3b bc 4e 1c bd 00 bc 89 bb
       0.0012487322 0.005169302 -0.038161024 -0.0042033195
0000d0 74 8e a4 3c ac f1 cc 3c e8 c8 37 bd d6 6a 7a bd
       0.020087458 0.025017582 -0.044869334 -0.061137043
0000e0 6e 57 7d bd e0 9d b5 bb 40 9d 19 3d e4 a9 ba bc
       -0.061850958 -0.005542502 0.03750348 -0.022786088
0000f0 c8 4f 1b bc c0 57 86 3b a8 92 04 3d 72 7e 57 bd
       -0.009479471 0.004099816 0.032366425 -0.052610822
000100 4e 3f 67 3d c0 76 49 3d c6 dc 2e bd 50 06 cf bc
       0.056456856 0.049185514 -0.042691015 -0.025271565
000110 14 7c de bc d6 ac 68 3d 9a 1c 1a bd a0 e5 5a 3b
       -0.027158774 0.056805454 -0.037624933 0.0033401027
000120 68 a2 04 bd 80 ff a9 ba 0c 41 0e 3d 5c 10 78 3d
       -0.032381445 -0.0012969822 0.034730002 0.060562477
000130 90 e0 ba bc f4 e4 6d bd 80 28 71 3a 20 dc 4c bd
       -0.022812158 -0.058079675 0.00091994554 -0.050014615
000140 d4 4b d8 bc c8 5e 10 bd 9a 76 1b bd 00 b1 9c bb
       -0.026403345 -0.03524664 -0.037954904 -0.004781842
000150 2a 01 5b bd 20 12 2b bd d0 93 7e 3c cc 19 8f 3c
       -0.053467907 -0.041765332 0.015538171 0.017468356
000160 d0 94 73 3d 30 4c ec bc 04 87 33 bd 4c 71 60 bd
       0.05946809 -0.028844923 -0.043829933 -0.05479555
000170 28 9a af bc e0 b7 a9 3c 1a 2c 41 3d 10 ab 6c 3d
       -0.021435812 0.020717561 0.0471612 0.057780325
000180 f0 84 c7 bb 1a 0e 7c 3d c0 8e 2e 3c c2 92 50 3d
       -0.0060888454 0.061536886 0.010654151 0.05092121
000190 b0 94 a2 3c c0 1c 22 bd f0 10 ac bc 62 12 2c 3d
       0.01984629 -0.0395782 -0.02100417 0.04200972
0001a0 e0 1a a5 bc 20 d1 60 3c b8 16 4e 3c 34 35 39 bd
       -0.020154417 0.013721734 0.012578659 -0.045216754
0001b0 9c 39 5e 3d 20 e7 21 3b 52 05 12 3d d0 5c a4 3b
       0.05425416 0.0024704412 0.035649605 0.005015947
0001c0 d0 0f 4f 3d cc af dc 3c 74 4a fa bc 88 41 c4 bc
       0.05055219 0.026939295 -0.03055308 -0.023957029
0001d0 c0 81 81 3a a8 57 07 bd f0 44 e0 bc 38 67 07 bc
       0.0009880587 -0.03304258 -0.027376622 -0.008264355
0001e0 2c 93 2d bd c2 22 7c bd 4e 86 25 3d 28 91 7a bd
       -0.042376682 -0.061556585 0.040411286 -0.061173588
0001f0 e2 d3 32 bd c6 47 7b bd 0c 3d b4 3c a8 8f 4a bd
       -0.0436591 -0.061347745 0.022001766 -0.049453408
000200 14 3f 07 3d 84 69 6c bd a2 85 62 bd 38 35 c7 bc
       0.03301914 -0.057717815 -0.055303223 -0.024317369
000210 5a 49 57 bd 72 09 38 3d 40 d1 60 3b 90 a8 dc bb
       -0.052560188 0.044930883 0.003430441 -0.0067339614
000220 40 07 f5 bb e0 9c d8 3c 8c b6 a1 bc e0 f7 41 bb
       -0.007477671 0.026441991 -0.019740365 -0.0029597208
000230 1c d6 4a 3d 54 15 19 bd d8 e4 b8 3c 70 3a d8 bb
       0.049520597 -0.037373856 0.022570059 -0.006598763
000240 80 4d af ba c0 9c 52 3b 3a 19 74 bd cc 40 d9 bc
       -0.0013374537 0.0032136887 -0.05959437 -0.026520155
000250 14 7b 30 bd 60 5a e3 bb e8 02 1f 3d fa f5 5b 3d
       -0.043086126 -0.006938264 0.03882113 0.05370138
000260 2e 5b 1d bd 4c 41 7e bd 80 13 a8 bb 40 69 50 bb
       -0.038417034 -0.06207399 -0.0051292777 -0.0031801015
000270 94 4e 9a 3c 26 e1 44 bd 4a d6 0a 3d 44 f3 71 3d
       0.018836297 -0.04806628 0.03389577 0.059069887
000280 26 f3 6f 3d 98 dd 8b 3c 48 32 01 bd 44 4f d4 3c
       0.058581494 0.017073438 -0.031542093 0.025916703
000290 48 33 6e bd 36 8f 04 3d a4 62 1a bd e8 41 68 3d
       -0.058154374 0.03236314 -0.037691727 0.056703478
0002a0 94 5e 4d bd a0 58 b2 bc 58 b5 be 3c a8 16 0d 3d
       -0.050139025 -0.021770775 0.02327983 0.034445435
0002b0 f4 6d 5c 3d 16 7c 18 3d 14 42 af bc 08 94 4f bd
       0.053815797 0.037227713 -0.021393813 -0.050678283
0002c0 be 8f 59 bd e4 99 e7 3c 6c 38 07 3d 00 1b 2a 3d
       -0.0531156 0.028271623 0.033012792 0.041529655
0002d0 c8 00 1b 3c fe ac 0e 3d 14 87 ea 3c ea 42 5d 3d
       0.0094606355 0.034832947 0.028628863 0.054018892
0002e0 d8 04 7c bd 04 ac 56 3d a0 2d f8 bb 08 2c 77 bc
       -0.061528057 0.05241014 -0.0075737983 -0.015086181
0002f0 74 fe a9 3c f8 0e ed 3c e0 e0 ab bc f6 f6 63 bd
       0.020751216 0.028937802 -0.020981252 -0.055655442
000300 90 a6 1c 3c 64 df e3 bc 80 90 22 bc e8 0a 25 3c
       0.009561196 -0.027816482 -0.009922147 0.010073401
000310 08 e0 00 bc 30 4d a9 3b 70 63 82 bc 60 64 6c bc
       -0.007865913 0.005166672 -0.015916556 -0.014428228
000320 98 24 2d bc 9a b0 20 bd 90 2c 10 3d d0 4f f5 3c
       -0.010567807 -0.03923092 0.035198748 0.029945284
000330 4e 9f 59 bd 18 cf f4 bc 3c 5f 50 bd 60 8b 09 3b
       -0.05313044 -0.029883906 -0.050872073 0.0020987615
000340 20 e6 3b bd 80 b1 04 bb 74 e3 c1 3c 62 cc 20 3d
       -0.04587376 -0.00202474 0.023668028 0.039257415
000350 7e 26 13 3d d8 20 d6 bc 90 d2 58 3c cc 18 bb bc
       0.03592538 -0.026138708 0.013233796 -0.022838973
000360 1c 77 b2 bc 9c f8 ca bc f0 79 5e bd 70 15 73 3c
       -0.021785311 -0.02477675 -0.054315507 0.014836654
000370 ec 1b c7 bc d8 95 be 3c ec d4 e3 3c 74 b4 96 3c
       -0.024305306 0.02326481 0.02781149 0.018396594
000380 da fc 22 3d 80 12 eb bb 30 2c 3b bc 00 56 2d 3a
       0.03979192 -0.007173836 -0.011424109 0.0006612241
000390 2c 19 45 3d 12 d4 60 3d 80 c9 ac bc 52 5f 74 bd
       0.04811971 0.054889746 -0.021092176 -0.059661217
0003a0 7c 72 31 3d ec 68 5e bd b0 66 a2 bc 40 a8 05 bc
       0.04332207 -0.05429928 -0.019824356 -0.00815779
0003b0 fc 13 97 bc ac f2 49 bd 76 e2 21 3d 40 6f 77 3b
       -0.018442146 -0.049303696 0.03952261 0.003775552
0003c0 20 e2 c4 bb dc c2 06 3d 9e c9 33 3d 04 62 0c bd
       -0.0060084015 0.032900676 0.04389345 -0.034273162
0003d0 38 3a 6c bc 6c 3a bb 3c f4 82 f8 3c 16 d7 17 3d
       -0.014418177 0.022855006 0.03033588 0.037070356
0003e0 00 58 fd b8 ac 3f 38 3d 70 e2 85 bb e6 51 27 3d
       -0.000120803714 0.044982597 -0.0040858313 0.04084959
0003f0 44 7c c2 3c 76 c2 1e 3d 00 80 e1 3c 2c c6 a8 3c
       0.023740895 0.03875967 0.027526855 0.020602308

fc3.weight f4 [1, 256]
000000 f0 19 fa 3b ce aa 45 3d f8 1e b4 bc c8 1d 06 bd
       0.0076324865 0.048258595 -0.021987423 -0.032743245
000010 f6 c2 32 bd f0 21 ee 3c d2 49 63 bd b6 a1 0d bd
       -0.04364296 0.029068917 -0.055490322 -0.034578048
000020 16 14 36 bd f0 06 96 bc f8 b9 f4 bc 7a 4d 6d 3d
       -0.04445275 -0.018313855 -0.029873833 0.057935216
000030 98 d7 26 3c 34 4d 62 3d 40 67 de 3b 1c ef 98 3c
       0.0101832375 0.055249408 0.0067872107 0.018668704
000040 64 1d e0 bc e0 16 7c bb 60 87 1c bb 3e 6f 34 3d
       -0.027357765 -0.0038465783 -0.00238844 0.0440514
000050 a6 14 0e bd 36 f5 35 3d 90 0b c3 bc 50 16 f4 bc
       -0.03468766 0.044423304 -0.023809224 -0.029795796
000060 3a 3f 4b 3d de 1b 53 bd 12 ba 0a bd f0 00 da 3b
       0.049620844 -0.051540248 -0.033868857 0.006652944
000070 e0 95 69 3d f8 75 76 3d 80 4c 3c 3c 2e 30 75 3d
       0.057027698 0.060171098 0.011492848 0.0598604
000080 60 ac 74 bd f0 0c 21 3d 80 40 79 3b fe 28 40 bd
       -0.059734702 0.03931898 0.003803283 -0.046914093
000090 4c 20 4a 3d 6c 3e 3b bd d0 9d 6c bc 80 b6 a7 ba
       0.049347207 -0.045713827 -0.014441922 -0.0012795478
0000a0 80 34 e2 3c 14 8d c7 3c 48 15 ea bc 78 2b 70 bc
       0.027612925 0.024359263 -0.0285746 -0.014658801
0000b0 64 a8 a6 3c fc d7 d2 3c 68 49 5b 3d 90 90 0b bc
       0.020343967 0.025737755 0.053536803 -0.008518353
0000c0 80 67 43 bb fc c1 f8 3c 84 17 45 3d 34 ac 53 bd
       -0.002981633 0.030365936 0.04811813 -0.051677898
0000d0 18 c6 f6 bc f8 f5 37 3d 56 b1 03 bd 0a db 52 bd
       -0.030123755 0.04491231 -0.032151543 -0.051478423
0000e0 80 14 da 3c 88 14 51 bc 20 48 3d bd d0 bb 2f bd
       0.026621103 -0.012761243 -0.046211362 -0.04290372
0000f0 38 b0 f4 bc 00 70 6f 38 dc 9a 50 3d b4 ba e1 3c
       -0.029869184 5.708635e-05 0.050928935 0.027554847
000100 cc 5c 49 3d 90 e1 67 3d 98 55 e2 3c fe 3a 06 3d
       0.049160764 0.056611598 0.027628705 0.032771103
000110 ac 77 cc bc b4 45 e5 3c 60 f0 02 bc 5c 3d 3a bd
       -0.024959408 0.027987339 -0.00799188 -0.045468673
000120 f8 c7 8d bc 64 f1 79 3d 60 05 ad bc 80 a2 3d bc
       -0.017307267 0.061021224 -0.021120727 -0.011574388
000130 00 02 9c bb 6c f5 3e bd 16 ef 42 bd 18 f3 a5 bc
       -0.0047609806 -0.04662077 -0.04759129 -0.020257518
000140 62 85 6b bd 88 6a 56 bd 40 0e 3d bd 36 1e 3c bd
       -0.05750025 -0.05234769 -0.046156168 -0.04592725
000150 40 24 2d bd 26 9d 29 bd 24 49 35 3d 6e 63 5a bd
       -0.0422709 -0.041409634 0.044259205 -0.05331748
000160 d4 62 59 bd ec a7 1e 3d 4e db 59 3d fa de 60 bd
       -0.053072765 0.03873436 0.05318766 -0.054900147
000170 72 9b 3c 3d 30 ef 0d 3d dc 45 f0 3c c0 e3 be ba
       0.04604668 0.034651935 0.029330187 -0.0014563724
000180 e0 81 59 3b be 5f 57 bd 92 4c 6c bd ce 3d 27 3d
       0.0033188984 -0.05258154 -0.05769021 0.040830426
000190 a8 63 7f 3c 00 ff 9d 39 98 26 85 bc 90 ef c4 3b
       0.015587725 0.00030135363 -0.016253754 0.0060100034
0001a0 f8 be 24 bc 90 34 ed 3b da 65 62 3d 22 a8 03 bd
       -0.010055296 0.007238932 0.055272914 -0.032142766
0001b0 1a 32 39 bd 7e 0c 4a 3d 6c 40 83 3c a0 ca b0 bb
       -0.045213796 0.04932832 0.01602193 -0.0053952485
0001c0 f6 68 25 bd 14 6c 6f 3d 16 c6 0b bd 40 ee a8 ba
       -0.0403833 0.05845268 -0.034124456 -0.0012888387
0001d0 86 99 66 bd 28 3f 50 bc 1c 2f b1 3c 5c cb 66 3d
       -0.056298755 -0.01271037 0.021628909 0.056346282
0001e0 7a 71 57 bd 80 95 1a 3d 66 98 4e bd 64 f3 3a 3d
       -0.052598454 0.03774023 -0.050438307 0.04564227
0001f0 a0 ba 51 3d 90 10 9b 3c e8 c5 a0 3c ac 5f ec 3c
       0.05120337 0.018928796 0.019625619 0.028854214
000200 68 9a eb 3c e0 c3 45 bd 18 17 fe bc f0 fd f9 3b
       0.02876015 -0.048282504 -0.031016871 0.0076291487
000210 70 f6 3d bd 82 01 3f 3d a0 be 95 3b 48 61 a1 3c
       -0.0463776 0.046632297 0.0045698434 0.019699708
000220 30 9f 3f bc 06 2e 72 3d 78 61 64 bd 32 6d 73 bd
       -0.011695668 0.059125923 -0.055757016 -0.05943031
000230 3c f7 cf bc f2 27 41 bd 68 60 ec bc 90 2c fc bb
       -0.025386445 -0.047157235 -0.028854564 -0.007695742
000240 b2 38 6a bd 90 29 f6 3b 68 02 3d bc b4 72 ef 3c
       -0.057182975 0.007512279 -0.011536218 0.0292295
000250 4c fe 8c bc b6 cb 0c bd c0 7e 56 bb d4 0a cc 3c
       -0.017211102 -0.03437396 -0.0032729357 0.024907507
000260 82 2d 47 3d 8c 35 ef bc 5c 2c d4 bc 78 ef 4b bc
       0.048627384 -0.029200338 -0.025900058 -0.0124472305
000270 3a 50 13 3d 60 03 15 3d a0 da 8a bb 0e a8 0c 3d
       0.035965182 0.03638017 -0.004237488 0.034339957
000280 88 19 7b 3d 10 3d a7 3b e4 b8 94 3c 14 fc f9 3c
       0.061303645 0.0051037148 0.018154569 0.030515708
000290 8e b5 7f 3d 08 be 3f bd 40 f2 16 bd e0 c7 df bb
       0.062429003 -0.046812087 -0.03685212 -0.006829247
0002a0 34 dc 19 3d d0 be 88 3b c8 12 5c bc 90 4c ee 3b
       0.037563518 0.0041731372 -0.013432212 0.0072723106
0002b0 58 fb 32 3c 20 61 a6 bb 8c 40 02 bd a0 98 61 bc
       0.010924183 -0.005077496 -0.031799838 -0.013769299
0002c0 32 29 23 bd 9e ad 63 3d dc c1 76 bd 4a 5e 43 bd
       -0.03983421 0.055585496 -0.060243472 -0.047697343
0002d0 b4 fc 8f 3c c0 c7 e1 3c 08 95 71 3c 8c fe d4 bc
       0.017576553 0.027561069 0.0147450045 -0.026000284
0002e0 e2 ae 7a bd 00 c0 00 38 d6 0c 4a bd 00 58 ed b9
       -0.061201937 3.0696392e-05 -0.049328648 -0.00045269728
0002f0 d0 9a 1f bd ac 73 ba 3c 4c ae ed 3c 3c fa db 3c
       -0.038966 0.022760235 0.029013775 0.02685272
000300 ae 45 52 3d f6 04 35 3d 42 94 29 bd 74 31 b5 bc
       0.051335983 0.044194184 -0.041401155 -0.022118308
000310 20 bc 89 bb a0 af a3 3b f2 0d 28 bd a6 20 7a bd
       -0.0042033345 0.0049953014 -0.041028924 -0.061066292
000320 6a 5a 3c 3d c8 3f 5f bd 10 20 02 bd ac c4 1e 3d
       0.045984663 -0.054504186 -0.03176886 0.03876178
000330 88 62 5e bd e0 77 c2 bc b2 ed 6e 3d 68 88 d3 3c
       -0.054293185 -0.023738801 0.058332153 0.02582188
000340 d8 7b 11 bc 20 aa b4 bb a6 9c 19 3d c0 cc 2e 3d
       -0.008879624 -0.0055134445 0.037502907 0.042675734
000350 58 c7 25 3c d8 a5 50 bc fc 33 41 3d 44 50 d6 bc
       0.010118328 -0.012734853 0.047168717 -0.02616132
000360 30 07 09 3d c8 0e cb bc 6a 84 5e bd c8 8b 04 bd
       0.03345412 -0.024787322 -0.0543255 -0.03235987
000370 98 8e 1f 3d 94 0b c1 bc 82 17 0d bd 08 2a 13 3d
       0.038954347 -0.023565091 -0.034446247 0.035928756
000380 40 f4 7f bb 80 78 56 3b 40 e7 24 3b f0 1e 62 bc
       -0.0039055496 0.0032725632 0.002516225 -0.013801321
000390 b8 bc 86 bc a8 e4 14 3d da 76 19 bd 6c a2 b7 3c
       -0.01644741 0.036350876 -0.03746686 0.022416316
0003a0 aa a2 64 3d b0 ad f4 bb 80 68 f2 bb a0 bf b7 3b
       0.05581919 -0.007466994 -0.0073977113 0.0056075603
0003b0 52 60 75 bd f4 f3 40 bd b2 01 44 3d c0 76 e3 ba
       -0.05990631 -0.04710765 0.04785318 -0.0017354116
0003c0 80 01 94 bc b8 9b 70 bd 34 cf 02 3d 96 a3 46 3d
       -0.018067122 -0.058742255 0.031935886 0.04849585
0003d0 0e b5 1d bd 80 22 38 bb a8 84 62 3d 1c 25 35 3d
       -0.038502745 -0.0028096735 0.055302292 0.044224843
0003e0 a0 75 26 3c 08 f8 37 3c 16 3f 48 bd 00 1a 1a bb
       0.01015988 0.011228569 -0.04888829 -0.0023514032
0003f0 90 d8 fc 3c 14 39 d7 bc 60 3b da 3b 94 5e 27 3d
       0.030864984 -0.026272334 0.00665991 0.04086168
