output_lxl/MASAC/weight/critic1_agent_4_ep_9700.pth (torch, 286504 bytes, 5 tensors)

fc1.weight f4 [256, 18]
000000 71 ac 5b 3e 4a 06 c8 3d 96 2c a0 3d 30 0f 39 bc
       0.214525 0.097668245 0.07821004 -0.011295125
000010 b9 1c 06 be 84 b1 1d be d1 54 5d 3e 0e 74 fb bd
       -0.13096894 -0.15399748 0.21614386 -0.12277995
000020 f2 49 89 bd b0 2d e2 bd 5a 24 dc bd 9b 85 56 3e
       -0.06703557 -0.110438704 -0.10749121 0.20949404
000030 5e 68 90 3d 39 40 5f be 59 8e 60 3e b0 27 32 3c
       0.070511565 -0.21801843 0.21929301 0.01087372
000040 9a a3 59 be 32 4a dc bd aa 37 96 bd 0e 35 cd bd
       -0.21253815 -0.10756339 -0.07334836 -0.10019885
000050 34 72 33 3d ad 93 4d 3e 01 6f 0e 3e 9b 34 58 3e
       0.043810084 0.20075865 0.13909532 0.21113817
000060 04 9d 2b be 0e 91 9a 3d 9c 20 50 3d e5 9d 6e 3e
       -0.16759115 0.07547198 0.05081235 0.2330242
000070 1d 86 61 3e db 81 5e be 5a bb 4d be 6f b2 49 be
       0.22023816 -0.21729223 -0.20091 -0.19696973
000080 fa bc 87 bd e7 d6 4e be 5a f6 a5 3d 88 74 48 bd
       -0.06627841 -0.20199166 0.081036285 -0.048939258
000090 25 e6 5f 3e 44 9c 5b 3d 94 18 31 3d 19 6d 28 3e
       0.21865137 0.053615823 0.04323633 0.16447867
0000a0 00 36 e4 ba 33 f2 65 be ac 17 3a 3d c0 de 79 bc
       -0.0017411113 -0.22455673 0.04543273 -0.015250862
0000b0 28 78 ad 3c 88 75 96 3c b8 8d 0d bd d6 6d 4d be
       0.021175459 0.01836659 -0.03455898 -0.2006143
0000c0 1d d1 42 3e 93 e8 2c 3e f3 ee 4e 3e 8c 4f c9 bd
       0.19025083 0.16885595 0.2020834 -0.098296255
0000d0 11 96 0d 3e 0d c4 09 3e 47 e0 29 3e ac 74 c4 bd
       0.13826777 0.13453694 0.16589461 -0.09592566
0000e0 48 d2 98 bc b4 fa 19 3d 09 05 04 3e 24 0b 06 3d
       -0.018654957 0.037592605 0.12892546 0.03272547
0000f0 8d ad 33 3e e3 18 36 3e b0 72 a3 bc 35 eb 4b 3e
       0.17546673 0.17782931 -0.019952148 0.19913943
000100 49 76 56 3e ea 36 ce bd 1f 35 01 3e 78 26 ab bc
       0.2094356 -0.10069068 0.1261792 -0.020892367
000110 f5 b0 36 be d0 b2 28 bc c7 61 61 be a0 38 61 be
       -0.17840941 -0.0102965385 -0.22009955 -0.21994257
000120 60 e4 20 bc c2 7f 20 be cf c2 5b 3e 1e 4c 96 3d
       -0.009820074 -0.15673736 0.21461032 0.07338737
000130 d0 2b 46 be 89 15 28 3e 7d 56 45 3e 9c 66 3b bd
       -0.1935265 0.16414465 0.19271274 -0.045752153
000140 56 c2 9f 3d 15 46 30 3e 5d e4 07 3e e4 fa 2c 3d
       0.078007385 0.17214234 0.13270707 0.042231455
000150 42 1c 87 3d 5e 92 11 be c6 80 84 3d 60 48 39 bc
       0.065971866 -0.14215991 0.06469874 -0.011308759
000160 e3 94 41 be ed b7 19 3e 86 50 92 bd 9e a7 a8 bd
       -0.18904452 0.15011568 -0.07144265 -0.082350954
000170 b9 f1 47 be 84 3d 79 bd fb c9 39 3e 08 df 96 3c
       -0.19525804 -0.06084968 0.18143456 0.018416896
000180 d3 c9 34 3e a0 5f 3e bd 0c c2 3a bd b4 39 6a 3d
       0.17655115 -0.046477914 -0.045595214 0.057183936
000190 c6 f0 37 be cb 6d 52 3e 56 32 37 be 3b 1b 07 be
       -0.17962942 0.20549695 -0.17890295 -0.13193981
0001a0 ee 17 bd 3d 95 9a 5c 3e 66 0e d7 3d 22 42 94 bd
       0.0923308 0.21543343 0.10500793 -0.07239176
0001b0 e8 8e 7e bd 30 ac 1f 3c 04 04 36 be 78 64 92 bd
       -0.062148005 0.009745643 -0.1777497 -0.07148069
0001c0 fb 0d fa bd b0 c2 17 be 80 8f e6 bd e0 bd d3 bd
       -0.12209698 -0.14820361 -0.11257839 -0.1033895
0001d0 ce 25 a3 3d 08 ff 5f be e3 d6 57 3e 78 51 d9 bd
       0.07966195 -0.2187463 0.21078067 -0.10611242
0001e0 23 70 53 3e 7e 29 e6 3d 82 83 93 bd ec f5 07 be
       0.20648246 0.11238383 -0.072028175 -0.13277406
0001f0 6b f4 6e 3e bf 1d 53 3e a2 da ab 3d f1 b0 5f 3e
       0.23335426 0.20616816 0.0839131 0.21844842
000200 54 d4 61 3d a4 28 3d be 3c a7 1b bd f4 c7 15 3d
       0.055134133 -0.18472534 -0.038001284 0.036567643
000210 cc a7 77 3d a4 d5 09 3d 9d c3 0e 3e 32 9b f0 3d
       0.060462758 0.03365101 0.13941808 0.11748351
000220 32 c7 96 3d 4e e0 1b be c9 4e 1f 3e 50 7c 0b bc
       0.07362212 -0.15222284 0.15557398 -0.008513525
000230 7e 87 f5 3d 08 31 b9 bd 59 0e 60 3e 52 ac d7 3d
       0.11988734 -0.09042555 0.21880473 0.10530914
000240 7c b1 28 bd 22 01 93 3d 00 61 65 3c b8 6e a8 3c
       -0.041184887 0.071779504 0.014000177 0.020560607
000250 d3 91 5d 3e 05 c6 08 3e c8 e9 16 be b9 e0 01 3e
       0.21637659 0.13356788 -0.14737618 0.12683381
000260 70 b8 3b be ba 30 ad 3d 0e 2f da bd bd ee 28 3e
       -0.18332076 0.084565595 -0.10653506 0.16497321
000270 d6 ec 68 be 34 c8 26 3d a5 0c 0d 3e b1 32 0f 3e
       -0.22746596 0.040718272 0.13774355 0.13984181
000280 3b cd 09 3e 87 3c 66 3e 55 8b 58 be bc af b8 bd
       0.13457195 0.22484027 -0.21146901 -0.09017894
000290 db 24 61 be 22 10 b8 3d ab f5 5b be ef 70 13 be
       -0.21986715 0.08987452 -0.21480434 -0.1439855
0002a0 fc b5 43 be f6 b1 a4 bd d9 7b 14 3e 7f 01 66 be
       -0.1911239 -0.08041756 0.14500369 -0.22461508
0002b0 55 86 6a be 7f 30 38 3e 80 7a c0 3b 3e e1 b6 bd
       -0.22902806 0.1798725 0.005873978 -0.0892968
0002c0 ee 6a 89 3d d4 54 7a 3d 1a af c9 3d a4 77 0a 3d
       0.06709848 0.061116055 0.09847851 0.033805504
0002d0 3e 52 10 be 6e de e9 3d 67 96 34 3e a9 ad 45 3e
       -0.14093873 0.11419378 0.17635499 0.19304527
0002e0 2f 65 62 be 9c e3 3d 3d c8 60 d6 bc 5c df 17 be
       -0.22108911 0.046359643 -0.026169196 -0.14831299
0002f0 24 82 21 3d 65 1a 39 3e 3b ce 57 3e a9 da 34 3e
       0.039430752 0.18076475 0.21074764 0.17661537
000300 b8 cf c3 3c db d4 28 3e 4b d6 05 be 26 7c 03 be
       0.023902759 0.16487448 -0.13070028 -0.12840328
000310 86 91 b7 bd de a3 b9 bd e8 52 53 bd 32 4c cc bd
       -0.08963303 -0.09064458 -0.051592737 -0.099754706
000320 b8 92 ca 3c 3a 10 fc 3d ac 51 1a be dd 16 55 3e
       0.024728164 0.123077825 -0.15070218 0.20809503
000330 1c c5 4e be 28 eb ff 3c 8a da f9 3d ac 0d 4f bd
       -0.20192379 0.03124006 0.12199886 -0.050550148
000340 50 af 74 bd c0 6f 12 be dc 5e a8 bd c0 de 3a bc
       -0.059737504 -0.14300442 -0.08221218 -0.011405647
000350 66 de ca bd 36 38 af 3d e2 ca c9 3d 85 ca 69 3e
       -0.099057004 0.08555643 0.0985315 0.22831161
000360 a0 5f 85 bd aa b2 9f bd 79 a0 4d 3e e3 f5 18 3e
       -0.0651238 -0.07797749 0.20080747 0.14937548
000370 0d 5b 6a be 1e d2 aa bd cc 11 62 bd c4 2b 38 bd
       -0.22886296 -0.08340858 -0.055192754 -0.044963613
000380 14 b5 d7 bd 63 46 24 3e 36 dd af 3d d8 13 c7 3c
       -0.10532585 0.16042475 0.085871145 0.024301454
000390 ad ab 40 3e 53 4c 56 3e 5c 2c 09 3d 6b 87 12 be
       0.18815489 0.20927553 0.03348957 -0.1430947
0003a0 35 f1 48 3e 90 5d 1f bc 92 e4 41 be d0 d3 6b bc
       0.19623263 -0.009726897 -0.18934849 -0.014393762
0003b0 6c 4e 75 3d 00 b6 b2 3b 41 b5 5d 3e ee b4 06 be
       0.059889242 0.005453825 0.21651174 -0.13154957
0003c0 b0 86 61 bc 93 30 f6 bd e8 0d c9 bd b4 07 68 3d
       -0.013765022 -0.120209835 -0.098171055 0.05664797
0003d0 47 f4 30 3e a0 9e 1e be 42 ae c5 3d 68 f9 f9 3c
       0.17280684 -0.15490198 0.09652378 0.030514434
0003e0 40 75 42 3b 4b 4b 5f 3e 98 ab 43 bd be 4a ba bd
       0.0029671937 0.21806066 -0.047771066 -0.09096287
0003f0 e0 73 e3 bb e9 6b 0d 3e f3 bf 69 be 39 28 23 be
       -0.0069413036 0.13810696 -0.22827129 -0.15933312

fc1.bias f4 [256]
000000 ac b8 5f be 7f 95 52 3e 78 16 94 bc 47 50 4b 3e
       -0.2184779 0.2056484 -0.01807712 0.19854842
000010 da 45 d9 3d 00 3a 93 39 38 14 ac 3c d8 40 b2 3c
       0.10609026 0.00028081238 0.021005735 0.021759436
000020 6f e5 6c 3e b5 38 61 be 3b 11 27 3e 5c 4d 1c be
       0.23134397 -0.21994288 0.16315167 -0.15263885
000030 24 fc 71 3d 1e a7 e0 3d c0 c4 c1 3b 15 a3 66 3e
       0.05907835 0.10969375 0.005913347 0.22523148
000040 60 84 ea 3b 86 23 8d bd 36 d0 de bd ce 59 dc 3d
       0.0071568936 -0.06891541 -0.10879557 0.107593164
000050 10 20 4a be fe c9 df 3d 72 56 f4 bd f2 d8 90 3d
       -0.19738793 0.10927199 -0.11930551 0.07072629
000060 60 b3 d7 bc 28 92 70 be 00 6f 0f 3a 2c 24 03 3d
       -0.02633065 -0.23493254 0.00054715574 0.032016918
000070 8a 72 e0 3d 00 4f 55 be c7 35 1d be 84 d0 d4 bd
       0.109593466 -0.20830917 -0.15352546 -0.10391334
000080 b3 7c 3a 3e e8 e4 d6 bd 8d 37 70 3e d3 d6 21 3e
       0.18211631 -0.10492879 0.23458691 0.15804605
000090 db b5 4f 3e b8 2a 5e bd 3c fa 35 bd b4 a7 c9 bd
       0.20284216 -0.05423996 -0.044428095 -0.0984644
0000a0 2c 3f 05 3d 48 49 40 be 33 6f 16 3e 97 56 f2 bd
       0.03253095 -0.18777955 0.14690857 -0.11832922
0000b0 41 8b 29 3e 0d 0d 6c be 40 7f a6 3b 93 d3 27 3e
       0.16557027 -0.23051853 0.0050810874 0.16389303
0000c0 66 2c f1 3d 85 90 37 3e 23 df 18 3e 1d 02 50 be
       0.117760465 0.17926224 0.1492887 -0.20313306
0000d0 8c 66 09 3d d1 03 01 be 81 9d 67 be 2d 64 5c 3e
       0.033545062 -0.12599112 -0.22618677 0.21522589
0000e0 54 5f 2c 3d 79 b3 49 3e 68 68 9e 3c 20 b3 81 bd
       0.0420831 0.1969737 0.019336894 -0.063329935
0000f0 e7 6e 14 3e b3 54 0e 3e ad 52 16 3e f5 6c 6e be
       0.14495431 0.13899498 0.14679976 -0.23283751
000100 20 90 dc 3b ec ab 37 bd 7e 76 01 be 44 99 5f 3d
       0.006731048 -0.04484169 -0.12642857 0.054589525
000110 3e fd 82 3d 08 3d f1 3c b1 9e 3e 3e ac d7 74 3d
       0.06395958 0.029448047 0.18615223 0.059775993
000120 0a 9c f3 3d a6 05 c4 3d ac 76 50 3d c6 ec 96 bd
       0.118949965 0.0957139 0.050894424 -0.0736938
000130 9a 52 c3 3d a9 a5 03 3e f3 b7 2f 3e 18 c6 23 be
       0.095372394 0.12856163 0.17160015 -0.15993536
000140 2a f8 a5 bd 79 8c 70 be 1d 39 fb bd 7b 3f 69 3e
       -0.08103974 -0.23491086 -0.12266753 0.22778122
000150 80 df 20 be 3c 88 0a 3d a4 d9 5b 3d 22 e9 b7 3d
       -0.15710258 0.03382133 0.053674355 0.089800134
000160 be 0c bc 3d 10 c1 47 be ef 72 43 3e 9d 5b 47 3e
       0.09182118 -0.19507241 0.19086812 0.19468541
000170 83 72 52 be 0a 81 a4 bd ee e8 5d be 07 07 56 3e
       -0.20551495 -0.08032425 -0.21670887 0.20901118
000180 35 cd 4a 3e 32 db 1f be 71 9b 2e 3e 10 ca ca bc
       0.19804843 -0.1561096 0.17051484 -0.024754554
000190 b4 f7 4d 3d 51 13 71 3e cf cd f8 bd 67 93 08 be
       0.050285056 0.23542525 -0.1214863 -0.1333748
0001a0 c0 36 aa bd a1 29 6c 3e f8 f7 dd 3c f3 47 5c be
       -0.08311224 0.23062755 0.02709578 -0.21511821
0001b0 14 f6 11 be b6 8b 84 3d ae 42 4f be 30 cd 53 bc
       -0.14254028 0.0647196 -0.2024028 -0.0129273385
0001c0 f1 ae 4b 3e aa b5 ab bd f6 08 9c 3d ac ab 68 3d
       0.19890954 -0.08384259 0.07618897 0.056804344
0001d0 dd 0f 51 3e 21 65 39 3e 00 bb fd bc eb 22 61 be
       0.20416208 0.18104984 -0.030972958 -0.21985976
0001e0 86 c5 bb 3d 2e 12 d4 3d 0c fd 14 be fc 71 2a 3d
       0.09168534 0.1035503 -0.14549655 0.04161261
0001f0 00 81 a3 3b 5a 6a b8 3d ec d6 26 3d ea a9 8c bd
       0.004989743 0.0900466 0.04073231 -0.06868346
000200 3b 6a 52 be 4e 1d d9 bd cb 0e 6b 3e fa f9 16 be
       -0.20548336 -0.106012926 0.22954862 -0.14743796
000210 a7 bd 46 3e 2f 80 42 be 71 55 46 be 18 3e 13 be
       0.19408284 -0.1899421 -0.19368531 -0.14379156
000220 a2 85 31 be 56 2e 07 be 64 32 8e bd 22 cb b8 3d
       -0.17336133 -0.1320127 -0.06943205 0.090231195
000230 88 09 f0 bc bc ba 43 3d ff 4b 2d 3e 48 0d 35 be
       -0.02930142 0.047785506 0.16923521 -0.17680848
000240 2a 03 81 bd 94 6f 66 3d 6e 0d cd bd 7a b9 90 bd
       -0.062994316 0.056258753 -0.10012327 -0.07066627
000250 5a f6 c1 bd 20 27 4e 3c 1f 54 2e 3e dc b7 1f bd
       -0.09470816 0.01258257 0.17024277 -0.0389937
000260 03 d1 3c 3e d7 f3 58 3e 4d 99 51 3e 0c 9a 7e 3d
       0.18439107 0.21186768 0.20468636 0.06215863
000270 c4 9d be bd 4c b8 08 be 9a ae 9a bd e0 8e d0 bd
       -0.09307435 -0.13351554 -0.07552834 -0.10183501
000280 e7 32 05 3e dc e6 2c be 10 56 a0 bd ca 0d e3 3d
       0.13007699 -0.16884941 -0.07828915 0.110866144
000290 9c 4e 41 bd e0 e3 2b bd 96 c8 d9 bd 79 bb 08 be
       -0.04719411 -0.041965365 -0.10633962 -0.13352765
0002a0 49 76 e8 bd 2a ca e4 3d 08 e5 c0 3c 18 1f ae 3c
       -0.11350686 0.11171372 0.02354671 0.021255061
0002b0 88 24 91 bc e9 dc 4a 3e ae 1a be bd 74 48 53 bd
       -0.017717615 0.19810833 -0.092824325 -0.05158277
0002c0 74 6f 08 be 59 43 20 3e 4a 0b b5 3d 00 85 62 3b
       -0.13323766 0.15650691 0.08840044 0.0034564137
0002d0 50 89 43 be 82 67 41 be 7d 0d 05 3e 2c a8 33 3d
       -0.1909535 -0.18887141 0.12993427 0.043861553
0002e0 73 66 5f 3e 50 48 c6 bd 42 93 df 3d 36 94 3b be
       0.21816425 -0.09681761 0.10916759 -0.18318257
0002f0 38 7f 35 bd 70 17 12 3c 54 c1 6a bd 86 9e f2 bd
       -0.04431078 0.008916721 -0.05731328 -0.11846642
000300 f9 ef 51 3e 4a 5d f7 3d 62 aa 45 be 09 08 19 be
       0.20501699 0.1207834 -0.19303277 -0.14944471
000310 60 27 74 bd f3 c0 5e 3e 0e ed 17 be 51 d6 36 3e
       -0.059607863 0.21753292 -0.14836523 0.17855193
000320 56 4c 99 3d 76 2b 87 bd be b7 a6 3d b7 be 02 be
       0.07485263 -0.066000864 0.08140515 -0.12768064
000330 c0 53 c4 bc 52 ea 60 be 41 e4 64 be f8 8e c6 bc
       -0.023965716 -0.21964386 -0.22352697 -0.024238095
000340 79 3a 01 3e 6a e3 d7 3d 38 bb 03 bd e8 2d c5 3c
       0.12619962 0.10541423 -0.032160968 0.024069741
000350 3a 59 a6 bd fc 6a e2 bd e5 6d 37 3e e6 9b 67 be
       -0.08122487 -0.11055562 0.17913015 -0.22618064
000360 92 74 d8 bd 72 1c b1 3d 75 d3 47 be d1 61 42 be
       -0.10569109 0.08648004 -0.19514258 -0.18982626
000370 1e f1 83 bd 42 24 02 be 2e 4a 50 be 26 79 2a be
       -0.06442474 -0.12709144 -0.20340797 -0.16647777
000380 c0 f1 ae 3b 72 1f 06 be d8 af 3a bd 00 ef 29 ba
       0.0053388774 -0.13097933 -0.045577854 -0.0006482452
000390 65 55 25 be 65 aa 04 3e 89 6a 09 3e 73 29 22 3e
       -0.16145857 0.12955625 0.13419546 0.15836124
0003a0 f3 18 60 be 1e 8b 13 be 4c 27 4d be 50 94 11 bc
       -0.21884517 -0.14408538 -0.20034522 -0.008885458
0003b0 59 9f 00 3e 0c 77 07 3d b2 67 46 be 02 31 0e be
       0.12560786 0.033072516 -0.19375494 -0.13885882
0003c0 ee 4a 0e be c0 8e a8 3b 82 7c 25 be 6b 7f 39 3e
       -0.13895771 0.0051439703 -0.16160777 0.18115012
0003d0 b6 7e c2 3d 6f bd 6f 3e ee 13 c6 3d a8 4b e6 3c
       0.094968244 0.23412107 0.0967177 0.028112248
0003e0 d0 6d 45 be 43 19 0f 3e 22 3a ff 3d 64 a6 67 bd
       -0.19280171 0.1397448 0.1246226 -0.056555167
0003f0 44 02 33 3d 8a 02 fc bd 78 09 1c bd 33 1c 56 3e
       0.043703333 -0.12305172 -0.038094968 0.20909195

fc2.weight f4 [256, 256]
000000 76 9b 66 3d 40 60 df bc e8 27 d2 bc 30 50 70 bd
       0.056300603 -0.027267575 -0.025653794 -0.058670223
000010 ae ad 1e 3d fe b2 10 bd f2 fe 3c 3d 94 fb 03 bd
       0.038739853 -0.03532695 0.046141572 -0.032222345
000020 cc 1b c2 bc 9a 5d 70 bd 00 05 73 3b bc 56 d3 bc
       -0.023694895 -0.058683015 0.0037081838 -0.025798194
000030 60 d8 3e 3b e0 66 db bb 00 6c 93 3b e6 e0 6b bd
       0.0029120669 -0.0066956133 0.0044989586 -0.057587527
000040 14 6f 0c 3d 90 cd 1f bd ac fc f1 3c 60 64 e0 3b
       0.03428562 -0.0390144 0.029539429 0.006847903
000050 d4 da 9c bc 9c 23 74 3d 54 f9 41 3d 7e 77 09 3d
       -0.019147314 0.059604272 0.04735692 0.033561222
000060 8c aa c7 3c d4 35 bd bc c6 ca 67 3d fe c1 5d bd
       0.024373315 -0.023096956 0.056589864 -0.054140083
000070 e8 3e 62 3c 96 a4 77 3d 18 c7 80 bc e8 3b 29 bc
       0.013808943 0.060459696 -0.015719935 -0.010329224
000080 78 b3 51 3d a4 3a e2 bc c8 74 0e 3d c4 53 1f bd
       0.051196545 -0.027615853 0.03477934 -0.038898245
000090 74 2e 04 3d 80 1a 11 3a c0 08 6d 3c 24 9c db bc
       0.032270864 0.000553526 0.014467418 -0.026807852
0000a0 00 e8 79 3b 74 a1 14 bd 94 5b a8 3c 74 11 da bc
       0.0038132668 -0.036286786 0.02055148 -0.02661965
0000b0 10 7b e2 bc 76 16 4f bd c8 cd ad 3c 64 c0 39 bd
       -0.027646571 -0.05055853 0.021216288 -0.045349494
0000c0 2c 54 66 3d b2 ad 2b 3d 48 85 21 bd 34 bc b0 3c
       0.056232616 0.041913696 -0.039433748 0.021574117
0000d0 94 a4 0c bd e0 11 b9 bc 70 f7 30 3c 40 12 8d ba
       -0.03433664 -0.022591531 0.010801181 -0.0010762885
0000e0 3a 52 58 3d ae 77 6a bd a8 c7 5d bd ea 14 70 3d
       0.052812792 -0.05724304 -0.054145485 0.058613695
0000f0 56 a5 3a bd 24 df 19 bd d0 af 42 bd 0c 6d 0c 3d
       -0.045567833 -0.03756632 -0.04753095 0.034283683
000100 b0 3f 62 3c a2 4e 79 bd ce d3 46 3d 72 13 73 3d
       0.01380913 -0.060866006 0.048541836 0.059344716
000110 16 b6 14 3d 58 3d 88 bc a0 7b e7 3b aa 9c 72 bd
       0.036306463 -0.016630813 0.007064298 -0.059231438
000120 b8 1a da bc d0 25 93 bb 68 f1 de bc 64 c8 4e bd
       -0.026624069 -0.0044905916 -0.02721472 -0.050484076
000130 30 d9 63 bd 28 38 30 bd 20 4a 0b 3b 18 a7 84 bc
       -0.055627048 -0.043022305 0.0021253899 -0.016192958
000140 48 10 34 bc 74 e0 7d bd 00 6b d7 3b 80 fa ab 3a
       -0.01099021 -0.061981633 0.0065740347 0.001312092
000150 6e 34 0c bd 58 c6 16 bd 9a b9 58 3d 08 7f 71 3c
       -0.03422969 -0.03681025 0.05291138 0.014739759
000160 4e f0 6a 3d 00 f3 2e bd e0 9f 05 3b cc 61 e3 3c
       0.05735808 -0.04271221 0.0020389482 0.027756594
000170 f0 5d e0 3c 08 4c 2c bc c8 e0 20 3d 06 c9 12 bd
       0.027388543 -0.010516174 0.039276868 -0.035836242
000180 8a 02 0a 3d 22 b1 12 3d 24 e5 ef bc a6 96 06 3d
       0.033693828 0.03581346 -0.029284067 0.032858513
000190 34 6f 7e bd 48 5a 30 3d 44 e5 8b 3c c0 72 52 bb
       -0.06211777 0.04305485 0.017077096 -0.0032111853
0001a0 4c 12 e3 3c 20 8d ab 3b 80 16 16 3c 70 b5 14 bd
       0.027718686 0.0052353293 0.009160638 -0.036305845
0001b0 04 5e da 3c 88 e4 6c 3c d8 f1 99 3c 18 b3 a8 bc
       0.026656158 0.014458783 0.018792078 -0.020593211
0001c0 f2 8d 1d 3d 22 ca 7a bd ec 60 15 3d fe e3 35 bd
       0.038465448 -0.061227925 0.036469385 -0.044406883
0001d0 e4 e6 8b 3c 84 61 7e bd 40 e0 bf bb d6 b1 6d 3d
       0.01707787 -0.062104717 -0.00585559 0.058030926
0001e0 c4 b0 df 3c 28 ef 50 bc 60 5d 35 bd a4 ac d3 bc
       0.027305968 -0.012752332 -0.044278502 -0.025839157
0001f0 8c 71 9c bc 40 e8 07 3d 2a aa 01 bd 50 b9 9a 3c
       -0.019097112 0.033180475 -0.03165642 0.018887192
000200 e0 40 60 3b 38 fc 13 bd e4 05 2d 3d dc 08 90 3c
       0.0034218356 -0.036129206 0.042241946 0.01758235
000210 c6 0f 7d 3d 5e f3 09 bd 04 3b 14 bd c6 ec 61 3d
       0.06178262 -0.03367936 -0.036189094 0.055157445
000220 a8 66 08 bc 00 5e 9a ba 6c 97 c2 bc 78 2a b9 3c
       -0.008325256 -0.0011777282 -0.023753844 0.022603258
000230 4e 54 6d bd 50 35 9c bb a0 45 07 bd f0 3c 48 3c
       -0.057941727 -0.0047670975 -0.033025384 0.01222156
000240 1a 33 2d bd 60 56 32 bd 38 74 21 bd 7c a9 7d 3d
       -0.042285062 -0.043539405 -0.039417475 0.06192921
000250 94 9b b6 bc 60 88 84 bc 16 91 67 bd e2 c2 07 bd
       -0.022290982 -0.01617831 -0.05653485 -0.03314484
000260 72 60 1d 3d 0c f0 fa bc 60 9c 31 bb 40 90 c8 ba
       0.038422056 -0.030632041 -0.0027101263 -0.0015301779
000270 58 a8 53 3d f0 92 53 bc 1c 22 a5 3c 28 b7 8d 3c
       0.051674217 -0.012913451 0.020157866 0.01729925
000280 80 60 d8 3a 1e 07 00 3d 66 95 24 3d d0 a1 3c bc
       0.0016508251 0.031256787 0.04018154 -0.0115131885
000290 24 c6 1a 3d ac 20 96 bc b0 3b 66 3d 2c fc 60 3d
       0.037786618 -0.018326126 0.056209266 0.05492799
0002a0 e0 d4 c1 bc 98 0f 7d 3c 52 a2 75 3d b0 fb 42 bc
       -0.023661077 0.015445612 0.059969254 -0.011900827
0002b0 88 4a 16 bd 60 4c b8 3b b0 3c d1 bc f0 fd 6e bc
       -0.036692172 0.005624339 -0.025541633 -0.014586911
0002c0 e6 e1 71 3d 8e dd 57 bd 68 9a cb 3c 26 dd 75 bd
       0.059053324 -0.052701525 0.0248539 -0.060025357
0002d0 60 6c 02 bc 48 3e 78 bd 54 86 97 bc fc aa de 3c
       -0.007960409 -0.06060627 -0.01849667 0.027181141
0002e0 e8 07 58 bc c0 4b 39 3c 60 17 ee 3b c8 6a b2 bc
       -0.013185479 0.011309564 0.00726597 -0.021779433
0002f0 90 99 b6 3c 5c 71 78 3d 50 c0 25 bd d8 b7 77 bd
       0.022290021 0.060654983 -0.040466607 -0.06047806
000300 28 35 30 bc c0 4f 82 3c f0 a3 d7 bb 80 57 cf 3a
       -0.010754861 0.015907168 -0.006580822 0.0015818924
000310 5c 70 36 bd 7a a8 55 bd f0 5e 99 bc c8 55 ff 3c
       -0.044540748 -0.052162625 -0.018722028 0.031168833
000320 8e eb 53 3d a0 56 8d bb d0 af 2d bc e6 dc 12 bd
       0.051738314 -0.004313305 -0.010600999 -0.035855196
000330 7c f6 af 3c 1c aa c0 bc a0 62 dd bc 54 8f 98 bc
       0.021479838 -0.023518614 -0.027024567 -0.018623032
000340 40 22 6e bb ec 30 ab bc 80 30 ab 3a be 88 13 bd
       -0.0036336333 -0.020897351 0.0013060719 -0.03601908
000350 ce eb 60 bd 24 cd 72 3d 68 18 15 3c d8 e6 51 bd
       -0.05491238 0.05927767 0.009100057 -0.05124554
000360 24 a5 c6 3c 04 fb 6b 3d ee f9 35 bd 64 e8 1a bd
       0.024248667 0.057612434 -0.044427805 -0.03781928
000370 e8 cd f9 bc fa 50 1c 3d 80 58 36 bd 48 56 96 bc
       -0.030493692 0.038163163 -0.044517994 -0.018351689
000380 2c ae 8e bc 3a 07 61 bd 94 9f fc bc 38 59 0d 3d
       -0.017417036 -0.054938532 -0.030837812 0.034508914
000390 d0 82 d0 bb 22 76 13 3d 50 bb 20 3d 50 bf 1d 3c
       -0.0063632503 0.036001332 0.039241135 0.009628132
0003a0 b6 28 13 3d ce 6c 78 bd 7a 97 41 3d 1e f7 4e 3d
       0.035927497 -0.06065064 0.0472636 0.050528638
0003b0 42 0e 17 3d 0e 55 59 3d 32 27 23 3d 96 66 5a bd
       0.03687883 0.05305963 0.0398323 -0.05332049
0003c0 8c 54 ee bc 94 2e 90 bc b6 78 76 bd 94 ab 10 3d
       -0.02909305 -0.017600335 -0.060173713 0.03531988
0003d0 c0 7b f9 bb ae 71 3b 3d bc 46 b3 3c a0 6b d2 3b
       -0.007613629 0.04576271 0.021884315 0.0064215213
0003e0 3a 5f 00 3d 00 b9 09 3a 7c a2 40 bd 00 a9 0a 3c
       0.031340815 0.00052537024 -0.047029957 0.008463144
0003f0 c8 47 d8 3c fa 14 4f 3d da 34 2f 3d a8 0c d1 bc
       0.026401415 0.050557114 0.042775013 -0.02551873

fc2.bias f4 [256]
000000 70 26 5d bc 78 f5 1b 3c 28 f9 66 3c 70 12 20 3d
       -0.013497934 0.0095189735 0.014097489 0.039080083
000010 a4 9c 9f 3c 70 f8 30 bd d8 f1 87 bc 6a fc 0f bd
       0.019483872 -0.04320568 -0.016594812 -0.03515283
000020 54 bd c5 3c 90 1f 14 3c 5c fd 41 bd c4 6d 31 bd
       0.02413813 0.009040728 -0.047360763 -0.04331757
000030 c8 47 31 3c 6e 70 0c 3d 00 c5 2d 3b 6c f8 96 3c
       0.010820337 0.03428691 0.0026515126 0.018429004
000040 2c 12 c0 3c 30 bd e9 bb fe 34 4a 3d dc 5a b3 3c
       0.023446165 -0.0071331486 0.049366944 0.021893911
000050 f6 d0 0a 3d e4 22 25 bd 58 e1 0d 3c 0a 83 2d 3d
       0.033890687 -0.040316477 0.008659683 0.042361297
000060 ac 5a b7 bc 48 16 21 bc 38 d6 82 3c 9c 09 50 3d
       -0.022382103 -0.009831972 0.015971288 0.050790414
000070 2c 3f 97 3c 66 df 47 3d 00 e5 9a bc e8 33 a0 bc
       0.01846274 0.048797034 -0.018908024 -0.019556
000080 30 12 e3 bb 80 d1 07 bc d0 71 c3 bc 60 cc d4 bc
       -0.0069296584 -0.008289695 -0.023857981 -0.02597636
000090 8c 2c 9a 3c 90 28 8c 3c ac 65 ec 3c 90 8f a9 bb
       0.01882007 0.017109185 0.028857075 -0.0051745847
0000a0 08 a0 f5 bc 08 7f 28 3c e2 26 36 3d b2 76 05 3d
       -0.029983535 0.010284193 0.044470675 0.0325839
0000b0 c8 d5 45 bc 00 de b3 3c 00 c2 5f 3d 0a 53 25 3d
       -0.012074895 0.021956444 0.054628372 0.040362395
0000c0 8a 75 72 3d c8 91 1d bd ee 30 3a 3d 16 11 6d bd
       0.059194125 -0.038469106 0.04545682 -0.057877623
0000d0 a6 2e 35 bd f0 c5 de bb 14 4e 78 bd cc b2 4c bd
       -0.04423394 -0.0067984983 -0.060621336 -0.0499752
0000e0 16 e9 5d bd d4 ab a6 3c 60 41 d4 3c ca 80 27 bd
       -0.054177366 0.020345606 0.02591008 -0.040894307
0000f0 00 29 a0 ba a0 e7 20 3b d8 56 ba bc 24 ed 40 bd
       -0.001221925 0.0024552122 -0.022746488 -0.047101155
000100 f8 49 5f 3c 2c 93 a2 bc c4 0f ad bc ea 39 14 3d
       0.013628475 -0.019845568 -0.021125682 0.036188044
000110 d4 90 87 3c a2 2d 2a 3d 3c b7 7c bd 60 53 70 bd
       0.016548552 0.041547425 -0.061698183 -0.058673263
000120 96 56 34 bd e8 1e 28 3d 80 a7 c9 3c 5e 35 03 bd
       -0.044027887 0.0410451 0.024616003 -0.032033317
000130 16 b1 15 bd 1e 71 59 bd a4 c8 3f 3d 94 60 99 bc
       -0.036545835 -0.053086393 0.046822205 -0.01872281
000140 90 12 d0 bb 20 ba c0 bb 54 6d 6f bd 2c 78 39 bd
       -0.006349869 -0.005881563 -0.058453873 -0.04528062
000150 22 ec 54 3d 7e 3c 26 3d de 35 5d 3d e8 98 31 3c
       0.051983006 0.040585034 0.05400645 0.010839678
000160 28 4d a0 3c 8c 72 58 bd 98 45 ba 3c b8 66 6b bc
       0.019568041 -0.052843615 0.022738263 -0.014367752
000170 5c 5c 6e 3d 1e 69 39 bd 60 5f 5f 3d 6e 98 0d 3d
       0.05819355 -0.045266263 0.054534316 0.034569196
000180 f8 62 10 3c c0 6c f8 ba c8 2d f0 3c 98 44 c1 bc
       0.0088126585 -0.0018953308 0.029318705 -0.023592278
000190 00 95 ea 3a aa df 37 3d 5c 02 ed bc f2 8b 56 bd
       0.0017897189 0.044891037 -0.02893179 -0.052379556
0001a0 b6 2a 26 3d f8 10 62 bc 2c 77 38 bd f0 03 9d bc
       0.040568076 -0.013797991 -0.045035526 -0.019166917
0001b0 90 e4 52 3d 32 bb 03 bd a8 9c 77 3c 5e bf 4d 3d
       0.051487505 -0.032160945 0.015113033 0.05023133
0001c0 14 f9 81 bc 04 af 23 bd d4 5a 0d 3d dc 2f 57 bd
       -0.01586584 -0.03996183 0.03451045 -0.052535877
0001d0 8a e4 1d bd 88 08 13 bd a4 32 4b 3d c0 07 76 bc
       -0.03854803 -0.035896808 0.04960884 -0.015016496
0001e0 68 de 1e 3c d2 9b 7a 3d c0 49 cb bc cc ce f5 3c
       0.0096965805 0.061183758 -0.02481544 0.030005835
0001f0 96 58 3d bd 58 75 17 bc b4 e1 da bc 80 9d 33 3d
       -0.04622706 -0.0092442855 -0.026718952 0.043851376
000200 08 18 45 3d e0 c2 b2 3b 0c c9 44 3d 32 a6 5a bd
       0.04811862 0.00545536 0.048043296 -0.053381152
000210 a8 fb 0c bc 90 c1 a5 bb d8 a6 bc bc 0c fa 19 3d
       -0.008604921 -0.005058475 -0.023028776 0.03759198
000220 48 19 03 3d 00 26 aa 3b d4 c2 c6 3c be 55 7c bd
       0.032006532 0.0051925182 0.024262823 -0.061605208
000230 d0 3b 6a 3c 30 e2 23 bc 4c b8 09 3d 40 54 dd bc
       0.014296487 -0.010002658 0.033623025 -0.027017713
000240 50 54 4d bc 90 04 d5 bc aa cf 75 bd d8 c8 dd bc
       -0.012532309 -0.026003152 -0.060012497 -0.027073309
000250 64 75 fc 3c 28 13 d8 bc 2c c7 24 bd 6e d4 27 bd
       0.030817695 -0.026376322 -0.040229008 -0.040974073
000260 96 0d 06 3d 18 7d 57 3d 98 97 37 3d 8e 60 51 bd
       0.0327278 0.052609533 0.044822305 -0.051117472
000270 a4 ba 61 3d 3e fb 3d bd f0 04 9a bc c0 cc bd 3b
       0.055109635 -0.04638218 -0.018801183 0.0057922304
000280 04 eb 77 bd d0 6d c5 bb d4 7e 48 3d 00 77 59 3b
       -0.060526863 -0.0060250536 0.048949078 0.0033182502
000290 dc fe 1f bd b0 c2 c3 3b 88 28 55 3d e0 7f 3f bc
       -0.039061412 0.0059741363 0.052040607 -0.011688203
0002a0 b0 94 23 bc 7a 82 08 3d a8 6a b4 3c d6 1e 57 3d
       -0.00998418 0.033327557 0.022023514 0.05251964
0002b0 40 cf 89 3a 20 14 73 bb 34 91 fd bc 40 bd f8 ba
       0.0010514036 -0.0037090853 -0.030953027 -0.0018977299
0002c0 42 bb 57 3d aa 19 39 bd f4 cc 5a bd 40 cc 36 3d
       0.052668817 -0.04519049 -0.053418115 0.04462838
0002d0 22 d7 11 bd 88 6e 47 bc 0c 5b 2f 3d c6 d7 0c 3d
       -0.035605557 -0.012172349 0.04281144 0.034385465
0002e0 a6 e3 69 3d ec bb 9a bc 70 a9 65 3d c4 e2 e6 bc
       0.057101868 -0.018888436 0.05606979 -0.028184302
0002f0 20 d6 f5 3b 48 4c 41 3c 80 a0 04 bc 00 2c 4d 3b
       0.0075023323 0.011797972 -0.008094907 0.0031306744
000300 a8 74 28 3d dc d7 38 bd f6 17 66 bd 1a 64 7b bd
       0.041126877 -0.045127735 -0.056175195 -0.06137476
000310 50 82 45 bc a0 aa 29 bc da a3 67 bd 36 36 26 3d
       -0.012054995 -0.010355622 -0.056552745 0.040579043
000320 60 d7 c6 3c 36 5a 4f 3d 50 fe b5 3b 80 ee ef 3a
       0.02427262 0.05062314 0.005553998 0.0018305331
000330 a4 a7 43 3d d4 d3 49 3d 00 f6 34 39 28 f7 b7 bc
       0.047767296 0.04927428 0.0001725778 -0.02245672
000340 38 31 a3 3c a0 8d db bb 46 0b 2c 3d 7e b7 5c bd
       0.01992093 -0.0067002326 0.04200294 -0.05388593
000350 52 70 30 3d 18 1a 0c bc 2c d2 69 3d 2e 79 23 3d
       0.043075867 -0.008551143 0.0570852 0.039910488
000360 c8 ef 13 3d f8 17 09 bd 78 3f 4e 3c c0 41 16 bb
       0.036117345 -0.033470124 0.012588374 -0.0022927374
000370 10 2e 7d 3d dc 94 99 bc e0 4c 20 bc 26 64 4e 3d
       0.061811507 -0.01874774 -0.009783953 0.050388478
000380 c4 65 3e 3d c2 01 7e 3d e8 86 1f bc 06 9b 50 3d
       0.04648377 0.062013395 -0.009736754 0.050929092
000390 1c 90 75 3d 30 0b 07 bd 18 ee 95 bc d2 d2 3e bd
       0.059951887 -0.032969654 -0.018302009 -0.046587773
0003a0 4c 5b a3 3c 30 48 22 3c 60 e9 5a bc e2 bf 34 3d
       0.019940995 0.009904906 -0.013361305 0.044128306
0003b0 00 8e 5c ba 40 22 e4 bc 18 64 13 bc c6 b8 4c bd
       -0.00084134936 -0.027848363 -0.008996032 -0.0499809
0003c0 f6 7b 05 bd c0 fe 80 ba c0 01 74 bb 80 6c 1e 3a
       -0.03258892 -0.0009841546 -0.0037232488 0.00060433894
0003d0 8a a7 74 bd 2e 5d 0f 3d bc 99 3d bd 64 0f bd 3c
       -0.05973009 0.035000972 -0.04628919 0.023078628
0003e0 76 c9 23 3d 04 a2 30 3d 00 a8 20 ba f8 f3 b9 bc
       0.03998705 0.04312326 -0.00061285496 -0.022699341
0003f0 50 ea b1 3c 78 23 04 3c 58 f9 4a 3d 20 c1 fc bb
       0.021718174 0.008065097 0.0495542 -0.007713452

fc3.weight f4 [1, 256]
000000 d0 9e 4b bd 3e f1 69 3d a0 f7 70 3d 22 02 0a 3d
       -0.049712002 0.057114832 0.058829904 0.03369344
000010 d8 2b 2b 3d 30 32 3d bc cc ff cd 3c 00 21 2e bc
       0.04178986 -0.01154761 0.025146388 -0.010627985
000020 b4 79 dc 3c 50 8c 69 3d d4 18 10 bd a8 77 f2 3c
       0.026913501 0.057018578 -0.035179928 0.029598072
000030 60 4c 6e 3c 14 cb 25 bd 28 f3 1c 3d f0 a7 bb bb
       0.014544576 -0.040476874 0.03831783 -0.005726807
000040 82 ca 17 bd 48 a2 70 3d ce 20 6e 3d 98 3a 50 bc
       -0.03705836 0.058748513 0.058136754 -0.012709282
000050 c0 8f 78 bb 3e 0a 76 3d 86 5d 24 3d 42 e7 3c 3d
       -0.0037927479 0.06006836 0.040128253 0.046118982
000060 ac 92 52 bd 32 a3 63 bd fe 53 55 bd 48 24 2a 3d
       -0.05140941 -0.055575557 -0.052082054 0.041538507
000070 b6 7c 53 bd 5a 52 31 bd 30 5e a1 3c f0 cd f6 bb
       -0.051632605 -0.043291427 0.019698232 -0.007531874
000080 0c 76 30 bd c8 fb 6a bd 90 2a ef 3b 40 00 95 bb
       -0.04308133 -0.057369024 0.007298775 -0.004547149
000090 10 45 5d bc b0 fc eb bb ce 0f 71 bd be 3f 56 3d
       -0.013505235 -0.0072017536 -0.058852963 0.052306883
0000a0 c0 74 67 bd ca e2 7f 3d c4 08 63 bd 78 48 4d 3c
       -0.056507826 0.062472142 -0.05542828 0.012529485
0000b0 d2 8c 5f bd 80 a1 f4 ba 00 3b 8e ba 80 08 02 3a
       -0.054577656 -0.0018663853 -0.0010851324 0.0004960373
0000c0 c0 98 54 3c c8 62 9a bc 8e 6e 57 3d 68 f1 1e bd
       0.012975872 -0.01884593 0.052595668 -0.03880444
0000d0 04 3d dc bc d2 65 6c 3d c0 95 1f 3d 28 0e 52 bd
       -0.026884563 0.05771429 0.038961172 -0.05128303
0000e0 50 ae 75 3d 3c f5 18 bd 84 c6 a6 3c 00 9f f9 bc
       0.05998069 -0.03734325 0.020358332 -0.030471325
0000f0 5a d0 63 bd c0 fe 77 bb 00 20 c9 38 22 cf 07 3d
       -0.05561862 -0.0037841052 9.590387e-05 0.03315652
000100 2a 8e 7c bd b0 fd 78 bd 36 13 1c 3d 30 4f b4 3b
       -0.061659016 -0.06078881 0.03810426 0.005502604
000110 72 e6 68 3d 40 a9 13 3d 88 bf 93 bc fc 8b 99 3c
       0.056860395 0.03605008 -0.018035665 0.018743508
000120 fc c5 6d 3d 7a 50 35 3d 00 4a b2 39 54 81 e2 bc
       0.05805014 0.0442662 0.0003400594 -0.02764956
000130 58 a6 11 bd 60 6c c5 bc 96 73 48 3d a8 4f 79 bc
       -0.03555903 -0.024099529 0.048938356 -0.015216745
000140 e8 4e 44 3c a0 0e de 3b f4 e3 9b 3c 90 c6 c1 bb
       0.011981703 0.006776646 0.019029595 -0.005913563
000150 94 07 ea 3c a0 c0 54 3b cc f7 40 bd b8 bc 64 3c
       0.028568067 0.0032463446 -0.047111318 0.01396101
000160 94 89 9f 3c d4 9a 58 3d 84 42 4c bd 04 e7 98 bc
       0.019474782 0.05288203 -0.04986812 -0.018664844
000170 ea 8e 57 bd 34 a5 d6 bc 58 76 44 bc 26 95 7f bd
       -0.052626528 -0.026201822 -0.011991106 -0.0623981
000180 e4 e7 a7 3c 72 da 08 bd fc 0e f1 3c c8 d7 36 bd
       0.020496316 -0.03341145 0.02942609 -0.04463938
000190 b2 87 43 bd 64 4b b0 bc 44 c7 ea 3c 5c 02 c2 bc
       -0.04773683 -0.021520324 0.02865947 -0.023682766
0001a0 c0 d2 7b bd 10 56 c7 bb c0 3d bc bc c8 18 37 bc
       -0.061480284 -0.0060832575 -0.022978663 -0.011175342
0001b0 e0 d3 95 3c 24 84 76 3d aa 5b 13 bd d6 f7 49 3d
       0.018289506 0.060184613 -0.03597609 0.04930862
0001c0 98 e1 5e 3d 56 f3 2b bd fc fd 3f bd 1c f4 90 bc
       0.05441436 -0.04198011 -0.046873078 -0.017694525
0001d0 5a cf 16 bd 84 29 80 bc bc 84 50 bd 88 f1 3d bd
       -0.03681884 -0.015644796 -0.050907835 -0.04637292
0001e0 20 93 53 bd f8 c0 43 bd 24 43 92 bc dc 7c 40 bd
       -0.05165398 -0.04779145 -0.01785428 -0.046994075
0001f0 ac c1 20 bd 08 54 e0 3c b8 05 4f bc 26 d1 46 3d
       -0.0392472 0.02738382 -0.012635641 0.048539303
000200 ca 6d 15 bd 14 9d b3 3c 06 78 01 bd c4 63 01 bd
       -0.036481656 0.021925487 -0.031608604 -0.031589285
000210 68 e0 5f bc 9c 12 bb 3c 30 91 c0 bc 32 03 1c 3d
       -0.013664342 0.022836022 -0.02350673 0.038088985
000220 c4 e3 6c bd 2a 32 1a bd 50 a4 6f bc 00 7e e0 bc
       -0.0578344 -0.037645496 -0.0146265775 -0.027403831
000230 60 eb 4d bd 94 31 0f 3d 68 1d 02 3d c0 05 19 bd
       -0.0502733 0.03495939 0.031766325 -0.037359
000240 7a fc 65 bd e6 23 6c bd 30 51 94 bb ea 14 08 bd
       -0.056148984 -0.057651423 -0.00452628 -0.03322307
000250 e0 e5 e9 bc 5a 9c 75 bd 2c 8d 98 bc 10 d5 a4 bc
       -0.028551996 -0.05996356 -0.018622003 -0.020121127
000260 2c 73 ea bc d2 58 62 3d f6 f3 70 3d f8 bd 67 3c
       -0.028619371 0.055260487 0.05882641 0.014144413
000270 48 ba 6b 3c ae fd 67 bd f6 ba 0f 3d f0 39 dc 3b
       0.014387675 -0.056638412 0.03509041 0.006720774
000280 40 50 a1 3b 2a 53 2d bd c0 c6 6e bb 80 c5 6a 3c
       0.0049228966 -0.04231564 -0.0036434382 0.014329314
000290 2c cc 82 bc 3c bc b3 3c 78 45 2c 3c 48 43 02 3d
       -0.015966497 0.021940343 0.0105146095 0.031802446
0002a0 b6 4e 79 bd 10 d4 28 3c f6 7e 54 bd ac a0 96 3c
       -0.06086608 0.010304466 -0.051878892 0.018387161
0002b0 80 67 5b 3d 4e a3 42 3d 80 fe 55 3c 80 18 c1 ba
       0.053565502 0.04751902 0.013061166 -0.0014732033
0002c0 68 3d 22 bc 70 33 b0 3b ea 77 09 bd c2 2d 32 3d
       -0.009902336 0.0053772256 -0.033561625 0.04350067
0002d0 84 27 8a 3c 10 99 20 bc 5e 0a 79 bd ae f4 4c 3d
       0.016864546 -0.009802118 -0.060800903 0.050038032
0002e0 00 97 47 ba 68 69 18 3d 60 d5 ea 3b 80 a1 a5 3b
       -0.00076137483 0.0372099 0.0071665496 0.0050546527
0002f0 d0 3d 6f bd 82 a5 45 bd 00 06 64 ba 78 e8 77 3c
       -0.05840856 -0.048253544 -0.0008698404 0.015131108
000300 14 6e 3a 3d 1c b6 46 bd 60 75 5b bb 60 4c 2c 3b
       0.045515135 -0.048513517 -0.003348671 0.002629064
000310 e2 60 7c bd 50 b0 1e bd 80 13 9f 3c 28 62 35 3d
       -0.061615832 -0.038742363 0.019418478 0.044283062
000320 4a e9 3d 3d e8 20 1c 3c e2 dc 61 3d 6e 30 66 bd
       0.04636506 0.00952933 0.05514229 -0.05619853
000330 c0 23 53 bb 8c 35 64 bd 1c db a8 bc a6 04 62 3d
       -0.0032217354 -0.05571513 -0.020612292 0.055180214
000340 aa 0a 7f bd 80 6a 62 bd b4 03 16 3d ce 4f 74 3d
       -0.06226603 -0.055277348 0.036624625 0.05964642
000350 2e 12 48 3d 00 ba 66 ba 40 33 58 bd ac b5 da 3c
       0.048845463 -0.000880152 -0.05278325 0.026697956
000360 00 c6 e7 bc 44 fb 58 3d ec b8 00 bd c0 ee 01 3b
       -0.028292656 0.052974 -0.031426355 0.0019826144
000370 c0 52 ce ba 1c 36 df 3c 58 f9 1f 3c f0 e0 96 3b
       -0.0015741214 0.027247481 0.009764038 0.0046044514
000380 a8 39 b4 bc a4 d2 0b 3d 00 e1 8b 3a 20 93 7a bd
       -0.022000149 0.03413643 0.0010671914 -0.061175466
000390 80 1d dc bc 48 2a f0 3c f0 4d 1d bd 80 30 7a 3c
       -0.026869535 0.029317036 -0.038404405 0.015270352
0003a0 1a 2c 68 bd 50 bb 12 3c 4c d6 97 bc 44 aa c9 bc
       -0.056682684 0.008955792 -0.018534802 -0.024617322
0003b0 8e 12 40 3d e0 b6 39 3b 08 08 2d 3d d8 ed 19 3c
       0.046892695 0.0028337762 0.042243987 0.009395085
0003c0 cc c3 71 3d 5e d5 0f bd f0 a7 41 bd 80 6b e6 ba
       0.059024617 -0.035115592 -0.0472793 -0.0017579645
0003d0 00 2c 0a bd 48 80 27 3c a8 8c aa 3c f0 08 68 bd
       -0.033733368 0.010223456 0.020819023 -0.05664915
0003e0 10 4b 3b 3c 58 47 5d bd 28 92 03 3d 20 18 2d 3b
       0.0114314705 -0.054023117 0.032121807 0.0026412085
0003f0 54 ef 0e 3d 32 22 6a bd 40 5c 97 bc 28 22 73 3d
       0.03489621 -0.057161517 -0.018476605 0.059358746
