output_lxl/MASAC/weight/critic1_agent_3_ep_7700.pth (torch, 286504 bytes, 5 tensors)

fc1.weight f4 [256, 18]
0	0xbd2d8228	-0.042360455
1	0xbd1d2c70	-0.038372457
2	0xbe39d742	-0.1814852
3	0xbe6a4f1e	-0.22881743
4	0x3e2bc915	0.16775925
5	0x3e1a63ed	0.15077181
6	0x3e68e8c9	0.2274505
7	0xbd9b8846	-0.075943515
8	0xbd19f398	-0.037585825
9	0x3e3aefe7	0.18255578
10	0x3e1d8747	0.15383635
11	0xbcebf8e8	-0.028805211
12	0xbe38f773	-0.18063144
13	0xbd99ef36	-0.07516329
14	0xbc99b970	-0.018765181
15	0xbd835ce2	-0.064142
16	0x3e6e85f5	0.23293288
17	0x3d50ee74	0.051008657
18	0xbe2e788c	-0.17038172
19	0x3d1fd2dc	0.03901945
20	0xbd9f1ffa	-0.07769771
21	0x3e282c51	0.16423155
22	0x3d9ebf16	0.077512905
23	0x3d8905c2	0.06690551
24	0xbe62cb4d	-0.22147866
25	0xbd57d808	-0.052696258
26	0x3cf561f8	0.029953942
27	0x3e2eaeb1	0.17058827
28	0x3e268237	0.1626061
29	0xbe69231b	-0.22767298
30	0xbe4693ae	-0.19392273
31	0xbe70f695	-0.23531564
32	0xbca22210	-0.019791633
33	0x3c998898	0.01874189
34	0xbe0cf122	-0.1376386
35	0x3e5598c9	0.20859064
36	0xbdc07ee8	-0.093992054
37	0xbdff36a2	-0.12461592
38	0xbdc48430	-0.09595525
39	0x3e6e4cc9	0.23271479
40	0x3d36cc04	0.04462816
41	0xbe56a3be	-0.209609
42	0x3dbb7216	0.091526195
43	0xbe129387	-0.1431409
44	0xbdeef14e	-0.11667119
45	0xbe4cd244	-0.20002085
46	0xbe345c67	-0.17613374
47	0xbe20700a	-0.1566774
48	0x3e385ff9	0.1800536
49	0x3dc1b9ce	0.094592676
50	0x3ce7f248	0.02831377
51	0x3e453cfb	0.19261543
52	0x3e565dd3	0.20934229
53	0xbc2d1790	-0.0105647
54	0x3e2bcdaf	0.16777681
55	0x3d841c8e	0.06450759
56	0x3e62e5cf	0.22157978
57	0xbd90ae8c	-0.07064542
58	0xbe1b000a	-0.15136734
59	0xbe03dc3a	-0.12876979
60	0xbe533ea1	-0.2062936
61	0xbdd87d68	-0.10570794
62	0xbe2c16f0	-0.16805625
63	0xbe37f1ca	-0.17963329
64	0x3e473fcb	0.19457929
65	0xbe19ca1a	-0.15018502
66	0x3c1b73a0	0.009488016
67	0x3cf60768	0.030032828
68	0xbd0fe53c	-0.035130724
69	0xbd27a7a4	-0.04093136
70	0xbdaa437a	-0.083136514
71	0xbd46d71c	-0.048544988
72	0x3e4304d9	0.19044818
73	0xbd777004	-0.06040956
74	0xbe0d771c	-0.13814968
75	0x3e672915	0.22574265
76	0xbdc84548	-0.09778839
77	0x3dd7aece	0.10531388
78	0xbe17a3da	-0.14808598
79	0xbe25ccb8	-0.16191375
80	0xbe167918	-0.14694631
81	0xbc0825a0	-0.008309752
82	0x3e343667	0.17598878
83	0xbd38fc3c	-0.045162424
84	0x3e57600f	0.21032737
85	0x3e5229bd	0.20523734
86	0x3d127e2c	0.035764858
87	0xbd4f5754	-0.050620392
88	0xbe06f250	-0.13178372
89	0x3e382eb5	0.17986567
90	0xbd81c430	-0.06336248
91	0x3e703a6d	0.23459788
92	0xbe60f8fa	-0.21969977
93	0x3d0dcc7c	0.03461884
94	0x3e1b69c7	0.1517707
95	0xbe198808	-0.14993298
96	0xbd15bc58	-0.03655657
97	0x3e014673	0.1262453
98	0xbe443947	-0.19162475
99	0x3e0a4541	0.13502981
100	0xbd04370c	-0.03227906
101	0xbe39d4df	-0.1814761
102	0xbe3d75be	-0.18501946
103	0xbe00a452	-0.12562683
104	0x3d3e3d0c	0.046444938
105	0x3e437f59	0.19091548
106	0xbe6c44f7	-0.23073183
107	0xbe3aa3be	-0.18226525
108	0xbe5e9fb2	-0.21740606
109	0xbe6d47e0	-0.2317195
110	0xbdd53b24	-0.10411671
111	0xbe628f0e	-0.22124884
112	0x3e6615d3	0.22469263
113	0xbdb25ce4	-0.08709124
114	0xbe65b8ce	-0.22433779
115	0x3e29ec87	0.16594134
116	0x3e2e50ab	0.1702296
117	0x3e27cb31	0.16386105
118	0xbde00120	-0.109377146
119	0xbca9fb68	-0.020749763
120	0x3d28bb74	0.041194394
121	0xbe6b9b84	-0.23008543
122	0xbd7c8490	-0.06164986
123	0xbd9ff0c8	-0.07809597
124	0xbe222a7a	-0.15836516
125	0xbd13a0c4	-0.03604199
126	0x3e547add	0.20749994
127	0xbe5171b4	-0.2045353
128	0x3da16842	0.07881214
129	0x3e08a6e1	0.13344909
130	0xbe45187f	-0.19247626
131	0x3d401724	0.04689707
132	0x3d1e5b7c	0.038661465
133	0x3dc493da	0.09598513
134	0x3d8b697a	0.068072274
135	0xbe49edbe	-0.19719598
136	0xbe04419d	-0.12915654
137	0x3d91230e	0.07086764
138	0x3dad0d82	0.08449842
139	0x3e3dc40b	0.18531816
140	0xbe217250	-0.15766263
141	0xbd21b2ac	-0.039477035
142	0x3e52efad	0.20599242
143	0xbc4a31a0	-0.012340933
144	0x3dbd9b1e	0.09258102
145	0xbd885c5c	-0.06658241
146	0x3ded7f4e	0.11596547
147	0xbdd145ae	-0.102183685
148	0x3e572597	0.21010433
149	0xbe363f31	-0.17797543
150	0x3cab38e8	0.020901158
151	0xbb427b00	-0.0029675364
152	0xbe1d7240	-0.15375614
153	0x3d57217c	0.052522168
154	0x3dbf4e6e	0.09341131
155	0x3e6ef325	0.2333494
156	0xbe1a4acb	-0.15067594
157	0x3e1befa7	0.15228139
158	0x3d440bf4	0.047862962
159	0xbdca6946	-0.098833606
160	0x3e3f51c1	0.1868353
161	0xbdf47085	-0.11935524
162	0xbe666dc6	-0.22502813
163	0xbd3d8748	-0.046271592
164	0xbdf55ee7	-0.11980992
165	0xbe32fa15	-0.17478211
166	0x3c73a750	0.014871433
167	0xbdfe1e6a	-0.12408145
168	0xbc0822d0	-0.008309081
169	0xbe128940	-0.14310169
170	0x3d8f6c46	0.070030734
171	0xbc71d3d0	-0.014759973
172	0xbe079db4	-0.13243753
173	0x3b657540	0.0035012513
174	0xbe70bbd9	-0.23509158
175	0xbda9286e	-0.082596645
176	0x3da260ba	0.079286054
177	0xbdcc9c78	-0.099907815
178	0xbd28b248	-0.041185647
179	0x3d0eeffc	0.034896836
180	0x3e23d181	0.15997888
181	0xbe6c1c9f	-0.23057793
182	0x3d9fff5a	0.07812376
183	0x3e48d89b	0.19613878
184	0xbe632836	-0.22183308
185	0x3e4fdde5	0.2029949
186	0xbd4a1d38	-0.04934427
187	0xbe416066	-0.1888443
188	0x3c7e3070	0.015514478
189	0xbdcaccb2	-0.09902324
190	0x3d087c7c	0.033321843
191	0xbdfafe8f	-0.122555844
192	0xbe070894	-0.13186866
193	0x3d038e04	0.03211786
194	0xbd9ccb54	-0.07655969
195	0x3e08804b	0.1333019
196	0x3d8dde6a	0.06927188
197	0xbd446888	-0.04795125
198	0x3bccfde0	0.00625585
199	0x3d75af1c	0.05998145
200	0x3dafaf96	0.08578412
201	0x3d97c6b6	0.07410948
202	0x3dc86456	0.097847626
203	0xbc751d00	-0.014960527
204	0x3e1af4b3	0.15132408
205	0x3e0f0dbd	0.13970084
206	0x3e4d35ff	0.20040129
207	0x3cf2dbe8	0.029645875
208	0x3bbc1660	0.005739972
209	0xbc95d668	-0.018290713
210	0xbe66bee0	-0.2253375
211	0xbe3bedf6	-0.18352494
212	0xbe455f13	-0.19274549
213	0x3e2b4131	0.16724087
214	0x3d5cb084	0.053879276
215	0xbd8b9da0	-0.06817174
216	0x3e4f0423	0.20216422
217	0x3e65c3b3	0.22437935
218	0xbe6d3ee8	-0.23168528
219	0x3e339e75	0.17540915
220	0xbc119100	-0.008884668
221	0x3bb7aee0	0.0056055635
222	0xbe499c43	-0.19688515
223	0xbd253ac0	-0.04033923
224	0xbd5d2a7c	-0.053995594
225	0x3d5f9b14	0.054591253
226	0xbd409770	-0.047019422
227	0xbe23f4f2	-0.16011408
228	0x3deda3ca	0.11603506
229	0xbd0a3188	-0.033738643
230	0x3dbd1ad6	0.09233634
231	0x3d828a4a	0.06374033
232	0x3e527a45	0.20554455
233	0xbde38b40	-0.11110544
234	0x3e62987d	0.22128482
235	0xbe2519d0	-0.16123128
236	0xbe005cea	-0.12535444
237	0x3bc562c0	0.006023735
238	0x3e52c665	0.20583494
239	0xbe3b6654	-0.18300754
240	0x3e5e189f	0.2168908
241	0xbc9ba6e0	-0.01900047
242	0xbe040d38	-0.12895668
243	0xbe1b1518	-0.15144765
244	0xbd960e62	-0.07326962
245	0xbbf5c660	-0.007500455
246	0xbe32dd0c	-0.17467135
247	0x3d8af4fa	0.06785007
248	0xbce84890	-0.028354913
249	0xbde85f82	-0.11346342
250	0xbe50ed6e	-0.20403072
251	0x3cd425f8	0.025897011
252	0x3de7a946	0.11311583
253	0x3d9f9986	0.07792954
254	0xbc8d97d0	-0.017284304
255	0x3e484d9f	0.1956086

fc1.bias f4 [256]
0	0x3db729da	0.089435294
1	0x3e1cca5b	0.15311567
2	0xbe20bada	-0.15696278
3	0x3e5d3369	0.21601643
4	0xbdc46684	-0.09589866
5	0xbe542ead	-0.2072093
6	0xbde1a368	-0.110174954
7	0x3e4bf22b	0.19916598
8	0x3d366d4c	0.044537827
9	0xbdfc98c1	-0.12333823
10	0x3d8b17ea	0.067916706
11	0xbd3e69d4	-0.046487644
12	0xbd78b58c	-0.06072001
13	0x3c3f8ba0	0.011691004
14	0x3d99f9da	0.075183585
15	0x3e19d4f7	0.15022646
16	0x3bff88c0	0.0077982843
17	0x3d672b2c	0.056437656
18	0x3cf7e358	0.030259773
19	0x3e119819	0.14218177
20	0xbda96f9c	-0.08273241
21	0x3da002b2	0.07813014
22	0x3e69f7a9	0.22848381
23	0xbdde526c	-0.108555645
24	0x3e12e099	0.1434349
25	0x3dcb5e2e	0.09930073
26	0x3d73a934	0.059487537
27	0x3dae1576	0.08500187
28	0xbdf7a83a	-0.120926335
29	0x3d473094	0.048630312
30	0x3e32a233	0.17444687
31	0xbb00b900	-0.0019641519
32	0x3e6df9eb	0.23239867
33	0x3e1bdf3b	0.15221874
34	0x3c8cb478	0.017175898
35	0xbd2c50a8	-0.042069107
36	0x3dd8a84e	0.105789766
37	0x3e3b3705	0.18282707
38	0x3e4e7c2b	0.20164554
39	0xbd2305c4	-0.03980042
40	0x3dc7586a	0.097336605
41	0xbc317a90	-0.010832444
42	0xbd710604	-0.058843628
43	0x3e10f4b5	0.14155848
44	0x3dfb1bfa	0.122611955
45	0xbd072c5c	-0.03300129
46	0xbe1872b0	-0.148875
47	0x3e14a2bf	0.14515208
48	0xbe0af03e	-0.13568208
49	0xbe094498	-0.13405073
50	0xbe211088	-0.15728962
51	0xbe58bd94	-0.21166068
52	0xbcf7ee50	-0.030265003
53	0xbe2e821c	-0.1704182
54	0x3db832ee	0.08994089
55	0x3dcdadb2	0.100428954
56	0x3cbc3498	0.022974297
57	0xbda9b58a	-0.08286579
58	0xbcb0d6b0	-0.021586746
59	0xbe2c7261	-0.16840507
60	0x3e500f13	0.2031825
61	0x3e25b2f9	0.16181554
62	0x3da22456	0.07917087
63	0x3e484e57	0.19561134
64	0xbe541fc6	-0.20715246
65	0xbe43bfb0	-0.19116092
66	0xbd077a68	-0.03307572
67	0x3e5bc3d9	0.21461429
68	0x3dad5c4a	0.08464868
69	0xbe6cb7b3	-0.2311695
70	0xbe2cbb67	-0.16868363
71	0x3e1c8ef3	0.15288906
72	0x3e59cc9f	0.21269463
73	0x3e07087f	0.13186835
74	0xbe274950	-0.1633656
75	0x3e6dc631	0.23220135
76	0x3ddf2446	0.108955905
77	0xbe399326	-0.18122539
78	0x3dabd092	0.08389391
79	0xbda83e3a	-0.08214994
80	0xbd8bccc4	-0.06826165
81	0xbe405037	-0.187806
82	0xbddc4db8	-0.10757011
83	0xbd8482f6	-0.06470291
84	0x3e0db2b5	0.13837703
85	0x3dcda192	0.10040583
86	0x3d683c6c	0.056698248
87	0x3dd86ca6	0.10567598
88	0xbe3eee05	-0.18645485
89	0xbe480814	-0.19534332
90	0x3e343745	0.17599209
91	0x3bda56a0	0.0066631585
92	0x3dad35e2	0.08457543
93	0xbe21df5a	-0.15807858
94	0xbe038aec	-0.12845963
95	0xbe5c7fec	-0.21533173
96	0x3e65839d	0.22413488
97	0xbe51911d	-0.20465513
98	0x3dcf26e2	0.10114838
99	0xbd896664	-0.067089826
100	0x3c8adca8	0.01695092
101	0xbde53590	-0.11191857
102	0xbe6776fb	-0.22603981
103	0x3e252475	0.16127189
104	0xbddff38a	-0.10935123
105	0xbe3c0a8e	-0.18363401
106	0xbe565bb7	-0.20933424
107	0x3c9820d8	0.018570349
108	0x3d186a7c	0.037210926
109	0xbdfc7798	-0.12327498
110	0xbae85c80	-0.0017727762
111	0xbdc916f4	-0.09818831
112	0xbe571b2a	-0.21006456
113	0x3e277935	0.1635483
114	0x3e0f275f	0.13979863
115	0x3e53ec79	0.20695676
116	0xbe0870c3	-0.13324265
117	0x3d94b02a	0.07260163
118	0x3dec37ea	0.11534102
119	0xbdd46e72	-0.10372628
120	0x3e1017c1	0.14071561
121	0xbc8d9210	-0.017281562
122	0x3db00b76	0.08595936
123	0x3bbf6280	0.0058405995
124	0x3d1b7afc	0.037959084
125	0xbe228aec	-0.15873307
126	0x3e2a7967	0.16647874
127	0xbdc9a98a	-0.0984679
128	0xbb4ed780	-0.0031561553
129	0xbcc9c018	-0.02462773
130	0xbe58b9a5	-0.21164568
131	0xbe3a65ce	-0.18202898
132	0xbe6eabba	-0.23307696
133	0xbd99a8d6	-0.07502906
134	0xbdf4555f	-0.11930346
135	0xbe6475ec	-0.22310609
136	0x3e3cea65	0.1844879
137	0x3d865722	0.06559588
138	0xbdf52b09	-0.11971099
139	0x3d56661c	0.052343473
140	0xbd1a87b4	-0.037727073
141	0x3da209e2	0.07912041
142	0xbc8eadf8	-0.01741694
143	0xbdf5bd99	-0.119990535
144	0xbe21c2b7	-0.15796934
145	0x3d6af714	0.05736454
146	0xbd93cfb6	-0.07217352
147	0xbda74e08	-0.0816918
148	0xbdc221e2	-0.09479119
149	0x3d65ac54	0.056072548
150	0x3d9e3a3e	0.077259526
151	0x3e6c60b5	0.23083766
152	0x3e1a5c03	0.15074162
153	0xbd5cd1e4	-0.053911105
154	0xbe1164a1	-0.14198543
155	0x3dea2732	0.11433257
156	0x3e4012df	0.18757199
157	0x3bee2fc0	0.007268876
158	0xbe0c0f5e	-0.13677737
159	0x3e3e39eb	0.18576781
160	0x3e00ccc9	0.1257812
161	0xbe3889ce	-0.18021318
162	0xbe49fd21	-0.19725467
163	0x3da065c6	0.07831912
164	0x3d1efb74	0.038814023
165	0xbe414ab5	-0.18876155
166	0xbe6f1923	-0.23349433
167	0x3e70ee2f	0.2352836
168	0x3e1557df	0.14584301
169	0xbdf7cd24	-0.12099674
170	0x3c5933b0	0.013256952
171	0xbdea88bf	-0.114518635
172	0x3e6dbbcd	0.23216172
173	0x3e54c955	0.20779927
174	0x3e51bab5	0.2048138
175	0x3e275721	0.16341831
176	0x3e4c5bf3	0.19956951
177	0x3e63e89b	0.222567
178	0xbdf5bf83	-0.119994186
179	0xbd782c9c	-0.060589418
180	0x3e20e37d	0.1571178
181	0x3dbe45ee	0.09290682
182	0xbe212ae4	-0.15739018
183	0x3e13508d	0.14386196
184	0x3c82b258	0.015954182
185	0xbd5b04ac	-0.053471252
186	0x3dbe7c12	0.09301008
187	0x3e4b0b13	0.19828443
188	0xbd5fc4f4	-0.05463119
189	0xbc2d8c90	-0.010592595
190	0xbd42c238	-0.047548503
191	0x3dab122e	0.08353077
192	0xbe1259d3	-0.14292078
193	0x3e260679	0.16213407
194	0xbba68780	-0.005082071
195	0x3e2b49af	0.16727327
196	0xbe3befc8	-0.18353188
197	0xbe02e1f8	-0.12781513
198	0x3e5b58b7	0.21420561
199	0x3e6a82af	0.22901414
200	0x3d355744	0.044272676
201	0xbe25b6aa	-0.16182962
202	0x3e02ddd3	0.12779932
203	0xbcd7a8c8	-0.026325598
204	0x3e1417e7	0.14462243
205	0xbdf6bead	-0.12048087
206	0xbe14cbf2	-0.14530924
207	0xbe16ed26	-0.14738902
208	0x3d9e260e	0.07722102
209	0xbe40b6b9	-0.18819703
210	0xbd4a9c68	-0.049465567
211	0xbd1e96ec	-0.03871815
212	0x3cedef58	0.029044792
213	0xbda69b50	-0.08135092
214	0xbe6877d5	-0.22701962
215	0x3e1f4e6f	0.15557264
216	0x3e5755cb	0.21028821
217	0x3d175ba4	0.03695263
218	0xbdcd3a10	-0.1002084
219	0x3dc6128e	0.09671508
220	0xbd9948a8	-0.07484561
221	0xbe3b03e5	-0.18263204
222	0xbd0a2598	-0.03372726
223	0xbe3a7993	-0.1821044
224	0xbcc8c310	-0.024507076
225	0x3c323960	0.010877937
226	0xbd9a8de6	-0.07546596
227	0x3b9e0060	0.004821822
228	0x3cf12568	0.029436782
229	0xbb9f0360	-0.0048526973
230	0x3da0924e	0.078404054
231	0xbe1ab195	-0.15106805
232	0x3db78192	0.089602605
233	0x3df4f3c2	0.119605556
234	0xbb1df2c0	-0.002410099
235	0xbd2ab8c4	-0.041680112
236	0x3cf51a48	0.029919758
237	0xbcd60528	-0.026125506
238	0x3db996e2	0.09061982
239	0xbe089fe9	-0.13342251
240	0x3d02e40c	0.031955764
241	0x3e2bd30b	0.16779725
242	0x3d2ea464	0.042637244
243	0x3d7cf5e4	0.061757937
244	0xbe2978e0	-0.16550016
245	0x3e3a0201	0.18164827
246	0xbe113314	-0.14179641
247	0xbd4f2150	-0.05056888
248	0xbe5a43d8	-0.21314943
249	0x3dc55106	0.096345946
250	0x3d4e1ecc	0.05032234
251	0xbc3a1d00	-0.011359453
252	0xbe24c0e1	-0.16089202
253	0x3e3f6d8b	0.18694131
254	0x3bc182c0	0.005905479
255	0xbc737b60	-0.014860958

fc2.weight f4 [256, 256]
0	0x3ccf7298	0.025323197
1	0x3d62c692	0.055365153
2	0x3d249136	0.040177546
3	0xbd2f6eac	-0.042830154
4	0x3caa4460	0.020784557
5	0xbca718d8	-0.020397589
6	0xbd45d794	-0.048301294
7	0xbd1021f6	-0.035188638
8	0xbd7381b8	-0.05944988
9	0x3ce2ae58	0.027671024
10	0xbd6869ca	-0.056741513
11	0x3d482144	0.04885985
12	0xbd0eb3ba	-0.03483937
13	0x3d536ba6	0.051616333
14	0x3d2c25ec	0.042028353
15	0x3d13c806	0.03607943
16	0x3ce5f538	0.028071031
17	0x3d275194	0.040849283
18	0x3cf95204	0.030434616
19	0xbd2ad4a6	-0.041706704
20	0x3ce9b0a4	0.028526612
21	0xbd56a6b0	-0.05240506
22	0xbd07f9fa	-0.03319738
23	0x3c952850	0.018207699
24	0xbc1b66f0	-0.009484991
25	0xbc778e08	-0.0151095465
26	0xbc2cb998	-0.010542296
27	0xbcafdd28	-0.02146776
28	0xbd111cb0	-0.03542775
29	0xbc9bfbb0	-0.019040912
30	0xbd50cb32	-0.050975032
31	0x3d215ef6	0.039397202
32	0x3d0d2d46	0.034467004
33	0x3d425ab2	0.047449775
34	0x3c71bfb0	0.0147551745
35	0x3c91c5ac	0.017794453
36	0x3c7b71d0	0.015346959
37	0x3d1e5c0c	0.038662
38	0x3d17c0c2	0.037049063
39	0xbd19d53e	-0.03755688
40	0x3d5daf42	0.054122217
41	0x3b69bd80	0.003566593
42	0xbd399332	-0.045306392
43	0x3b0d0f00	0.0021523833
44	0xbd3bcb7e	-0.045848362
45	0xbd12b80a	-0.035820045
46	0x3d3b3b2e	0.045710735
47	0x3d682daa	0.056684174
48	0xbd537a3a	-0.051630236
49	0xbbebb320	-0.007192984
50	0xbd51d820	-0.051231503
51	0x3c4c8d68	0.012484886
52	0xbc202450	-0.009774283
53	0xbbe90590	-0.007111259
54	0xbd4f18ec	-0.050560877
55	0x3c9071fc	0.017632477
56	0x3a8757c0	0.0010325834
57	0xbd317b14	-0.043330267
58	0xbca97f5c	-0.020690612
59	0xbd29ef76	-0.041488133
60	0xbd5fd360	-0.054644942
61	0x3d1dab06	0.03849318
62	0xbd75a06a	-0.059967436
63	0xbc654d18	-0.013995431
64	0xbd3ec688	-0.046576053
65	0x3ca5ef20	0.020255625
66	0xbd30b158	-0.04313788
67	0xbb9a71b0	-0.0047132596
68	0xbcd8ace0	-0.02644962
69	0x3cf920dc	0.030411176
70	0x3d645daa	0.055753388
71	0x3bd70910	0.0065623596
72	0xbd398e74	-0.04530187
73	0x3d3be85e	0.0458759
74	0xbd68e742	-0.05686117
75	0x3ce1c8f4	0.027561642
76	0x3c197fd8	0.009368859
77	0x3d17074a	0.036872186
78	0x3d6bff16	0.057616316
79	0x3d1c8d54	0.03822072
80	0x3cb20270	0.021729678
81	0x3bbb36a0	0.005713299
82	0x3c4d0880	0.012514234
83	0xbd0d7eb2	-0.034544654
84	0xbc22e118	-0.009941362
85	0xbbf4a210	-0.0074656084
86	0xbd3da682	-0.046301372
87	0xbcac3204	-0.021019943
88	0xbc51fe90	-0.01281704
89	0xbb9c9dd0	-0.004779555
90	0xbcb56e3c	-0.02214729
91	0x3d61ad74	0.05509706
92	0x3bc1d5a0	0.0059153587
93	0x3c38ec10	0.01128675
94	0x3d70900e	0.05873113
95	0x3c6be738	0.014398389
96	0x3d0e89cc	0.034799382
97	0xbd34bbbc	-0.04412435
98	0xbc988768	-0.018619254
99	0xbce2e82c	-0.027698599
100	0x3c0ca898	0.008585118
101	0x3a7e2200	0.00096943974
102	0xbd2e67a6	-0.042579316
103	0xbd764894	-0.06012781
104	0x3d370d0e	0.044690184
105	0x3c9aca40	0.018895268
106	0x3d68e64e	0.05686026
107	0xbcddf438	-0.027093992
108	0xbc288db0	-0.010287687
109	0xbca2328c	-0.019799493
110	0x3d356216	0.044282995
111	0xbd386bb2	-0.04502458
112	0xbd3b945a	-0.045795776
113	0x3d01bc9a	0.031674005
114	0xbc77fc10	-0.01513578
115	0xbd0681d6	-0.032838665
116	0x3c949e64	0.018141933
117	0x3b2003c0	0.0024416298
118	0x3d69ae18	0.057050794
119	0x3d401bba	0.046901442
120	0x3d1a6ee2	0.037703402
121	0x3ca72a98	0.020406052
122	0x3d573818	0.05254373
123	0xbc4e66c0	-0.01259774
124	0xbbdfe730	-0.0068329796
125	0xbd220332	-0.03955383
126	0x3ca1e664	0.01976318
127	0xbcb54ffc	-0.022132866
128	0xbd5b31d8	-0.05351433
129	0x3d1036ec	0.035208628
130	0xbd4ac46e	-0.049503736
131	0x3d45254c	0.048131272
132	0x3d133672	0.035940595
133	0x3d4d3f4a	0.050109185
134	0x3d472934	0.04862328
135	0x3cb2886c	0.021793567
136	0x3d15c508	0.036564857
137	0x3d0c1694	0.03420122
138	0xbd7f9706	-0.062399887
139	0xbcb8f6dc	-0.02257865
140	0xbc788740	-0.015168965
141	0xbd43d89e	-0.047814004
142	0x3c156068	0.009117223
143	0xbd4ce5f6	-0.050023995
144	0x3d4a9fb6	0.04946872
145	0x3d5703c0	0.05249381
146	0x3cc751bc	0.024330966
147	0x3d276570	0.040868223
148	0xbd0846b8	-0.033270568
149	0x3d12149c	0.035664186
150	0x3d79749c	0.060902223
151	0x3d2e1256	0.042497955
152	0xbcf0acac	-0.029379211
153	0xbd56caec	-0.052439615
154	0xbb4ffca0	-0.003173627
155	0xbbb56320	-0.0055354983
156	0x3cf0ad48	0.029379502
157	0x3bda4320	0.006660834
158	0xbb11d900	-0.0022254586
159	0x3c02cde0	0.007983655
160	0x3d70a722	0.05875314
161	0x3c1bd448	0.009511061
162	0xbc7a66a8	-0.015283264
163	0xbcfae394	-0.030626096
164	0xbc7710c8	-0.015079685
165	0x3cf9e6ac	0.0305055
166	0xbd1113c2	-0.035419233
167	0x3cc672cc	0.024224661
168	0xbce8d6e4	-0.02842278
169	0x3b6cf860	0.0036158785
170	0x3cd1a78c	0.025592588
171	0x3c78bb88	0.01518143
172	0x3c647e88	0.013946183
173	0x3d25742c	0.040393993
174	0x3d71a032	0.058990665
175	0xbb822590	-0.003971763
176	0x3c1f1408	0.009709366
177	0xbd66f57e	-0.056386463
178	0xbcc70cb0	-0.024298042
179	0x3ca425b0	0.020037502
180	0x3b2cafe0	0.0026349947
181	0x3d76ee9c	0.06028615
182	0xbd20dfb6	-0.039275847
183	0xbcc11438	-0.023569211
184	0xbd0620ae	-0.03274601
185	0x3c2d1278	0.010563485
186	0x3d4b3f2e	0.0496208
187	0x3d22d52e	0.039754085
188	0xbd47a43e	-0.048740618
189	0xbc1c45d0	-0.009538129
190	0xbcd858e0	-0.026409566
191	0x3cbccd18	0.023047015
192	0xbd107c36	-0.035274707
193	0xbc0162c8	-0.007897086
194	0xbba5d110	-0.0050603226
195	0xbc91735c	-0.017755203
196	0xbd5ae9a8	-0.05344549
197	0xbc4bfa10	-0.012449756
198	0xbd0fb9d6	-0.035089336
199	0xbcce2afc	-0.02516698
200	0xbd00ccae	-0.031445198
201	0xbce8c1ac	-0.028412662
202	0x3d1af098	0.037827104
203	0x3c9068c0	0.017628074
204	0x3d2cf942	0.0422299
205	0xbc395638	-0.01131206
206	0x3cde737c	0.027154677
207	0x3c4dbdc8	0.012557454
208	0xbba5c570	-0.005058937
209	0x3cd1ed4c	0.025625847
210	0xbd222b30	-0.039591968
211	0x3d42f9e6	0.047601603
212	0xbc889250	-0.01667133
213	0xbd05dd4c	-0.03268175
214	0x3d702eac	0.05863826
215	0xbd0fecd4	-0.035137966
216	0xbba869a0	-0.0051395446
217	0x3cb8de90	0.022567064
218	0xbcbcc158	-0.023041412
219	0xbb919a00	-0.004443407
220	0x3d525ae6	0.05135622
221	0x3ccb5750	0.024821907
222	0xbd07d2ae	-0.033159904
223	0xbd208930	-0.039193332
224	0xbd279f68	-0.040923506
225	0x3cf9a388	0.030473486
226	0xbc87972c	-0.016551577
227	0x3bec2c40	0.0072074234
228	0xbd61d158	-0.055131286
229	0xbd6eec0a	-0.058330573
230	0x3d4bd944	0.049767748
231	0x3cac6c40	0.021047711
232	0x3c1bc070	0.00950633
233	0xbc4b3098	-0.012401722
234	0x39ac4800	0.0003286004
235	0x3d70a088	0.058746845
236	0x3c3d7fd8	0.011566125
237	0x3d79fe20	0.061033368
238	0xbd7dadfe	-0.06193351
239	0x3cbc10a0	0.022957146
240	0xbce2c034	-0.02767954
241	0x3baee3b0	0.005337201
242	0xbd76b84e	-0.06023436
243	0xbd2d0fd8	-0.042251438
244	0x3d087e2a	0.033323444
245	0x3d73236e	0.05935996
246	0xbc310320	-0.010803968
247	0xbd5a2ec2	-0.053267248
248	0xbd5a0838	-0.053230494
249	0xbd51be86	-0.051207088
250	0x3d2f18b2	0.04274816
251	0x3d6f706a	0.058456816
252	0x3d71c524	0.0590259
253	0xbd708a98	-0.058725923
254	0x3c8bb8c8	0.017055884
255	0xbc80c5fc	-0.015719406

fc2.bias f4 [256]
0	0x3d16e138	0.03683588
1	0x3d3a9a80	0.0455575
2	0xbcb39fac	-0.021926723
3	0x3d5ad11a	0.05342207
4	0xbd766ec2	-0.06016422
5	0x3d22bcfc	0.03973101
6	0x3c3b1190	0.011417761
7	0x3d74a7b2	0.05973024
8	0x3c526ba8	0.01284305
9	0x3d772ae8	0.060343653
10	0xbd0137ce	-0.03154736
11	0x3c826540	0.01591742
12	0xbbfb3fb0	-0.0076675043
13	0x3d7af146	0.061265253
14	0x3cf8b45c	0.03035944
15	0x3d0ddd7c	0.034635052
16	0xbd157166	-0.0364851
17	0xbd1a1176	-0.03761431
18	0xbd7eb15e	-0.06218087
19	0x3cc0bc10	0.023527175
20	0xbd1220de	-0.035675876
21	0x3d6a9898	0.05727443
22	0xbd23d982	-0.040002353
23	0x3c990a04	0.018681534
24	0xbcd0c388	-0.025483862
25	0x3d00e7e6	0.031471156
26	0x3bb7c240	0.005607873
27	0xbc2b2378	-0.010445468
28	0xbd28f1de	-0.041246288
29	0xbb8d23d0	-0.0043072477
30	0x3d4e8cfe	0.05042743
31	0x3cc4796c	0.02398368
32	0x3ca1f768	0.019771293
33	0x3d0896ba	0.03334687
34	0x3beb8d10	0.007188447
35	0xbc197030	-0.0093651265
36	0xbd7abbc8	-0.06121424
37	0x3b3ec9c0	0.0029111952
38	0x3d2d56e0	0.04231918
39	0xbd11c7de	-0.035591
40	0xbc11beb8	-0.008895569
41	0x3d2e9184	0.042619243
42	0x3b903680	0.004401028
43	0x3d311078	0.043228596
44	0x3cadefb0	0.021232456
45	0xbcdb7c50	-0.026792675
46	0x3d3d5db0	0.046231925
47	0x3d539ece	0.05166512
48	0xbd43261e	-0.047643773
49	0xbcfadb18	-0.03062205
50	0x3cffcdf4	0.031226136
51	0x3cd7fdac	0.026366077
52	0x3d30e5d8	0.043187946
53	0x3d4f0cdc	0.050549373
54	0x3d197a62	0.03747023
55	0xbbc30a40	-0.0059521496
56	0x3b460c40	0.0030219704
57	0xbce4805c	-0.027893238
58	0xbd71cb56	-0.059031807
59	0xbd22917e	-0.039689533
60	0x3d3b2f18	0.04569921
61	0x3cc583f8	0.02411078
62	0xbd5f3142	-0.054490335
63	0x3d1655b2	0.03670282
64	0xbd5e1b66	-0.054225348
65	0xbc242c48	-0.010020323
66	0xbab28740	-0.001362063
67	0x3d5db948	0.054131776
68	0xbd552284	-0.05203487
69	0xbd5a44ea	-0.053288378
70	0x3d728eb8	0.05921814
71	0xbd41fb5c	-0.047358856
72	0x3d76a570	0.060216367
73	0x3cf2cb10	0.029637843
74	0xbd08860e	-0.03333097
75	0xbd5c5344	-0.053790346
76	0xbd219c16	-0.039455496
77	0xbd052834	-0.032509044
78	0x3cfaf810	0.030635864
79	0xbb56b5c0	-0.003276214
80	0x3c82f6d0	0.01598683
81	0xbceba170	-0.028763503
82	0xbae04f80	-0.0017113537
83	0xbcf93ce4	-0.030424543
84	0x3c8fcce8	0.017553762
85	0x3cd52464	0.026018329
86	0x3bb1e520	0.005428925
87	0x3cb0ccb4	0.021581985
88	0xbd53d32a	-0.051715054
89	0x3d604428	0.0547525
90	0xbc7a8670	-0.015290841
91	0x3d79ad40	0.06095624
92	0x3d7058a0	0.05867827
93	0xbd5e7f22	-0.054320462
94	0xbd617558	-0.05504355
95	0x3d12a44e	0.035801224
96	0xbd398de2	-0.045301326
97	0x3d055874	0.03255506
98	0x39a3f400	0.00031271577
99	0x3d04a236	0.03238126
100	0x3c6f8150	0.014618233
101	0xbd463954	-0.048394516
102	0xbc584c18	-0.013201736
103	0xbd334646	-0.04376819
104	0xbd01c668	-0.031683356
105	0xbd2e6018	-0.04257211
106	0x3d5ae4e2	0.053440936
107	0xbd1072ec	-0.035265848
108	0xbd18d5d6	-0.037313305
109	0x3d500fda	0.050796367
110	0xbd0a73da	-0.03380189
111	0x3c8c4694	0.017123498
112	0x3d5c499e	0.053781144
113	0x3c28ce08	0.010303028
114	0xbcce66b0	-0.02519545
115	0xbd086fa2	-0.033309586
116	0xbcf6f658	-0.030146763
117	0xbb9f1cb0	-0.0048557147
118	0xbaeafb40	-0.0017927662
119	0xbbd3f780	-0.0064687133
120	0xbcc9a718	-0.02461581
121	0xbb1d5a20	-0.0024010018
122	0xbd589412	-0.052875586
123	0xbc03a8d8	-0.008035861
124	0x3d3ceaee	0.046122484
125	0xbd2463bc	-0.040134177
126	0x3b17ea60	0.002318047
127	0xbd07db78	-0.033168286
128	0x3d6b4bac	0.057445213
129	0x3bca15d0	0.006167151
130	0x3d522050	0.051300347
131	0x3d740868	0.05957833
132	0x3d669086	0.056290172
133	0xbbe0d7b0	-0.0068616495
134	0x3c870cf4	0.016485669
135	0x3b7c6460	0.0038511977
136	0x3ca2f9c4	0.019894488
137	0x3c76a1a0	0.015053183
138	0xbb973e50	-0.0046155825
139	0xb9c7ee00	-0.00038133562
140	0xbd77fe4c	-0.06054525
141	0x3d54e93c	0.051980242
142	0x3c5bb760	0.013410419
143	0xbd66f920	-0.056389928
144	0xbc41dbb8	-0.01183217
145	0x3c109540	0.0088246465
146	0xbc38f9d8	-0.011290036
147	0xbd0acd52	-0.033887215
148	0x3d161958	0.036645263
149	0xbcebcd28	-0.02878435
150	0xbd361690	-0.04445511
151	0x3d30c204	0.043153778
152	0x3d664ce6	0.05622568
153	0x3cc07ee4	0.023498006
154	0xbc298790	-0.010347262
155	0xbc01f750	-0.007932499
156	0xbd5511d6	-0.052018963
157	0x3d33ef40	0.04392934
158	0xbce5cd28	-0.028051928
159	0xbd14c4b8	-0.036320418
160	0xbd6f9c4e	-0.058498673
161	0xbd34dfa0	-0.044158578
162	0xbcd01bd0	-0.025403887
163	0x3bc99550	0.0061518326
164	0xbc0458e8	-0.0080778375
165	0xbc6e5e08	-0.014548786
166	0xbd006bbe	-0.03135275
167	0xbbb00430	-0.005371593
168	0xbc322a60	-0.010874361
169	0xbd07405a	-0.033020355
170	0x3b20ad20	0.0024517253
171	0x3c91dbac	0.017804943
172	0x3cd76a98	0.026295945
173	0xbcff148c	-0.031137727
174	0x3ce66cfc	0.02812814
175	0x3d4f5e9a	0.05062733
176	0x3c389b00	0.011267424
177	0x3d66566e	0.05623477
178	0xbd32a94e	-0.043618493
179	0xbb53dd60	-0.0032327995
180	0x3cfec16c	0.03109809
181	0x3d11512c	0.035477802
182	0xbcd848a4	-0.026401825
183	0xbd129b0e	-0.035792403
184	0x3cedbad8	0.029019758
185	0xbc9ef730	-0.019404978
186	0xbd5aa2a4	-0.053377762
187	0x3d5954c8	0.05305937
188	0x3ccec7ec	0.025241815
189	0xbd1d0dd8	-0.03834328
190	0xbc40f818	-0.0117779
191	0xbd5ccb12	-0.0539046
192	0xbbf30da0	-0.0074173957
193	0x3d7c7e18	0.06164369
194	0x3d5bd6d0	0.053671658
195	0xbd56781a	-0.05236063
196	0xb82c6800	-4.1104853e-05
197	0x3c40e950	0.011774376
198	0xbc5ec410	-0.01359655
199	0x3d76a772	0.060218282
200	0x3d2c20c6	0.042023443
201	0x3d0ec4cc	0.03485565
202	0xbd73f56e	-0.059560232
203	0xbcca9bd8	-0.024732515
204	0x3d76f0a2	0.06028808
205	0xbcf0878c	-0.029361509
206	0x3d58ab66	0.052897833
207	0xbd0e9436	-0.034809314
208	0xbd7377ac	-0.0594403
209	0xbd0088aa	-0.031380333
210	0x3b9ea1c0	0.0048410594
211	0xbcf186f0	-0.029483289
212	0xba4b8a00	-0.0007764399
213	0x3cf58254	0.029969372
214	0xbd742df0	-0.059614122
215	0x3d4f23fc	0.050571427
216	0x3d251100	0.040299416
217	0xbbb80760	-0.0056161135
218	0xbd687c52	-0.056759186
219	0x3cf21d7c	0.029555075
220	0xbd114b78	-0.035472363
221	0x3d553760	0.052054763
222	0xbcebdddc	-0.028792314
223	0xbca58514	-0.020205058
224	0xbb19e820	-0.0023484305
225	0x3cefc0ec	0.029266797
226	0x3b940cd0	0.004518129
227	0x3d32d95a	0.043664314
228	0xbd689678	-0.056784123
229	0x3d442e72	0.047895856
230	0x3d70bce2	0.058773883
231	0x3d5403aa	0.051761307
232	0x3d6fe80a	0.0585709
233	0xbd3b9654	-0.04579766
234	0xbd0a2a7e	-0.03373193
235	0xbd1293fc	-0.03578566
236	0xbb931170	-0.0044881627
237	0x3c1b99f0	0.009497151
238	0xbd070a42	-0.032968767
239	0xbd3fa61c	-0.046789274
240	0x3ce7d4e4	0.028299756
241	0x3c88f04c	0.016716145
242	0x3d017ce4	0.031613246
243	0x3caa726c	0.020806514
244	0x3c61a718	0.013772748
245	0xbd291a4a	-0.041284837
246	0x3d3dcfa6	0.046340607
247	0xbbfc5390	-0.007700391
248	0x3cf93128	0.030418947
249	0xbcd1f228	-0.025628164
250	0x3d42ff68	0.047606856
251	0xbd46ea2e	-0.048563175
252	0x3c60d900	0.013723612
253	0x3d7ade44	0.061247125
254	0x3cd54064	0.02603168
255	0x3d06c97c	0.032906994

fc3.weight f4 [1, 256]
0	0xbc47cff8	-0.01219558
1	0x3d605fd8	0.054778904
2	0x3b67e000	0.0035381317
3	0x3d0816c2	0.03322483
4	0xbbaef790	-0.0053395703
5	0x3d0cfdb2	0.03442163
6	0x3cd8b9e4	0.026455827
7	0xbd373036	-0.044723712
8	0xbd229be0	-0.039699435
9	0x3c990594	0.018679418
10	0xbd30dcbe	-0.043179266
11	0x3cdb6510	0.026781589
12	0xbcdbe27c	-0.026841395
13	0x3cb9e984	0.022694357
14	0xbd583478	-0.052784413
15	0x3ccf3db0	0.02529797
16	0x3d24f2a6	0.04027047
17	0xbd4bfa58	-0.049799293
18	0xbd68b084	-0.056808963
19	0xbd237b78	-0.03991267
20	0xbd1b0632	-0.037847705
21	0x3d50d634	0.05098553
22	0xb83c7800	-4.493445e-05
23	0x3d605f68	0.054778486
24	0x3d1db230	0.03850001
25	0x3d704d86	0.058667682
26	0xbce08768	-0.027408317
27	0x3b88ed30	0.0041786656
28	0xbc6fb760	-0.014631122
29	0xbce204e4	-0.027590223
30	0x3d24b35e	0.04021012
31	0x3c3099b0	0.010778829
32	0xbd34507e	-0.044022076
33	0x3a237500	0.0006235391
34	0xbcdb8b5c	-0.02679985
35	0x3cd73b74	0.026273467
36	0x3c799e50	0.015235499
37	0xbc317b50	-0.010832623
38	0x3b9af320	0.00472869
39	0xbcfa8304	-0.030580051
40	0xbb099d00	-0.002099812
41	0x3d16ef8e	0.03684955
42	0x3d52b484	0.051441684
43	0x3cbd9784	0.023143537
44	0x3d3aea18	0.045633405
45	0xbc1d7da8	-0.009612478
46	0xbd632b1e	-0.05546104
47	0xbca1f6bc	-0.019770972
48	0x3cb9327c	0.02260708
49	0x3d202736	0.039099894
50	0xbd750dc8	-0.059827596
51	0x3d7f4bb6	0.062328063
52	0x3d1520e2	0.036408313
53	0xbca8b484	-0.020593889
54	0xbd54b482	-0.05192996
55	0xbd4d401e	-0.050109975
56	0x3d66a0fc	0.05630587
57	0xbd42a03a	-0.047516085
58	0x3d056306	0.03256514
59	0xbd45dd72	-0.04830689
60	0xbc579e00	-0.013160229
61	0xbd586f82	-0.052840717
62	0xbc95d398	-0.018289372
63	0xbbbcbb10	-0.0057596043
64	0xbd418ade	-0.047251575
65	0x3c5cad88	0.013469107
66	0x3a0abb80	0.0005292222
67	0x3d4295a0	0.047505975
68	0x3badc5c0	0.0053031147
69	0x3d6f1758	0.05837187
70	0x3d1e1906	0.038598083
71	0x3cb118ec	0.021618329
72	0x3c8b4788	0.017001882
73	0xbd26f4b2	-0.040760703
74	0xbc748278	-0.014923684
75	0xbc890470	-0.016725749
76	0xbd0c3d90	-0.034238398
77	0xbd4a29b8	-0.049356192
78	0xbd67009a	-0.056397058
79	0x3d7a70ae	0.061142616
80	0x3d1150b2	0.035477348
81	0x3d2b4a7a	0.041819073
82	0x3ccd2d6c	0.025046073
83	0xbcfc0910	-0.03076604
84	0xbd1ec098	-0.03875789
85	0xbd1ec4b2	-0.038761802
86	0x3ae37600	0.0017353892
87	0xbd683d30	-0.056698978
88	0x3d55515a	0.052079536
89	0xbd2061f0	-0.0391559
90	0xbc7b5ac0	-0.015341461
91	0xbcb09d10	-0.021559268
92	0xbd113ace	-0.03545647
93	0xbd05c00a	-0.032653846
94	0x3d33185c	0.043724403
95	0x3d62c7d2	0.055366345
96	0x3d55c23e	0.052187197
97	0xbcb92100	-0.022598743
98	0xbc267ee0	-0.010162085
99	0x3d793d66	0.06084957
100	0x3caac468	0.020845607
101	0x3d238b4a	0.03992776
102	0x3d549066	0.05189552
103	0x3d4149da	0.04718957
104	0xbceab184	-0.0286491
105	0x3d463620	0.04839146
106	0x3d10be18	0.035337538
107	0x3d701130	0.05861014
108	0xbcaa5938	-0.020794496
109	0xbc236760	-0.009973377
110	0x3d2428b0	0.040077865
111	0xbd4fb59e	-0.050710313
112	0xbd712006	-0.05886843
113	0x3cc258c4	0.023723967
114	0xbb7a8ca0	-0.0038230792
115	0x3d46a152	0.04849369
116	0x3c5c02f0	0.013428435
117	0xbbc278a0	-0.00593479
118	0xbd651000	-0.055923462
119	0xbd35c536	-0.044377528
120	0x3d4a33f8	0.049365968
121	0xbd2ca95a	-0.042153694
122	0xbcea8f3c	-0.028632753
123	0x3d3631ce	0.04448109
124	0x3d5a4f22	0.053298123
125	0xbc5188f8	-0.012789004
126	0xbd49d5a6	-0.049276017
127	0xbcb0d88c	-0.021587633
128	0x3c903160	0.017601669
129	0x3c4b40b0	0.012405559
130	0x3c0f2390	0.008736506
131	0x3bbc7c00	0.0057520866
132	0x3d46682a	0.048439182
133	0xbc58d820	-0.013235122
134	0xbccd112c	-0.025032602
135	0x3caaa5f4	0.020831086
136	0x3d6ab3d2	0.057300396
137	0x3d4b5c9e	0.049648874
138	0xbd113624	-0.035452023
139	0x3d694dd0	0.056958973
140	0x3d5f81fe	0.05456733
141	0xbd5d341e	-0.05400478
142	0x3d3126e8	0.043249995
143	0x3ca35f80	0.019942999
144	0x3c996680	0.018725634
145	0xbb0fb720	-0.002192922
146	0xba959340	-0.0011411682
147	0xbd384e6c	-0.044996664
148	0xbce439dc	-0.02785962
149	0x3d73a052	0.059479065
150	0xbd63851e	-0.055546872
151	0xbd70a57a	-0.05875156
152	0xbd137f96	-0.036010347
153	0x3d239304	0.039935127
154	0x3d712c36	0.058880053
155	0xbc42e610	-0.0118956715
156	0xbcf370a8	-0.029716805
157	0xbc8f2ff8	-0.017478928
158	0x3d00e34c	0.031466767
159	0x3c769478	0.015050046
160	0xbd44141e	-0.047870748
161	0x3d152098	0.036408037
162	0x3d05b832	0.032646365
163	0x3cd5d9a8	0.026104763
164	0xbc9c1664	-0.019053645
165	0xbccdd6b0	-0.025126785
166	0x3d6019b8	0.054712027
167	0xbd4c61c2	-0.049897917
168	0xbd3479d0	-0.044061482
169	0xbd2eb83e	-0.042656176
170	0xbd4869f2	-0.048929162
171	0xba1b9f00	-0.00059364736
172	0xbd1bfbb2	-0.038081832
173	0xbd590bce	-0.052989773
174	0xbceb6234	-0.02873335
175	0x3cd3fb94	0.025876798
176	0xbd6e0a18	-0.058115095
177	0x3ca3f8a4	0.020016022
178	0xbd332b6e	-0.04374259
179	0xbd700d24	-0.058606282
180	0x3d242b02	0.040080078
181	0xbcf2d994	-0.029644765
182	0xbd09364c	-0.033499047
183	0x3d4ea5bc	0.050451025
184	0xbd317388	-0.04332307
185	0xbbfb74b0	-0.0076738223
186	0x3cc52474	0.024065234
187	0xbd025494	-0.03181894
188	0x3d28ca9e	0.041208856
189	0xbd005994	-0.03133543
190	0xbd5de1f8	-0.05417058
191	0xbd3aecb8	-0.04563591
192	0xbd530a5a	-0.051523544
193	0xbd0bbce0	-0.034115672
194	0xbd2b25e6	-0.04178419
195	0x3b5538c0	0.0032535046
196	0xbd2c83f8	-0.042118043
197	0xbd29838e	-0.041385226
198	0x3d3aad92	0.045575686
199	0xbb948fe0	-0.004533753
200	0xbd456188	-0.048188716
201	0xbd26e806	-0.04074862
202	0xbd30effa	-0.04319761
203	0x3ba40f50	0.005006708
204	0xbbfe43f0	-0.0077595636
205	0xbc3a8108	-0.0113833025
206	0x3b30a600	0.0026954412
207	0x3cbacaf4	0.022801854
208	0xbcfdcdec	-0.03098198
209	0x3b585280	0.0033008158
210	0xbcf69da8	-0.030104473
211	0x3d4c8cb6	0.04993888
212	0x3d6e29a8	0.058145195
213	0xbba6fe20	-0.005096212
214	0xbc3514d0	-0.011052325
215	0xbd1f49ee	-0.038888864
216	0xbd44fc72	-0.048092313
217	0x3c7510c0	0.014957607
218	0xbc99bf5c	-0.018768005
219	0xbd65b5e8	-0.056081682
220	0xbd1f0fca	-0.038833417
221	0x3d418fc0	0.04725623
222	0xbd666b36	-0.056254588
223	0xbd72c772	-0.059272237
224	0x3d11d55c	0.035603866
225	0xbcfac544	-0.030611642
226	0xbd64be42	-0.055845506
227	0xbc27f840	-0.0102520585
228	0xbc5e3188	-0.013561614
229	0x3d6d3042	0.05790735
230	0xbd5c463c	-0.05377792
231	0xbd49da0c	-0.04928021
232	0x3d0a321c	0.033739194
233	0xbd74bd60	-0.059750915
234	0xbc70afe0	-0.014690369
235	0x3d53360c	0.051565215
236	0x3b9d88e0	0.0048075765
237	0xbb0583a0	-0.0020372644
238	0x3d178948	0.036996156
239	0xbc547a18	-0.012968563
240	0xbd367372	-0.04454369
241	0xbd45424a	-0.04815892
242	0xbd224772	-0.039618917
243	0x3d553f46	0.052062295
244	0xbc184930	-0.009294793
245	0xbc8bad60	-0.017050445
246	0x3c9792b0	0.018502563
247	0xbcdb7754	-0.026790299
248	0x3d0d6cec	0.034527704
249	0xbc2c4bd0	-0.010516122
250	0xbcbed240	-0.023293614
251	0xbcd47d00	-0.02593851
252	0x3d6cfe4a	0.057859696
253	0xbd6411aa	-0.05568091
254	0xb8cb3800	-9.690225e-05
255	0x3d6f813e	0.058472864
