output_lxl/MASAC/weight/critic2_agent_1_ep_8900.pth (torch, 286504 bytes, 5 tensors)

fc1.weight f4 [256, 18]
00000000: 2b7e 5fbe 1007 14be 11f4 033e 7c23 4e3d
00000010: 1a3a 5fbe 6267 973d c8b0 b8bd dc4c 27be
00000020: 86a7 c43d 866c c0bd 7e4d 0ebe 8e3c ec3d
00000030: 8228 bbbd 0324 16be 8058 67bd dc2e 163d
00000040: e06b d2bb d441 4bbe f71a 31be 00db e83a
00000050: a686 993d 3bb7 443e 2c99 c7bd 2b79 39be
00000060: a00d 4cbe 8232 66be b74e 1fbe 34e6 40be
00000070: 1e0c d83d 85ee 343e 080b c83c 3c1d b2bd
00000080: 37fc 2abe 8a37 e73d 10ab c9bd 486e e13c
00000090: 6dad 5ebe e343 583e 59c8 163e 3151 353e
000000a0: 00fc 4dbe 0f8b 013e 6454 38be 2248 eabd
000000b0: 7f49 5fbe 0483 40bd 189d 08be c010 ea3b
000000c0: 2404 13bd a379 1e3e 0645 b03d 561b 01be
000000d0: 791e 70be a0f1 383c 109e 5c3c 2b18 153e
000000e0: c716 503e 244e 93bd 5c11 403d 9185 603e
000000f0: 0c51 3fbd e86a d7bc 78e9 72bd 5ace 8a3d
00000100: 4643 8b3d 9c24 56bd dbb1 583e 7e7b 97bd
00000110: e688 93bd 4848 e23c 0d5d 143e 4233 97bd
00000120: 40ca 13be 9529 3c3e 5057 b6bc f8c2 d63c
00000130: a22c 97bd 1477 11be 1d1f 62be c45b 74bd
00000140: 2cad 083d 6072 c63b 282c 24bd 502b 52bd
00000150: 5c9d 3a3d 585f 7abd 0049 f23b 4bb2 153e
00000160: f5c7 0bbe e664 a1bd 4e0e c13d 1021 8fbd
00000170: e526 4d3e bec5 f5bd 30f1 22bc 2d7b 69be
00000180: 586a ed3c dfcf 17be d4a8 50bd 4a03 8ebd
00000190: d0c9 edbc 2d4c 0e3e 9bf6 63be 5022 33be
000001a0: 1977 363e 7397 173e e2dd 4fbe 9d3b e4bd
000001b0: a0e1 cf3b 96a2 c6bd 791d 13be 281e ba3c
000001c0: 9b3b 353e bd2f 263e 99cc 643e 682d 0fbd
000001d0: 2eed 34be a8f4 4fbd 541e 2dbd 8299 c73d
000001e0: 063e 9a3d b3cd 083e 5cce 1b3d 085e ab3c
000001f0: 08e6 853c a80c e33c 0f39 5d3e 8855 c9bc
00000200: 6543 4cbe 42d7 8ebd 6171 553e 57c2 103e
00000210: 6f43 2e3e 4505 2d3e ec66 7ebd f07e 99bc
00000220: e846 843c 9392 5abe 6bd4 353e 26e0 d23d
00000230: f94e 4fbe b5d4 6dbe 040b 59be 58fe 843c
00000240: 1fee 2e3e a00b c2bb 00d9 3bbb 8e86 30be
00000250: 7841 2abd 5eb4 ce3d 8a4c 24be cc98 29bd
00000260: 7208 0dbe d8de 5cbd d80c 913c c86f 5abe
00000270: 6a8f 52be f0ba ffbc a1d9 60be 7cfb 4b3d
00000280: 6765 153e 0779 39be 90ce 82bc 428b bdbd
00000290: 4221 f13d 3045 babd 42e4 acbd 988e ddbd
000002a0: 901e 413c 8558 693e e030 abbb 289f 8b3c
000002b0: 406b 05bb f2bc 943d d566 70be 46a2 5fbe
000002c0: 443a 6ebe cbee 293e f764 1e3e a3ec 0f3e
000002d0: 0c0f 203d 5ef3 d53d d017 e9bd 93fa e2bd
000002e0: 6744 3d3e 48fb ef3c 7a0b afbd 77c2 583e
000002f0: 76a3 e1bd 4f53 503e 2e96 d5bd 7075 33bc
00000300: 6145 303e b999 6d3e 0044 2c39 978e 163e
00000310: 6c7e 98bd 6ae0 f83d 2037 37bd 5fb6 413e
00000320: 4c4f 21bd 0e29 873d 50a4 03be 3db2 3c3e
00000330: 5f33 25be efc8 363e a8a7 cb3c ce2c df3d
00000340: 2e9f 3fbe 2dea 0f3e 8e96 d2bd ffc6 083e
00000350: 5cf9 8cbd dce8 2a3d b65a 18be f570 4f3e
00000360: c205 c53d b418 723d 2e50 8fbd 13dc 263e
00000370: 4668 68be 60c5 9fbb 60d9 59bc 04b5 3fbd
00000380: 67f3 6a3e b098 32bc 725c cebd 9ada edbd
00000390: a5b2 52be 088f 9c3c aa27 0cbe dc9c 42bd
000003a0: 2e95 b83d 1dc7 583e 342f 39bd 7ae4 12be
000003b0: 84a1 713d d343 1a3e beb0 a83d d919 033e
000003c0: f8ff b43c d467 7dbd e67e dfbd 0022 19bd
000003d0: 805c 293c f4dd 10bd cafa a83d 894a 3e3e
000003e0: a87e 89bd 919c fbbd 5693 9f3d 29d6 0e3e
000003f0: 27a5 703e c3e4 0ebe c9de 21be c212 933d
-0.21825473 -0.14455819 0.12886073 0.05032681 -0.21799508 0.073927656 -0.09018093 -0.16337913
0.09602265 -0.09395699 -0.13896748 0.115349874 -0.091385856 -0.14662175 -0.056480885 0.036665782
-0.006421551 -0.1984933 -0.17295443 0.0017765462 0.07496385 0.19210522 -0.09746012 -0.18112628
-0.19927073 -0.22480205 -0.15557371 -0.18837816 0.10549186 0.17669113 0.024419323 -0.08696982
-0.16697775 0.1128989 -0.09847081 0.027518407 -0.21745844 0.21119647 0.14724864 0.17706753
-0.20115662 0.12650703 -0.18000942 -0.114395395 -0.2180538 -0.046999946 -0.13341177 0.00714311
-0.03589262 0.15476088 0.08606915 -0.12608084 -0.23449124 0.011288077 0.013465419 0.1456
0.20321189 -0.071926385 0.046891555 0.21925952 -0.04670815 -0.026296094 -0.059304684 0.0677764
0.06799941 -0.052281007 0.21161596 -0.07396601 -0.07203846 0.027622357 0.14488621 -0.073828235
-0.14432621 0.18375237 -0.02225843 0.026216015 -0.0738156 -0.14205581 -0.22082181 -0.059657827
0.033368275 0.006056115 -0.040081173 -0.051310837 0.045560226 -0.061126083 0.007393956 0.14618795
-0.13650496 -0.07880573 0.094265565 -0.06988728 0.20034368 -0.12000607 -0.009945199 -0.22800894
0.028981373 -0.1482539 -0.050942257 -0.06934221 -0.029026896 0.13896246 -0.22262041 -0.17493558
0.1781887 0.14803867 -0.20299485 -0.11144183 0.0063440353 -0.096989796 -0.14366712 0.022719458
0.17698519 0.16229148 0.22343673 -0.034955412 -0.17668602 -0.05077043 -0.04226525 0.09746076
0.07531361 0.13359718 0.038038597 0.020918861 0.016345039 0.027715996 0.21603797 -0.024576917
-0.19947584 -0.06974651 0.20844032 0.14136635 0.17017911 0.16896541 -0.062109873 -0.018737286
0.016147092 -0.21344976 0.17756812 0.10296659 -0.2024497 -0.23225673 -0.21195608 0.016234562
0.17083023 -0.005921796 -0.0028663278 -0.17238829 -0.041566342 0.10092996 -0.16044822 -0.041405484
-0.13772753 -0.053923458 0.01770632 -0.21331704 -0.2056252 -0.031217068 -0.21958019 0.04980038
0.14589463 -0.18112575 -0.015967637 -0.09255077 0.117739215 -0.09095228 -0.08441974 -0.10818213
0.011787072 0.22787674 -0.005224332 0.017043665 -0.0020358115 0.07262601 -0.23476727 -0.21839246
-0.23264414 0.16594999 0.15468203 0.14055113 0.03907685 0.10446809 -0.11381495 -0.110829495
0.18483125 0.029294625 -0.08547111 0.21167932 -0.11017506 0.2034428 -0.10429035 -0.010953292
0.17213966 0.23203172 0.0001642853 0.14702831 -0.07445988 0.121521786 -0.044730306 0.18917225
-0.039382264 0.065996274 -0.12855649 0.18427368 -0.16132878 0.17850088 0.024860218 0.10897218
-0.18713066 0.14054175 -0.10282622 0.13357161 -0.06883499 0.04172598 -0.14878353 0.20257933
0.09620239 0.05910559 -0.06997715 0.16294889 -0.22696027 -0.004875824 -0.013296455 -0.04680349
0.22944413 -0.010900661 -0.10076226 -0.116139606 -0.2057596 0.019111171 -0.13687006 -0.047512874
0.09012829 0.21169706 -0.045211032 -0.1434497 0.058991924 0.15064935 0.08236836 0.12802829
0.022094712 -0.061866596 -0.10912876 -0.03738594 0.010336995 -0.03536792 0.08250959 0.1858312
-0.06713611 -0.12285722 0.07791774 0.13948883 0.235005 -0.13954453 -0.15807642 0.07181312

fc1.bias f4 [256]
00000000: ad92 573e 5e50 21be fe5f 52be f723 553e
00000010: 19b5 4b3e face f13d 30a3 eabd d065 e1bd
00000020: e888 933c ea9b ee3d fa61 aebd a879 48bd
00000030: 74a7 b6bd ce81 c23d 20aa 6fbd f64a 0fbe
00000040: 166a d23d 7a92 33be e048 673c 6a5f 70be
00000050: 7891 c63c 135c 343e c00f 3bbd 696c 493e
00000060: 414b 0c3e 8e9b d73d efb9 403e ae57 23be
00000070: 4e9b cf3d 4022 ef3b dbe8 673e f00a 2bbe
00000080: bce0 aabd 7f8d 013e 1be7 533e 2ecb d43d
00000090: 5e9d 58be 0c21 203d d196 53be a51d 4c3e
000000a0: 0cbe 38be 0a11 06be 4a54 873d 400e 4fbd
000000b0: 4112 0f3e 23b5 6f3e 80d3 213c eef1 fc3d
000000c0: 85a8 efbd 6b9a 213e d4d6 c3bd 04c7 4fbd
000000d0: c62f 5fbe a001 9d3b 5a50 e2bd 6990 65be
000000e0: 04bb 743d aca9 a5bd 80dc ac3a 3297 8fbd
000000f0: c9cb 4f3e 8417 2f3d d6cb a6bd 80fb b2ba
00000100: 3a0d b93d 66c3 ff3d 0479 4bbe d35e 6c3e
00000110: c4c2 08bd 0ebc 38be 102e 53bd e30d 213e
00000120: 7ec4 10be b909 673e 26e0 e03d 13a2 4d3e
00000130: b05c c0bc 76f2 8d3d c2f6 f73d e206 a8bd
00000140: 3ab6 d83d f160 523e 17a7 00be 932a f4bd
00000150: a00b 71be b0d4 b0bc 007b b53a ecc0 21be
00000160: 1dbf 263e 7658 3fbe 8329 61be 2cd4 6ebd
00000170: 50b4 93bd b7c8 1f3e ed62 5f3e dc78 09be
00000180: bd98 2cbe 2123 16be 3856 02bd ceb8 afbd
00000190: 18b0 fbbc 74f3 bcbd c8b4 c8bd 33a1 023e
000001a0: 9b51 153e ec07 4ebe db75 3c3e c428 bdbd
000001b0: d6b7 d13d 5a2c 1bbe 7a16 dbbd dcb1 0abe
000001c0: e896 bf3c db03 0a3e 0625 02be 7997 fcbd
000001d0: 8ce3 1fbd 9b30 00be d2d4 e4bd d91b 57be
000001e0: 00e0 ddbc b4a7 553d 9d2a 613e f702 64be
000001f0: 1cff 413d ee6c d63d 0b02 2cbe 2ece b03d
00000200: 23b9 febd b63a c63d 3c11 5f3d 4f95 6cbe
00000210: 7d17 12be 0156 2d3e f20a 47be f0a5 02bc
00000220: 1889 80bc e355 473e 7d15 633e 4f66 273e
00000230: a231 c93d 23a1 6bbe 53ee 62be 0ec7 4ebe
00000240: 5d0b 693e b8ea 14be 9af3 2dbe 0bf5 01be
00000250: 93d9 07be ff3d 113e c010 3dbd 4239 a13d
00000260: 30d5 053c a6a0 eebd fead 0ebe 9a5a c3bd
00000270: b7a7 163e af34 353e 677a 0ebe a353 68be
00000280: 5760 643e 8f5c 163e 00e6 6eba b85a db3c
00000290: e6ee 4abe 008f a73a e1d3 1d3e e20c 9bbd
000002a0: f384 1fbe f6c9 5cbe 0815 fa3c 2771 003e
000002b0: 7947 273e 316d 2f3e b0cd 753c dfc4 373e
000002c0: db34 233e 9ae7 ba3d ab9d 403e 5012 fabc
000002d0: 4d1e 50be dca6 54bd 90c6 503c 5f41 593e
000002e0: 5cb0 713d 9e94 9f3d 1612 6ebe 190b 673e
000002f0: 80a4 1cbc 04d0 c0bd 549f 27bd 00ce 1b3a
00000300: f4f0 793d d497 3c3d 95cd 063e 66bb e5bd
00000310: 06d2 c03d 087e dcbc 396f 143e dd4b 3e3e
00000320: a2a6 863d b851 8dbc 1593 603e ec9f 133d
00000330: 84e5 bcbd a447 10be c506 303e 12a3 dc3d
00000340: 1830 af3c 0cb7 3dbd 1fb7 6e3e 3ccd b5bd
00000350: 1f30 053e c0a9 73bd c24e 26be 0576 5f3e
00000360: fa94 863d 5a0f bc3d c2e5 8b3d 2ab1 8c3d
00000370: d1bc 043e ac8b 02be 3416 2b3d c45c afbd
00000380: 9e22 09be 1834 6bbd fedd e13d 5ec5 d93d
00000390: 42c3 a13d 8cb3 213d 73ad 423e 1217 a8bd
000003a0: b6b1 843d 07c2 253e f4d8 0c3d 8a21 8d3d
000003b0: 881c cabc 3e5d 6cbe 5b09 0e3e d105 2e3e
000003c0: ecdd febd 1a31 813d 4814 96bc 20ba 54be
000003d0: 6c21 493d ed8c 18be df09 043e 833b 503e
000003e0: a6e6 d7bd 40ec ed3b 58ce a6bc b6f4 babd
000003f0: 0310 403e 1953 6c3e 0457 2f3d 44ab 6bbe
0.21052046 -0.15753314 -0.2054443 0.20814501 0.19893302 0.11807056 -0.11456907 -0.11005747
0.018009618 0.11650832 -0.08514781 -0.048944145 -0.08918658 0.094974145 -0.058511853 -0.13993439
0.102741405 -0.17536345 0.014116496 -0.23473898 0.024239287 0.17613249 -0.045669317 0.19670261
0.13700582 0.105277166 0.18820928 -0.15951416 0.10137044 0.007297784 0.22647421 -0.16703391
-0.08343646 0.12651633 0.20693628 0.10390316 -0.21153781 0.039094016 -0.20663 0.19933183
-0.18041247 -0.13092437 0.06607874 -0.0505507 0.13971807 0.23408942 0.009877086 0.12350832
-0.117020644 0.15781562 -0.095624596 -0.050726905 -0.21795568 0.0047914535 -0.11050482 -0.2241837
0.059748664 -0.08089003 0.0013188273 -0.0701126 0.20292582 0.042747036 -0.08144347 -0.0013655275
0.09035726 0.12488441 -0.19870383 0.23083048 -0.033388868 -0.18040487 -0.0515576 0.15727954
-0.14137456 0.22562303 0.10980253 0.20081358 -0.023481697 0.069310114 0.12107612 -0.08204438
0.10581632 0.20544793 -0.1256374 -0.11922183 -0.23539591 -0.021585792 0.0013845861 -0.1579625
0.16283841 -0.18686089 -0.21988492 -0.05830781 -0.07212126 0.1560391 0.21815081 -0.1342501
-0.1685514 -0.14661838 -0.031820506 -0.085801706 -0.030723616 -0.092261225 -0.09800106 0.12756805
0.14581911 -0.2012021 0.18404333 -0.09236291 0.10240142 -0.15153638 -0.106976464 -0.1354441
0.023387387 0.13478033 -0.12709436 -0.123335786 -0.039035365 -0.12518542 -0.11173405 -0.21006717
-0.02708435 0.052161887 0.21988912 -0.22266756 0.047362432 0.104699954 -0.16797654 0.08633076
-0.12437656 0.09679167 0.054459795 -0.23103832 -0.14266773 0.16927339 -0.19437769 -0.007974133
-0.015690371 0.19466357 0.22176166 0.16347621 0.0982392 -0.23010688 -0.22161226 -0.20193121
0.22758241 -0.14542663 -0.16987458 -0.12691133 -0.13266592 0.14183806 -0.046158552 0.07872249
0.008168504 -0.11651735 -0.1393356 -0.09538765 0.14712416 0.17695878 -0.1391388 -0.22688155
0.22302376 0.14683746 -0.0009113252 0.026776657 -0.19817695 0.0012783706 0.15412857 -0.075708166
-0.1557806 -0.21561417 0.030527607 0.12543164 0.16335858 0.17131497 0.015002653 0.17946194
0.15938132 0.09126206 0.18810146 -0.03052631 -0.20324059 -0.051916942 0.0127426535 0.21216343
0.05900608 0.07792018 -0.23249087 0.22562827 -0.009560704 -0.09414676 -0.04092343 0.0005943477
0.061020806 0.046043232 0.13164361 -0.11217384 0.09415059 -0.026915565 0.14495553 0.18583627
0.065747514 -0.01725088 0.21931107 0.036041185 -0.09223464 -0.14089829 0.17190082 0.10773291
0.021385238 -0.046317145 0.23312043 -0.08877036 0.13006638 -0.059488058 -0.16240981 0.21822365
0.06571384 0.091826156 0.06830932 0.06869729 0.12962653 -0.12748593 0.04176922 -0.085626155
-0.13392112 -0.057422727 0.1102867 0.10633348 0.078985706 0.03947787 0.19011478 -0.08207525
0.06479208 0.16187297 0.03438659 0.06891163 -0.024671808 -0.23082444 0.13870756 0.16994406
-0.12444672 0.063081935 -0.018320218 -0.20774126 0.04910414 -0.14897509 0.1289439 0.20335202
-0.105420396 0.007260829 -0.020362064 -0.09128706 0.18756108 0.23078574 0.042807594 -0.23014551

fc2.weight f4 [256, 256]
00000000: ec13 abbc 5eb3 0bbd 6c8b 383d 0c65 a53c
00000010: e8f6 623c 388b 393c 68d5 713d 6c4a 183d
00000020: 64d0 fcbc 148e 62bd ca28 6cbd 907a 69bd
00000030: dc79 e13c 00ac 8a39 8c59 c8bc 449d f3bc
00000040: c897 343c a884 dbbc 94cf e43c a240 293d
00000050: a87d 01bd 24e2 69bd d4af c1bc 6afd 6cbd
00000060: 228a 4a3d c0be 1d3d 00fa e6ba 4e7f 0d3d
00000070: 8069 75ba 303f 7f3d d233 3ebd cab4 3cbd
00000080: 52a9 62bd 60c4 e5bb 4025 d23c 30f3 213d
00000090: 1013 ebbb 104a 80bb 164b 7ebd 04f7 61bd
000000a0: b250 2b3d 703a b8bc d03c 32bc 0024 523d
000000b0: 00df b1b9 187c aabc ee51 0e3d 149f 01bd
000000c0: 706a 0e3d 1887 6abc c0c2 52bc f00a 0c3d
000000d0: 78fd 83bc c0f5 ea3c 3ac4 383d dedc 1abd
000000e0: cccc 8abc f09e 20bc b8a7 14bd c419 a63c
000000f0: c667 793d 043d bfbc 0eab 773d 284a 9ebc
00000100: 002e 1d3b 00e0 473b c869 2abc 48ee d93c
00000110: 0c68 5abd f09b f93b c050 9a3b 0078 feba
00000120: 9046 e2bb d8cc 9cbc 7aed 09bd 34b7 f5bc
00000130: 8031 40bc d091 4abd 164d 643d ec4a 873c
00000140: 247c a13c 6c60 f23c 72fb 4b3d 86a6 333d
00000150: c0e4 73bb 30ea 433d 00cd d5b9 a06f 9fbb
00000160: 30b8 4f3c 24d2 603d 68f2 fabc 58c4 123c
00000170: 5ce8 d3bc e01a 743c cef6 27bd bc41 013d
00000180: de38 08bd 4e41 66bd 28d5 253d a2ea 08bd
00000190: aea4 0c3d 54b6 b73c 009f 08bc 5c06 b8bc
000001a0: e8e9 573c 8861 18bd 3886 3bbd 38e4 e63c
000001b0: 7ccc aabc 8c31 7b3d d0c7 65bc a846 75bc
000001c0: 7461 66bd c699 3c3d 00d4 f5b9 74a6 533d
000001d0: e058 58bc ba55 46bd 38ca 27bc 7843 4cbd
000001e0: b083 9cbb 8660 57bd 1c3f 343d cc8a 0a3d
000001f0: b049 7d3c a820 cd3c e067 fe3c 9020 ccbc
00000200: 661e 26bd 3861 dbbc 7c9a d5bc 3057 3b3c
00000210: f43c 3e3d 7c52 383d e414 9c3c fe27 34bd
00000220: 98c2 853c 9010 74bc f0c4 d63c de99 7f3d
00000230: ecb9 d33c ec1e fa3c bc43 1e3d 80d2 7ebd
00000240: ac12 a0bc 128e 52bd b8c7 a6bc 5056 a43c
00000250: 80d2 acba 749d 90bc 30d2 a4bc 3eff 32bd
00000260: c032 46bb c887 793d d4b0 6e3d 58e1 ea3c
00000270: ecea 15bd 4651 3fbd b6db 423d 4ce0 353d
00000280: feeb 58bd 80ca 9b3b c05a edbc 5690 3b3d
00000290: 9e99 25bd 8e80 7d3d aa62 2dbd 8cf4 f7bc
000002a0: 48e2 e93c e46e eebc c003 393c da38 3abd
000002b0: 04f0 5abd 4cba bc3c c492 a9bc 0454 0cbd
000002c0: ac2c b23c 721a 0abd c038 673b 0086 bbbc
000002d0: b8f9 98bc 0681 5abd 74e1 6c3d 6608 6b3d
000002e0: 0029 6bba 0855 76bc 8ae6 243d 22ca 4b3d
000002f0: 7ebd 78bd 80c0 b9ba d0f4 453d cc12 43bd
00000300: 3ee1 3dbd 3059 513d e879 cbbc ac65 1f3d
00000310: 28c1 51bc 00a8 48ba 8451 1c3d d86c 9ebc
00000320: 00d4 8638 6600 24bd 386a 6c3d 2077 40bc
00000330: a0d1 88bb fc3b e6bc 285c 7d3d 8430 273d
00000340: 5a1a 26bd 0001 34bd facd 5dbd 4821 6bbc
00000350: 30a2 c6bc ac15 723d 206a 93bc e8fc 03bc
00000360: 3831 21bd f8ad 14bd 047f bbbc 58cd 20bd
00000370: 7428 8f3c 42dd 1f3d 849e ef3c 20a7 523b
00000380: d000 f43b 3833 343d 00f4 a13b 9a8e 52bd
00000390: e099 0d3d faff 55bd d081 03bd b4b7 c9bc
000003a0: e802 083d 906e 9cbb e003 b3bc 6653 693d
000003b0: e203 5c3d dc02 f2bc 469e 5b3d 7825 983c
000003c0: d2af 5e3d f063 82bb 78fe 72bd 6c23 03bd
000003d0: de9c 21bd 9447 47bd 00ca b23a 6050 5a3d
000003e0: 5ca6 4cbd 5ad3 7fbd f654 663d d09c d5bb
000003f0: 06c1 303d 5060 db3b 6aea 0c3d b074 95bc
-0.020883523 -0.034106605 0.045054838 0.020189784 0.013852812 0.011324696 0.05904141 0.03718035
-0.030861087 -0.055311278 -0.057656087 -0.05700165 0.027523927 0.0002644956 -0.024456762 -0.029738076
0.011022516 -0.026796654 0.027931012 0.041321404 -0.031613976 -0.05710043 -0.023643412 -0.057858862
0.04944814 0.03851199 -0.0017622113 0.034545235 -0.0009361729 0.06231612 -0.04643614 -0.04607085
-0.055337258 -0.007011935 0.025652528 0.039538562 -0.0071739033 -0.003915079 -0.062083326 -0.055167213
0.041825004 -0.022488803 -0.010878757 0.051303864 -0.0003392622 -0.020811126 0.034746103 -0.03164585
0.034769475 -0.014314435 -0.012863815 0.03419012 -0.016112074 0.028681636 0.04510901 -0.03780829
-0.016943358 -0.009803519 -0.03629276 0.020275958 0.06088998 -0.023344524 0.060465865 -0.01932247
0.0023983717 0.0030498505 -0.010401197 0.02660288 -0.053321883 0.007617466 0.004709333 -0.0019414425
-0.0069053844 -0.019140646 -0.03367374 -0.029994585 -0.011730552 -0.049455464 0.055737577 0.016515218
0.019712515 0.029586993 0.049800344 0.04385998 -0.0037215203 0.04783076 -0.00040779263 -0.0048656017
0.012678191 0.054887906 -0.030633166 0.008957945 -0.025867634 0.014898986 -0.041006856 0.03155683
-0.033257358 -0.056214623 0.040486485 -0.03342689 0.03433674 0.022425808 -0.00833869 -0.02246397
0.013178326 -0.037202388 -0.045782298 0.028184995 -0.020849459 0.06132655 -0.01402469 -0.014970459
-0.056245282 0.046045087 -0.00046887994 0.051672414 -0.013204783 -0.0484216 -0.010241084 -0.04986903
-0.0047764406 -0.052582286 0.0440055 0.033823773 0.015459463 0.025039986 0.03105539 -0.02491787
-0.040556334 -0.026779756 -0.02607464 0.011434361 0.04644485 0.04500054 0.01905293 -0.043983452
0.016328141 -0.014896527 0.026216954 0.0624026 0.02584549 0.030532323 0.038638815 -0.062212467
-0.019540153 -0.05140502 -0.020358905 0.020060688 -0.0013185292 -0.017653205 -0.020119756 -0.04370045
-0.0030242652 0.060920507 0.058274105 0.028671905 -0.036600992 -0.046708368 0.047572814 0.04440336
-0.052959435 0.0047543645 -0.028973937 0.045791946 -0.040429704 0.061890177 -0.04233042 -0.030267976
0.028550282 -0.029105611 0.011292398 -0.045464374 -0.053451553 0.023038052 -0.020699866 -0.03425981
0.021749817 -0.033716626 0.0035281628 -0.022891045 -0.018673763 -0.053345703 0.057832196 0.057381056
-0.0008970648 -0.0150349215 0.04025892 0.049753316 -0.06072759 -0.0014171749 0.048329175 -0.047625348
-0.046357386 0.051110446 -0.024838403 0.03891532 -0.0128024 -0.00076544285 0.038163677 -0.01933901
6.429106e-05 -0.040039442 0.057718486 -0.011747152 -0.00417538 -0.028104775 0.061855465 0.040817752
-0.040552475 -0.043946266 -0.054151513 -0.014351197 -0.024247259 0.0591027 -0.01799494 -0.008055903
-0.03935358 -0.036298722 -0.022887714 -0.03925833 0.017475344 0.039029367 0.02925039 0.0032143071
0.007446386 0.04399416 0.004942417 -0.051405527 0.034570575 -0.05224607 -0.03210622 -0.02462373
0.033205897 -0.0047739223 -0.021852434 0.0569643 0.05371464 -0.02954238 0.05361774 0.018572554
0.054366894 -0.0039791986 -0.05932471 -0.032016203 -0.03945624 -0.048652247 0.0013640523 0.053299308
-0.04996334 -0.06245742 0.05623337 -0.0065189376 0.04315283 0.006694831 0.034403242 -0.018244117

fc2.bias f4 [256]
00000000: bc44 16bd 30a4 8c3b 7e9b 013d 1cc4 f43c
00000010: 407f 8fba 98a5 57bd 10e4 783d 4ea2 1dbd
00000020: 4e58 223d 1c52 dc3c ace2 c5bc da56 55bd
00000030: 3808 afbc a048 93bc 8cd2 fcbc 5a34 14bd
00000040: 544e 48bd 5695 4abd a4b2 68bd d23a 313d
00000050: 80d3 88bb bab9 53bd e82f fdbc 18e5 723c
00000060: c04b d23c b089 0cbc f2aa 4c3d 02d1 283d
00000070: 44b8 ec3c 287d a53c 6656 4dbd 90ab d63b
00000080: e8d4 623c f2e1 703d b8dd 5a3d 6a64 713d
00000090: e655 5c3d 32ae 3cbd d8df 70bc 2032 99bb
000000a0: c2f2 4dbd ac8e f2bc b071 30bc 866b 233d
000000b0: dc7c dcbc d8cf d33c 660c 70bd 0ea4 7fbd
000000c0: 301c 30bd cc97 583d 347c e93c 3e65 0d3d
000000d0: 5200 3f3d c08f da3c 8095 10ba 3e2f 03bd
000000e0: 0e3a 443d d8c5 133d 807c 0f3a c039 f33c
000000f0: 407b fbbb 4893 4dbc 82cb 2fbd c04a 213c
00000100: a449 4abd c6b7 2d3d d82d e03c f603 0abd
00000110: 9047 28bd a0b6 51bc 0059 303c 381d b7bc
00000120: 9ac7 6ebd 1423 2f3d f0bc edbc 0060 a73a
00000130: c65a 0d3d 9ceb 513d 4811 4d3d 5c2f c0bc
00000140: bcaa 693d 86f9 74bd c0a7 e03b 98b4 233d
00000150: 402c efba 90fb b9bc 5263 08bd 0ec8 7a3d
00000160: 98ec 3fbc 1295 783d 90e1 53bd 70e4 323c
00000170: 4ac1 48bd 0647 723d 0499 97bc 6087 30bb
00000180: a026 76bb 9086 b03c 2cc8 6bbd be4e 193d
00000190: 7402 023d ba86 073d 1629 2abd a8f6 493c
000001a0: 5085 2a3d bccd 21bd 127b 323d b842 723d
000001b0: 583e 01bd 62e6 2d3d 90d0 67bc fc8a 643d
000001c0: 80d9 d23a eabc 253d bc82 e33c a0e7 b6bc
000001d0: 06aa 41bd ee6b 493d a6c6 77bd e0b1 be3b
000001e0: 20df e33c bc75 bc3c 46ae 7bbd c207 47bd
000001f0: 5e69 77bd 0021 f5b9 7059 823b 32dd 1f3d
00000200: ae6c 263d ec6e d3bc e853 efbc e47e 3f3d
00000210: 9843 28bd 1e94 103d 7833 d73c ec17 66bd
00000220: 505d 1abc dc4f 4bbd b8bc 123d dc26 4b3d
00000230: 4c4c 88bc 38c8 263c a4c9 dabc 545a 27bd
00000240: ac23 053d d06c 31bc 1083 a3bb 2a70 7fbd
00000250: ae07 56bd 002e 49b9 ccfd ff3c 5855 64bd
00000260: ac77 d23c 44a9 c3bc 7060 26bd 70ca f5bc
00000270: 8840 6fbc 8056 273d 7862 febc 00c6 63bd
00000280: 88f8 29bc 6031 05bc 706e e53c d0c3 19bd
00000290: 1414 98bc 6261 133d 02ca 11bd f00f 9dbb
000002a0: a072 49bb b06b 9bbb 2835 46bd 829f 15bd
000002b0: 165f 3bbd 120a 14bd 4e53 3a3d a2d9 493d
000002c0: d0f7 553d 4057 e13a 7c26 8dbc 1044 1d3c
000002d0: ae5e 4ebd 5427 223d 32bf 243d ce94 153d
000002e0: e0da e2bc ae5a 363d d875 523d bc88 483d
000002f0: a812 f9bc b01d 2e3d 7242 18bd 10c7 24bc
00000300: 1c14 fa3c 10e7 efbb 800f 773a 9050 0dbd
00000310: bcf5 fa3c 94a2 273d 607f 393b f875 5f3c
00000320: 409a 7d3c 006f 56ba 788f 87bc bc31 fd3c
00000330: c48f b33c d06f 6cbc a086 77bb 9694 01bd
00000340: 806d 933b 8c7d 693d 5a2c 103d 90ba ed3c
00000350: fc41 49bd 9066 f53c a856 60bd 1c82 40bd
00000360: 72e3 6f3d c078 1cbc 2c79 d83c 7448 70bd
00000370: 8aea 5bbd 06be 54bd ac7d 8c3c 7c04 2b3d
00000380: 003b 903b 08d5 653c f887 7abd 2caa 74bd
00000390: 60a6 2a3c a8db 60bc 0067 63bd b2b3 12bd
000003a0: 408f d5bb 16b4 56bd aea6 683d 48a0 6fbc
000003b0: 0c49 513d 4cc4 7dbd c2d1 33bd 9ce5 30bd
000003c0: 961c 1a3d b44e cdbc 8ae1 143d bc93 b63c
000003d0: 60a4 573d 4643 653d 7e5e 55bd 32bc 46bd
000003e0: 3052 96bb a059 e63c 1ee9 31bd d0d1 dbbb
000003f0: 7cb1 2fbd a223 0b3d 8868 b63c 0036 aebc
-0.036686644 0.0042920336 0.03164243 0.029878668 -0.0010947958 -0.052648157 0.060764372 -0.038484864
0.039634995 0.026894622 -0.024155937 -0.05208478 -0.021366224 -0.017978966 -0.030862115 -0.03618274
-0.048902825 -0.049458824 -0.05681099 0.043268986 -0.0041756034 -0.051690795 -0.030906633 0.014825128
0.025670886 -0.008577749 0.049967714 0.04121495 0.028896458 0.02020128 -0.050131224 0.0065512136
0.013844706 0.05880923 0.053434104 0.058933653 0.053792857 -0.046064563 -0.014701806 -0.004675165
-0.05028034 -0.029609047 -0.010769293 0.039897464 -0.026915006 0.025855944 -0.058605574 -0.062412314
-0.04299563 0.05287914 0.028501607 0.03452038 0.046631165 0.026679873 -0.00055154413 -0.032027476
0.047906928 0.03607735 0.0005473569 0.029690623 -0.0076746047 -0.012547322 -0.04291869 0.009844482
-0.049386635 0.042411588 0.02736561 -0.033695184 -0.041083872 -0.012799889 0.010763407 -0.0223528
-0.058295824 0.042758062 -0.029020756 0.0012769699 0.034510396 0.051250085 0.05006531 -0.023460083
0.05704759 -0.059808277 0.006855935 0.03996715 -0.001824744 -0.022702962 -0.033297844 0.061225943
-0.011714123 0.06068904 -0.051728785 0.010918722 -0.04901246 0.059149764 -0.01850558 -0.0026936159
-0.0037559643 0.02154854 -0.057563946 0.03742861 0.03174062 0.03308747 -0.04154309 0.012326874
0.041631043 -0.039502844 0.0435744 0.05914566 -0.031553596 0.04245604 -0.014148846 0.05579661
0.0016086549 0.040463366 0.0277723 -0.022327244 -0.047281288 0.049175195 -0.06049218 0.005819544
0.027816355 0.023005359 -0.061445497 -0.048591383 -0.06040322 -0.00046754628 0.003977947 0.039029308
0.04063099 -0.025809728 -0.029214814 0.04675187 -0.041080087 0.035297506 0.02626966 -0.056175157
-0.0094216615 -0.049636707 0.035824507 0.049597606 -0.016637944 0.010179572 -0.026707478 -0.040857628
0.032504722 -0.010829166 -0.004989989 -0.062362827 -0.052253418 -0.0001918599 0.03124895 -0.055745453
0.02569183 -0.023884423 -0.040619314 -0.030003756 -0.014602788 0.040853977 -0.031052813 -0.05560875
-0.010374196 -0.008129448 0.028006762 -0.037540257 -0.018564261 0.035981543 -0.03559304 -0.0047931597
-0.0030738488 -0.004743062 -0.048390538 -0.03652907 -0.045744978 -0.036142416 0.0454896 0.049279816
0.052238286 0.001719214 -0.017230265 0.009598747 -0.050383262 0.039588287 0.0402214 0.036518864
-0.027692258 0.044520073 0.051381916 0.048958525 -0.030404404 0.04250878 -0.037172742 -0.010057226
0.030527167 -0.007321246 0.0009424612 -0.03450066 0.030634753 0.04092653 0.0028304681 0.013638966
0.015478671 -0.00081799924 -0.016547903 0.030907504 0.021919139 -0.014430955 -0.0037769452 -0.031635843
0.0044991374 0.057004496 0.035198547 0.029019624 -0.049135193 0.029956132 -0.05477014 -0.046999082
0.058566518 -0.009550273 0.026424967 -0.058662847 -0.05369047 -0.051939033 0.017149769 0.041752324
0.0044015646 0.014027841 -0.061164826 -0.0597326 0.010415643 -0.013724245 -0.05551815 -0.035815902
-0.006517321 -0.052417837 0.056799583 -0.014625616 0.051095054 -0.06195478 -0.043901213 -0.043187723
0.037624918 -0.025061943 0.036347903 0.022287242 0.052646995 0.05597236 -0.052092068 -0.04851932
-0.004587434 0.028118908 -0.04343521 -0.006708361 -0.04289387 0.03396953 0.022266641 -0.021265984

fc3.weight f4 [1, 256]
00000000: fa72 65bd 48b1 3e3d 7862 17bc b8dc 603c
00000010: f2f5 58bd f88e fd3c 74e9 82bc f292 1ebd
00000020: a010 463b 680a 5b3c a021 c93b 0c04 263d
00000030: fc34 c1bc f45c d8bc 085d 323c 0054 bc38
00000040: 8676 503d b8ba 7bbd 405b 09bb 2280 29bd
00000050: 4ca4 cbbc 4adf 093d 2cd4 bd3c 5eb3 643d
00000060: 1e79 76bd 3ccb ebbc 4066 d83a 087d f6bc
00000070: f4af ddbc fc12 fe3c 7645 1a3d 5031 393d
00000080: 5851 1a3d 6096 7a3d 7cd6 06bd 2870 1c3c
00000090: b09c e1bb 28c7 793d 68fd 92bc 5e08 49bd
000000a0: 165d 46bd 8475 173d 9003 943b 283b ffbc
000000b0: 20eb 64bb 7a31 673d 60e6 fabb f444 043d
000000c0: 70c9 773d c06a 5f3c 820b 0abd 2817 42bd
000000d0: c422 bf3c ec1b f13c 68b7 f2bc 6ec2 45bd
000000e0: 5455 eabc d0e5 4dbc 3c1e 6dbd 2cf1 3f3d
000000f0: 8018 d0ba f0fe 48bd e0ad ba3b 88fe 6abd
00000100: 7ed6 693d c0bc e5ba 5ab9 023d 183f a7bc
00000110: 8833 1b3d 6aa2 11bd 4009 60bb 900f 443c
00000120: b8ea d2bc 3efe 45bd 88f3 e03c 2671 31bd
00000130: 3edd 4abd 78e2 a8bc 96e2 3b3d f427 3e3d
00000140: 42be 50bd dc51 2a3d 647b f2bc bc34 6abd
00000150: 649c 3a3d ba32 6d3d 4874 d53c 0230 303d
00000160: d4a8 fabc 8013 d53b 4ae4 35bd 2095 f3bb
00000170: 6092 423b dabe 5f3d 7e94 4ebd 4092 6b3b
00000180: ccad 3c3d 00c4 ab38 1499 4cbd dcbf d93c
00000190: 6828 31bc 783a 16bc 469e 213d f807 3abc
000001a0: 5882 403c 7c5f 8bbc 1872 f63c b8ee 40bd
000001b0: d891 6c3d d004 1d3d aac2 0ebd ec27 d43c
000001c0: 3029 653d 707f ef3c c0e8 583d dc54 4fbd
000001d0: 000a 88b9 9ce9 46bd 98d4 8f3c 0084 cb3b
000001e0: 602e 78bd 7413 6d3d ecd2 043d da3f 38bd
000001f0: 1c95 703d a03d 263c 9eb9 513d 04e5 c6bc
00000200: b47d 9a3c 7409 593d 3414 f53c 7049 af3c
00000210: 5833 3fbc ccc9 9dbc 7e30 493d 9cbd d23c
00000220: 107f f03c 8060 0b3a 0614 653d b06a 45bc
00000230: a063 1fbd 8874 623c 6a50 133d 3017 2abc
00000240: 307d 5d3d 9abb 5fbd 00de c5ba f071 2abd
00000250: 18d2 353d 48d6 6dbd 007c 3d3b 18d4 cfbc
00000260: 122e 193d ac5c dd3c fc4a cf3c 0030 b138
00000270: 0812 47bc aa53 70bd fa10 2d3d c6df 1d3d
00000280: 8093 02ba 7c07 58bd 6eb2 7bbd 586e b33c
00000290: c855 763c 1c53 3d3d 241d e53c b429 bc3c
000002a0: 509a 8e3b 20e3 fabc ecec 853c fa2b 203d
000002b0: 04f2 63bd 0067 f9ba eeae 74bd 7c57 babc
000002c0: 6857 0abc 98e8 003c 48ad 57bc f86e 3abd
000002d0: 902a 68bd b89f 67bd e832 59bd ccbb 8abc
000002e0: e8ac 28bd accd 423d 2c9c f8bc 4079 4c3c
000002f0: c06c 033d f452 763d e630 2b3d 309d 43bd
00000300: 44e7 0d3d b087 8a3c 9806 463c 8268 23bd
00000310: 0810 38bd 0ca1 ca3c 5085 5ebd 4a32 37bd
00000320: c84a 67bd 0068 92ba dc37 15bd 1a5f 7b3d
00000330: 64d4 b43c 7046 cabb b4fe 4dbd 1a40 153d
00000340: 04df b6bc 2089 1f3d 2034 e73c e842 57bd
00000350: 70c7 2abd 80d1 26ba 8c86 b8bc f842 79bd
00000360: c8c1 c23c 2869 373c 489a b6bc 4a84 3ebd
00000370: faf3 7a3d 9608 1a3d 0079 e1bc 98d9 4cbc
00000380: 7061 3f3d 1695 3f3d 4428 9a3c 80db fcbc
00000390: 6092 453d 6e32 653d c027 52bd f8be 00bd
000003a0: 4a27 603d 809b a6ba 88d4 ef3c 0017 263c
000003b0: 6061 663b d8b3 7fbd 5c68 babc d0a9 b83b
000003c0: 0849 7dbc 0067 35bd e816 1bbc 9c8c fe3c
000003d0: 3c7b 1b3d b299 34bd 9cef 223d dc59 a73c
000003e0: e813 7dbd 2067 683c b0c3 ed3c 0ce3 be3c
000003f0: 4c39 89bc e8e3 88bc fa91 30bd b86f c1bc
-0.056017853 0.046555787 -0.009239785 0.013724498 -0.052968927 0.030951962 -0.01598046 -0.038714357
0.0030222312 0.01336918 0.0061380416 0.040531203 -0.023584835 -0.026411511 0.010886438 8.980185e-05
0.050894283 -0.061457366 -0.002095893 -0.041381963 -0.024858616 0.03366021 0.02317246 0.05583512
-0.0601741 -0.028783433 0.0016509965 -0.030088916 -0.02706144 0.031014912 0.0376639 0.045213044
0.03767523 0.061178565 -0.032919392 0.0095482245 -0.0068851337 0.060980946 -0.0179431 -0.049080245
-0.048428617 0.036977306 0.0045170262 -0.031156138 -0.0034930184 0.05644367 -0.0076568574 0.03229232
0.06049484 0.013636291 -0.03370238 -0.047385365 0.023332007 0.02943226 -0.02962847 -0.048281126
-0.02860514 -0.012566999 -0.057890162 0.04686086 -0.0015876442 -0.049071252 0.005696997 -0.057371646
0.05708932 -0.0017527565 0.031915046 -0.020415828 0.03789094 -0.03555528 -0.00341852 0.011966601
-0.025746688 -0.048338167 0.027459875 -0.043320797 -0.0495274 -0.020615801 0.045870386 0.04642482
-0.050962694 0.041581973 -0.029599853 -0.057179198 0.045559302 0.057909705 0.026056424 0.043014534
-0.030598082 0.0065025687 -0.044407167 -0.0074335486 0.0029689297 0.05462537 -0.050434582 0.0035945326
0.046064183 8.190423e-05 -0.049950674 0.026580743 -0.010812856 -0.0091692135 0.039457582 -0.011354439
0.011749826 -0.017013304 0.030083701 -0.04710266 0.057756275 0.038334668 -0.034853615 0.025897942
0.055947483 0.029235572 0.052956343 -0.050618038 -0.00025947392 -0.04856263 0.017557427 0.006210804
-0.0605911 0.05787988 0.032427713 -0.04498277 0.05873595 0.0101465285 0.05120241 -0.024279125
0.018858768 0.05298753 0.02991686 0.021397322 -0.011669956 -0.019261263 0.04911851 0.025725178
0.029357463 0.0005316809 0.0559273 -0.012049362 -0.03891337 0.0138217285 0.03596536 -0.010381505
0.054074466 -0.05462227 -0.0015096068 -0.041612566 0.044389814 -0.058065683 0.002891302 -0.025369689
0.03739745 0.027021728 0.02530431 8.4489584e-05 -0.012150295 -0.05867354 0.04225252 0.038543485
-0.00049810857 -0.052741513 -0.06144946 0.021903202 0.0150351 0.046221837 0.027967997 0.022969104
0.0043518916 -0.03062588 0.016348325 0.03910444 -0.055650726 -0.0019027889 -0.05973714 -0.022746794
-0.008443691 0.007867955 -0.013163872 -0.045515984 -0.056681216 -0.056548804 -0.053027064 -0.016935252
-0.04118052 0.047559425 -0.030347906 0.01248008 0.032086134 0.060137704 0.04179468 -0.047757328
0.03464438 0.016910404 0.012086533 -0.03989459 -0.044937164 0.024734996 -0.054326355 -0.044725694
-0.0564678 -0.001116991 -0.036430225 0.061369993 0.022073932 -0.0061729476 -0.050291732 0.036438085
-0.022323139 0.038949132 0.028223097 -0.05255404 -0.041694105 -0.00063636154 -0.022525094 -0.060854882
0.023774043 0.011194505 -0.022290364 -0.04651288 0.06126783 0.037605844 -0.027523518 -0.01250305
0.046723783 0.04677304 0.018818028 -0.030866385 0.048235297 0.055956297 -0.05130744 -0.031432122
0.05472497 -0.0012711138 0.029276147 0.01013732 0.0035153255 -0.06242737 -0.02275484 0.0056354776
-0.015459307 -0.04428768 -0.0094659105 0.031072907 0.037959322 -0.044091888 0.03977929 0.02042859
-0.061786562 0.014184743 0.029023975 0.023301624 -0.016750954 -0.016710237 -0.043107964 -0.023612842
