output_lxl/MASAC/weight/critic2_agent_2_ep_1800.pth (torch, 286504 bytes, 5 tensors)

fc1.weight f4 [256, 18]
0.032625094 -0.027921334 -0.01350759 -0.21854588 0.14917178 0.02407293 -0.09582542 0.053357646
0.06801315 -0.08784059 -0.17397809 0.06152402 -0.12395121 -0.09464157 0.21757264 0.0984136
0.008528918 0.024565324 0.0061463565 -0.105621696 0.23143329 0.036512688 -0.15169834 0.103636816
0.10164972 0.14662482 -0.16690588 0.05884002 -0.09935394 0.22042812 -0.0457481 0.10811372
-0.08497274 -0.06649904 0.084056154 -0.066002384 0.21347512 -0.0029096007 0.18192266 0.024041995
0.13596968 -0.077637166 0.13678987 -0.10530342 0.16156368 -0.16082156 -0.057355568 -0.18614437
0.086735144 -0.13570777 -0.12143805 0.006771475 -0.0028564036 0.16429476 0.19551863 -0.17343819
0.14112829 0.15206192 0.081016675 0.0012133569 -0.19542637 0.17335941 0.03606294 -0.12012349
0.0063985884 0.19373639 -0.15360308 0.0064676553 0.13335331 0.21004887 0.019062772 -0.16676003
0.09529634 -0.17368966 0.14117034 0.084476754 0.1942481 -0.12299951 0.16422136 -0.10508758
-0.09847231 -0.04617384 -0.07336952 0.21245418 -0.0045839995 -0.19985884 -0.10512042 0.039416835
0.2139868 0.040526316 0.03260304 0.2173964 0.20799707 -0.070359185 -0.22777632 -0.19830592
-0.09246813 -0.083680406 -0.2255206 0.052142963 0.046989813 0.009104222 0.09007187 -0.18853879
0.053267553 0.23093338 0.22602858 -0.160341 -0.005084172 -0.17930931 -0.19090053 -0.14007384
0.17096396 0.11483066 -0.088924006 -0.018675968 -0.10108104 0.072117195 -0.18837534 0.06961705
-0.012195274 -0.14009506 0.21725012 -0.12596473 0.012246758 0.047054008 -0.038851246 -0.2232012
0.062202796 0.21605642 -0.08709629 -0.22427131 0.04293202 0.11988045 -0.012598112 -0.21859612
-0.18687013 -0.040139228 -0.07896002 -0.079376504 -0.108314335 0.009221867 0.13889407 0.017576143
-0.039225027 0.0106060505 -0.009261608 -0.15893492 -0.21651752 0.04283838 -0.02642335 0.06856792
0.17809533 -0.046640933 0.12272929 0.14562754 0.22493659 -0.15927753 0.024704084 -0.1449992
0.16866325 -0.20949507 0.06403123 -0.1271923 0.020530656 -0.08596963 0.0925964 0.022345051
0.22697274 -0.21718103 -0.18689054 -0.2089382 0.22551723 0.13804676 -0.09440945 0.15484883
0.22907285 0.12974338 -0.1729152 -0.105953306 0.13708736 -0.059530824 0.03914483 0.053034827
-0.22288169 -0.018584311 0.04638888 0.12918018 0.08413811 -0.18698704 0.12711827 0.05829124
0.1253555 0.021704152 -0.1738501 0.0025477707 0.18599935 -0.18988931 -0.06420511 -0.0027216524
-0.20942393 -0.19293767 0.028912857 0.033728197 0.18569951 0.047172293 0.23193412 -0.16563211
-0.050199196 0.07554154 -0.017056152 -0.14730307 0.043250218 0.16400005 -0.04283747 0.092126325
-0.2172586 -0.0868147 -0.08053373 0.13369639 -0.20217922 0.06715424 -0.06668194 0.07690425
-0.2235593 0.20006846 0.17378931 0.18186162 -0.05213523 0.11053188 -0.030893698 -0.21473882
0.11922403 0.08902855 -0.106169716 0.083564505 -0.12396211 -0.093973905 -0.22581486 -0.13531622
0.005642876 0.23337291 -0.19800395 0.10511716 -0.09821056 0.048474953 0.10636152 -0.044955462
-0.11882118 -0.19564348 0.10206507 0.22280522 0.1887214 0.2035674 0.15163986 -0.16129562
00000000: e4a1 053d 48bb e4bc f04e 5dbc 7eca 5fbe
00000010: 7dc0 183e 9834 c53c 1e40 c4bd 8c8d 5a3d
00000020: 7a4a 8b3d c4e5 b3bd 5027 32be 9c00 7c3d
00000030: 22da fdbd 70d3 c1bd 5dcb 5e3e 128d c93d
00000040: e0bc 0b3c 383d c93c 6067 c93b 3050 d8bd
00000050: d9fc 6c3e 548e 153d cf56 1bbe 8a3f d43d
00000060: ba2d d03d d124 163e 60e9 2abe 3c02 713d
00000070: 147a cbbd e9b7 613e 5c62 3bbd ba6a dd3d
00000080: 3006 aebd a630 88bd a225 ac3d 422c 87bd
00000090: 3999 5a3e 00af 3ebb ef49 3a3e b8f3 c43c
000000a0: a33b 0b3e 3c00 9fbd a512 0c3e 52a9 d7bd
000000b0: f370 253e 68ae 24be aced 6abd a19c 3ebe
000000c0: 32a2 b13d faf6 0abe 83b4 f8bd 40e3 dd3b
000000d0: 8032 3bbb e33c 283e 0936 483e c899 31be
000000e0: ef83 103e 1fb6 1b3e 12ec a53d 8009 9f3a
000000f0: da1d 48be 2185 313e bcb6 133d 4e03 f6bd
00000100: 40ab d13b d562 463e 204a 1dbe a0ee d33b
00000110: c58d 083e 0d17 573e 8829 9c3c 24c3 2abe
00000120: ba2a c33d b4db 31be f58e 103e 2602 ad3d
00000130: f9e8 463e 2be7 fbbd a529 283e 2838 d7bd
00000140: daab c9bd c820 3dbd c242 96bd 978d 593e
00000150: 6035 96bb cca7 4cbe 6049 d7bd 8c73 213d
00000160: 5b1f 5b3e ecfe 253d c48a 053d 299d 5e3e
00000170: 2ffd 543e 7a18 90bd 323e 69be b510 4bbe
00000180: ee5f bdbd a260 abbd dfee 66be dc93 553d
00000190: 6478 403d e029 153c 9a77 b83d 5010 41be
000001a0: 142f 5a3d cd79 6c3e 0974 673e 6e30 24be
000001b0: 2099 a6bb dc9c 37be 6e7b 43be 846f 0fbe
000001c0: 2d11 2f3e 562c eb3d ca1d b6bd 58fe 98bc
000001d0: 9403 cfbd 2eb2 933d 77e5 40be 6293 8e3d
000001e0: b0ce 47bc 1475 0fbe d176 5e3e e6fc 00be
000001f0: a0a6 483c b4bb 403d 7c22 1fbd db8e 64be
00000200: 5cc8 7e3d e53d 5d3e 8a5f b2bd 61a7 65be
00000210: 7cd9 2f3d e283 f53d 5068 4ebc a9d7 5fbe
00000220: e25a 3fbe 0869 24bd cab5 a1bd 2690 a2bd
00000230: e8d3 ddbd 5017 173c 3f3a 0e3e d8fb 8f3c
00000240: 6caa 20bd 00c5 2d3c 00be 17bc d6bf 22be
00000250: c5b6 5dbe 4c77 2f3d c875 d8bc 566d 8c3d
00000260: 9f5e 363e 900a 3fbd 7e59 fb3d 631f 153e
00000270: c755 663e a619 23be 3860 ca3c ac7a 14be
00000280: 0fb6 2c3e e085 56be ce22 833d b33e 02be
00000290: e82f a83c d810 b0bd 2ea3 bd3d f80c b73c
000002a0: 8b6b 683e b464 5ebe 3c60 3fbe e5f3 55be
000002b0: fded 663e 215c 0d3e be59 c1bd b190 1e3e
000002c0: 1392 6a3e 73db 043e af10 31be 0cfe d8bd
000002d0: a160 0c3e 98d6 73bd 5456 203d 0c3b 593d
000002e0: 193b 64be 203e 98bc 4402 3e3d cf47 043e
000002f0: 9a50 ac3d 8879 3fbe 4b2b 023e ccc2 6e3d
00000300: 315d 003e e8cc b13c c305 32be 80f8 263b
00000310: 9d76 3e3e 5872 42be f87d 83bd c05d 32bb
00000320: 3a73 56be 7491 45be a8da ec3c 9426 0a3d
00000330: 0328 3e3e bc37 413d 2380 6d3e 779b 29be
00000340: ac9d 4dbd 86b5 9a3d 58b9 8bbc 9ed6 16be
00000350: 2427 313d a1ef 273e 5876 2fbd baac bc3d
00000360: 0a79 5ebe e8cb b1bd deee a4bd b5e7 083e
00000370: 1208 4fbe 2a88 893d 8a90 88bd fa7f 9d3d
00000380: bbec 64be bfde 4c3e d3f5 313e ef39 3a3e
00000390: c08b 55bd 8a5e e23d c814 fdbc 7ee4 5bbe
000003a0: ba2b f43d 9a54 b63d 826f d9bd de23 ab3d
000003b0: d9df fdbd 6475 c0bd 033c 67be 5690 0abe
000003c0: e0e7 b83b 4ff9 6e3e 8cc1 4abe aa47 d73d
000003d0: 9e22 c9bd ac8d 463d 12d4 d93d 3823 38bd
000003e0: 8558 f3bd c456 48be 7e07 d13d 0d27 643e
000003f0: 2f40 413e f973 503e 7b47 1b3e ae2a 25be

fc1.bias f4 [256]
0.044122115 -0.006588429 -0.17622367 0.19659184 0.21960904 0.18238343 -0.0252361 -0.105218366
-0.024387494 -0.17661741 0.088105634 0.22405563 -0.05640988 -0.14279127 0.11109479 0.22862376
-0.057102233 0.15470223 -0.058692217 0.07005216 0.07800852 0.08954285 -0.019067287 0.14152594
-0.009482846 -0.15487647 -0.169487 0.13281862 -0.059681624 0.08215405 0.00075760484 -0.18001099
-0.17772005 0.030262604 0.051542595 0.18138762 -0.055378065 -0.21495393 0.044779465 -0.021906927
0.17016433 -0.20042898 0.17639025 0.1946852 -0.2074543 0.23557563 -0.13030109 0.18253435
-0.12544736 -0.013894349 -0.06818731 0.004755929 0.036583677 -0.043651044 -0.03917232 0.090391114
-0.03324701 -0.17120206 0.2269031 -0.11727459 0.02887015 -0.11023225 0.0073447973 0.23039164
-0.07851222 0.16123717 0.060372904 0.21175979 0.07718073 0.08972983 -0.13544643 0.12556897
-0.07380627 -0.16282764 0.010753199 -0.11767678 -0.15623808 -0.22292086 -0.17300773 0.15968318
0.18463223 -0.19471024 0.0014180094 0.10081236 -0.0733535 -0.12228315 0.062074378 -0.07748617
-0.12217006 -0.19387868 0.13467233 0.15497504 -0.0019037127 -0.0693911 0.18618293 0.20258977
-0.041950807 0.13935317 -0.006938353 -0.004005417 -0.20429915 -0.21158516 -0.110552505 0.07661034
0.02743937 0.16999464 0.18670811 0.22817825 -0.028957024 0.22940846 -0.028754964 0.064345494
-0.14272806 -0.098653436 -0.0915833 -0.19501117 -0.033445597 -0.1503291 -0.20591491 -0.22903028
0.08997108 0.036527827 -0.19113834 0.15296699 0.20940562 -0.012966111 4.172325e-05 -0.07971813
-0.084611505 -0.12816864 0.1885301 0.14410351 -0.19517523 -0.12781875 -0.15069316 -0.22217976
0.028567597 0.005662322 0.09881736 0.1548392 -0.014732465 0.11746721 -0.22493383 -0.15915689
-0.15031174 -0.0015127957 -0.083159745 0.20968167 0.19759874 0.1667061 0.07946803 0.11136837
-0.09280877 -0.10519621 0.20970304 0.1469347 -0.0072802156 -0.0118622035 -0.09618048 -0.17701665
0.0011345893 -0.08792631 0.20031793 -0.090348035 0.0049970746 0.11417614 0.036009833 -0.18697739
-0.16372485 0.2092262 -0.07571335 -0.09028861 0.15109025 0.080196455 -0.20243156 0.19665183
-0.2158026 0.19210644 -0.20092994 -0.023749754 -0.17345412 -0.19473588 0.06140192 0.05099593
0.05576493 -0.13831112 -0.16551073 0.20411153 0.21369462 -0.12838355 0.16490002 -0.039865136
-0.07478787 -0.062207878 -0.10298546 -0.06411724 0.13582806 0.13031001 0.116037175 -0.22022152
-0.21369557 0.1873592 -0.051940173 -0.005951047 -0.041702926 0.15696608 -0.013721272 -0.2339568
0.1597415 0.17019333 -0.05398424 0.12218298 0.18712516 -0.0376454 -0.105538264 0.168355
0.06466688 0.16086711 0.18493526 0.02587758 -0.08169195 0.102509275 -0.19042452 0.006376654
0.05267416 0.023633584 0.04039596 0.026764706 0.23475863 0.0838813 -0.18910979 0.15312032
-0.20571357 -0.20441039 -0.1840602 0.006455347 -0.020648524 0.15703817 0.16877596 0.108505234
-0.03897974 0.14798729 -0.05138412 0.20029162 0.009586632 0.04028897 -0.16434324 -0.20967385
0.19131 0.20613809 0.13708918 0.10971539 0.09779595 0.07859968 0.10422973 -0.08009711
00000000: 64b9 343d c0e3 d7bb fa73 34be 5f4f 493e
00000010: 31e1 603e b9c2 3a3e f0bb cebc ba7c d7bd
00000020: 48c8 c7bc 32db 34be ba70 b43d d76e 653e
00000030: 0c0e 67bd e037 12be aa85 e33d 591c 6a3e
00000040: 08e4 69bd 436a 1e3e 4067 70bd 8277 8f3d
00000050: eec2 9f3d 3e62 b73d 0033 9cbc 2dec 103e
00000060: f05d 1bbc f097 1ebe 008e 2dbe 9b01 083e
00000070: b874 74bd 6240 a83d 009a 463a cd54 38be
00000080: 3ffc 35be 48e9 f73c 541e 533d adbd 393e
00000090: 1cd4 62bd e21c 5cbe ac6a 373d 2876 b3bc
000000a0: 8f3f 2e3e 413d 4dbe a59f 343e 8f5b 473e
000000b0: e66e 54be bd3a 713e a66d 05be 49ea 3a3e
000000c0: 4675 00be 20a5 63bc caa5 8bbd a0d7 9b3b
000000d0: c4d8 153d 70cb 32bd 2873 20bd fa1e b93d
000000e0: 042e 08bd 984f 2fbe 4959 683e a92d f0bd
000000f0: 1881 ec3c 72c1 e1bd a0ac f03b c9eb 6b3e
00000100: 04cb a0bd 5b1b 253e 9449 773d 8fd7 583e
00000110: ee10 9e3d 46c4 b73d 78b2 0abe 2795 003e
00000120: be27 97bd 4abc 26be 302e 303c 8600 f1bd
00000130: e0fc 1fbe 5e45 64be f028 31be fd83 233e
00000140: 3b10 3d3e 1f62 47be 80dc b93a b676 ce3d
00000150: 5c3a 96bd 976f fabd b441 7e3d 12b1 9ebd
00000160: 4c34 fabd 2288 46be 8be7 093e c7b1 1e3e
00000170: 0086 f9ba ec1c 8ebd bda6 3e3e b173 4f3e
00000180: 9cd4 2bbd 99b2 0e3e 205b e3bb e03f 83bb
00000190: cc33 51be c8a9 58be 5a69 e2bd e2e5 9c3d
000001a0: 88c8 e03c 1313 2e3e 6930 3f3e 8fa7 693e
000001b0: 4837 edbc 0dea 6a3e 888f ebbc 92c7 833d
000001c0: 4e27 12be d00a cabd 0690 bbbd 02b1 47be
000001d0: 40fe 08bd dfef 19be 5cdb 52be ea86 6abe
000001e0: c242 b83d 349e 153d c5b9 43be 61a3 1c3e
000001f0: 6d6e 563e d06f 54bc 0000 2f38 4243 a3bd
00000200: cc48 adbd a43e 03be 090e 413e df8f 133e
00000210: 04dc 47be ebe2 02be 4f4f 1abe 1783 63be
00000220: 9806 ea3c 008b b93b c260 ca3d 2b8e 1e3e
00000230: 7060 71bc a692 f03d 0e55 66be 06fa 22be
00000240: 52eb 19be 0049 c6ba a84f aabd cbb6 563e
00000250: 5357 4a3e 01b5 2a3e 22c0 a23d 1a15 e43d
00000260: 8612 bebd 1c71 d7bd 65bc 563e 0d76 163e
00000270: e08e eebb b059 42bc 46fa c4bd da43 35be
00000280: 80b6 943a b612 b4bd 2520 4d3e 6408 b9bd
00000290: 80be a33b 2ed5 e93d 0c7f 133d 0077 3fbe
000002a0: 7da7 27be 653f 563e 9a0f 9bbd 3ce9 b8bd
000002b0: 67b7 1a3e 0a3e a43d 384a 4fbe 195f 493e
000002c0: 5bfb 5cbe 8db7 443e 94c0 4dbe d88e c2bc
000002d0: f59d 31be d868 47be 9480 7b3d 1ce1 503d
000002e0: c469 643d 6ea1 0dbe a57b 29be 9d02 513e
000002f0: c3d2 5a3e fa76 03be 8ddb 283e a049 23bd
00000300: 622a 99bd b0cd 7ebd 0aea d2bd e64f 83bd
00000310: 8316 0b3e fd6f 053e e6a4 ed3d c081 61be
00000320: 03d3 5abe 17db 3f3e 38bf 54bd 0001 c3bb
00000330: b0d0 2abd b7bb 203e 30cf 60bc 5f92 6fbe
00000340: 4793 233e 2947 2e3e 941e 5dbd 123b fa3d
00000350: bd9d 3f3e 1032 1abd 7224 d8bd 4165 2c3e
00000360: 1270 843d 59ba 243e ab5f 3d3e 38fd d33c
00000370: 1c4e a7bd 62f0 d13d a5fe 42be 40f3 d03b
00000380: dcc0 573d 389b c13c 3c76 253d a841 db3c
00000390: 9164 703e f6c9 ab3d ffa5 41be 93cb 1c3e
000003a0: 94a6 52be f550 51be 477a 3cbe 6087 d33b
000003b0: 1827 a9bc 9dce 203e 9bd3 2c3e fe37 de3d
000003c0: 38a9 1fbd fb89 173e 2878 52bd 3f19 4d3e
000003d0: 4011 1d3c 0c06 253d 9849 28be beb4 56be
000003e0: c5e6 433e dd15 533e 1b61 0c3e 76b2 e03d
000003f0: 3e49 c83d def8 a03d 6676 d53d f409 a4bd

fc2.weight f4 [256, 256]
-0.018120982 -0.038772665 -0.023373827 0.043474168 0.0018359125 0.05740132 0.037200347 0.028416753
0.0306077 -0.031102642 -0.0107950345 0.048676692 0.04098092 -0.005576983 -0.007862419 -0.016984977
-0.06044881 0.047687434 -0.041326456 0.019621223 -0.019202642 -0.0331256 0.037520893 0.038271405
0.019599214 -0.05106409 0.0033966675 0.01298324 -0.056921326 0.057838537 -0.0048225448 0.039018795
-0.0140141845 0.0057099387 -0.05447015 0.010389678 0.010080911 0.04667358 0.019339755 -0.037145935
0.027005069 -0.018055953 -0.012773924 -0.018568553 -0.023001261 -0.03601381 0.025680616 -0.027223654
-0.00867784 -0.045355648 0.040377595 0.05905062 -0.017521597 0.015901275 0.006003581 0.059805706
0.062468722 -0.06181535 0.049671322 -0.05656743 0.04209227 0.008639082 -0.057229325 -0.014097437
-0.02684816 0.0300636 -0.06240137 -0.024787672 -0.037437826 0.048061304 -0.03771358 0.010010347
0.02562067 0.025450177 -0.06182669 -0.029238664 0.009713337 0.008090876 0.05749295 0.041077837
0.046560228 0.014252238 -0.00039364398 0.040418856 0.02267979 -0.047705434 -0.062218443 -0.008329563
-0.004320629 0.022557586 -0.026716001 0.049443528 -0.061276853 0.036633298 -0.026547827 -0.03714335
0.01121062 -0.048937738 -0.0151636 0.058707796 -0.048455693 -0.0073614344 -0.019000053 -0.020437814
-0.0354928 -0.0008980483 0.03207548 -0.010136522 -0.02439472 0.026623197 -0.032277286 0.014528371
-0.05421617 -0.0048754215 -0.022597417 -0.03726308 -0.005414717 -0.011213079 -0.020229444 0.023406044
-0.01074823 0.028913558 0.03972923 0.037076637 0.03571961 0.05468888 0.057521366 0.0071592703
0.008290254 -0.022862032 0.039835095 0.041105583 -0.011419654 0.026840642 -0.057219356 0.041128628
0.05918566 -0.010636926 -0.016450599 0.034439348 -0.009272024 0.04687807 0.05312156 0.02400399
0.046380334 -0.05984407 0.030862212 0.010040738 -0.014452755 -0.04029411 0.022909261 0.033283897
0.0085618645 -0.0001712516 -0.0073740035 -0.04496184 0.009386376 0.055277236 0.020466529 -0.03229037
-0.016024575 -0.048995063 -0.020216182 -0.02837681 -0.032838285 -0.042736806 0.017606921 -0.05290693
0.010085635 -0.026575796 -0.03129199 0.046185583 -0.031094901 -0.03060256 -0.0577903 -0.02691134
0.040191032 -0.060658768 0.0131325945 0.049353704 -0.04998686 -0.022400908 0.059971347 -0.0155414045
-0.024004668 0.0031979084 0.0248397 0.061587118 0.043822728 0.018081568 -0.04173796 -0.022107802
0.029958136 0.025803536 0.019089617 0.021293506 -0.017782532 0.027730204 -0.027591206 -0.019166589
-0.03135968 0.043565772 0.017390318 0.009902701 -0.041549757 -0.027948283 0.026868425 -0.039694913
-0.055580243 -0.030450828 -0.031665653 0.0054293424 0.014871821 -0.044805273 -0.007829107 0.014865316
0.009234376 0.039598837 -0.00659658 0.054705657 -0.009059541 0.018746383 -0.0483545 0.0017266199
-0.004634857 -0.008315772 -0.049407087 0.02899281 0.033756346 0.02711013 0.017338187 0.057890333
0.05117538 0.06051323 0.0096773505 0.045464776 0.01676087 0.028617814 0.013526097 0.05709768
0.03778807 -0.055605635 -0.060597315 -0.057415977 0.006164074 -0.019724324 -0.0024140328 0.034028195
0.043370865 0.027018659 0.014068805 0.055499375 -0.024428077 0.0346717 0.055790477 -0.054431215
00000000: 7472 94bc 16d0 1ebd 787a bfbc f811 323d
00000010: 00a3 f03a a61d 6b3d 645f 183d 40ca e83c
00000020: 00bd fa3c f8ca febc a8dd 30bc 3661 473d
00000030: 9cdb 273d 20bf b6bb 60d1 00bc 1424 8bbc
00000040: 2c99 77bd e653 433d ee45 29bd b0bc a03c
00000050: dc4e 9dbc b6ae 07bd 82af 193d 7ac2 1c3d
00000060: 888e a03c 9428 51bd a09a 5e3b a8b7 543c
00000070: 5626 69bd 1ae8 6c3d 7006 9ebb 2cd2 1f3d
00000080: c09b 65bc 701a bb3b 181c 5fbd 7839 2a3c
00000090: 682a 253c cc2c 3f3d 686e 9e3c 5626 18bd
000000a0: bc39 dd3c 14ea 93bc b849 51bc 141d 98bc
000000b0: 246d bcbc 3883 13bd 2860 d23c 2404 dfbc
000000c0: 802d 0ebc d8c6 39bd fa62 253d 10df 713d
000000d0: 7489 8fbc 6443 823c b0b9 c43b d4f6 743d
000000e0: 34df 7f3d 1832 7dbd 2874 4b3d 40b3 67bd
000000f0: f268 2c3d f08a 0d3c 4c69 6abd f0f8 66bc
00000100: acf0 dbbc f047 f63c 9498 7fbd 840f cbbc
00000110: 6858 19bd eedb 443d 8e79 1abd 7002 243c
00000120: 70e2 d13c e47c d03c fc3d 7dbd ec85 efbc
00000130: b024 1f3c 988f 043c ba7d 6b3d 3c41 283d
00000140: f0b5 3e3d 3882 693c 0062 ceb9 3e8e 253d
00000150: f8ca b93c c666 43bd c4d8 7ebd b878 08bc
00000160: 1094 8dbb b0ca b83c 84db dabc 4c85 4a3d
00000170: 70fd 7abd cc0c 163d d47a d9bc a023 18bd
00000180: c0ac 373c f072 48bd c070 78bc 9677 703d
00000190: 7a79 46bd 3038 f1bb 00a6 9bbc 346d a7bc
000001a0: e660 11bd 006b 6bba 9461 033d a813 26bc
000001b0: 70d7 c7bc e418 da3c 3035 04bd 6808 6e3c
000001c0: c611 5ebd 00c2 9fbb 381e b9bc 2ca1 18bd
000001d0: f06d b1bb 10b7 37bc 38b8 a5bc 08be bf3c
000001e0: 5819 30bc 20dc ec3c 1ebb 223d acdd 173d
000001f0: ba4e 123d 7201 603d 869b 6b3d 5098 ea3b
00000200: d8d3 073c 2849 bbbc 202a 233d 545e 283d
00000210: 8019 3bbc e8e0 db3c d85e 6abd 7e76 283d
00000220: aa6c 723d 8046 2ebc 68c3 86bc 4610 0d3d
00000230: b0e9 17bc 3803 403d fe95 593d 04a4 c43c
00000240: 4ef9 3d3d 0e1f 75bd c0d2 fc3c e881 243c
00000250: 40cb 6cbc 700b 25bd 34ac bb3c b254 083d
00000260: 1047 0c3c 0092 33b9 a0a1 f1bb e829 38bd
00000270: 50c9 193c 626a 623d 6ca9 a73c e842 04bd
00000280: f845 83bc 0caf 48bd 689c a5bc 7c76 e8bc
00000290: 7081 06bd ca0c 2fbd 643c 903c f0b4 58bd
000002a0: 383e 253c 7cb5 d9bc 082c 00bd 182d 3d3d
000002b0: bcba febc 38b2 fabc 86b5 6cbd 2c75 dcbc
000002c0: 5a9f 243d 5475 78bd 182a 573c 1c27 4a3d
000002d0: 06bf 4cbd 1c82 b7bc 84a4 753d 60a1 7ebc
000002e0: 70a5 c4bc 0094 513b a07c cb3c c642 7c3d
000002f0: 767f 333d cc1f 943c 6cf5 2abd 6c1b b5bc
00000300: c46a f53c f061 d33c d461 9c3c b86f ae3c
00000310: acac 91bc 742a e33c f406 e2bc 4003 9dbc
00000320: 0273 00bd 0672 323d 2476 8e3c f03e 223c
00000330: 1430 2abd ccf3 e4bc 2c1b dc3c 2297 22bd
00000340: 1ca8 63bd 0474 f9bc d8b3 01bd a0e8 b13b
00000350: f0a8 733c bc85 37bd a845 00bc a88d 733c
00000360: c84b 173c 6432 223d 2028 d8bb 0a13 603d
00000370: 786e 14bc 0492 993c 5e0f 46bd c04f e23a
00000380: 00e0 97bb e03e 08bc 165f 4abd 5482 ed3c
00000390: 1844 0a3d 1016 de3c d008 8e3c 6a1e 6d3d
000003a0: 469d 513d b8dc 773d c08d 1e3c 4639 3a3d
000003b0: 184e 893c e86f ea3c 909c 5d3c 42df 693d
000003c0: aac7 1a3d bcc2 63bd e434 78bd 042d 6bbd
000003d0: 00fc c93b e894 a1bc c034 1ebb 2661 0b3d
000003e0: a6a5 313d 3c56 dd3c d880 663c 5053 633d
000003f0: 641d c8bc ea03 0e3d 8e84 643d 44f3 5ebd

fc2.bias f4 [256]
-0.02963961 0.004939683 0.003062889 -0.020417541 -0.048344165 0.035646483 0.045869827 -0.044941813
0.021655418 0.042300984 -0.059732713 0.030667707 -0.02660212 -0.061222345 0.05343896 0.0447485
0.004326746 -0.0340231 0.040930927 3.761798e-05 0.027709007 -0.049563423 0.014314339 0.044802144
0.03559363 -0.0439244 0.021276057 0.059320353 -0.05879511 0.03418091 -0.049694538 0.018636607
-0.055996314 -0.005561061 -0.04429447 0.005913019 -0.023765653 0.0551947 -0.057678677 -0.0015066788
-0.021187223 -0.05126541 0.059463196 0.019112088 0.035104536 -0.03724744 0.020267688 0.0007281825
0.0021605045 -0.012785703 -0.060022287 0.0075158626 -0.06079573 -0.02579213 0.052572623 -0.007993981
-0.053305455 -0.018860497 0.03217288 0.022136629 0.035063528 -0.0007844642 -0.0070606098 0.018714264
-0.04345219 -0.023738064 0.0076482445 -0.049309842 0.010753661 -0.013204858 -0.024862595 -0.04059305
0.040196918 -0.021250233 0.043065272 -0.0052625537 0.035357423 0.013942689 -0.011897005 -0.039251238
0.016807012 -0.0051687434 0.055127673 0.040931016 -0.0120217055 0.035657555 -0.043809146 -0.014326133
-0.0009198487 0.05317398 -0.010755688 -0.021543868 0.0023013055 -0.03506469 0.0013623163 -0.060045943
-0.023281716 0.04064364 0.00445956 -0.052975595 -0.03131962 0.027913235 0.02377332 0.05393681
-0.0004733503 0.0010216683 -0.037547283 -0.036606118 0.03875248 -0.060805067 -0.014357008 0.04529918
0.05197092 -0.0038442388 0.052259527 0.049180776 0.062074907 0.05354178 0.0138730705 -0.006897405
-0.043843985 -0.0020760745 -0.03027822 -0.025386631 0.03474106 0.038180828 0.061442614 -0.062399752
0.012723401 -0.011883296 -0.012209378 -0.046387516 -0.0072788894 -0.05965527 0.01825533 -0.012959808
0.042948388 -0.027742065 -0.055645153 0.00404007 0.009559423 -0.060288727 -0.040542133 0.005411759
0.053985305 0.031102158 -0.01069802 0.013340652 0.05986327 0.023811437 -0.018310063 0.028859861
-0.00040171295 -0.019166283 -0.052455597 -0.019573718 -0.043227762 0.05826667 0.034202486 0.04776392
-0.0052378327 0.054829128 0.054013632 -0.0025362596 0.034097135 0.039007768 -0.05071339 -0.058403827
0.049155444 -0.04744889 -0.039817348 -0.0143203065 0.051834613 0.043761417 0.02074276 0.032916546
-0.04016027 0.04464168 0.0007477328 -0.017308086 0.0052617714 0.027083509 0.046344064 -0.053773165
0.042890668 0.008511305 0.0027044863 0.061359197 -0.025260538 0.012879387 -0.019701257 0.04071123
0.055218212 0.048204497 -0.052617155 0.0026301518 0.022603653 0.031679288 -0.00081229955 -0.049359106
0.009764351 -0.036624953 0.061288223 -0.020673573 -0.014358163 0.057323195 0.008367069 0.06136714
0.046882987 0.008156523 -0.021058336 -0.025468968 0.01214496 -0.0033769608 0.008806162 0.018363863
-0.049802765 -0.04505279 -0.01798682 -0.059365876 -0.012105942 0.00075566024 0.0035831854 0.035109773
-0.03588649 -0.04214389 0.00972788 0.025331274 -0.037462525 -0.06187202 0.015408985 0.023904175
-0.026723877 0.029275224 -0.05197393 -0.029494762 -0.020545267 0.042331494 -0.04296813 0.017458104
0.03328815 -0.0014157593 0.038265742 -0.049783677 -0.007865854 0.03781046 0.025159977 0.051695578
-0.0014994144 -0.056595974 0.008661494 0.025164716 0.06213375 0.033328235 0.018015847 0.002801329
00000000: c4ce f2bc 10dd a13b c0ba 483b b042 a7bc
00000010: 8804 46bd 0c02 123d 00e2 3b3d e814 38bd
00000020: b466 b13c cc43 2d3d 4aaa 74bd d83a fb3c
00000030: b0ec d9bc 48c4 7abd d0e2 5a3d 344a 373d
00000040: 60c7 8d3b ce5b 0bbd 30a7 273d 00c8 1d38
00000050: 00fe e23c 0403 4bbd b086 6a3c 7482 373d
00000060: a0ca 113d 12ea 33bd 204b ae3c e6f9 723d
00000070: 24d3 70bd 4801 0c3d 808c 4bbd ccab 983c
00000080: 645c 65bd 9039 b6bb 1e6e 35bd 00c2 c13b
00000090: 30b0 c2bc d613 623d 7a40 6cbd c07b c5ba
000000a0: d490 adbc aefb 51bd ae8f 733d f490 9c3c
000000b0: c6c9 0f3d c690 18bd 6c08 a63c 80e3 3e3a
000000c0: 4097 0d3b 207b 51bc eed9 75bd a047 f63b
000000d0: f204 79bd 044a d3bc 6456 573d 30f9 02bc
000000e0: d256 5abd 5481 9abc b6c7 033d e057 b53c
000000f0: c69e 0f3d 80a4 4dba b05c e7bb a84e 993c
00000100: ecfa 31bd 5476 c2bc 209e fa3b 1ef9 49bd
00000110: 2030 303c 3059 58bc a4ac cbbc e644 26bd
00000120: 86a5 243d f814 aebc 3665 303d 8071 acbb
00000130: f2d2 103d e06f 643c a8eb 42bc e8c5 20bd
00000140: dcae 893c 905e a9bb 8ecd 613d 48a7 273d
00000150: b0f6 44bc a80d 123d 3871 33bd 28b8 6abc
00000160: 0022 71ba f6cc 593d a038 30bc c47c b0bc
00000170: 80d1 163b fe9f 0fbd c08f b23a bcf2 75bd
00000180: 4cb9 bebc f279 263d 8021 923b f0fc 58bd
00000190: 0049 00bd 4caa e43c 44c0 c23c d8ec 5c3d
000001a0: 002c f8b9 80e9 853a 2ecb 19bd 4cf0 15bd
000001b0: ecba 1e3d bc0e 79bd a839 6bbc a28b 393d
000001c0: 76df 543d a0ef 7bbb 160e 563d c871 493d
000001d0: 4242 7e3d a04e 5b3d e04b 633c a003 e2bb
000001e0: c095 33bd c00e 08bb 080a f8bc a0f7 cfbc
000001f0: a44c 0e3d 8063 1c3d 40ab 7b3d e296 7fbd
00000200: d075 503c 28b2 42bc d809 48bc d600 3ebd
00000210: c083 eebb 1659 74bd 348c 953c 6055 54bc
00000220: a6ea 2f3d 5443 e3bc 2cec 63bd 9062 843b
00000230: 209f 1c3c 50f1 76bd 820f 26bd 2055 b13b
00000240: b21f 5d3d f4c9 fe3c c046 2fbc c092 5a3c
00000250: 3033 753d 3410 c33c fcfe 95bc 846b ec3c
00000260: 009d d2b9 9c02 9dbc aedb 56bd 1059 a0bc
00000270: 980f 31bd 08a9 6e3d e817 0c3d 1aa4 433d
00000280: 20a2 abbb 8294 603d 663d 5d3d 6037 26bb
00000290: 70a9 0b3d 9cc6 1f3d d8b8 4fbd da38 6fbd
000002a0: 3857 493d c459 42bd 8417 23bd b89f 6abc
000002b0: 8850 543d 2c3f 333d b8ec a93c 80d3 063d
000002c0: 187f 24bd 32da 363d 8003 443a b0c9 8dbc
000002d0: f06a ac3b 3cde dd3c 46d3 3d3d 4041 5cbd
000002e0: 20ae 2f3d 0073 0b3c c03d 313b c853 7b3d
000002f0: 30ef cebc 1004 533c 8864 a1bc d2c0 263d
00000300: 7e2c 623d 1472 453d 1685 57bd a05e 2c3b
00000310: 4c2b b93c 24c2 013d 80f0 54ba c62c 4abd
00000320: a8fa 1f3c 0c04 16bd 5c09 7b3d a05b a9bc
00000330: 803e 6bbc bacb 6a3d 0816 093c 1c5c 7b3d
00000340: 6008 403d f0a2 053c 8882 acbc 4ca4 d0bc
00000350: a8fb 463c 0050 5dbb b847 103c d06f 963c
00000360: fcfd 4bbd 4689 38bd 1859 93bc a229 73bd
00000370: 0058 46bc 8017 463a e0d3 6a3b 44cf 0f3d
00000380: b6fd 12bd 129f 2cbd b061 1f3c 8883 cf3c
00000390: 4e72 19bd 846d 7dbd f875 7c3c b0d2 c33c
000003a0: 08ec dabc 98d2 ef3c 9ee2 54bd 009f f1bc
000003b0: 8c4e a8bc ca63 2d3d 5aff 2fbd 4c04 8f3c
000003c0: 2859 083d 0091 b9ba 8abc 1c3d f8e9 4bbd
000003d0: c8df 00bc 24df 1a3d 4c1c ce3c bebe 533d
000003e0: 0088 c4ba 2ed1 67bd f0e8 0d3c 3c26 ce3c
000003f0: f67f 7e3d 3083 083d f895 933c 8096 373b

fc3.weight f4 [1, 256]
0.020026833 -0.0397963 0.038002364 0.047253385 -0.03285224 0.02329272 -0.056692265 0.004232824
-0.009126887 0.04042267 0.056392245 0.005158022 0.06223488 0.01906158 -0.016923308 -0.013163745
0.053856656 0.013242841 0.0052348897 -0.013684154 0.013545737 0.043423697 -0.03222564 0.059415147
0.05827894 0.012927771 -0.058742136 -0.044651702 0.046336293 -0.019088067 0.03545191 0.01340542
-0.05726915 -0.03064572 -0.007677108 0.0531386 -0.020550512 -0.043539062 -0.039640106 -0.02542647
-0.026101023 0.045371883 0.042147167 -0.0056147203 -0.036903888 0.035104275 0.043477483 0.04154872
-0.012883112 0.03736914 0.026650622 0.012005739 0.049139567 0.01460956 0.04458671 -0.024376072
0.030654594 0.053095058 0.015400156 0.030562371 0.04405757 -0.030028276 -0.043014094 -0.024652943
-0.03455893 -0.05568552 0.0380197 0.024711333 -0.050299093 -0.019661382 -0.0078987405 -0.021596521
0.041130453 0.032450505 -0.046067156 -0.0014053807 -0.0007008165 0.036656417 -0.05022724 -0.017866805
0.010451481 -0.024668694 0.03736665 -0.020008683 -0.05886431 -0.048912182 -0.027921923 -0.02094578
0.0058321953 -0.062226065 -0.031730562 -0.057975702 0.054597177 -0.002006553 -0.044611514 -0.04544337
-0.014108613 0.024794005 -0.061260045 -0.04121259 0.058981955 -0.035747178 -0.0099155605 0.011012718
0.05835017 0.042916007 -0.025165983 0.026404746 -0.010313913 0.047978185 -0.056126103 -0.040485322
-0.045816287 0.018099576 -0.019584306 -0.04029409 -0.050186843 -0.041981347 0.06225708 -0.06079478
-0.024558 0.05393666 0.045728914 0.050710082 -0.016872734 -0.029271133 -0.004189007 0.031573907
-0.048157007 0.00034847856 0.014345914 0.017365538 0.03954924 -0.026625939 -0.021869145 -0.010706209
-0.03308946 -0.05961334 -0.037265114 -0.03196764 -0.036918588 0.031712055 -0.033596434 -0.011319086
0.021507397 0.022507548 0.0618267 -0.034878403 0.0199503 0.0010601282 0.04733208 -0.0075793266
0.049250066 0.008368082 0.051520742 0.051765315 -0.00025826693 -0.014751531 -0.012112029 0.045953795
-0.008745164 0.031885855 0.021807857 0.03453096 0.043268234 -0.01691012 -0.05632542 -0.015385456
0.035066895 0.016095147 0.035548076 0.040033072 -0.053064264 0.018496774 -0.04375992 -0.049752973
0.022156797 0.016017146 -0.013617642 0.03393159 0.036188215 -0.0057523325 -0.042767137 0.022824645
0.036532752 0.0056910664 -0.046980582 -0.030757464 0.06161491 -0.032087095 0.03679262 -0.058430374
0.026711777 -0.0010154918 -0.04150121 -0.05925329 0.042689674 0.029774912 -0.05183015 0.048420556
-0.04814844 0.00697276 -0.031546265 -0.004257679 0.048296563 -0.05018603 0.05089824 -0.054722875
0.018426366 0.0100605935 0.0042538643 0.032692604 0.012611426 0.01489082 0.034131028 0.01899954
-0.016920783 -0.002205953 -0.021516405 -0.0007850528 -0.027695812 -0.017224625 0.03905236 0.059691213
0.002994433 0.05441773 -0.040803745 -0.053999044 0.060888305 -0.01907327 -0.05884736 0.03513588
-0.021973766 0.023625277 -0.052190796 0.015184261 -0.015119657 0.044799767 0.05092486 0.014970675
-0.035856813 -0.00044050068 -0.012233295 0.00847777 0.061134078 -0.012145288 -0.01707948 -0.008514404
0.026974835 -0.04990904 -0.040128343 0.0031552464 0.055202954 0.0017987639 0.026427306 0.0064761937
00000000: 500f a43c 7201 23bd 5ea8 1b3d c48c 413d
00000010: 1290 06bd 60d0 be3c 2636 68bd 80b3 8a3b
00000020: f088 15bc 3e92 253d 8efb 663d a004 a93b
00000030: 00ea 7e3d 0827 9c3c c0a2 8abc c0ac 57bc
00000040: cc98 5c3d 80f8 583c 7089 ab3b 8033 60bc
00000050: f0ee 5d3c 0cdd 313d 08ff 03bd 4c5d 733d
00000060: e6b5 6e3d 00cf 533c 989b 70bd b4e4 36bd
00000070: 20cb 3d3d 945e 9cbc 0636 113d 68a2 5b3c
00000080: 0e93 6abd bc0c fbbc 4090 fbbb dca7 593d
00000090: 8c59 a8bc 0456 32bd aa5d 22bd 2c4b d0bc
000000a0: d0d1 d5bc ded7 393d 82a2 2c3d b0fb b7bb
000000b0: 8828 17bd 80c9 0f3d 7215 323d fe2e 2a3d
000000c0: b013 53bc 6210 193d 6852 da3c b8b3 443c
000000d0: 9246 493d f05c 6f3c 8ea0 363d 54b0 c7bc
000000e0: 581f fb3c 347a 593d f050 7c3c f05d fa3c
000000f0: b675 343d dcfd f5bc 8c2f 30bd f8f4 c9bc
00000100: aa8d 0dbd 8016 64bd 8cba 1b3d 6c6f ca3c
00000110: 6c06 4ebd e810 a1bc b869 01bc 30eb b0bc
00000120: 6878 283d d2ea 043d eab0 3cbd c034 b8ba
00000130: 00b7 37ba 0a25 163d 14bb 4dbd 685d 92bc
00000140: b03c 2b3c 0016 cabc c60d 193d 40e9 a3bc
00000150: b41b 71bd 2458 48bd 84bc e4bc 7c96 abbc
00000160: 001c bf3b c2e0 7ebd e8f7 01bd ee77 6dbd
00000170: 4aa1 5f3d 6080 03bb 90ba 36bd d422 3abd
00000180: d027 67bc cc1c cb3c d0eb 7abd 88ce 28bd
00000190: 1097 713d a26b 12bd e074 22bc b06e 343c
000001a0: 9600 6f3d b2c8 2f3d e428 cebc c44e d83c
000001b0: b0fb 28bc c684 443d 7ce4 65bd f0d3 25bd
000001c0: dca9 3bbd 9045 943c 446f a0bc 6a0b 25bd
000001d0: b890 4dbd a2f4 2bbd 4801 7f3d f203 79bd
000001e0: dc2d c9bc b0ec 5c3d 3e4e 3b3d 60b5 4f3d
000001f0: b038 8abc 04ca efbc f043 89bb a453 013d
00000200: 4840 45bd 00b4 b639 200b 6b3c 2c42 8e3c
00000210: 62fe 213d a41e dabc ec26 b3bc 1869 2fbc
00000220: d088 07bd 1e2d 74bd 4ea3 18bd 80f0 02bd
00000230: f237 17bd 80e4 013d 6a9c 09bd b073 39bc
00000240: 4830 b03c c061 b83c fe3d 7d3d a8dc 0ebd
00000250: d06e a33c 00f4 8a3a 48df 413d 005c f8bb
00000260: 70ba 493d 481a 093c 6a07 533d de07 543d
00000270: 0068 87b9 68b0 71bc 8871 46bc 0c3a 3c3d
00000280: e047 0fbc be9a 023d 64a6 b23c 5670 0d3d
00000290: 083a 313d 1887 8abc 7cb5 66bd 4813 7cbc
000002a0: 4ea2 0f3d f8d9 833c dc9a 113d b8f9 233d
000002b0: ea59 59bd 8c86 973c 9a3d 33bd c6c9 4bbd
000002c0: 2c82 b53c 6436 833c 881c 5fbc dafb 0a3d
000002d0: 183a 143d 107e bcbb 982c 2fbd c0fa ba3c
000002e0: 5ea3 153d 207c ba3b b66e 40bd 14f7 fbbc
000002f0: ea5f 7c3d c26d 03bd dcb3 163d b054 6fbd
00000300: a8d2 da3c 401a 85ba 2cfd 29bd 94b3 72bd
00000310: 5edb 2e3d 84ea f33c da4b 54bd a254 463d
00000320: 4c37 45bd c07b e43b a836 01bd 0084 8bbb
00000330: 9ed2 453d de8f 4dbd ac7a 503d 1825 60bd
00000340: e4f2 963c 30d5 243c 0064 8b3b aee8 053d
00000350: 28a0 4e3c a0f8 733c facc 0b3d eca4 9b3c
00000360: 749d 8abc c091 10bb 2c43 b0bc 00cc 4dba
00000370: 54e2 e2bc a81a 8dbc 5ef5 1f3d c67e 743d
00000380: 403e 443b 20e5 5e3d d421 27bd 1a2e 5dbd
00000390: 0466 793d 8c3f 9cbc ee09 71bd a4ea 0f3d
000003a0: 5402 b4bc cc89 c13c 04c6 55bd 68c7 783c
000003b0: 70b8 77bc f67f 373d 9696 503d 9047 753c
000003c0: 98de 12bd 00f3 e6b9 286e 48bc 58e6 0a3c
000003d0: ba67 7a3d 08fd 46bc 44ea 8bbc 0080 0bbc
000003e0: 54fa dc3c 6c6d 4cbd 9e5d 24bd 40c8 4e3b
000003f0: 7e1c 623d 80c4 eb3a 147e d83c 4036 d43b
