output_lxl/MASAC/weight/critic2_agent_5_ep_9800.pth (torch, 286504 bytes, 5 tensors)

fc1.weight f4 [256, 18]
000000 ba bd 8f 3d 9b 69 e4 bd 2e 9e 41 be 47 80 6a be
       0.07018609 -0.11152955 -0.18907997 -0.22900496
000010 0a 8e eb 3d fa d5 ae 3d 92 78 ef 3d cb c7 3a 3e
       0.11501701 0.085369065 0.11692919 0.18240277
000020 73 8f 21 be 49 e2 5a 3e d4 88 d9 bd 31 16 16 3e
       -0.15777378 0.21375383 -0.10621801 0.14656903
000030 d4 17 db bd 6a fd 37 be e6 55 ed 3d 45 4e 4b be
       -0.10697904 -0.17967764 0.115886495 -0.19854076
000040 84 64 40 bd 84 60 51 be 7c d8 90 bd 88 3a 99 bd
       -0.04697086 -0.20446974 -0.07072541 -0.07481867
000050 28 f6 82 3c bc 45 16 be e0 f4 c8 3b 60 73 43 3c
       0.015986517 -0.14675039 0.006132707 0.011929363
000060 b8 92 a4 bd b0 c1 97 bc 25 f2 19 3e 12 0e 3d be
       -0.08035797 -0.018524975 0.15033777 -0.18462399
000070 c3 db 1c 3e 80 f3 8b 3b b3 3d 17 be a3 89 4a 3e
       0.15318207 0.004270971 -0.1476963 0.19779067
000080 2c e5 58 be 9b b4 5c 3e 2f 79 4e 3e 96 03 99 3d
       -0.21181172 0.2155327 0.20163415 0.07471387
000090 2c 5c 06 bd 8d be 01 3e d0 53 68 bc 8b a4 5c 3e
       -0.032802746 0.12670346 -0.014180139 0.21547143
0000a0 1d 46 34 be 7c 15 31 be 8c d5 03 3d 47 da 4c 3e
       -0.17604871 -0.17293352 0.032186076 0.20005141
0000b0 26 82 09 be a8 57 ef 3c 10 c9 e2 bc 76 f6 f9 3d
       -0.13428554 0.029216602 -0.027683765 0.12205212
0000c0 ea d0 5c be 74 51 0f be a6 55 47 be 1a 95 e3 3d
       -0.2156407 -0.13995916 -0.19466266 0.11112423
0000d0 99 17 0e be 8c c8 66 3d 0d 86 09 be cd 92 70 3e
       -0.1387619 0.0563436 -0.13430043 0.234935
0000e0 c0 42 91 bc 69 79 54 3e 87 05 56 be 90 80 af bc
       -0.017732024 0.2074944 -0.20900546 -0.021423608
0000f0 8e b7 a6 3d db e4 4f be 03 a7 2d 3e 94 eb f7 bd
       0.08140479 -0.20302145 0.16958241 -0.1210548
000100 08 0b 22 be 74 af 3e 3d 19 c1 5c 3e f9 f1 18 3e
       -0.1582452 0.046554044 0.21558036 0.14936055
000110 4c 40 1f bd 13 d2 64 be c8 4b cc 3c f2 ff 9e 3d
       -0.038879678 -0.22345762 0.024938479 0.077636614
000120 3a 5f 25 be b2 66 b7 bd 34 31 33 bd 76 c8 89 3d
       -0.16149607 -0.089551345 -0.043748096 0.06727688
000130 c2 1e b2 3d 7d 09 20 3e 7c 05 68 be 16 f7 29 be
       0.08697273 0.1562862 -0.22658342 -0.16598162
000140 d1 e5 22 3e c6 52 88 3d 30 9e 7a 3c f2 90 a3 3d
       0.1590798 0.06656413 0.015296504 0.079866305
000150 c3 80 36 be 6b 24 56 3e b1 c1 5d be c4 e6 15 be
       -0.17822556 0.2091233 -0.21655919 -0.14638811
000160 fc 2e 33 be 08 2d 88 3c 9b 86 14 3e 9a 64 85 3d
       -0.17498392 0.016623035 0.14504473 0.06513329
000170 a2 44 b9 3d 7b cb 6a 3e c5 51 ff bd 5a c0 97 3d
       0.09046294 0.22929184 -0.12466768 0.07409735
000180 d8 c8 c1 3c 10 2d 10 bd f2 41 69 be 87 9b 67 3e
       0.02365534 -0.035199225 -0.22779062 0.22617923
000190 eb 7b 15 3e 71 46 5a 3e 38 dc a2 3c 1a a3 9c 3d
       0.14598052 0.21315934 0.0198804 0.07648297
0001a0 20 5d 17 bd df 25 1c 3e e7 f3 24 3e da ad b0 bd
       -0.036954045 0.15248822 0.16108666 -0.086269096
0001b0 80 d3 a3 bc fc ca a7 bd bc be b3 bd 07 26 15 3e
       -0.019998312 -0.08193013 -0.08776614 0.14565288
0001c0 54 39 76 3d 27 ce 49 3e 3d 75 21 3e c0 3d 2f 3b
       0.060113266 0.19707547 0.15767379 0.0026739687
0001d0 f5 28 5d be 7a a9 26 be 57 26 1b 3e c4 64 26 be
       -0.21597655 -0.16275588 0.15151344 -0.16249377
0001e0 20 54 bd bb 79 de 6d 3e 91 76 52 3e 2c 1e 02 be
       -0.0057778507 0.23229398 0.20553042 -0.12706822
0001f0 12 4e af 3d 78 b4 8f bc 3c ca 0a bd 8f 27 06 3e
       0.085598126 -0.017542109 -0.033884272 0.13101028
000200 ae 04 e2 3d a3 5b 11 3e 74 2a 7b bd 74 10 3d bd
       0.11036049 0.14195113 -0.061319783 -0.04615827
000210 04 22 28 be 5e ab df 3d b4 7a 48 3d 18 98 46 be
       -0.16419226 0.109213576 0.048945144 -0.19393957
000220 43 6c 33 3e 43 2b 39 be 71 1a 69 3e 3b c3 57 3e
       0.17521767 -0.1808291 0.22763993 0.21070568
000230 93 b7 3a 3e 5c bc aa bd 2f aa ef bd cd 96 57 3e
       0.1823409 -0.08336708 -0.11702382 0.2105362
000240 b7 b4 2b 3e 80 f6 e4 bb 9b 7c 4b 3e ec aa fe bd
       0.16768156 -0.006987393 0.19871752 -0.124349445
000250 a3 6a 38 3e 43 64 03 3e cc 9b 57 be 7d 18 f5 bd
       0.18009429 0.12831216 -0.21055526 -0.119675614
000260 60 31 f6 3b ea bd a6 bd 1f c8 3c 3e 1c 1d 4a 3d
       0.00751321 -0.08141692 0.18435715 0.049344167
000270 1a 86 20 be c4 32 61 3d 7a cb 8e bd e3 1d 6e be
       -0.15676156 0.054980054 -0.06972404 -0.23253588
000280 10 e7 09 be 2f 83 38 3e e3 74 12 3e dc 42 95 bd
       -0.1346705 0.18018793 0.14302401 -0.07288143
000290 2f 64 19 3e d0 0d 3c 3c cd 3b 2a be 6c 72 40 3d
       0.14979623 0.0114779025 -0.16624375 0.04698412
0002a0 62 13 ea 3d 90 b5 3e be 9c 2c 6b be e9 8c 61 3e
       0.11429478 -0.18623948 -0.22966236 0.22026409
0002b0 c7 bf 4e 3e 10 e9 5d bc 54 3b 59 be a3 d4 62 3e
       0.20190345 -0.013544336 -0.21214038 0.22151427
0002c0 22 5d 85 3d 92 55 4a be 51 41 13 3e 69 14 2d 3e
       0.06511904 -0.19759205 0.14380385 0.16902317
0002d0 80 c4 c3 bc 35 ac 39 3e 24 46 cd bd 31 4e f9 bd
       -0.02389741 0.18132098 -0.10023144 -0.12173117
0002e0 f0 1d 0f 3c 2b c3 57 3e c8 5a 36 bd 4d da 44 be
       0.008735165 0.21070544 -0.04452017 -0.192239
0002f0 cf 62 41 be 85 49 07 3e ff ab 5f be 88 07 e8 3c
       -0.18885349 0.13211639 -0.21842955 0.028323904
000300 14 b9 1a 3d be 32 ad 3d 83 48 fc bd cd 7d 65 3e
       0.03777416 0.08456944 -0.12318518 0.2241127
000310 6f f9 20 3e 2f 20 33 3e 20 f9 5c bd 80 af 6d bc
       0.15720151 0.17492746 -0.05394852 -0.0145071745
000320 a8 0d 54 bd 28 5e bc 3c a0 d3 5c be 58 3d da bd
       -0.051770836 0.022994116 -0.21565104 -0.10656232
000330 82 f0 af bd e1 83 41 be 58 19 95 bd 9b 48 4e be
       -0.08590795 -0.18897964 -0.072802246 -0.20144884
000340 80 f6 98 3a 24 34 74 bd f8 5b 38 be 44 53 5a be
       0.0011670142 -0.059620038 -0.18003833 -0.21320826
000350 14 46 44 3d a8 4b b5 bc 0b f6 4a 3e 88 b2 a8 bc
       0.047918394 -0.022130802 0.1982042 -0.020592943
000360 8c c3 7d bd 40 cd 66 bb 00 2b a8 3b 8d d1 3e 3e
       -0.061954066 -0.0035217553 0.005132079 0.18634625
000370 f8 c8 10 be cd fc f9 bd 6e 95 da 3d 60 cc 0a bd
       -0.14139163 -0.12206421 0.10673033 -0.033886313
000380 99 51 fa bd 98 75 2b be 48 ee e9 bc 32 f6 fe 3d
       -0.12222595 -0.16744077 -0.028556004 0.12449302
000390 46 85 5a be 40 48 7d bc aa 31 cf 3d 78 b9 0c be
       -0.21339902 -0.01545912 0.101168945 -0.13742626
0003a0 9a d7 bf bd 1f ed 58 3e 61 42 52 3e f1 72 2c 3e
       -0.093672946 0.21184205 0.20533134 0.16840722
0003b0 94 e9 b2 bd 23 18 5d 3e ee 92 a1 3d a0 9e c2 bd
       -0.08735958 0.21591239 0.07889353 -0.095029116
0003c0 6a 0d 8a 3d 4c a4 25 be 84 5d 62 bd ce 25 e1 bd
       0.0674084 -0.16175956 -0.055264965 -0.10993539
0003d0 0b ba 48 3e bf f4 25 3e ce 47 2b be 68 59 2f bd
       0.1960222 0.16206644 -0.1672661 -0.042809874
0003e0 4d 73 1f 3e da 70 b2 bd 11 d7 43 3e e0 81 af bc
       0.15571328 -0.08712931 0.1912501 -0.021424234
0003f0 99 91 2e 3e 88 db 0e bd 83 00 10 be 38 d9 32 bd
       0.17047729 -0.03487733 -0.14062695 -0.043664187

fc1.bias f4 [256]
000000 b8 7d b4 bc 56 65 eb 3d 52 73 9c bd d4 61 71 3d
       -0.022032604 0.11493938 -0.07639183 0.058931187
000010 d4 48 43 3d 3f ee 69 3e ac a8 ca bd 7d 09 4e 3e
       0.047676876 0.2284479 -0.09895453 0.20120807
000020 91 89 54 3e bc d7 f8 bd ce 18 ae bd a3 a2 39 be
       0.20755602 -0.12150523 -0.08500825 -0.18128447
000030 a6 da 85 3d 94 d2 77 3d 53 68 33 be 52 c6 b6 bd
       0.065358445 0.060503557 -0.17520265 -0.08924545
000040 9a 1a 6f be 18 b5 93 bd 26 f1 98 3d 50 94 59 bc
       -0.23349991 -0.07212275 0.074678704 -0.013279989
000050 91 44 3c be 48 ff f1 3c 20 1d fc 3b 58 5b 29 be
       -0.18385531 0.029540673 0.0076939017 -0.16538751
000060 0c 06 3e 3d 6e ed 94 3d 60 74 be 3b fd ca ee bd
       0.046392485 0.072718486 0.005812213 -0.11659811
000070 22 3d 87 3d a6 3c e8 3d 7e da 01 be 6f 16 34 3e
       0.06603457 0.11339693 -0.12681004 0.17586683
000080 91 9f 55 be eb 27 59 be 32 fe 87 bd 16 bc c1 3d
       -0.20861651 -0.21206634 -0.06640281 0.09459703
000090 ce 44 bf bd 64 bc 65 be 60 40 63 3c b3 70 22 3e
       -0.09339295 -0.22435147 0.013870329 0.15863304
0000a0 f4 d4 15 bd 3a d6 8c bd ae 96 a1 3d 2d ed 2a 3e
       -0.03658004 -0.06876798 0.07890068 0.16692038
0000b0 10 a6 0a bc 00 9f 58 bd 62 60 f5 3d ca 38 30 be
       -0.008462444 -0.05288601 0.11981274 -0.17209163
0000c0 cc c2 12 3d 7a f9 5c be cd c8 45 3e d3 04 1c 3e
       0.035830304 -0.21579543 0.1931488 0.15236215
0000d0 b6 f6 86 3d 28 46 96 bd 4f f7 f9 bd b6 e0 ed 3d
       0.06590025 -0.073376 -0.122053735 0.11615126
0000e0 b7 a2 10 3e b6 06 c1 3d c4 0c ea bd a2 3b 54 be
       0.14124571 0.09425108 -0.11428216 -0.20725873
0000f0 e2 26 aa 3d 70 4f 3b be fd cd 5a be 84 51 6d be
       0.083081976 -0.18292022 -0.21367641 -0.23175627
000100 a2 58 28 be ab c8 60 3e ad 90 51 3e 2a 96 2e be
       -0.1644006 0.21951549 0.20465346 -0.1704947
000110 68 5e 95 bd f6 b7 de bd 90 06 77 3c 57 34 11 3e
       -0.07293397 -0.108749315 0.015077248 0.14180122
000120 e8 ef c6 bd 4e b4 97 3d f7 c2 0d 3e 88 94 4e be
       -0.09713727 0.07407437 0.13843904 -0.20173848
000130 6c 5a 60 bd 1b f7 ed bd 56 e7 cf 3d 47 ce 58 3e
       -0.054773733 -0.11619397 0.10151546 0.21172439
000140 4c 12 56 3d 42 55 82 bd 68 a1 23 be e6 57 f3 3d
       0.052263543 -0.06363918 -0.1597954 0.11882
000150 25 d2 63 3e fc 22 99 bd 4c bb 21 be 8d 74 36 be
       0.22248133 -0.07477376 -0.15794104 -0.17817898
000160 0b 0d 53 3e 9c 78 06 be 44 68 16 bd 80 7b 8c 3a
       0.20610444 -0.13131946 -0.03672053 0.0010717958
000170 cd 9e 2c 3e 48 d8 e9 3c 22 3f 9f 3d 3d b8 3a 3e
       0.16857453 0.028545514 0.077757135 0.18234344
000180 52 09 e8 3d d8 ec d4 3c 49 21 26 3e 82 d6 b0 3d
       0.11329903 0.025991842 0.16223635 0.08634664
000190 46 72 dc 3d b2 04 89 3d d6 42 bb bd 6a ad 40 be
       0.107639834 0.06690349 -0.09143607 -0.18816152
0001a0 f8 d7 b4 3c e9 ed 21 3e 32 1f 15 be 47 f2 30 be
       0.022075638 0.15813412 -0.14562681 -0.17279921
0001b0 d2 b9 8c 3d 48 94 f3 3c c3 1b 46 3e a0 87 86 bb
       0.0687138 0.029733792 0.19346528 -0.004105523
0001c0 9d 8c 6f 3e 03 c1 26 3e 24 67 1c 3d 09 5b 0c 3e
       0.23393483 0.16284566 0.0381843 0.13706602
0001d0 ed 03 1f 3e 40 63 a1 bd 7c 6b c4 bd 73 f8 6e 3e
       0.15528841 -0.078802586 -0.095908135 0.23336963
0001e0 f4 22 82 bd b0 d4 64 be 40 8b 15 3c ca 85 5a be
       -0.06354323 -0.22346759 0.009127438 -0.21340099
0001f0 72 a0 65 be 66 77 6a be f8 64 99 3c ea 17 cb 3d
       -0.22424486 -0.2289711 0.018724903 0.099166706
000200 50 f4 1d be 4e c9 c1 3d 0e f3 10 be 76 35 15 be
       -0.15425229 0.09462224 -0.14155218 -0.14571175
000210 d0 ba 4e be 6b bb 29 be ce 62 2e be cd 42 1a 3e
       -0.20188451 -0.165754 -0.17029878 0.15064545
000220 ca 8d d7 3d 80 93 3c bb aa 6f 90 3d 3d 08 15 3e
       0.10525091 -0.002877444 0.07052548 0.14553924
000230 f9 dd 18 3e 50 b7 30 be 70 dd 24 be 2e e8 0f be
       0.14928426 -0.17257428 -0.16100097 -0.14053413
000240 f4 05 3a be f7 93 44 3e f8 9c 14 be 6e d8 e3 3d
       -0.18166333 0.19197069 -0.14513004 0.11125265
000250 9c 5d 66 3d 2c b9 44 bd cb 68 3c 3e 0d 78 4d 3e
       0.056241617 -0.048028156 0.1839935 0.20065327
000260 06 5b c3 bd cf 5d 14 3e 84 41 6c 3d cf 92 66 be
       -0.09538846 0.1448891 0.057679668 -0.2251694
000270 ac 6e 3c be f8 3b 93 bc 95 15 f4 bd 8e 94 ce 3d
       -0.18401593 -0.017972931 -0.11918179 0.10086928
000280 a6 9e be bd ac 67 71 3d 82 68 47 be 6a 5d b6 bd
       -0.093076035 0.05893676 -0.1947346 -0.08904536
000290 fa de f5 3d a0 34 d4 3b c4 b7 58 be 3d 35 41 3e
       0.1200542 0.006476 -0.21163851 0.18867965
0002a0 00 fe b5 bd 25 e9 3e be 06 92 5d be 62 43 b4 3d
       -0.08886337 -0.18643625 -0.21637735 0.08801915
0002b0 94 d0 63 3d c8 d0 4d be c7 3b 04 3e 94 b5 4f bd
       0.055618837 -0.20099175 0.12913428 -0.050710276
0002c0 a3 fd 69 3e 52 60 fa 3d 7d 9e 22 3e 12 9d dc 3d
       0.22850661 0.12225403 0.15880771 0.10772146
0002d0 c2 a6 1d be 58 8e 53 bd ee 6b ad 3d 58 6d a7 3c
       -0.15395644 -0.05164942 0.084678516 0.020437881
0002e0 60 bc 6c bc 87 7b 22 3e f7 b5 1e 3e 08 91 df bd
       -0.014449209 0.15867434 0.15499102 -0.109163344
0002f0 c8 b8 ba 3c ab dd 47 3e 2c ce 0e 3d 3a bc 9e 3d
       0.022793189 0.19518153 0.03486459 0.07750745
000300 00 92 f8 3a e2 69 a8 3d a8 73 dd bd 29 e0 67 3e
       0.001896441 0.082233205 -0.10813075 0.22644104
000310 18 00 bc bc c4 88 0f 3d ed 72 1c 3e 00 ce 30 be
       -0.022949263 0.03504254 0.15278216 -0.17266083
000320 dc a5 76 bd 33 88 04 3e f1 ad 35 3e 45 f6 37 be
       -0.06021677 0.12942581 0.17742135 -0.17965038
000330 c7 3f 55 3e 2c cb 2c 3d 4e e2 af bd 17 2d 15 3e
       0.2082511 0.042185947 -0.08588086 0.14567982
000340 f2 c4 af 3d 08 ef b2 3c 13 fd 1e be c0 31 2c bd
       0.08582486 0.021842495 -0.15526228 -0.042039633
000350 9c f5 0e bd 40 14 c0 bb c8 6e 85 3c b4 88 39 3d
       -0.0349022 -0.005861789 0.016288176 0.045296386
000360 12 55 36 be 35 0a 05 3e 80 90 01 3c 09 fa 59 3e
       -0.17805889 0.12992175 0.007907987 0.21286787
000370 83 f9 e9 bd fa f6 26 be 9c 50 6f bd 0c 67 0f 3d
       -0.11424544 -0.16305152 -0.058426484 0.035010383
000380 11 49 1c 3e 10 37 1a bc 07 b8 6d 3e 5b 2c 03 3e
       0.15262248 -0.009412542 0.23214732 0.12809889
000390 44 90 76 bd 6d bc 70 3e b4 92 58 bd 60 60 cc bd
       -0.060196176 0.23509379 -0.052874282 -0.099793196
0003a0 70 d6 a1 bc 75 97 49 3e 38 6c ee bc 18 c3 33 be
       -0.019755572 0.19686683 -0.029104337 -0.17554891
0003b0 63 bd 4d 3e 62 94 8b 3d e2 2b 3a be c9 f2 6b be
       0.20091777 0.06815411 -0.18180802 -0.23041834
0003c0 06 80 87 3d 65 76 3d 3e c0 0d e6 3b b5 b1 52 3e
       0.066162154 0.18502195 0.007020682 0.20575602
0003d0 35 11 33 3e c4 94 95 bd 04 33 26 3d 16 1e ee 3d
       0.17487033 -0.073037654 0.040575996 0.11626832
0003e0 8e 33 67 be 70 aa 48 be 20 ac 3b be 26 53 94 3d
       -0.2257826 -0.19596267 -0.18327379 0.07242422
0003f0 c6 eb bd 3d f2 eb b0 bd 18 51 e5 bd 3c 34 ae bd
       0.09273486 -0.08638753 -0.11197108 -0.08506057

fc2.weight f4 [256, 256]
000000 f8 08 26 bd 04 ba 49 3d 40 e3 c5 3a fe 68 41 3d
       -0.040535897 0.049249664 0.0015097633 0.04721927
000010 08 24 00 3d f8 29 9b 3c 34 f8 fe bc b4 a1 d2 bc
       0.031284362 0.01894091 -0.031124212 -0.025711872
000020 10 45 80 bc 70 28 1a bc 40 16 dc bc 78 f0 75 3c
       -0.015657932 -0.009409055 -0.026866078 0.0150109455
000030 a0 d5 5f 3c 4c 20 ed bc 66 52 07 3d a0 fb 61 bd
       0.013661772 -0.028946064 0.033037566 -0.05517161
000040 c0 04 24 3b 28 a8 5c 3c 90 74 a9 3b ec ea 80 bc
       0.0025027245 0.013467826 0.005171366 -0.01573702
000050 0a 36 62 3d 98 4a 78 bc 82 9b 39 bd 72 9a 4f bd
       0.055227317 -0.015154503 -0.04531432 -0.0506844
000060 50 55 4c bc 10 c4 3d 3d 1c 15 e8 bc 68 df 6c bc
       -0.012471512 0.046329558 -0.028330378 -0.014457561
000070 60 b6 7a 3d 7c 6d f4 bc e2 00 0b bd 00 5c 54 3b
       0.061209083 -0.029837362 -0.03393639 0.003240347
000080 a0 0d db 3b 30 4f 8c bc 68 b9 33 3d 6c 74 7f bd
       0.006684974 -0.017127603 0.04387799 -0.062366888
000090 06 27 2b bd d8 ea 9d 3c f8 bb d9 bc a4 94 64 bd
       -0.041785263 0.019277021 -0.026578888 -0.055805817
0000a0 08 68 0c bd b2 d3 1d 3d 80 ad f9 3a 64 a5 14 bd
       -0.0342789 0.038531967 0.0019048899 -0.03629054
0000b0 1e dd 75 3d 5c 42 35 3d 14 4a 20 3d 9e 40 5a 3d
       0.060025327 0.04425274 0.039133146 0.05328428
0000c0 9c aa 73 3d c8 15 68 3c 00 50 6e b8 e4 8f 94 bc
       0.059488878 0.014165349 -5.6818128e-05 -0.018135019
0000d0 5c 64 f4 bc 00 76 29 39 44 a5 f8 3c 60 0b 86 bb
       -0.029833011 0.00016161054 0.030352242 -0.0040907115
0000e0 be 9c 0c bd 38 a6 fe bc e2 95 47 bd 58 59 ba bc
       -0.03432917 -0.031085119 -0.048726924 -0.02274768
0000f0 e4 d1 39 3d e8 f5 fc 3c b8 8a 1f 3d b4 ac 11 bd
       0.045366183 0.030878976 0.038950652 -0.035565093
000100 70 55 df bb b0 56 f6 bb 6e 7a 6f bd 64 34 d5 3c
       -0.006815605 -0.007517658 -0.058466367 0.026025958
000110 b4 b3 41 3d 62 8c 79 3d 36 cb 3d 3d 40 14 d1 bc
       0.04729052 0.060924895 0.046336375 -0.025522351
000120 8e ea 7b 3d 6a 05 70 3d aa 2a 56 bd 2e cc 5d 3d
       0.061502986 0.058598913 -0.05228678 0.0541498
000130 00 b5 2d 3d 20 31 3c bd 94 3a f7 3c 40 56 c2 3a
       0.042408943 -0.045945287 0.0301793 0.001482673
000140 f0 75 4d 3d 8c 5a a5 3c d2 97 04 bd 00 ad a7 bb
       0.050161302 0.020184778 -0.03237135 -0.0051170588
000150 b8 4c 8b 3c 84 c7 f3 bc 12 65 59 bd 32 2a 17 3d
       0.017004356 -0.029758222 -0.053074904 0.036905475
000160 84 d1 56 3d d4 95 9a 3c e0 58 f0 bc c8 3c 86 bc
       0.052445903 0.018870272 -0.029339254 -0.016386405
000170 00 ab 24 bd 9c 58 82 3c 80 4e 35 bc 80 d7 1b 3d
       -0.04020214 0.015911393 -0.011066079 0.038047314
000180 d0 48 e5 3b 1c 47 71 bd 06 1a 6a bd 68 82 45 bc
       0.0069972053 -0.058905706 -0.057153724 -0.012055017
000190 80 40 57 3a 74 aa f8 3c 60 a7 59 bc c6 4b 51 3d
       0.00082112104 0.030354716 -0.013284534 0.051097654
0001a0 40 16 ac 3b 08 8d 41 3d ee ba 16 3d f0 c5 67 3d
       0.005251676 0.04725364 0.036799364 0.056585252
0001b0 56 83 56 bd 68 0d 1c 3c 70 e0 31 3d c8 99 fc 3c
       -0.052371345 0.009524681 0.04342693 0.030835047
0001c0 6c 5e 8e 3c d8 48 9b 3c ec 7d f9 3c d8 57 1a bd
       0.017379008 0.018955633 0.030455552 -0.03768143
0001d0 c8 a8 0f bc 40 f7 50 bb 60 d4 57 3c 60 5d 58 bc
       -0.008768268 -0.0031885654 0.013173193 -0.013205856
0001e0 f8 73 56 3d 60 7d 7b bd c4 4b b3 3c 98 8c 0b bc
       0.05235669 -0.061398864 0.021886714 -0.008517407
0001f0 7a 4e 63 bd fc c6 33 3d 00 a3 04 bb 70 61 0a 3c
       -0.055494763 0.04389094 -0.0020238757 0.0084460825
000200 70 e5 34 3c 88 dc 72 3c 1c f5 da 3c 82 f2 7b 3d
       0.01104103 0.014823087 0.026728205 0.06151057
000210 50 47 55 bd 64 5e a6 3c 10 64 3d bd fc fc fc 3c
       -0.052069962 0.02030868 -0.046238005 0.030882351
000220 d8 50 36 3d bc fe 7c bd 60 17 23 3c 2c 0d 28 bd
       0.044510692 -0.06176637 0.0099543035 -0.041028187
000230 2a 7b 31 3d 48 80 f9 bc 40 58 38 bd 00 e0 e3 bb
       0.04333035 -0.030456677 -0.045006037 -0.006954193
000240 00 30 98 3a c0 6a 94 3a 40 4e a1 3c fe fe 6a bd
       0.0011610985 0.0011323318 0.019690633 -0.057372086
000250 18 6f 9c bc 38 ea 57 3c 54 8f 2f 3d a0 77 2e 3b
       -0.019095942 0.013178401 0.042861298 0.0026621595
000260 a8 b2 3e bd 40 26 d4 ba 7e 30 3a bd 1e 55 21 bd
       -0.0465571 -0.0016185716 -0.045456402 -0.039387815
000270 dc 94 90 3c 00 8b 5a bb fc 9c 5e 3d 60 f0 64 3b
       0.017649107 -0.003334701 0.05434893 0.0034933314
000280 f0 d7 0f bc 90 81 76 bc 4c 34 dc 3c 60 f0 e3 bc
       -0.008779511 -0.015045539 0.026880406 -0.02782458
000290 7c f3 d5 3c a0 17 6f 3c 70 85 30 3c e4 e9 1d bd
       0.026117079 0.014593035 0.0107740015 -0.038553134
0002a0 2a 6e 53 bd 60 b0 ba 3c 34 e8 b6 bc 80 81 37 3a
       -0.051618733 0.02278918 -0.02232752 0.0007000193
0002b0 5a 53 59 3d 30 41 d8 3c 20 13 ba 3c 70 4b c8 3b
       0.053058006 0.026398271 0.022714198 0.0061125085
0002c0 42 59 00 3d 40 4e 55 bc e8 30 0b 3c 8c 23 1f 3d
       0.031335123 -0.013019145 0.008495547 0.03885226
0002d0 38 e8 f2 3c 00 b3 52 bc 80 f0 7d bb e6 47 62 3d
       0.029651746 -0.01286006 -0.0038748085 0.05524435
0002e0 8c 78 cc 3c 14 dd 54 3d f8 0c 89 bc cc 4e 5b 3d
       0.024959825 0.05196865 -0.016729817 0.053541943
0002f0 dc db 37 bd 48 61 a8 3c 90 0e 76 3d 90 9f 33 3d
       -0.04488741 0.0205542 0.06007248 0.043853343
000300 10 ca f6 bb 94 00 56 bd ea df 3b bd 94 e3 80 bc
       -0.007531412 -0.052246645 -0.045867838 -0.015733518
000310 ac 68 b4 3c 1c c9 b7 3c 68 4e 2f bd 28 73 84 3c
       0.022022568 0.022434764 -0.042799383 0.016168192
000320 2a 18 75 bd 4e bd 5d 3d 50 8f 1c 3c 18 33 58 bd
       -0.059837498 0.054135613 0.009555653 -0.0527831
000330 a0 eb 8a 3b 8a 99 2a bd 02 ee 20 bd 28 58 4a 3c
       0.0042395145 -0.041650333 -0.039289482 0.01235012
000340 90 22 47 bc 90 d1 de bc 00 00 91 3c 24 81 9c 3c
       -0.012154236 -0.027199537 0.017700195 0.019104548
000350 0c 81 e6 bc 44 41 88 3c 58 a6 27 bd ce 67 14 3d
       -0.028137706 0.016632684 -0.040930122 0.03623181
000360 7c d3 c9 3c ee cd 3a 3d 0c df e2 3c 2e dd 78 bd
       0.024636976 0.045606546 0.027694248 -0.06075781
000370 4c 3a 1c bd 70 e7 3e 3d c0 4b 69 bb de 82 2f 3d
       -0.038141534 0.046607435 -0.003559813 0.042849414
000380 40 5d 90 bb 00 81 c8 3c ba 70 65 3d ec e2 d6 bc
       -0.0044056475 0.024475574 0.056015708 -0.026231252
000390 b8 d0 b8 3c 28 3e 62 bc d2 4d 4b bd ee f6 1f bd
       0.022560462 -0.0138087645 -0.049634762 -0.03905385
0003a0 82 e6 45 bd 3e 0e 42 bd 28 ee 32 bd 38 e5 d4 bc
       -0.048315533 -0.047376864 -0.043684155 -0.025988206
0003b0 6c 6e d3 bc 76 44 00 bd 3e 57 21 3d 00 9e 83 bc
       -0.02580949 -0.03131529 0.03938984 -0.016066551
0003c0 34 cc 3b 3d f0 0a 2c 3c d4 71 b5 3c 2a 36 5a 3d
       0.04584904 0.010500655 0.022149004 0.05327431
0003d0 a4 98 ad bc e8 05 4e bd f0 90 9f 3b 7a 00 41 3d
       -0.021190949 -0.0502986 0.004869573 0.047119595
0003e0 70 58 60 3c 0a 45 07 3d b4 65 5e bd 68 82 9a 3c
       0.01369296 0.033024825 -0.05429621 0.01886101
0003f0 9a 0c 32 3d 0a 69 59 3d c0 fa 43 bc a8 a2 45 3d
       0.04346905 0.05307869 -0.011961639 0.048250824

fc2.bias f4 [256]
000000 72 7c 43 bd 96 ce 72 bd fc 7e 1e bd 1e 3a 2b bd
       -0.047726102 -0.059279047 -0.03869532 -0.04180347
000010 88 02 7a bd c2 c7 04 bd 88 f3 c5 bc 12 c1 06 3d
       -0.06103757 -0.032417066 -0.024163976 0.03289897
000020 9a 49 7c bd a0 8c 1e 3d c0 7b 98 3b fa c5 77 3d
       -0.06159363 0.03870833 0.004653424 0.06049154
000030 00 5e 1f bd 6c ad 5e 3d 70 b8 5b 3c e8 10 48 3d
       -0.038908005 0.054364607 0.013410673 0.048844248
000040 d8 94 73 3c d0 e7 01 bd 44 49 77 bd 60 cb c9 bb
       0.01486703 -0.031715214 -0.060372606 -0.0061582774
000050 10 95 e0 3b 30 7a ac 3b fc d3 71 bd c0 84 04 3c
       0.006853707 0.0052635893 -0.059040055 0.008088291
000060 e2 a5 6b 3d 0e 73 57 3d f8 42 ac 3c 44 08 8a bc
       0.057531245 0.05259996 0.021028027 -0.016849644
000070 50 66 3b bd 40 48 94 bb ce 86 79 bd 6e b3 73 3d
       -0.04575187 -0.0045252144 -0.060919575 0.05949729
000080 30 4f a5 3c 84 42 b7 3c 00 6e 56 bd 38 ab 26 3c
       0.020179361 0.022370584 -0.052350998 0.010172658
000090 22 9e 39 3d 10 78 d6 bc ba e8 40 bd 1a e3 7d bd
       0.045316823 -0.026180297 -0.047096945 -0.06198416
0000a0 76 4e 58 bd 7c 6a 96 bc 70 c3 e6 bb 20 c3 6e 3b
       -0.0528092 -0.018361323 -0.007042341 0.0036432222
0000b0 16 10 09 bd 8e 4a 66 3d d0 77 e9 3b 7a 7d 4a 3d
       -0.033462606 0.056223445 0.0071248785 0.04943607
0000c0 1e 9c 3a 3d a6 09 44 bd 92 ab 18 bd 48 58 56 3d
       0.04555904 -0.047860764 -0.037272997 0.052330285
0000d0 dc fd 76 3d 00 7e 8f b9 a0 d9 69 bc 8c a5 9f 3c
       0.060300693 -0.00027368963 -0.014273077 0.019488119
0000e0 b4 e8 c7 3c 92 ae 7c bd c8 3f f9 3c e0 5f 07 3c
       0.024402954 -0.06168992 0.030425921 0.0082626045
0000f0 dc c9 5c 3d 80 50 26 bc f4 bc 6c bd 92 d4 1c bd
       0.053903446 -0.010151029 -0.057797387 -0.03828866
000100 d0 75 e9 bb 80 7b 4b bc 32 81 43 3d 3c b6 db bc
       -0.00712464 -0.012419581 0.047730632 -0.026820295
000110 58 cb 71 bc 38 31 14 3d 18 4e de bc a4 39 6e 3d
       -0.014757954 0.03617975 -0.027136847 0.05816044
000120 a2 d0 2b 3d a0 c2 af bb 22 c7 14 bd 88 e1 9b bc
       0.041947015 -0.0053637773 -0.03632272 -0.01902844
000130 66 53 2a 3d e8 a5 7c bc 00 08 37 3a fc c1 54 bd
       0.04158344 -0.0154204145 0.0006982088 -0.05194281
000140 aa e6 3e 3d a0 41 98 3c 92 f3 6b bd 74 0b e1 bc
       0.046606697 0.01858598 -0.057605334 -0.027471282
000150 ea e6 2b bd 50 3e 81 bb 84 86 44 3d 8c bd a2 3c
       -0.041968264 -0.003944196 0.047979847 0.019865774
000160 30 cd c6 bb 2c 91 e2 bc a0 ed 72 3d dc 4c d5 3c
       -0.0060669407 -0.027657114 0.059308648 0.026037626
000170 8a 5d 4a 3d 40 2d db 3b a0 5c bc 3c ac 98 39 3d
       0.049405612 0.006688744 0.022993386 0.045311615
000180 70 d1 27 3c d0 36 93 bc 7e ae 31 bd 08 05 97 bc
       0.010242805 -0.017970473 -0.0433793 -0.018435016
000190 6c e1 8c 3c 44 6d 62 bd e4 e9 c8 bc c8 0a f7 3c
       0.017197333 -0.055279985 -0.02452559 0.030156508
0001a0 f0 bf 17 3d bc 60 73 bd 68 3e e7 bc b6 59 0e bd
       0.03704828 -0.059418425 -0.028228 -0.034753524
0001b0 28 20 3d bc 3a f8 46 bd 4c 96 62 3d a8 7a 0c bd
       -0.011543311 -0.04857657 0.055319116 -0.03429666
0001c0 16 58 08 3d 9e 58 1f 3d c8 fb 7a bc b4 b5 0c 3d
       0.03328713 0.03890287 -0.015318818 0.034352973
0001d0 ac 03 36 3d d6 83 37 bd 50 f6 ad 3b 02 dd 58 3d
       0.044437096 -0.044803463 0.0053089038 0.052945144
0001e0 10 e0 29 bc 22 9a 2e 3d 2e b5 7b 3d 00 03 db bc
       -0.010368362 0.04262746 0.061452083 -0.026734829
0001f0 58 9a 6a bd 48 17 97 bc 08 fa 30 bd 1a 79 18 bd
       -0.0572761 -0.018443719 -0.0432072 -0.037224866
000200 e2 e5 22 bd b0 c1 8b bc 38 81 99 3c 92 0b 50 3d
       -0.039770015 -0.01706013 0.018738374 0.050792284
000210 cc 4f aa 3c d4 d0 a0 3c 80 9b 51 3a e2 0e 0e 3d
       0.020790003 0.019630827 0.00079958886 0.034682162
000220 c0 87 87 3b d4 1b b6 3c 72 db 51 3d 46 07 77 bd
       0.0041360557 0.022230066 0.05123467 -0.06030967
000230 14 ab 54 3d b8 f0 4a 3c e6 3a 07 3d 5c cc be 3c
       0.051920965 0.012386493 0.033015154 0.023290806
000240 98 00 05 bd 66 d8 32 bd 3c e4 3a bd 30 04 d5 bb
       -0.03247127 -0.043663405 -0.045627818 -0.0065007433
000250 40 6a 8e ba a6 ab 7d 3d 1c 5f 7b 3d 30 89 91 bb
       -0.0010865405 0.061931275 0.06137 -0.004441403
000260 20 e0 9a bb 20 09 6b 3c 70 7d 93 3b f8 0b 03 bd
       -0.004726425 0.014345437 0.0045010373 -0.031993836
000270 24 30 bb 3c ec b7 79 3d 24 3e 02 3d 20 8c 0f 3c
       0.022850104 0.060966417 0.031797543 0.008761436
000280 82 3e 0d bd 2c 69 57 bd d0 a3 16 3d 48 07 d1 3c
       -0.03448344 -0.052590534 0.036777318 0.025516167
000290 e0 33 4b bb 14 97 06 3d a4 b1 b5 3c 68 6a 4c bd
       -0.0031006262 0.032858923 0.022179432 -0.049906164
0002a0 de 8c 36 3d 64 65 b5 bc a8 fd 1c bc d0 21 fd 3c
       0.044567935 -0.022143073 -0.009581961 0.030899912
0002b0 1c 80 3e 3d 7a 9c 7a bd 10 10 c3 3c 2a e6 56 bd
       0.046508893 -0.061184384 0.02381137 -0.052465595
0002c0 a0 4a 92 bc 84 d1 14 bd 30 ca a7 bb d8 a7 77 bd
       -0.01785785 -0.036332622 -0.005120538 -0.060462803
0002d0 44 e0 c4 3c 90 3a 2a bc 82 4f 05 bd f0 ee ba bc
       0.02403272 -0.010389939 -0.032546528 -0.022819012
0002e0 96 ff 64 bd d2 a9 2a bd f4 5b fc 3c a2 f5 01 3d
       -0.05590781 -0.04166586 0.030805565 0.031728394
0002f0 74 7b 14 3d f0 57 7d 3c 66 b6 2f 3d c0 dd 85 3a
       0.036250547 0.01546286 0.042898558 0.0010213181
000300 00 38 96 b8 80 9b 88 bc 54 9a 09 3d b6 54 20 bd
       -7.162988e-05 -0.01667571 0.033594444 -0.039143287
000310 40 3c a7 bb d0 db bb bc 34 82 fa bc ee 78 79 3d
       -0.005103618 -0.022931963 -0.030579664 0.060906343
000320 f0 17 76 bd 78 ff ad 3c c4 ab 7f 3d 14 52 ae 3c
       -0.060081422 0.021239981 0.062419668 0.021279372
000330 d4 33 19 bd e0 0b 34 bc 30 5b a6 bb 00 8d eb bc
       -0.037402943 -0.010989159 -0.0050767884 -0.028753757
000340 04 ad bc 3c 00 17 ae 3c 76 fb 74 bd b8 2a 5c 3d
       0.023031719 0.021251202 -0.059810124 0.053751677
000350 5a 47 16 bd 98 96 7c 3c d6 ef 3a 3d 50 3f b7 bb
       -0.03668914 0.015416764 0.04563888 -0.0055922642
000360 d0 f1 21 3d 4e a9 22 3d 7a 0e 78 bd fc 84 f4 bc
       0.03953725 0.039712243 -0.06056068 -0.029848568
000370 b4 fb 87 3c f2 01 7d bd c6 fd 7c bd 44 15 9d 3c
       0.016599514 -0.061769433 -0.061765455 0.01917518
000380 c4 fc c5 3c 40 1c 2a 3d 88 3a 35 bc 80 dc ca bc
       0.02416838 0.041530848 -0.011061318 -0.024763346
000390 7a 80 7b 3d 0e 93 03 bd 10 6b a2 bb 10 e5 26 3d
       0.06140182 -0.032122664 -0.0049566105 0.040745795
0003a0 36 b2 10 3d ec 2d a7 3c 4e 29 69 bd f8 05 76 3c
       0.035326205 0.02040764 -0.056924157 0.0150160715
0003b0 46 9f 5f 3d 56 c1 37 3d 00 a7 7a ba 26 a0 32 3d
       0.054595254 0.044862114 -0.0009561628 0.04360976
0003c0 80 f3 23 bb c6 67 7b bd 5e e7 6e bd 30 c8 cf bb
       -0.0025016963 -0.061378263 -0.058326118 -0.006341003
0003d0 c0 f7 1c bc 76 3d 1d bd f4 2b 02 3d 20 58 33 bd
       -0.009580553 -0.03838869 0.0317802 -0.043785214
0003e0 38 18 64 3c 34 dd 5d bd 90 5a 44 3d 84 98 f9 bc
       0.01392179 -0.054166034 0.04793793 -0.030468233
0003f0 be f9 51 3d dc bb d1 bc 10 9a 46 3c 68 18 c9 bc
       0.051263563 -0.025602274 0.012121692 -0.02454777

fc3.weight f4 [1, 256]
000000 74 3a 95 bc 8e 48 5a 3d 88 ec 0f bd 0a 7a 70 bd
       -0.01821635 0.05329185 -0.035137683 -0.058710136
000010 b8 2e 2a 3c 38 0a 45 3c 34 86 47 bd dc f3 1b bd
       0.010387115 0.012026362 -0.04871197 -0.03807436
000020 1c 59 be bc f0 db 2d 3c 78 12 ac bc f0 c8 28 bc
       -0.02323585 0.010611519 -0.0210049 -0.0103018135
000030 40 cd cb ba 1c fd ff 3c f2 bb 24 3d e2 f4 79 3d
       -0.001554884 0.031248622 0.0402183 0.061024554
000040 1a 02 29 3d 72 36 68 3d 18 61 b1 bc 34 bd d5 bc
       0.04126177 0.056692548 -0.021652743 -0.026091196
000050 9c fa c8 3c a8 61 33 3c a8 1f 19 3c 38 a8 4b bd
       0.024533562 0.010948576 0.009345926 -0.049720973
000060 78 bb 2e bc e0 be bd bc 92 4d 35 3d 2c 4b 40 3d
       -0.010664813 -0.023162305 0.04426343 0.04694669
000070 e4 3e db bc 68 05 67 bc b4 c5 4f bd 56 aa 7e bd
       -0.026763387 -0.01410041 -0.050725654 -0.062174164
000080 10 82 f3 bb 90 68 3f bd 12 11 25 3d c8 b2 f4 bc
       -0.007431276 -0.046730578 0.040299483 -0.029870406
000090 f0 fe 46 3d 9c 78 f7 3c 3e f3 5b 3d e4 7a 9f bc
       0.04858297 0.030208878 0.05369877 -0.019467779
0000a0 10 0e 58 3d 68 0c 5c bc 3e 22 0a bd a4 e2 9e bc
       0.052747786 -0.013430692 -0.033724062 -0.01939518
0000b0 f8 9b 43 3d 6c 42 20 bd e8 3b ef bc 72 9e 23 bd
       0.047756165 -0.039125845 -0.02920337 -0.039946027
0000c0 58 ca 0a bc 0e e1 61 bd 2c f9 8b 3c c4 bc bf bc
       -0.008471094 -0.05514627 0.017086588 -0.02340544
0000d0 08 98 d6 3c 64 92 7d 3d 9c 02 cb bc 34 36 78 3d
       0.026195541 0.061907187 -0.024781518 0.060598567
0000e0 64 59 68 3d 80 fa c4 ba ae 33 76 3d f8 fa 10 bd
       0.056725875 -0.0015028268 0.06010788 -0.035395592
0000f0 ae 98 00 bd ca 73 5b 3d 58 81 28 3c 04 89 0d bd
       -0.031395607 0.053577222 0.010284744 -0.034554496
000100 90 37 21 3c 18 76 50 bd bc b7 67 3d 32 1b 31 3d
       0.009839907 -0.050893873 0.056571707 0.043238826
000110 a4 8a 4d bd bc 1b 4f 3d 60 54 3b bc 74 80 4c 3d
       -0.050181046 0.05056356 -0.011433691 0.04992719
000120 ca d8 0d 3d 48 45 98 3c 58 d6 10 bc 24 54 d6 bc
       0.034630574 0.018587723 -0.008840166 -0.026163168
000130 fc a7 2e bd 00 31 88 bc 48 40 09 3c d8 47 33 bd
       -0.04264067 -0.016624928 0.008377142 -0.043769687
000140 90 c6 30 bc 94 7a f3 3c 30 ee 88 3c 94 81 c7 3c
       -0.0107895285 0.029721536 0.01671514 0.02435378
000150 60 ff 4b 3c d8 86 04 3c ae 5c 41 3d a0 79 19 bb
       0.012451023 0.00808879 0.047207527 -0.0023418441
000160 d4 8d 87 bc 70 51 2a bc 60 e2 33 bd ec 71 57 3d
       -0.016547121 -0.010395393 -0.04391706 0.05259888
000170 a4 50 75 3d e0 7f eb bb 32 01 77 bd 24 16 fb 3c
       0.059891358 -0.0071868747 -0.060303874 0.030650206
000180 10 d0 83 3b ca 27 56 bd a0 ae 98 3b 38 10 13 3c
       0.0040226057 -0.05228404 0.004659489 0.008976035
000190 24 2a 88 bc 72 5a 05 3d 74 64 dd 3c da bf 74 bd
       -0.016621657 0.03255696 0.027025439 -0.059753276
0001a0 5c 9a ab bc 72 27 0e 3d c2 fa 5f bd 78 06 1e bc
       -0.020947628 0.034705587 -0.0546825 -0.009645097
0001b0 cc 4b 82 bc 20 2f 63 bd 90 6b 46 3d ce ad 5c 3d
       -0.015905283 -0.055464864 0.048442423 0.05387669
0001c0 d4 4d 30 bd 32 d4 6c 3d 7c 58 93 bc 40 fa de bc
       -0.043042973 0.057819553 -0.017986529 -0.027218938
0001d0 00 4f c9 3c 58 19 36 3c 80 22 28 bd e8 45 5b bd
       0.024573803 0.011114441 -0.041048527 -0.053533465
0001e0 a4 ed 63 bd 00 9a b5 3a c2 9a 0e 3d e8 96 2f 3d
       -0.055646554 0.00138551 0.034815557 0.042868525
0001f0 f0 36 fd 3c 1c 70 16 bd e0 21 cb 3c 40 c6 33 3b
       0.030909985 -0.03672801 0.024796426 0.0027431399
000200 58 52 39 3d e0 75 10 3d 64 07 9a bc 0c 00 ac 3c
       0.045244545 0.035268664 -0.018802352 0.020996116
000210 c0 a7 89 3b 26 8c 2d bd d0 41 8f 3b 58 b1 dd 3c
       0.0042009056 -0.042369984 0.004371859 0.027062103
000220 40 d6 a9 3a ec 5c b9 bc a8 c4 cd bc a2 a5 4d 3d
       0.0012957528 -0.022627316 -0.025118187 0.050206788
000230 c0 87 1b 3c 68 1e 7a 3c b0 32 b8 bc ba 05 63 bd
       0.009492815 0.0152660385 -0.022485107 -0.055425383
000240 a4 dd 85 3c 60 14 d0 3c 28 d6 02 3c d0 0f df 3b
       0.016341038 0.02540034 0.007985629 0.006807305
000250 be 74 21 3d 80 93 07 3a 3a 49 5e 3d ce 5e 16 3d
       0.039417975 0.00051718205 0.054269053 0.036711507
000260 78 6f 48 3d 44 bf 09 3d c0 40 94 bb 8e 9a 16 bd
       0.04893443 0.03362967 -0.0045243204 -0.03676849
000270 1c 51 f7 3c d8 81 ef bc 00 80 a1 37 c4 9e ae bc
       0.030190043 -0.029236719 1.92523e-05 -0.02131594
000280 28 58 ab bc 40 8e ef bc 98 04 56 bc ce 81 4e 3d
       -0.02091606 -0.029242635 -0.013062619 0.05041676
000290 b8 41 20 3d 68 6f 89 3c 90 4e 47 bc 9a e7 18 bd
       0.039125174 0.016776755 -0.012164727 -0.037330247
0002a0 80 8a 13 3d c0 16 03 bd 5e 9c 02 3d bc 89 7d bd
       0.036020756 -0.032004118 0.031887405 -0.06189893
0002b0 1e 6f 78 3d 28 28 aa 3c 9a ee 43 3d fa bf 13 3d
       0.060652845 0.020771101 0.04783497 0.036071755
0002c0 70 ec 9c 3b ac 50 17 bd f0 2e aa bc f8 c2 47 3d
       0.0047889277 -0.03694217 -0.020774335 0.04876992
0002d0 60 bd 2d bc 66 f9 77 3d 64 cf 7d 3d 0c 7a 25 3d
       -0.010604233 0.06054058 0.06196536 0.040399596
0002e0 e0 bf 5d bb 60 2a 5e bd 50 c1 ab bc c8 02 ce 3c
       -0.003383629 -0.05423963 -0.020966202 0.02514781
0002f0 92 c9 47 3d 1c 2e 80 3c 2a d0 52 bd ce 34 34 bd
       0.048776217 0.015646987 -0.051468052 -0.04399567
000300 c0 87 ab 3c c8 f6 71 bc c0 18 25 3d d4 44 81 3c
       0.020938754 -0.01476831 0.040306807 0.01577989
000310 80 cf fb bb c0 77 5b 3b 10 81 35 bd 72 68 44 3d
       -0.007684648 0.0033488125 -0.044312537 0.04795117
000320 3c d0 94 bc 20 8f f6 bb e2 76 52 bd 94 78 83 3c
       -0.0181657 -0.007524386 -0.051382907 0.016048707
000330 12 9a 1e 3d 30 d8 6d bd a8 af b4 bc d0 66 95 3c
       0.03872115 -0.0580675 -0.022056416 0.018237501
000340 7e 25 54 3d 40 81 df 3a 20 68 67 bc 8c 6f dc bc
       0.051793568 0.0017052069 -0.014123946 -0.026908658
000350 40 ad 63 3d 4e 4b 44 bd 06 7f 7e 3d 78 e0 9e bc
       0.055585146 -0.04792338 0.062132858 -0.019394144
000360 04 c3 0e bd ee 38 3e bd 48 60 05 bd a0 d2 43 3b
       -0.03485395 -0.04644101 -0.032562524 0.002988018
000370 88 7b 4b 3c 18 2e 8e 3c 50 ac b6 bb f6 15 3a 3d
       0.012419589 0.017355964 -0.0055747405 0.0454311
000380 f0 56 37 bd d0 5f fa 3b a0 3f 16 3d 56 8c 7d 3d
       -0.044760644 0.0076408163 0.03668177 0.061901413
000390 94 72 b9 bc 78 7c 2c 3d 66 8f 65 3d 54 b4 2c 3d
       -0.022637643 0.04211089 0.05604496 0.04216416
0003a0 e8 a1 89 bc 5c 2c e6 3c ae 7b 3f 3d 00 ef 1c 3c
       -0.016800836 0.028097324 0.04674881 0.009578466
0003b0 bc 18 e0 bc a2 ff 20 bd 0a fa 7b 3d 20 24 79 bc
       -0.027355544 -0.03930629 0.061517753 -0.015206367
0003c0 72 01 74 3d 28 a4 1d bd 9e 41 09 3d c6 7a 4a bd
       0.05957169 -0.03848663 0.033509843 -0.049433492
0003d0 74 5d cf bc 38 7c 8f 3c 70 96 d6 3c 48 17 1e 3d
       -0.025313117 0.017515287 0.026194781 0.03859642
0003e0 16 58 18 3d 22 fc 2a bd 00 78 45 3d c8 51 82 bc
       0.03719338 -0.04174436 0.048210144 -0.015908137
0003f0 04 77 77 3d 78 43 74 3d 18 1d fc 3c 0c d2 97 bc
       0.060416237 0.059634656 0.030775592 -0.018532775
