output_lxl/MASAC/weight/critic1_agent_2_ep_3300.pth (torch, 286504 bytes, 5 tensors)

fc1.weight f4 [256, 18]
-0.14343031 0.16508739 -0.15753281 -0.17848116 -0.15898761 -0.05866836 -0.23200269 0.16825093
-0.009810209 0.23525517 0.1905392 0.16121049 -0.08113068 0.104344085 -0.03439568 -0.0740269
-0.039841384 0.05388145 -0.057249784 -0.060177326 0.016157135 0.030530319 -0.08428928 0.033217594
-0.15222028 -0.049261853 -0.15493508 0.087380186 0.021902785 0.19965862 -0.03657697 0.034465745
0.21040197 0.067951456 -0.14103884 -0.034156173 -0.09347901 0.20669077 -0.13121045 0.112171784
0.21593828 -0.17229384 0.1503293 0.040104285 0.083284035 -0.017142579 -0.08937888 -0.08597438
0.17854448 -0.20076665 0.17736305 0.21767019 0.14458032 -0.08383244 -0.22544867 0.17233317
0.18192093 0.03468226 -0.19014248 -0.04205604 0.07534273 -0.111685246 0.082459375 -0.031388775
0.21019511 -0.053040996 0.0677561 0.10797481 0.04330705 0.07305677 0.1370974 0.0104068965
-0.006705165 0.06823428 0.03245248 -0.13937035 0.22292759 0.087826625 0.017429188 0.04169734
-0.1629762 0.15172876 0.110772386 -0.13711561 -0.026166841 -0.09778193 -0.039994046 -0.21210632
-0.08108641 0.117945 0.19629683 0.17769356 -0.03540942 -0.111547284 -0.17855835 0.16498937
0.15123515 0.022195235 -0.114371434 -0.15084049 -0.13476008 -0.07186563 0.2317458 0.10177453
0.10978259 -0.18291426 -0.19364755 0.19918774 0.052797392 0.054331735 0.17232774 0.048867002
-0.10914421 0.15260969 -0.22425215 -0.22444226 0.106635615 -0.1502755 0.18709226 -0.013917983
0.09285416 0.011684373 0.1577922 0.0013825297 -0.03011915 -0.17659248 -0.06791906 0.050249472
0.036658242 -0.13502839 0.037529394 -0.019545823 -0.048166707 -0.21633415 -0.021575108 0.0048701465
0.15929757 0.16619246 0.14490448 -0.20945734 -0.019325644 0.17443852 0.043362632 -0.07343297
0.18499766 -0.0161013 0.15228595 -0.22510295 0.06783672 -0.146646 -0.04305093 0.09585683
0.035279736 0.10248323 -0.027042627 -0.12083965 0.06023191 0.11228065 0.026004508 0.08931629
-0.047440886 0.22433792 0.018411085 -0.17014202 -0.020779401 0.16471998 -0.06361458 0.22741981
-0.13950413 -0.121137656 0.036415204 0.078396484 -0.0068042725 -0.06565301 0.04263459 0.16353057
-0.16687977 -0.07069519 -0.2152825 -0.118667066 -0.059253693 0.16318576 -0.07899797 0.18713953
0.089861825 -0.162837 0.0041242987 -0.21649684 -0.0835761 -0.21897313 -0.12964238 -0.17015877
0.18263842 -0.057277992 0.23548482 0.027921245 -0.14213559 -0.2273151 -0.091291845 -0.045921013
0.01733227 0.070802554 0.03584142 -0.23143576 -0.15896052 -0.19939706 -0.10392229 -0.19407865
0.23499866 0.06969021 -0.016743392 -0.0952822 0.0055506825 -0.064061716 0.11567582 -0.0039672554
-0.08689459 0.17778079 0.016135648 0.08382757 0.07457583 0.19474532 -0.18118256 -0.08991775
0.1367469 -0.04974051 0.17322455 0.11319752 0.22576942 -0.067647606 -0.14492914 -0.23496182
-0.10650092 -0.13954663 -0.20038073 0.21680062 -0.0062283725 -0.051900074 -0.14390168 -0.047471955
-0.22101246 -0.16515967 -0.11338562 -0.17794167 0.23283185 0.044916257 -0.23497725 -0.019456089
-0.12844263 0.13399558 -0.029217795 0.009772763 0.005791515 0.16044848 0.06590219 0.16013302
00000000: 65df 12be ab0c 293e 4850 21be c4c3 36be
00000010: a6cd 22be 3c4e 70bd 1d92 6dbe f949 2c3e
00000020: 00bb 20bc bbe6 703e b51c 433e 5d14 253e
00000030: d827 a6bd 5ab2 d53d 7ce2 0cbd 6a9b 97bd
00000040: b830 23bd ccb2 5c3d c07e 6abd 807c 76bd
00000050: f85b 843c b81a fa3c dc9f acbd 2c0f 083d
00000060: a2df 1bbe ccc6 49bd 4da7 1ebe 62f4 b23d
00000070: 786d b33c 4f73 4c3e bcd1 15bd f42b 0d3d
00000080: 9d73 573e 222a 8b3d 7c6c 10be 58e7 0bbd
00000090: ec71 bfbd bfa6 533e 085c 06be 52ba e53d
000000a0: ed1e 5d3e cc6d 30be edef 193e 6444 243d
000000b0: d290 aa3d 986e 8cbc 460c b7bd 5613 b0bd
000000c0: 5dd4 363e c695 4dbe a99e 353e efe4 5e3e
000000d0: dd0c 143e 58b0 abbd 04dc 66be 1b78 303e
000000e0: 7b49 3a3e fc0e 0e3d b6b4 42be f442 2cbd
000000f0: 4a4d 9a3d 3cbb e4bd 76e0 a83d 8491 00bd
00000100: 633d 573e 8441 59bd b6c3 8a3d e621 dd3d
00000110: bc62 313d ca9e 953d 4363 0c3e b081 2a3c
00000120: 00b7 dbbb 6abe 8b3d e4ec 043d 1ab7 0ebe
00000130: 2147 643e 72de b33d a8c7 8e3c d4ca 2a3d
00000140: 3ce3 26be c95e 1b3e a2dc e23d 0968 0cbe
00000150: d85b d6bc e441 c8bd ccd0 23bd 6632 59be
00000160: a210 a6bd 268d f13d 0902 493e 4df5 353e
00000170: 7809 11bd e772 e4bd 00d8 36be f9f2 283e
00000180: 63dd 1a3e c8d2 b53c 923b eabd ee75 1abe
00000190: 8cfe 09be 4a2e 93bd c54e 6d3e 2a6f d03d
000001a0: b2d5 e03d e04d 3bbe 8b4b 46be dff7 4b3e
000001b0: 1442 583d f48a 5e3d af76 303e c428 483d
000001c0: 0087 dfbd b745 1c3e 5ba2 65be 31d4 65be
000001d0: c663 da3d d2e1 19be 1d95 3f3e 4008 64bc
000001e0: 522a be3d d06f 3f3c 4794 213e 0036 b53a
000001f0: 70bc f6bc a9d4 34be 2619 8bbd 64d2 4d3d
00000200: f426 163d e244 0abe 6cb8 193d 901e a0bc
00000210: 744a 45bd b386 5dbe 48be b0bc c095 9f3b
00000220: e71e 233e 5b2e 2a3e d761 143e fc7b 56be
00000230: d050 9ebc 03a0 323e 049d 313d 0664 96bd
00000240: 0770 3d3e e0e6 83bc d9f0 1b3e 6381 66be
00000250: faed 8a3d 5e2a 16be 2c56 30bd 9650 c43d
00000260: 7c81 103d bae2 d13d 8088 ddbc c77a f7bd
00000270: bcb5 763d 66f3 e53d 6807 d53c 76eb b63d
00000280: 6051 42bd d7b8 653e d8d2 963c b639 2ebe
00000290: 9039 aabc 5bac 283e 5c48 82bd bde0 683e
000002a0: 2cda 0ebe 0517 f8bd 1c28 153d 568e a03d
000002b0: 60f6 debb 1675 86bd 9ca1 2e3d 8f74 273e
000002c0: 88e2 2abe a4c8 90bd 0473 5cbe b807 f3bd
000002d0: 00b4 72bd 2b1a 273e b0c9 a1bd 81a1 3f3e
000002e0: 7a09 b83d bebe 26be 2025 873b 59b1 5dbe
000002f0: f229 abbd 7e3a 60be f9c0 04be 1a3e 2ebe
00000300: 9105 3b3e 549c 6abd ef22 713e 18bb e43c
00000310: fe8b 11be 4ac5 68be 38f7 babd ac17 3cbd
00000320: 68fc 8d3c ee00 913d 74ce 123d 7ffd 6cbe
00000330: 8cc6 22be be2e 4cbe 36d5 d4bd 8ebc 46be
00000340: 7da3 703e beb9 8e3d 7029 89bc 5023 c3bd
00000350: 80e2 b53b ca32 83bd 72e7 ec3d c0ff 81bb
00000360: caf5 b1bd 2b0c 363e e82e 843c caad ab3d
00000370: 36bb 983d 516b 473e ec87 39be cc26 b8bd
00000380: 6107 0c3e b4bc 4bbd c761 313e 1ad4 e73d
00000390: 1930 673e d48a 8abd 4e68 14be d599 70be
000003a0: 281d dabd 50e5 0ebe 9b30 4dbe fb00 5e3e
000003b0: 6017 ccbb 2c95 54bd f65a 13be f471 42bd
000003c0: 1751 62be 9e1f 29be b836 e8bd 5736 36be
000003d0: 796b 6e3e 1cfa 373d e09d 70be 6062 9fbc
000003e0: 7786 03be 2336 093e 285a efbc f01d 203c
000003f0: c0c6 bd3b 9b4c 243e baf7 863d e9f9 233e

fc1.bias f4 [256]
0.11344896 0.16769327 0.14207123 -0.20352899 0.1536843 0.12331958 -0.05736445 0.19541787
0.10998915 0.031162068 0.22199427 0.08189987 -0.18775488 -0.18866214 0.1533096 -0.16396065
0.11150928 -0.21894681 0.21663861 -0.0063157678 0.20613246 0.104623154 0.023797438 -0.111051664
0.12451093 -0.22166696 0.20111923 0.08239494 0.14443572 0.20438136 -0.14407364 0.042097464
-0.13125768 0.07798676 -0.12374289 -0.02132614 -0.20463298 0.09878297 -0.17056555 0.11961506
-0.11319859 -0.19805971 -0.022001505 -0.03186235 0.08324741 -0.2139702 -0.06891811 -0.22497807
-0.07432555 -0.059130087 0.2266934 -0.016912997 -0.022078961 -0.20220007 -0.05222079 -0.07839142
0.035811707 0.109448 -0.048253477 -0.17242596 -0.20014817 -0.13258737 -0.1642581 -0.046349674
-0.14097482 0.046519414 -0.21037903 -0.086891174 0.03157042 0.08332653 -0.028317153 -0.134574
-0.15730122 0.1537434 0.078262225 -0.20123406 -0.1330013 -0.12311086 0.08476384 0.066226706
-0.20016718 -0.011582062 0.12648202 -0.1309407 -0.16940123 0.012356311 0.09400909 0.076445654
-0.22132875 0.018603638 0.21742846 0.12551822 -0.10614006 0.18190528 0.089572564 0.15098329
-0.16332865 -0.1559604 0.20247222 0.2297868 0.060502723 0.06687327 -0.029015273 -0.1669335
-0.22584377 -0.23448886 0.23512219 0.18054365 0.049626365 -0.18284246 -0.089356974 0.17011856
0.1363386 -0.05686827 -0.1983094 0.046823487 -0.22215939 0.026247248 -0.18416293 -0.12627175
0.046923533 0.016101405 0.19127624 -0.1669458 0.17814578 -0.18725103 0.20945238 -0.0057394803
-0.07466464 -0.0921161 -8.884072e-05 -0.21977362 0.092536524 0.14322658 -0.1214494 -0.19714017
0.23258536 -0.12289529 -0.106567696 0.19738363 -0.17801228 -0.18062145 0.16935743 -0.22718899
0.11753963 0.04725571 -0.018673748 -0.004488021 -0.17278792 0.16602017 0.040084407 0.1761242
0.027078971 -0.085516065 -0.23129714 -0.05971633 0.014978245 0.024548873 -0.21606012 -0.14471455
-0.08983225 0.09707852 0.21520676 0.047551706 -0.19090019 -0.12453871 0.16536678 0.08719234
0.19252707 0.12018885 -0.14719391 -0.13991307 0.002303496 0.18692209 -0.14600444 -0.16356863
-0.18564226 0.16042523 0.16447876 -0.22877602 0.042241886 -0.17394334 -0.06182176 0.09659247
0.059783176 -0.03327404 0.12275194 -0.18559295 0.019093707 0.21652256 -0.04483196 -0.2345303
0.037702873 0.17619233 0.015196279 0.06320287 0.18017705 -0.12899747 -0.20417352 0.015533492
-0.06142661 -0.13681757 -0.18699443 -0.15576497 0.19687362 -0.0077425987 0.1049007 0.022331879
0.16147898 -0.15233484 -0.17754161 -0.22554296 0.18504651 0.16265728 -0.029473707 0.097523674
0.19425611 -0.04814741 -0.20570478 0.025428101 0.06921883 -0.119328685 -0.05491346 -0.03048633
0.22154479 -0.22396386 -0.14324804 0.15421383 0.22750281 0.036918506 0.16908176 0.083229855
-0.16369087 0.12348126 0.10443066 0.090115204 0.00437063 -0.062173605 -0.07511543 -0.2291316
0.14536835 -0.00415504 0.14796038 -0.13540049 -0.02551359 0.0983641 0.19854088 0.027207986
-0.033272356 0.11925788 0.12768991 0.02918522 -0.22165439 -0.025977269 0.006554559 -0.0033596903
00000000: ee57 e83d c9b7 2b3e 1f7b 113e e769 50be
00000010: 6b5f 1d3e fa8e fc3d fcf6 6abd 9f1b 483e
00000020: fe41 e13d 9847 ff3c 7752 633e 1ebb a73d
00000030: d142 40be a630 41be 31fd 1c3e 4de5 27be
00000040: fa5e e43d 9833 60be 83d6 5d3e 80f4 cebb
00000050: 6314 533e aa44 d63d d8f2 c23c 0e6f e3bd
00000060: 96ff fe3d aafc 62be 33f2 4d3e aebe a83d
00000070: f5e6 133e 5949 513e 0a88 13be 646e 2c3d
00000080: 6a68 06be 86b7 9f3d ea6c fdbd 28b4 aebc
00000090: 4f8b 51be ba4e ca3d bca8 2ebe bef8 f43d
000000a0: aad4 e7bd 2ad0 4abe 803c b4bc 1882 02bd
000000b0: 9e7d aa3d 011b 5bbe f024 8dbd a760 66be
000000c0: fe37 98bd 6432 72bd 5122 683e 208d 8abc
000000d0: f0de b4bc 890d 4fbe 78e5 55bd ae8b a0bd
000000e0: 4caf 123d 4626 e03d 70a5 45bd 6e90 30be
000000f0: a4f3 4cbe fcc4 07be 4633 28be 28d9 3dbd
00000100: b45b 10be 248b 3e3d 9a6d 57be 00f4 b1bd
00000110: fc4f 013d 1aa7 aa3d 60f9 e7bc c4cd 09be
00000120: 9213 21be e96e 1d3e f247 a03d 4d10 4ebe
00000130: 7e31 08be 8c21 fcbd aa98 ad3d dea1 873d
00000140: a0f8 4cbe b0c2 3dbc 8184 013e 5215 06be
00000150: 8477 2dbe 2072 4a3c d687 c03d 8a8f 9c3d
00000160: 01a4 62be a866 983c 91a5 5e3e d987 003e
00000170: f65f d9bd 6145 3a3e d271 b73d 5d9b 1a3e
00000180: a03f 27be 15b4 1fbe e154 4f3e 3b4d 6b3e
00000190: b4d1 773d daf4 883d 70b1 edbc 9ef0 2abe
000001a0: 9743 67be d91d 70be dfc3 703e 6fe0 383e
000001b0: 0445 4b3d 0e3b 3bbe ca00 b7bd 8f33 2e3e
000001c0: 599c 0b3e b4ee 68bd 9f11 4bbe fcc9 3f3d
000001d0: c07d 63be 7804 d73c 3595 3cbe 624d 01be
000001e0: e432 403d 18e7 833c ebdd 433e d7f3 2abe
000001f0: d96b 363e bcbe 3fbe af7a 563e 4012 bcbb
00000200: c6e9 98bd 5ea7 bcbd 0050 bab8 560c 61be
00000210: ca83 bd3d fda9 123e 77ba f8bd 1ddf 49be
00000220: db2a 6e3e 87b0 fbbd 2a40 dabd ef1e 4a3e
00000230: da48 36be d4f4 38be 096c 2d3e 3ba4 68be
00000240: 9eb8 f03d 348f 413d b0f9 98bc 4010 93bb
00000250: 51ef 30be 3101 2a3e 8c2f 243d e759 343e
00000260: b8d4 dd3c 0c23 afbd 28d9 6cbe 1c99 74bd
00000270: 5067 753c b81a c93c dd3e 5dbe 0d30 14be
00000280: f8f9 b7bd 1ad1 c63d 295f 5c3e 94c5 423d
00000290: 577b 43be 270e ffbd e955 293e e691 b23d
000002a0: d125 453e 9225 f63d 00ba 16be 5f45 0fbe
000002b0: 40f6 163b 8168 3f3e 3082 15be 897e 27be
000002c0: 0119 3ebe 8346 243e 1f6d 283e 4344 6abe
000002d0: d405 2d3d 341e 32be d038 7dbd 46d2 c53d
000002e0: 34df 743d 5c4a 08bd 5e65 fb3d 140c 3ebe
000002f0: 686a 9c3c 17b8 5d3e b8a1 37bd b628 70be
00000300: 546e 1a3d c36b 343e d0f9 783c 8270 813d
00000310: 5580 383e ea17 04be dd12 51be 3080 7e3c
00000320: 789a 7bbd e819 0cbe 787b 3fbe da80 1fbe
00000330: 3d99 493e a0b5 fdbb 2ed6 d63d 58f1 b63c
00000340: bf5a 253e aafd 1bbe 78cd 35be bcf4 66be
00000350: d57c 3d3e a18f 263e d872 f1bc 7eba c73d
00000360: 13eb 463e 3836 45bd 46a4 52be 984e d03c
00000370: 9ac2 8d3d 9962 f4bd f0ec 60bd 78be f9bc
00000380: a3dc 623e c856 65be 9daf 12be 3bea 1d3e
00000390: 7ff6 683e dc37 173d c523 2d3e 6a74 aa3d
000003a0: 949e 27be bee3 fc3d bedf d53d 528e b83d
000003b0: 8037 8f3b c0a9 7ebd 1ed6 99bd 79a1 6abe
000003c0: 71db 143e 0027 88bb ed82 173e 6da6 0abe
000003d0: e001 d1bc 1e73 c93d 4d4e 4b3e 48e3 de3c
000003e0: 9848 08bd 7a3d f43d 25c1 023e d815 ef3c
000003f0: 5ef9 62be 48ce d4bc a0c7 d63b 402e 5cbb

fc2.weight f4 [256, 256]
-0.013363361 0.037520133 -0.039206877 0.027496792 0.014051199 0.03583294 0.042441636 -0.04393652
-0.044364817 -0.048352458 -0.023461059 0.040634364 -0.053013287 -0.0043931827 -0.057787187 0.01436694
-0.019192122 0.037079796 -0.024369419 -0.018388726 0.052804917 -0.011814252 -0.021293499 -0.0253736
0.03738895 0.028220132 0.02379597 0.03143937 0.043056272 -0.0073211566 -0.049896523 -0.023312904
-0.04785584 0.04114251 0.013308436 0.008641213 0.055703275 0.006328203 0.04935442 -0.055339813
-0.039381675 0.016957864 -0.0094965175 -0.03556914 -0.047938384 -0.021498509 0.008208789 0.00031614304
-0.05466239 -0.049017683 -0.05154288 0.0004203394 0.048528485 -0.05405245 -0.018795878 0.037657417
0.02616293 0.04415924 -0.030312456 -0.00368537 0.03632368 -0.027621925 -0.0592362 0.009661332
0.035428442 0.01043006 0.016279861 -0.049040772 0.040995106 0.00080257654 -0.03259614 0.038179457
-0.062140785 0.04028461 0.014049694 0.014823146 0.024530448 0.022238575 -0.030630596 0.018029302
-0.03178771 0.014236264 -0.018535912 0.060171768 -0.046610117 -0.04117234 0.05065041 -0.014211036
-0.033483855 -0.054906443 0.029492415 0.032980397 -0.02879697 0.059995428 0.040940464 -0.0327688
-0.010872021 -0.058823556 0.004153885 0.010607347 0.0133354515 0.0073902234 0.042191938 -0.043770395
-0.020983629 -0.0036882088 0.0066292807 0.037148416 0.023846827 -0.04484924 0.026389882 0.0010535792
-0.05139774 -0.044081934 -0.016124174 0.016622365 0.025204383 0.010213636 0.06228026 -0.0010950118
0.052835234 0.0030963644 -0.015240513 -0.03169076 0.019426443 0.03289464 0.037337467 0.0021866187
0.013871349 -0.0028687418 -0.058188207 -0.003826566 -0.0507562 -0.03518395 -0.039317407 -0.031831957
0.050434433 -0.015560783 0.002827473 0.050934345 0.017720446 0.028867044 0.052852795 0.0032947212
-0.032635875 -0.021328963 -0.031123012 -0.030517548 -0.05088362 0.032050654 0.004864335 -0.019832678
-0.0318091 0.030543216 0.051150024 0.013100274 -0.045194827 -0.047254957 -0.024178699 -0.05367668
-0.050613113 0.020479038 -0.030184448 -0.029122539 0.062115878 -0.027780935 -0.042081 0.02707211
0.03990671 0.058777787 0.017728016 0.017792605 -0.053146765 -0.026533544 -0.042160578 0.014799051
-0.0024653971 -0.028907686 -0.0067858994 0.005532518 0.03404928 0.047955945 0.004585661 -0.045729578
-0.04501448 0.026251853 0.029841468 0.052745275 -0.029770494 0.0329926 -0.023667186 0.036007494
0.047323108 -0.014573909 -0.011567339 0.055773884 0.044833854 0.0028915107 -0.028413594 0.0038432553
0.035239786 -0.0134319365 0.016764753 -0.05292248 0.01896242 0.052550703 -0.044838034 0.04364913
-0.028980538 0.062290013 -0.055140354 0.012728117 -0.013047218 0.019804522 0.0063263997 -0.05782423
0.04927469 -0.012949936 -0.045241125 -0.058543056 0.035710752 0.014359936 -0.030090474 -0.052043624
0.03469915 -0.051449426 0.01866617 -0.0097426325 -0.0352451 0.032071464 0.023561917 0.024768561
-0.008284636 0.038696654 0.041707978 0.058971122 0.0074237064 -0.032049857 -0.044894755 -0.037210897
-0.054512434 0.044351064 -0.032619737 -0.035200633 -0.028672375 -0.040340394 -0.037603527 -0.061751172
0.0109497905 0.054362826 -0.05518949 0.037123874 0.017150596 0.009845369 0.060032777 0.046026066
00000000: 00f2 5abc b6ae 193d 6497 20bd f440 e13c
00000010: 0037 663c 90c5 123d 48d7 2d3d c8f6 33bd
00000020: e2b7 35bd 3a0d 46bd 6831 c0bc 3870 263d
00000030: 7624 59bd b0f4 8fbb 42b2 6cbd 5063 6b3c
00000040: cc38 9dbc fce0 173d 60a2 c7bc f4a3 96bc
00000050: f849 583d 9090 41bc b46f aebc 4cdc cfbc
00000060: 2825 193d e82d e73c c4ef c23c 92c6 003d
00000070: c65b 303d 50e6 efbb 4c60 4cbd b4fa bebc
00000080: 7c04 44bd 0c85 283d a00b 5a3c e093 0d3c
00000090: 1e29 643d d05c cf3b dc27 4a3d 00ac 62bd
000000a0: ae4e 21bd 38eb 8a3c 4897 1bbc f2b0 11bd
000000b0: 0a5b 44bd a41d b0bc 287e 063c 00c0 a539
000000c0: ace5 5fbd c4c6 48bd a01e 53bd 0061 dc39
000000d0: cec5 463d 1a66 5dbd d0f9 99bc aa3e 1a3d
000000e0: a453 d63c 52e0 343d d451 f8bc 4086 71bb
000000f0: 24c8 143d 6047 e2bc a8a1 72bd 904a 1e3c
00000100: 6a1d 113d d8e2 2a3c 585d 853c fade 48bd
00000110: 7cea 273d 0064 523a 8883 05bd 1062 1c3d
00000120: 5687 7ebd 7a01 253d b030 663c c8dc 723c
00000130: 14f4 c83c ac2d b63c 04ed fabc 30b2 933c
00000140: d433 02bd 383f 693c a0d8 97bc ac76 763d
00000150: 40ea 3ebd 54a4 28bd ce76 4f3d 68d5 68bc
00000160: 5e26 09bd 94e5 60bd 149a f13c 7416 073d
00000170: a0e7 ebbc c4bd 753d 30b1 273d 9438 06bd
00000180: 9020 32bc f8f0 70bd 501d 883b 70ca 2d3c
00000190: f07c 5a3c b029 f23b 74d1 2c3d 9648 33bd
000001a0: dce5 abbc e0b5 71bb 703a d93b f028 183d
000001b0: 6c5a c33c d6b3 37bd 982f d83c 4018 8a3a
000001c0: 7086 52bd 428f 34bd d816 84bc a02b 883c
000001d0: 6c79 ce3c 1857 273c 9619 7f3d 8086 8fba
000001e0: c269 583d 60ec 4a3b 58b3 79bc 2cce 01bd
000001f0: 3424 9f3c 88bc 063d 2cef 183d 604d 0f3b
00000200: a844 633c 8001 3cbb c256 6ebd 20c7 7abb
00000210: bce5 4fbd 0c1d 10bd 4a0b 21bd 3a62 02bd
00000220: 5694 4e3d a8f2 7ebc 204d 393b 88a0 503d
00000230: 782a 913c 947a ec3c 2c7c 583d 40ec 573b
00000240: 32ad 05bd 14ba aebc b0f5 febc f0ff f9bc
00000250: 586b 50bd 8c47 033d 0065 9f3b 2478 a2bc
00000260: 424a 02bd c435 fa3c b082 513d 88a2 563c
00000270: 361e 39bd 6a8e 41bd 6812 c6bc 14dc 5bbd
00000280: b24f 4fbd a8c3 a73c 6045 f7bc 6492 eebc
00000290: 386d 7e3d d894 e3bc 205d 2cbd 54c6 dd3c
000002a0: 3875 233d fac0 703d 583a 913c ccc1 913c
000002b0: 6cb0 59bd e05c d9bc 92b0 2cbd b877 723c
000002c0: 8092 21bb d0cf ecbc 405c debb 204a b53b
000002d0: 4277 0b3d 746d 443d 5043 963b f04e 3bbd
000002e0: 1a61 38bd 200e d73c 1876 f43c 6e0b 583d
000002f0: 40e1 f3bc 4023 073d b0e1 c1bc 987c 133d
00000300: e0d5 413d 68c7 6ebc f084 3dbc 2873 643d
00000310: b4a3 373d 807f 3d3b a0c3 e8bc 20df 7b3b
00000320: 9857 103d a011 5cbc 3c56 893c 3ec5 58bd
00000330: 1457 9b3c 683f 573d 16a8 37bd 6ec9 323d
00000340: 9868 edbc d023 7f3d dada 61bd 9889 503c
00000350: 00c4 55bc 183d a23c b04d cf3b 1ad9 6cbd
00000360: 42d4 493d f82b 54bc c24e 39bd d8ca 6fbd
00000370: 7045 123d f045 6b3c 4c80 f6bc b22b 55bd
00000380: b220 0e3d a2bc 52bd cce9 983c 909f 1fbc
00000390: 2a5d 10bd 5e5d 033d ec04 c13c 70e7 ca3c
000003a0: 48bc 07bc 6280 1e3d fcd5 2a3d b48b 713d
000003b0: 9042 f33b b646 03bd 90e3 37bd 746a 18bd
000003c0: 6e48 5fbd 76a9 353d 469c 05bd 8a2e 10bd
000003d0: 54e2 eabc f83b 25bd 2806 1abd ccee 7cbd
000003e0: c066 333c 8eab 5e3d 600e 62bd 340f 183d
000003f0: 687f 8c3c 784e 213c eee4 753d d485 3c3d

fc2.bias f4 [256]
-0.02799587 0.033800207 0.012255222 0.0026832893 -0.0054687113 -0.054040954 -0.040815584 -0.028551072
0.03897728 0.06063515 0.030227192 -0.023240373 -0.04030188 -0.002352491 0.03133782 -0.054736406
0.03569053 0.054455727 0.03556209 0.022038437 -0.05349245 -0.012708962 -0.0025747865 -0.010449305
0.020121321 0.027033746 0.011414364 -0.020891912 -0.017110758 0.059378654 -0.054104164 -0.009951256
-0.049681634 -0.05948095 0.047043055 0.016181342 -0.0227831 -0.029258825 0.04669383 0.026980072
-0.024986044 -0.049779803 -0.010381058 -0.056911394 -0.056469873 -0.030736238 0.058242567 -0.051726595
0.019237578 -0.049687378 0.053421445 -0.01441782 -0.029249817 0.029838137 -0.0021239445 0.0130062625
-0.06214869 -0.02013158 -0.026398942 -0.022220157 0.061210543 0.051532865 -0.052934416 -0.043801308
-0.0093372315 -0.060280442 -0.06011957 0.04491801 -0.029242598 -0.013989784 0.0037497208 -0.0062039346
0.049049623 -0.021728717 -0.056998804 0.016346477 0.025143407 0.037859783 0.035600245 -0.054858103
-0.034459382 -0.0071404427 -0.0062149465 -0.058019347 -0.003228046 0.043814108 -0.047500916 0.05174993
-0.0014802888 -0.054957032 0.059949413 0.02743546 0.033790663 0.01847279 -0.040728822 -0.013595343
-0.06167934 0.00027590245 0.0063208044 -0.021523967 -0.02264025 0.03338147 0.03548459 -0.033177353
-0.057018965 -0.0023166016 -0.06230218 0.029235959 0.022046067 -0.04807417 -0.037729487 0.005037397
0.05741944 -0.05304358 0.05905831 -0.027143963 0.02561798 0.017586797 -0.00038126856 0.035195217
0.01081121 0.036627434 -0.0126705915 0.012931123 0.03227169 0.055116527 0.051185235 -0.0001270175
-0.05664663 -0.006082505 0.0072254986 0.062494345 0.0063777044 0.054693215 -0.060064778 -0.040646084
0.050219066 0.023130246 -2.6330352e-05 -0.042267747 0.045532025 -0.008051515 -0.01639203 -0.020169005
-0.009432726 -0.017335385 0.0373064 0.035791367 0.0518931 0.03412684 0.032406524 0.036544956
0.018520914 -0.02091138 0.027955987 -0.046642832 0.03459 0.05577287 -0.051670052 -0.043110847
0.061988346 -0.014366947 -0.01993306 -0.050440088 -0.042357825 0.005562328 0.006068021 0.0023557395
0.055629604 0.052438386 0.053390667 -0.04137151 0.0039043948 0.059994668 0.05721698 0.0015968606
0.023614302 0.059001036 0.056862533 0.060816996 0.03795506 -0.009799764 -0.014884904 -0.05256266
-0.012821697 -0.06129937 -0.0021062344 -0.046091095 -0.024092935 0.014460705 0.04035443 -0.04268212
-0.026903734 0.04277674 -0.018773563 -0.060472786 -0.055500664 -0.041605026 -0.027892612 -0.039650053
-0.008433528 -0.03460507 0.05949097 -0.010788761 0.04931114 0.009813011 0.029029347 -0.038121752
-0.060750067 0.036652356 -0.009361871 0.013962373 0.039937258 -0.045899183 -0.031678736 0.03912545
-0.049447656 -0.056206316 -0.036144286 -0.006923601 0.016243972 -0.036289997 0.055065595 -0.010998592
-0.0008659661 0.058573283 -0.0286076 0.052228324 -0.060794443 0.013080724 0.00010962784 -0.03349968
-0.0049901456 0.008825272 -0.031819247 -0.05605399 -0.047751494 -0.03138805 -0.04543677 0.05080226
0.05234749 -0.056365266 0.0046902 0.060249887 -0.017387308 0.030417733 -0.013866402 -0.03646204
0.0032371506 -0.02296421 0.059150614 -0.004768744 0.038930617 -0.043264084 -0.05303467 -0.015865378
00000000: 9857 e5bc 1672 0a3d 20ca 483c 20da 2f3b
00000010: e032 b3bb 0c5a 5dbd 3e2e 27bd f0e3 e9bc
00000020: a4a6 1f3d 905c 783d 049f f73c 9862 bebc
00000030: 9613 25bd 402c 1abb 165c 003d 4833 60bd
00000040: 3c30 123d f80c 5f3d 8ea9 113d f489 b43c
00000050: e61a 5bbd 4039 50bc c0bd 28bb 9033 2bbc
00000060: 78d5 a43c e075 dd3c 5003 3b3c 8425 abbc
00000070: dc2b 8cbc 0837 733d 549c 5dbd 980a 23bc
00000080: f87e 4bbd 4ca2 73bd 38b0 403d bc8e 843c
00000090: a0a3 babc 34b0 efbc 0842 3f3d 5005 dd3c
000000a0: 88af ccbc e8e5 4bbd 5015 2abc ec1b 69bd
000000b0: f44c 67bd 90ca fbbc c28f 6e3d 44df 53bd
000000c0: 2098 9d3c fe84 4bbd 72d0 5a3d b838 6cbc
000000d0: 509d efbc 1c6f f43c e031 0bbb 3818 553c
000000e0: a08f 7ebd fcea a4bc 9842 d8bc 0c07 b6bc
000000f0: e8b7 7a3d 2014 533d c2d1 58bd 0069 33bd
00000100: 30fb 18bc a0e8 76bd f03f 76bd f2fb 373d
00000110: 2c8e efbc 6835 65bc e0bd 753b 604a cbbb
00000120: 42e8 483d 6c00 b2bc 9477 69bd 0ce9 853c
00000130: 8cf9 cd3c dc12 1b3d 90d1 113d e4b2 60bd
00000140: 4825 0dbd 60fa e9bb c0a6 cbbb b2a5 6dbd
00000150: a08d 53bb 6c76 333d 5290 42bd bcf7 533d
00000160: 4006 c2ba a01a 61bd 848d 753d 54c0 e03c
00000170: 1468 0a3d 4054 973c 44d3 26bd 00bf 5ebc
00000180: 7aa3 7cbd 00a7 9039 c01e cf3b 0853 b0bc
00000190: 0c78 b9bc 02bb 083d 4a58 113d fae4 07bd
000001a0: b88c 69bd 20d2 17bb 9230 7fbd 4080 ef3c
000001b0: f499 b43c 6ce9 44bd 3c8a 1abd c010 a53b
000001c0: a630 6b3d 3a44 59bd 20e7 713d 045d debc
000001d0: ccdc d13c 3012 903c 00e5 c7b9 dc28 103d
000001e0: 8021 313c a606 163d 5098 4fbc 10dd 533c
000001f0: 522f 043d dec1 613d 9ca7 513d 0030 05b9
00000200: 4c06 68bd c04f c7bb e0c3 ec3b 12fa 7f3d
00000210: 10fc d03b fe05 603d 7c06 76bd 827c 26bd
00000220: 82b2 4d3d a47b bd3c 00e0 dcb7 f220 2dbd
00000230: ca7f 3a3d 80ea 03bc 9448 86bc 7839 a5bc
00000240: b88b 1abc f002 8ebc 98ce 183d f899 123d
00000250: dc8d 543d 96c8 0b3d b4bc 043d 2ab0 153d
00000260: 2cb9 973c 584e abbc f403 e53c 8e0c 3fbd
00000270: 3eae 0d3d 1872 643d faa3 53bd 0095 30bd
00000280: 7ee7 7d3d 5863 6bbc a84a a3bc 449a 4ebd
00000290: 667f 2dbd 3044 b63b 40d6 c63b c062 1a3b
000002a0: dedb 633d a2c9 563d 2cb0 5a3d 2c75 29bd
000002b0: e0e0 7f3b f8bc 753d 5a5c 6a3d c04d d13a
000002c0: c872 c13c 12ab 713d b0e8 683d 3e1b 793d
000002d0: c476 1b3d 308f 20bc d0df 73bc f24b 57bd
000002e0: 1812 52bc 0c15 7bbd c008 0abb 04ca 3cbd
000002f0: 8c5e c5bc 98ec 6c3c b04a 253d 72d3 2ebd
00000300: 3865 dcbc aa36 2f3d 04cb 99bc 50b2 77bd
00000310: aa54 63bd 086a 2abd 0c7f e4bc 1868 22bd
00000320: c82c 0abc 0cbe 0dbd ceac 733d 58c3 30bc
00000330: 7afa 493d c0c6 203c f4ce ed3c 8e25 1cbd
00000340: 10d5 78bd c820 163d 8862 19bc 70c2 643c
00000350: 4095 233d c800 3cbd 90c1 01bd 0242 203d
00000360: a089 4abd 9838 66bd 080c 14bd 60df e2bb
00000370: 1412 853c d2a4 14bd 768c 613d 7033 34bc
00000380: 0002 63ba 8aea 6f3d 7c5a eabc 5eed 553d
00000390: 9803 79bd 8850 563c 00e8 e538 f636 09bd
000003a0: 6084 a3bb e097 103c e654 02bd de98 65bd
000003b0: 1297 43bd c290 00bd e81b 3abd 0816 503d
000003c0: 526a 563d 44df 66bd 40b0 993b 96c8 763d
000003d0: d46f 8ebc 9c2e f93c e82f 63bc 3859 15bd
000003e0: 6026 543b 701f bcbc ea47 723d 2043 9cbb
000003f0: b675 1f3d ae35 31bd e23a 59bd 1cf8 81bc

fc3.weight f4 [1, 256]
-0.032974042 -0.010648087 0.008249134 0.032920644 -0.046274208 0.010227159 -0.0613562 0.037792273
-0.012183264 0.008510508 -0.014464617 -0.02435501 0.0025590733 -0.005641535 -0.022466138 -0.009168752
-0.0202154 0.03921114 -0.03502755 0.032830194 -0.03054107 0.0137781575 -0.025836296 -0.03158866
0.0085557625 0.010490686 0.024040855 -0.037731588 0.031714812 -0.023549497 -0.021384448 -0.0070210174
0.02703385 0.019945547 -0.047115393 -0.022194482 0.03826551 0.020310126 0.010954462 -0.037693575
-0.048470058 0.061385088 -0.05889845 -0.049610443 0.0060646757 0.010633469 0.020115972 -0.056040525
0.052395537 -0.007824652 -0.047469094 0.030816399 -0.010706432 -0.057249337 -0.024569944 0.02741947
-0.0577586 0.016508259 -0.022321038 0.018176615 -0.0037408844 0.024912082 -0.04421048 0.062209293
0.0063080788 0.020157583 -0.026579961 0.025635958 -0.012514636 -0.036213644 -0.02155681 -0.04280833
0.016796105 0.033864006 0.022046521 0.030620202 0.0045788363 0.02962362 0.039662592 0.009529099
-0.055851147 0.013877958 -0.02357933 0.043314368 0.021932714 0.0391969 0.028962523 -0.004851423
0.034302272 -0.04294794 -0.054446198 0.062343486 -0.0071080998 0.025050573 -0.0050506964 -0.054432295
-0.032199517 0.0591913 0.02478861 0.018456206 -0.05251988 -0.0015311986 -0.04104487 0.011394441
0.035150975 0.03664884 0.03241451 -0.0066469535 0.028827585 -0.055860996 -0.006322071 0.023937859
-0.05525612 -0.018932149 0.046682812 0.003479138 0.018011644 -0.060915023 -0.0033152252 0.0014577359
0.036182024 -0.030767247 -0.043565914 -0.0011364669 -0.051531546 -0.0011451468 -0.049816974 -0.0132005215
-0.04902973 0.018809028 0.0081258565 -0.04449123 0.05970729 -0.0058775395 0.049187675 -0.04296542
0.044241972 -0.05198054 -0.047851197 0.02527386 0.036859557 0.018307813 -0.010612294 -0.018239088
0.01885692 -0.032295994 0.026030116 -0.051256903 -0.0069915876 -0.04929685 -0.020100772 0.059917234
0.03044264 -0.05384346 -0.03779313 -0.029722601 0.016864114 -0.04319086 0.04038997 -0.030538976
0.056749135 0.010182962 -0.057921104 -0.02403713 -0.0465417 0.05462973 0.030102126 -0.047139093
-0.041034758 0.051526792 -0.061628006 0.043056548 0.0017150119 -0.012258694 -0.040033393 0.013448842
0.0358017 0.04513394 0.012589715 -0.029965304 -0.0007175803 -0.0050499886 0.04844091 -0.030693136
0.04009916 0.032749668 0.011128947 0.03835223 0.05017809 0.054439962 0.033818796 0.018985488
0.028375141 0.05935681 -0.027419575 -0.03991332 0.017663665 0.00783816 -0.012762509 0.030674815
0.0019230247 0.020566083 -0.035399064 -0.01087562 0.057140894 0.050824285 -0.017403007 0.054986484
-0.0385139 -0.045865722 0.04718884 -0.053343043 0.05528225 -0.047431976 0.0056577474 -0.020847514
0.0056960434 -0.058408417 -0.05062957 -0.037587628 -0.054663084 0.047753364 -0.020713039 0.02525536
0.025243685 -0.022352591 0.06068974 -0.009211756 0.035488293 -0.04150459 0.0525482 0.028615937
-0.057058215 -0.030522138 0.033973895 -0.05566956 0.003479205 -0.062094264 -0.02143401 0.045559414
0.04511535 0.03720335 0.003058508 -0.014760256 -0.05675102 -0.034338593 0.052052 -0.0037675872
0.044035375 0.047134154 -0.0040371493 -0.035044603 0.053582452 0.043655366 0.00076568127 0.045001782
00000000: ca0f 07bd 5075 2ebc 6027 073c ccd7 063d
00000010: 068a 3dbd d08f 273c a450 7bbd 12cc 1a3d
00000020: 509c 47bc a86f 0b3c 00fd 6cbc 2884 c7bc
00000030: 20b6 273b a0dc b8bb e80a b8bc 8838 16bc
00000040: c49a a5bc dc9b 203d 0c79 0fbd f478 063d
00000050: 4431 fabc c8bd 613c a4a6 d3bc 1c63 01bd
00000060: 782d 0c3c 20e1 2b3c 54f1 c43c 708c 1abd
00000070: 64e7 013d e0ea c0bc 702e afbc 9010 e6bb
00000080: 1876 dd3c d864 a33c 12fc 40bd 34d1 b5bc
00000090: 4cbc 1c3d 6c61 a63c 587a 333c 9464 1abd
000000a0: 8a88 46bd ee6e 7b3d 803f 71bd 5234 4bbd
000000b0: 30ba c63b 0038 2e3c 40ca a43c c08a 65bd
000000c0: b49c 563d f832 00bc f46e 42bd ac72 fc3c
000000d0: 086a 2fbc 487e 6abd e846 c9bc cc9e e03c
000000e0: 4894 6cbd 543c 873c 9cda b6bc 20e7 943c
000000f0: a029 75bb 6c14 cc3c 0c16 35bd 2ccf 7e3d
00000100: 00b4 ce3b 8421 a53c 38be d9bc 8002 d23c
00000110: 300a 4dbc c254 14bd e897 b0bc ca57 2fbd
00000120: fc97 893c fcb4 0a3d e89a b43c 38d7 fa3c
00000130: 100a 963b 3cad f23c 3e75 223d f01f 1c3c
00000140: 2cc4 64bd 6060 633c 7029 c1bc 686a 313d
00000150: 3cac b33c ee8c 203d d042 ed3c b0f8 9ebb
00000160: 8a80 0c3d 2eea 2fbd fa02 5fbd e25b 7f3d
00000170: 10eb e8bb dc36 cd3c 5080 a5bb 66f4 5ebd
00000180: a4e3 03bd 9472 723d 7c11 cb3c 7831 973c
00000190: 161f 57bd 80b2 c8ba aa1e 28bd c0af 3a3c
000001a0: 78fa 0f3d 181d 163d 14c5 043d b0ce d9bb
000001b0: d427 ec3c 80ce 64bd 6029 cfbb 5419 c43c
000001c0: 3e54 62bd 9817 9bbc 7a36 3f3d 4002 643b
000001d0: 288d 933c 0882 79bd 4044 59bb 8011 bf3a
000001e0: 9a33 143d 980b fcbc 2c72 32bd 80f5 94ba
000001f0: be12 53bd c018 96ba e20c 4cbd 0047 58bc
00000200: 66d3 48bd 6415 9a3c 5022 053c 703c 36bd
00000210: a28f 743d 6098 c0bb 0479 493d 82fc 2fbd
00000220: 1237 353d 8ce9 54bd 9eff 43bd 200b cf3c
00000230: 0cfa 163d 44fa 953c 30df 2dbc 246a 95bc
00000240: d479 9a3c ce48 04bd 1c3d d53c c2f2 51bd
00000250: b019 e5bb 7eeb 49bd 60aa a4bc c66b 753d
00000260: d862 f93c f68a 5cbd f8cc 1abd d07c f3bc
00000270: 9c26 8a3c e6e8 30bd f46f 253d e02c fabc
00000280: c871 683d 70d6 263c ae3e 6dbd 84e9 c4bc
00000290: 82a2 3ebd 6cc3 5f3d bc98 f63c ec14 41bd
000002a0: 1014 28bd c20d 533d a66d 7cbd 105c 303d
000002b0: 40ca e03a b0d8 48bc 0efa 23bd 8858 5c3c
000002c0: cea4 123d 5ede 383d 1845 4e3c cc79 f5bc
000002d0: 001c 3cba 607a a5bb fa69 463d 2c70 fbbc
000002e0: 043f 243d 8424 063d 3056 363c 3a17 1d3d
000002f0: 8a87 4d3d 70fc 5e3d 9485 0a3d 7487 9b3c
00000300: fc72 e83c 2020 733d 049f e0bc 267c 23bd
00000310: 64b3 903c a06b 003c d819 51bc c049 fb3c
00000320: 000e fc3a 347a a83c 9cfe 10bd a82f 32bc
00000330: 920c 6a3d 202d 503d c090 8ebc 8239 613d
00000340: c0c0 1dbd b2dd 3bbd 1649 413d 3c7e 5abd
00000350: a46f 623d 0848 42bd a064 b93b 68c8 aabc
00000360: e0a5 ba3b aa3d 6fbd f460 4fbd 7cf5 19bd
00000370: 66e6 5fbd 0899 433d 64ae a9bc 54e4 ce3c
00000380: d8cb ce3c c81c b7bc ce95 783d e8ec 16bc
00000390: 2c5c 113d b800 2abd c83c 573d f86b ea3c
000003a0: e0b5 69bd 9009 fabc 3628 0b3d c405 64bd
000003b0: 6003 643b 8e56 7ebd 6096 afbc 829c 3a3d
000003c0: e0ca 383d 8a62 183d 4071 483b 00d5 71bc
000003d0: c273 68bd a0a6 0cbd 7a34 553d a0e9 76bb
000003e0: 705e 343d be0f 413d 104a 84bb ee8a 0fbd
000003f0: 4679 5b3d f8cf 323d 00b8 483a ca53 383d
