output/MAPPO/lxl/weight/actor_agent_1_ep_7200.pth (torch, 292136 bytes, 8 tensors)

fc1.weight f4 [256, 12]
0.027589977 -0.18900254 0.032685697 -0.15512858 -0.19675785 -0.26450935 -0.21708754 0.16388145
0.22269082 -0.1952663 -0.008245438 0.24265027 -0.11429024 -0.087113455 -0.057518408 -0.030168504
0.13742885 -0.07721947 -0.16514757 0.06511971 -0.03333226 -0.2289352 -0.09865904 -0.14882265
-0.060544536 0.24340832 0.2542079 0.20842272 -0.1706925 -0.23146802 0.054594815 0.007865757
-0.12648502 0.27098882 -0.18619668 0.14263356 -0.14530256 0.09910041 -0.105047315 -0.22165921
-0.21217354 -0.11773829 -0.21935207 -0.19220729 0.047501475 -0.079327494 -0.28330845 0.043606132
-0.14050622 -0.09033063 0.0142199695 -0.060541227 -0.2563935 0.22797334 -0.1322231 0.06922427
-0.039279208 -0.023172647 0.070474535 0.25854653 -0.19551492 0.06263584 -0.27786422 -0.112011224
-0.18477792 -0.009458959 0.059930027 0.028995752 -0.2667832 0.09810603 -0.18879578 -0.058934733
-0.17771742 0.16517895 0.022987455 0.03408134 0.17809406 0.22891533 -0.036769062 0.27648723
0.03396347 0.08971864 0.15111613 -0.0892925 -0.0038990378 -0.21743119 -0.13578042 0.09041047
-0.20590878 0.20040128 0.055192888 -0.16299833 -0.15240742 -0.13586713 -0.20242007 -0.2617589
-0.08247121 -0.21255052 -0.17611223 0.118501216 -0.11169122 0.12796792 0.23651356 0.0074573755
-0.2550886 -0.07890442 -0.12656854 -0.2779534 -0.031042933 0.24322188 -0.22981937 0.23155087
0.0532192 -0.10334881 -0.2328437 -0.03888236 0.085033506 -0.23582649 0.1022073 0.24473912
-0.07604246 0.07683021 -0.28074184 0.17677602 0.05701825 0.28703213 -0.28464985 -0.06639646
-0.07660025 -0.06502025 -0.25224802 0.13711283 0.19328758 -0.14362505 -0.019296736 -0.019347787
0.22102678 -0.12656258 -0.16529217 0.2017805 -0.14112458 -0.17283866 0.19481054 -0.28539714
0.009857953 0.23276848 -0.15788163 -0.06540908 -0.15105149 0.16083568 -0.03217545 -0.00211066
-0.049322978 0.2388457 0.19894591 -0.12423363 -0.23441055 0.27272362 -0.2564829 0.15820315
0.26389712 0.044939756 0.2829649 0.16958341 -0.21561515 0.17363104 0.2255283 0.16427892
-0.036426693 0.25041097 -0.008509219 0.018715262 0.19623587 -0.26514685 -0.13963658 -0.11247352
-0.028886765 -0.13929345 0.030707717 -0.23770829 -0.10842709 0.2514361 -0.28387094 -0.08957741
-0.12198193 -0.23025635 0.21223074 0.06353077 -0.11825143 -0.17134972 0.0814029 0.19097632
-0.07818875 -0.040855855 -0.012607485 -0.23688696 -0.1846899 -0.22242442 0.07207924 -0.025708437
-0.008310884 0.07396561 -0.15970834 0.22017741 0.25181907 -0.27964813 0.18879789 0.035710037
0.27174598 0.01606819 0.10857451 0.24727917 0.034119397 -0.19640686 -0.20604455 -0.0057154
0.25240952 0.06738421 0.040204763 0.22409791 0.19294485 0.04845637 -0.13514967 0.023608297
-0.08662717 -0.13942267 0.24977237 -0.04219465 -0.16737281 0.18964463 0.105870515 -0.06651181
-0.16301794 -0.19285825 0.02097109 -0.14791752 -0.2070204 -0.1031107 0.038333237 -0.19073996
-0.101005256 0.2416566 -0.14224926 0.069217086 0.057297856 0.13933253 -0.28688657 -0.2188843
-0.09461044 0.2121929 -0.22249186 0.28495926 -0.27200177 0.04012546 -0.09604889 -0.19287042
00000000: 6004 e23c e289 41be 70e1 053d 07da 1ebe
00000010: e47a 49be c56d 87be 324c 5ebe 8ad0 273e
00000020: 1009 643e e4f3 47be e017 07bc 5079 783e
00000030: 0011 eabd 8a68 b2bd 6c98 6bbd f023 f7bc
00000040: 26ba 0c3e 3e25 9ebd 721c 29be 7c5d 853d
00000050: 6887 08bd fd6d 6abe c00d cabd f764 18be
00000060: 8cfd 77bd 0840 793e 8a27 823e c46c 553e
00000070: 04ca 2ebe f405 6dbe d09e 5f3d 60df 003c
00000080: 4a85 01be 0cbf 8a3e 58aa 3ebe 880e 123e
00000090: 32ca 14be 28f5 ca3d 0c23 d7bd a2fa 62be
000000a0: 0544 59be c620 f1bd d49d 60be fdd1 44be
000000b0: e890 423d 7476 a2bd ce0d 91be 589c 323d
000000c0: dde0 0fbe 44ff b8bd e0fa 683c 14fa 77bd
000000d0: 0246 83be d871 693e 7e65 07be 74c5 8d3d
000000e0: 3ce3 20bd 90d4 bdbc f454 903d 3660 843e
000000f0: 1035 48be 3847 803d 3844 8ebe 2466 e5bd
00000100: 6c36 3dbe c0f9 1abc 3079 753d 8088 ed3c
00000110: cf97 88be d0eb c83d ae53 41be 8c65 71bd
00000120: 8efb 35be ac24 293e 3050 bc3c e098 0b3d
00000130: 4a5e 363e c868 6a3e 289b 16bd bc8f 8d3e
00000140: 481d 0b3d 68be b73d 30be 1a3e fcde b6bd
00000150: 0087 7fbb 48a6 5ebe 060a 0bbe 2029 b93d
00000160: c0d9 52be fe35 4d3e f011 623d 09e9 26be
00000170: b110 1cbe c120 0bbe 3547 4fbe 4305 86be
00000180: aae6 a8bd d8a6 59be c456 34be c4b0 f23d
00000190: 5ebe e4bd 060a 033e 9c30 723e 005d f43b
000001a0: f99a 82be a498 a1bd 2f9b 01be e84f 8ebe
000001b0: c04d febc 280f 793e c555 6bbe ac1b 6d3e
000001c0: 60fc 593d 8aa8 d3bd 946e 6ebe 1c43 1fbd
000001d0: 0c26 ae3d 807c 71be 1052 d13d e49c 7a3e
000001e0: 26bc 9bbd 2859 9d3d 65bd 8fbe c604 353e
000001f0: f88b 693d e0f5 923e a0bd 91be defa 87bd
00000200: 98e0 9cbd 5629 85bd a726 81be 4e67 0c3e
00000210: 2eed 453e 7212 13be 3014 9ebc 407f 9ebc
00000220: d854 623e 9f99 01be 5a42 29be 8c9f 4e3e
00000230: f682 10be 9efc 30be 6a7c 473e 931f 92be
00000240: 4083 213c dc5a 6e3e b9ab 21be 32f5 85bd
00000250: 3ead 1abe 1cb2 243e 68ca 03bd 0053 0abb
00000260: e406 4abd f893 743e 7ab8 4b3e 346e febd
00000270: 5209 70be 6ea2 8b3e ba51 83be 0200 223e
00000280: 861d 873e c012 383d c6e0 903e 46a7 2d3e
00000290: 38ca 5cbe 56cc 313e e4f0 663e bc38 283e
000002a0: 2834 15bd de35 803e 406a 0bbc c050 993c
000002b0: 0ef2 483e 54c1 87be e4fc 0ebe 8458 e6bd
000002c0: f0a3 ecbc f1a2 0ebe c08e fb3c cd69 73be
000002d0: 060f debd 3cbc 803e 8857 91be 5c74 b7bd
000002e0: aad1 f9bd 52c8 6bbe 0453 593e 6c1c 823d
000002f0: ce2d f2bd 4d76 2fbe 90b6 a63d 4c8f 433e
00000300: 6c21 a0bd 7858 27bd a08f 4ebc 7f92 72be
00000310: 591f 3dbe 3ac3 63be 489e 933d 809a d2bc
00000320: 602a 08bc 487b 973d 958a 23be 3076 613e
00000330: 6eee 803e 0a2e 8fbe 3c54 413e b044 123d
00000340: 4a22 8b3e 70a1 833c 505c de3d c036 7d3e
00000350: c8c0 0b3d e11e 49be 58fd 52be 4048 bbbb
00000360: d23b 813e bc00 8a3d c0ad 243d ec79 653e
00000370: 5693 453e 307a 463d ad64 0abe 3066 c13c
00000380: 9669 b1bd d1c4 0ebe 54c4 7f3e 4cd4 2cbd
00000390: c763 2bbe 3432 423e a4d2 d83d 5837 88bd
000003a0: 2dee 26be a27c 45be 90cb ab3c b177 17be
000003b0: 28fd 53be b42b d3bd 5003 1d3d 5651 43be
000003c0: d8db cebd d474 773e caa9 11be b0c1 8d3d
000003d0: 28b1 6a3d 30ad 0e3e cce2 92be 3523 60be
000003e0: 1ec3 c1bd 1849 593e e8d4 63be 2ee6 913e
000003f0: d143 8bbe 985a 243d 48b5 c4bd d37f 45be

fc1.bias f4 [256]
0.05100587 -0.22743694 -0.14098473 -0.20681381 0.1393888 0.14157441 0.15416613 -0.2725722
-0.030861437 0.26960897 -0.13208152 -0.18742478 0.0068047047 -0.15515363 0.12857875 -0.143126
-0.08066797 -0.22278592 -0.060826957 0.13654038 0.0047652423 -0.022292674 -0.26781768 0.1140157
-0.050431386 0.18707189 -0.23250222 0.13855457 -0.11513738 0.0021761656 -0.16273332 -0.24762167
-0.0806431 0.14823502 -0.1890338 0.1210219 -0.2563439 0.21894312 0.115273505 -0.09984012
-0.07429625 -0.21107066 -0.10601428 0.22262883 0.013362408 -0.1696127 0.20718071 -0.22381657
0.23598528 0.13489151 0.28726155 -0.17602795 0.01533401 0.23390347 -0.27249444 -0.10004549
-0.06680532 0.20664093 0.1674883 -0.12235618 -0.14252195 0.21238053 -0.0989514 -0.100305885
0.18833283 -0.17872407 0.16622433 0.14200622 0.040072173 -0.09782669 0.043976128 -0.07877222
-0.08371729 -0.14464098 0.058294445 0.22475445 -0.20578185 -0.044218153 -0.033392936 -0.07167335
0.1504077 -0.056222424 -0.22229692 0.24772298 0.08941576 0.1731022 0.03885919 -0.24664009
0.097628504 0.061991543 -0.04394953 -0.14626096 -0.28751773 0.2865792 0.27674234 -0.280485
0.18398431 0.208352 0.28044695 -0.07923517 0.23182207 -0.1386577 0.012027681 0.26802957
-0.0074068904 -0.05478938 -0.13170385 0.19706917 -0.21048394 -0.19572467 0.22045875 -0.11682859
0.09343898 0.12787116 0.27154452 0.20382044 0.22219545 0.12635082 0.19935197 -0.005056083
0.040829957 -0.27607474 -0.13094653 0.2747733 -0.17868283 0.024160534 -0.109716505 -0.27227843
0.21547669 -0.04261975 -0.15597934 0.25207907 0.09093982 0.2510137 -0.072922036 -0.26214328
-0.28583083 -0.13850209 -0.19361389 -0.09316662 0.28453654 0.2464875 -0.12124309 -0.04378748
-0.0648102 0.008864254 0.1183016 -0.022384316 0.073136926 0.21343076 0.041683644 -0.16379952
0.10421151 0.2202031 -0.064984396 0.23450422 -0.24139139 0.16121241 0.1091741 0.15809357
-0.21178463 -0.06915192 0.18613276 0.011483371 0.048039854 -0.2322695 -0.06641951 -0.26664016
-0.24217647 -0.20271602 0.26417017 0.282358 0.052405298 0.1269033 0.21508908 -0.21911786
0.06748155 -0.14186142 -0.22342485 0.23369592 0.2629434 0.25412828 0.018825203 -0.13900816
0.20310363 0.18101898 -0.18368992 -0.0377796 -0.16454622 0.28143078 0.085544914 -0.1588686
-0.18261556 -0.16161525 -0.20998406 0.22598153 0.1509254 -0.15828326 -0.08627984 0.14832863
-0.12737906 0.070920944 0.008537769 0.28503394 -0.1691089 -0.25985044 0.20128024 0.098792136
0.0642626 0.10810873 -0.23949972 0.23337454 -0.2036145 -0.20373657 0.0073747933 -0.097603664
-0.05930209 -0.09250435 0.1843139 -0.24550074 0.12541446 0.27632385 -0.119003475 0.278108
0.19496596 -0.11706081 -0.038036138 -0.20643325 0.25478464 0.024805278 -0.27014804 -0.12632692
-0.15108363 0.23143852 0.12109205 -0.28639117 -0.08728707 -0.1752172 0.27614784 0.0954389
-0.17617105 0.25112456 -0.21680436 -0.00032010674 0.16040775 -0.17114878 -0.06002693 -0.28100395
-0.06606905 0.17591295 -0.22913648 -0.16125405 -0.14932229 -0.19214287 0.13914022 0.26157755
00000000: 88eb 503d 3be5 68be 4d5e 10be 00c7 53be
00000010: f0bb 0e3e e2f8 103e badd 1d3e 958e 8bbe
00000020: 20d1 fcbc 300a 8a3e 6140 07be 48ec 3fbe
00000030: 00fa de3b 98e0 1ebe 26aa 033e 9f8f 12be
00000040: 4035 a5bd fe21 64be b025 79bd 3ed1 0b3e
00000050: c025 9c3b 209f b6bc 661f 89be 1081 e93d
00000060: 2491 4ebd c68f 3f3e 1015 6ebe 40e1 0d3e
00000070: 26cd ebbd 009e 0e3b 90a3 26be 8990 7dbe
00000080: 3628 a5bd ecca 173e 1492 41be 54da f73d
00000090: 823f 83be a032 603e 8414 ec3d fa78 ccbd
000000a0: a228 98bd e822 58be 041e d9bd d0f8 633e
000000b0: 00ee 5a3c f4ae 2dbe 2e27 543e 2c30 65be
000000c0: 20a6 713e 0021 0a3e f213 933e ac40 34be
000000d0: 803b 7b3c 6484 6f3e 6484 8bbe a6e4 ccbd
000000e0: 3ad1 88bd ae99 533e 0e82 2b3e e095 fabd
000000f0: 46f1 11be 487a 593e 08a7 cabd 2c6d cdbd
00000100: 52da 403e 7103 37be b636 2a3e 146a 113e
00000110: b822 243d 5c59 c8bd 5020 343d 5453 a1bd
00000120: f873 abbd c41c 14be 28c6 6e3d 0826 663e
00000130: 7ab8 52be 181e 35bd 08c7 08bd 7ac9 92bd
00000140: 7a04 1a3e 7c49 66bd cea1 63be 18ab 7d3e
00000150: 9c1f b73d b441 313e d02a 1f3d 388f 7cbe
00000160: 74f1 c73d d8ea 7d3d 6c04 34bd 6fc5 15be
00000170: 8635 93be 82ba 923e 2cb1 8d3e bb9b 8fbe
00000180: 6266 3c3e 3a5a 553e be96 8f3e 0c46 a2bd
00000190: c462 6d3e 49fc 0dbe c00f 453c 2c3b 893e
000001a0: 80b5 f2bb d46a 60bd 60dd 06be 80cc 493e
000001b0: 1a89 57be 0c6c 48be f0bf 613e d443 efbd
000001c0: f05c bf3d a8f0 023e e207 8b3e 4eb6 503e
000001d0: 3487 633e 1c62 013e ec22 4c3e 80ad a5bb
000001e0: 503d 273d ab59 8dbe d916 06be 16af 8c3e
000001f0: a2f8 36be 50ec c53c 0cb3 e0bd 1468 8bbe
00000200: eca5 5c3e 0c92 2ebd 0cb9 1fbe 8210 813e
00000210: a83e ba3d de84 803e 2658 95bd a537 86be
00000220: 6b58 92be 7ed3 0dbe b842 46be 24ce bebd
00000230: c6ae 913e 3867 7c3e 4c4e f8bd 805a 33bd
00000240: 36bb 84bd 603b 113c 1c48 f23d 505f b7bc
00000250: d0c8 953d 988d 5a3e 78bc 2a3d 10bb 27be
00000260: d86c d53d ec7c 613e 8a16 85bd e021 703e
00000270: 4e2f 77be de14 253e ac96 df3d 48e3 213e
00000280: 12de 58be 869f 8dbd 9699 3e3e c024 3c3c
00000290: 70c5 443d 0ed8 6dbe f406 88bd 0f85 88be
000002a0: 1cfd 77be ca94 4fbe 5041 873e 3a91 903e
000002b0: f0a6 563d f0f2 013e 5040 5c3e 6f60 60be
000002c0: c433 8a3d 1f44 11be 7cc9 64be fc4d 6f3e
000002d0: 84a0 863e 1a1d 823e 5037 9a3c 2858 0ebe
000002e0: 66fa 4f3e 0a5d 393e 3619 3cbe c8be 1abd
000002f0: ce7e 28be b217 903e 2c32 af3d 73ae 22be
00000300: 93ff 3abe 787e 25be 1006 57be b467 673e
00000310: 308c 1a3e 0215 22be 7cb3 b0bd 76e3 173e
00000320: a86f 02be 003f 913d 00e2 0b3c f8ef 913e
00000330: e22a 2dbe 1e0b 85be 681c 4e3e 8853 ca3d
00000340: 1c9c 833d 1c68 dd3d 6a3f 75be bcf9 6e3e
00000350: 5280 50be 52a0 50be 40a8 f13b 6ee4 c7bd
00000360: c0e6 72bd ec72 bdbd c8bc 3c3e 8c64 7bbe
00000370: a66c 003e 527a 8d3e 18b8 f3bd 2c64 8e3e
00000380: 28a5 473e 94bd efbd c8cb 1bbd 3d63 53be
00000390: 2273 823e 7034 cb3c d850 8abe d85b 01be
000003a0: abb5 1abe 38fe 6c3e 1cff f73d dda1 92be
000003b0: 90c3 b2bd 236c 33be 4063 8d3e 7875 c33d
000003c0: 2f66 34be 6693 803e f601 5ebe 00d4 a7b9
000003d0: ee41 243e a041 2fbe ccde 75bd c0df 8fbe
000003e0: 364f 87bd 8622 343e c1a2 6abe c81f 25be
000003f0: f1e7 18be 1ac1 44be c67a 0e3e 7eed 853e

fc2.weight f4 [256, 256]
-0.062404707 0.026879601 0.03790039 -0.01892931 -0.005013779 -0.016950876 -0.02977696 -0.01893565
0.049497858 0.01281029 -0.055809475 -0.046647906 -0.009996504 -0.048696414 0.054041006 0.011815898
0.010201126 -0.032069236 -0.030758686 0.054977946 0.018213488 0.050022766 0.057934158 0.0006454438
-0.010388359 0.06041619 -0.036719926 -0.030723564 -0.019180998 -0.057214983 -0.013247497 -0.051780112
-0.03399726 0.012630776 0.0057188645 0.007234618 0.047827303 -0.021505527 -0.05696878 0.028020106
0.001412794 -0.04197301 0.0049684867 -0.006210655 0.045712285 0.02859167 -0.042657703 0.025246114
0.05358778 -0.0063275546 0.0476088 0.036176383 0.036794573 -0.043634735 0.046362877 0.011207171
-0.059538573 0.042943604 -0.04697662 -0.055561118 -0.049536586 -0.009528123 -0.018920578 -0.020593718
-0.031078488 0.05966811 0.013647258 0.0025233552 -0.028545141 0.012010321 -0.041977018 -0.060020514
-0.03685522 0.0064522624 -0.042812265 -0.005595304 -0.04485292 -0.034628488 0.0071939006 -0.030067101
-0.029456154 -0.009966664 -0.007498905 0.024761856 0.04591191 -0.028708003 -0.03833545 0.048240982
0.036613263 0.010836348 -0.05139424 -0.005462274 0.020408541 -0.019354247 -0.06049703 0.05618971
-0.02308891 0.0029565468 0.008582443 -0.02535177 0.022841997 -0.048340634 0.01787261 0.017663665
0.045828305 0.003935784 0.014421523 -0.0031249672 -0.025269978 -0.034827806 0.0389153 -0.049281053
-0.0044024363 -0.021970935 0.04723449 0.012067035 0.05853974 0.032065496 -0.0037129372 0.051797055
0.040074125 0.0203638 0.0009843409 0.050850518 0.014611311 0.02665206 0.029263519 0.022199139
-0.011655979 -0.0005379692 0.018767558 -0.022322603 -0.03497822 -0.027521163 -0.05365739 -0.0029177964
0.0365216 0.06025838 -0.04000038 0.054945916 -0.044016317 -0.04704936 0.037883043 -0.015360184
-0.047248863 -0.0051882863 -0.003910288 -0.037228473 -0.026740208 -0.047341518 -0.0018746182 -0.015674025
0.042999372 -0.021021396 0.0036570579 -0.05480428 0.0283956 0.03322638 0.045698054 0.026422314
0.05281908 -0.05333437 -0.036254093 0.0061911866 0.030360743 0.03156911 -0.028802894 0.001212284
-0.012344435 0.05097446 0.022838153 -0.04783877 -0.036111794 -0.00543724 0.012566984 -0.042907193
0.032289594 -0.023654468 -0.032931693 0.00625962 -0.054664373 -0.0057439506 -0.009134963 -0.020555966
-0.021490209 0.03999573 -0.02712579 -0.0013187081 -0.057743937 0.00064505637 -0.026457138 -0.017960683
0.014728777 0.032232843 0.029727228 0.054818958 -0.018796906 -0.047754385 0.007975362 0.050787233
0.013432048 -0.0058550164 0.013760515 0.015028112 -0.046716817 0.043012574 -0.04974916 -0.03641346
0.00040058047 0.0015322715 -0.030009255 -0.013464093 -0.04443734 0.03911025 -0.003660597 0.01139503
-0.022791192 -0.03194551 0.00230328 0.005067505 0.057616554 0.00017338991 -0.04080297 0.05490735
-0.05306819 -0.04504537 0.01888837 0.036032036 -0.002697207 -0.01172144 -0.041032262 -0.018763013
-0.010343514 -0.023887135 -0.031224854 -0.0061953217 -0.00042785704 0.021242961 -0.031191163 0.057125293
-0.059449576 0.02610647 -0.050541677 0.007037826 -0.028403781 -0.053699046 -0.058344655 0.0062960535
-0.019969307 -0.045273975 -0.043632895 -0.0073359236 -0.039617486 0.023362763 -0.0109593645 -0.018277474
00000000: 149c 7fbd 9c32 dc3c 703d 1b3d a411 9bbc
00000010: a04a a4bb 90dc 8abc d0ee f3bc f01e 9bbc
00000020: 44be 4a3d 40e2 513c 7a98 64bd e011 3fbd
00000030: 60c8 23bc e475 47bd 1a5a 5d3d 7897 413c
00000040: a022 273c 085b 03bd a4f9 fbbc 8e30 613d
00000050: 7434 953c ace4 4c3d 5e4c 6d3d 0033 293a
00000060: f033 2abc f876 773d a267 16bd fcaf fbbc
00000070: 7821 9dbc 425a 6abd 080c 59bc 6217 54bd
00000080: b640 0bbd 50f1 4e3c 5065 bb3b 6010 ed3b
00000090: 90e6 433d 5c2c b0bc 1858 69bd 6c8a e53c
000000a0: 802d b93a e4eb 2bbd b0ce a23b c082 cbbb
000000b0: ce3c 3b3d 1439 ea3c d8b9 2ebd f0d0 ce3c
000000c0: dc7e 5b3d 6057 cfbb 7201 433d b02d 143d
000000d0: e8b5 163d 56ba 32bd 00e7 3d3d 489e 373c
000000e0: b8de 73bd a2e5 2f3d 8e6a 40bd 0e94 63bd
000000f0: e0e6 4abd d81b 1cbc 54ff 9abc 28b4 a8bc
00000100: 5098 febc 8c66 743d c098 5f3c e05e 253b
00000110: 80d7 e9bc f0c6 443c 18f0 2bbd 12d8 75bd
00000120: 80f5 16bd 806d d33b ea5b 2fbd d058 b7bb
00000130: b2b7 37bd 9ad6 0dbd d0ba eb3b 484f f6bc
00000140: 084e f1bc 384b 23bc 60b9 f5bb 60d9 ca3c
00000150: 200e 3c3d 0c2d ebbc a205 1dbd 5698 453d
00000160: caf7 153d f08a 313c c482 52bd e0fc b2bb
00000170: d02f a73c cc8c 9ebc bccb 77bd 2e27 663d
00000180: f424 bdbc a0c2 413b 609d 0c3c 84ae cfbc
00000190: 241f bb3c d400 46bd 9469 923c 64b3 903c
000001a0: 76b6 3b3d c0f7 803b 4048 6c3c 40cc 4cbb
000001b0: fc02 cfbc 9aa7 0ebd a665 1f3d eeda 49bd
000001c0: 5042 90bb 64fc b3bc f478 413d d0b4 453c
000001d0: 5ec7 6f3d 1c57 033d c054 73bb 2629 543d
000001e0: c424 243d fcd1 a63c 0005 813a a248 503d
000001f0: 4864 6f3c 6c55 da3c 0cba ef3c f8da b53c
00000200: b8f8 3ebc 8006 0dba 6cbe 993c e4dd b6bc
00000210: 5245 0fbd 1074 e1bc dac7 5bbd 8038 3fbb
00000220: ac97 153d 7ed1 763d 70d7 23bd f80e 613d
00000230: 744a 34bd d4b6 40bd 402b 1b3d 48a9 7bbc
00000240: 0688 41bd 8002 aabb e021 80bb e27c 18bd
00000250: 480e dbbc 2ee9 41bd c0b5 f5ba d066 80bc
00000260: 1c20 303d 1035 acbc 40ab 6f3b 747a 60bd
00000270: e49d e83c 6218 083d e22d 3b3d 9c73 d83c
00000280: d258 583d 2475 5abd 2c7f 14bd 70df ca3b
00000290: 18b7 f83c 9c4e 013d 0cf4 ebbc 80e5 9e3a
000002a0: 5040 4abc 98ca 503d 1417 bb3c 96f2 43bd
000002b0: f6e9 13bd e02a b2bb c0e5 4d3c 74bf 2fbd
000002c0: 1842 043d 04c7 c1bc 62e3 06bd 801d cd3b
000002d0: c0e7 5fbd c037 bcbb d0aa 15bc fc64 a8bc
000002e0: 3c0c b0bc 90d2 233d e836 debc 80d8 acba
000002f0: e884 6cbd 0019 293a a4bc d8bc 4822 93bc
00000300: f850 713c 9606 043d 8486 f33c d889 603d
00000310: f8fb 99bc 1a9a 43bd 18ab 023c 4606 503d
00000320: 1812 5c3c 70db bfbb c873 613c 7838 763c
00000330: 225a 3fbd f42d 303d c6c5 4bbd 4826 15bd
00000340: 0005 d239 80d6 c83a f8d5 f5bc 8098 5cbc
00000350: ee03 36bd 1232 203d a0e6 6fbb 38b2 3a3c
00000360: 98b4 babc 4cd9 02bd a0f2 163b 500d a63b
00000370: 56ff 6b3d 00d0 3539 0421 27bd 88e6 603d
00000380: 085e 59bd 7e81 38bd c8bb 9a3c 5496 133d
00000390: a0c3 30bb 480b 40bc 7211 28bd e4b4 99bc
000003a0: d877 29bc f4ae c3bc 44cb ffbc 2002 cbbb
000003b0: 0052 e0b9 b805 ae3c 9c84 ffbc 36fc 693d
000003c0: 6681 73bd 3cdd d53c ca04 4fbd 909d e63b
000003d0: 0caf e8bc 88f3 5bbd cefa 6ebd 204f ce3b
000003e0: ac96 a3bc 3471 39bd 68b8 32bd 3062 f0bb
000003f0: f245 22bd 4463 bf3c e88e 33bc a4ba 95bc

fc2.bias f4 [256]
-0.022831276 0.03681612 -0.01439473 0.022983313 0.061326295 0.059880964 0.033604287 0.005631715
0.003610976 -0.006851554 -0.01869113 -0.038039118 0.026243709 0.037195534 -0.060443558 -0.012109891
-0.01033669 -0.044678815 0.03793195 0.060671084 0.010410391 -0.011224806 0.008047268 -0.0142306015
-0.049498163 -0.061303675 0.036802523 -0.05648558 -0.003969051 0.05167909 0.049989328 0.00013265014
0.055440545 -0.057178497 0.007725008 0.007997766 0.061136 0.046596356 0.04345204 -0.03476329
-0.038106494 -0.019914567 0.046046592 0.04182125 0.041139103 0.021042347 0.044501647 -0.017595023
0.051507704 0.013033837 -0.06030196 -0.061058603 -0.039658107 -0.05778046 0.026695184 0.04282728
-0.015909642 0.008600257 -0.003398575 -0.021026514 0.0527182 -0.051528946 -0.030948117 -0.015939437
-0.029830605 -0.0020666197 0.04192535 -0.05485545 -0.008973554 -0.04413855 -0.016097829 0.031492434
-0.04390426 0.04649841 -0.042222075 0.018337011 -0.019964285 -0.030668974 0.039816707 0.011319324
0.03480432 -0.001811631 0.012029633 -0.012031093 0.03365559 -0.03683845 0.032923386 -0.017653972
0.02029638 -0.048980974 -0.013499647 -0.054912247 -0.04458294 -0.023389399 0.055548534 0.02199325
-0.0019747317 -0.020916373 0.026383586 -0.023821115 0.043278433 -0.06109818 0.03988561 0.024521008
-0.023687929 0.011811636 -0.05282975 -0.061027795 -0.05816059 0.0030961037 0.061934352 0.03782782
-0.03142196 -0.02919989 -0.028329864 -0.04592894 -0.03033907 0.012032047 -0.03176965 -0.032348596
-0.0036809817 -0.03430713 -0.062284254 0.04341107 -0.008795559 0.02365505 0.05694119 -0.032723792
-0.00023431331 -0.057490043 0.053858154 0.015565842 0.04753223 0.03680686 -0.008638196 0.050769582
0.006967932 -0.037936553 0.046792164 0.04483533 -0.041004054 -0.059075706 -0.01644767 0.055989616
0.017481439 0.05166196 0.031690627 -0.0040348545 0.020845413 0.043122135 0.016284265 0.0072825924
0.046324395 0.0073282197 0.008195706 -0.05971314 0.01979684 0.044323392 0.022819288 -0.028706804
-0.043592446 -0.034312196 0.05208473 0.05191066 0.0448953 0.036587805 -0.015558496 -0.02125948
0.0068590567 0.038896136 0.018199995 0.026475549 -0.06075734 0.059124075 0.05825483 -0.058482356
-0.014594302 0.002597101 -0.019488312 -0.028870344 -0.039971955 0.057223678 -0.011738993 -0.02283252
0.0015337169 0.047616206 0.0284895 -0.041161746 -0.031393833 0.047032304 0.055331737 0.039567493
0.00460992 0.0034136176 0.023149587 0.023731045 0.018716283 0.026189975 0.056829475 0.044556074
-0.034651466 0.034200937 -0.028648198 -0.055540815 0.038147345 -0.029222824 -0.057547696 -0.05510708
0.027962528 0.047678776 -0.031709597 0.0075986683 0.015114844 0.013576329 0.04663422 0.03333219
0.0005920753 0.03135158 0.00031092018 -0.05668377 0.061146744 -0.026250072 0.02303879 -0.05512456
-0.033544503 -0.061635002 -0.024791256 0.06114631 0.036267288 0.031841643 -0.03646511 0.010390438
-0.04118157 0.007554956 0.051828228 -0.03084477 -0.011776209 0.04620023 -0.018638618 -0.06197983
0.027504906 -0.019159049 0.015977517 -0.020083256 -0.03957607 -0.06231211 -0.045501456 -0.011945099
-0.0027298778 -0.003215678 0.038093247 -0.025605977 0.024627343 0.028733559 0.010057621 0.04155045
00000000: a808 bbbc 80cc 163d e0d7 6bbc 8047 bc3c
00000010: 4831 7b3d be45 753d a6a4 093d 408a b83b
00000020: 20a6 6c3b 0083 e0bb 241e 99bc e8ce 1bbd
00000030: 0cfd d63c 585a 183d aa93 77bd 9068 46bc
00000040: 385b 29bc 2201 37bd 885e 1b3d 3e82 783d
00000050: 5890 2a3c 40e8 37bc b0d8 033c 7827 69bc
00000060: 96be 4abd 9019 7bbd 3ebe 163d 6c5d 67bd
00000070: d00e 82bb 74ad 533d 9cc1 4c3d 0018 0b39
00000080: a015 633d 0034 6abd 1022 fd3b 1009 033c
00000090: be69 7a3d d2db 3e3d c4fa 313d f463 0ebd
000000a0: 8e15 1cbd e023 a3bc 5a9b 3c3d c24c 2b3d
000000b0: 7a81 283d 0061 ac3c 5c47 363d 7023 90bc
000000c0: bef9 523d e08b 553c 30ff 76bd 9618 7abd
000000d0: 8a70 22bd 34ab 6cbd dcaf da3c a86b 2f3d
000000e0: f054 82bc 18e8 0c3c a0ba 5ebb cc3f acbc
000000f0: 0aef 573d 0410 53bd e886 fdbc 6c93 82bc
00000100: 505f f4bc 2070 07bb eab9 2b3d 1cb0 60bd
00000110: d005 13bc a0ca 34bd 98df 83bc 36fe 003d
00000120: f4d4 33bd 1e75 3e3d 0ef1 2cbd 8037 963c
00000130: 248c a3bc 803d fbbc d816 233d b074 393c
00000140: fa8e 0e3d 4074 edba f017 453c 101e 45bc
00000150: 72da 093d eae3 16bd acda 063d 109f 90bc
00000160: 9844 a63c 46a0 48bd a02d 5dbc aaeb 60bd
00000170: 9a9c 36bd 209b bfbc dc86 633d 302b b43c
00000180: 806a 01bb d058 abbc 6422 d83c 8024 c3bc
00000190: ba44 313d 1642 7abd 185f 233d 48e0 c83c
000001a0: 300d c2bc 9885 413c 0264 58bd 48f8 79bd
000001b0: cc39 6ebd 00e8 4a3b e0ae 7d3d 58f1 1a3d
000001c0: 50b4 00bd 9c34 efbc 0814 e8bc fc1f 3cbd
000001d0: a489 f8bc 1022 453c e420 02bd f67f 04bd
000001e0: a03c 71bb a285 0cbd c61d 7fbd cecf 313d
000001f0: 401b 10bc 3cc8 c13c 2a3b 693d 6209 06bd
00000200: 00b2 75b9 ae7a 6bbd 5e9a 5c3d e007 7f3c
00000210: 28b1 423d cac2 163d 3887 0dbc c4f3 4f3d
00000220: 4053 e43b 5c63 1bbd 24a9 3f3d 40a5 373d
00000230: def3 27bd 5ef9 71bd 44bd 86bc 5e55 653d
00000240: 3c35 8f3c 7e9b 533d 08ce 013d d036 84bb
00000250: 00c4 aa3c d6a0 303d 9466 853c d0a2 ee3b
00000260: a6be 3d3d 9021 f03b 4847 063c c495 74bd
00000270: fc2c a23c 728c 353d 84ef ba3c 882a ebbc
00000280: fe8d 32bd f28a 0cbd cc56 553d 46a0 543d
00000290: 22e4 373d 18dd 153d 10e9 7ebc 5c28 aebc
000002a0: f0c1 e03b 8e51 1f3d 2818 953c 40e3 d83c
000002b0: b0dc 78bd 162c 723d 9e9c 6e3d 328b 6fbd
000002c0: f01c 6fbc 2034 2a3b f4a5 9fbc 8081 ecbc
000002d0: a2b9 23bd 6063 6a3d e854 40bc 440b bbbc
000002e0: 0007 c93a 3609 433d d062 e93c 3899 28bd
000002f0: d296 00bd f2a4 403d 88a3 623d 8611 223d
00000300: d00e 973b 00b7 5f3b 34a4 bd3c 9c67 c23c
00000310: e452 993c 5c8c d63c 06c6 683d 6e80 363d
00000320: b2ee 0dbd 4816 0c3d a0af eabc c47e 63bd
00000330: 6440 1c3d b464 efbc 22b7 6bbd f6b7 61bd
00000340: ac11 e53c d24a 433d ece1 01bd 40fe f83b
00000350: 40a4 773c 406f 5e3c 8603 3f3d 5687 083d
00000360: 8035 1b3a 846a 003d 0003 a339 3e2d 68bd
00000370: 0275 7a3d 640a d7bc d8bb bc3c 4aca 61bd
00000380: f665 09bd fc74 7cbd 0817 cbbc 8e74 7a3d
00000390: 028d 143d 626c 023d 705c 15bd a83c 2a3c
000003a0: 02ae 28bd 908f f73b d649 543d 2cae fcbc
000003b0: 00f1 40bc 743c 3d3d 04b0 98bc 90de 7dbd
000003c0: f851 e13c 70f3 9cbc 48e3 823c a485 a4bc
000003d0: 841a 22bd fc3a 7fbd bc5f 3abd 60b5 43bc
000003e0: c0e7 32bb 20be 52bb aa07 1c3d a0c3 d1bc
000003f0: 48bf c93c a462 eb3c b8c8 243c ce30 2a3d

fc_mean.weight f4 [6, 256]
0.011349633 0.024488471 -0.024319917 0.011086769 0.020377934 -0.05148486 -0.022010453 0.023877695
-0.054468043 -0.02616956 0.026094742 0.013887629 0.056325383 -0.016421348 0.042923033 -0.047508806
0.048550285 -0.053686023 0.021400154 0.0613828 0.028648235 -0.01553864 -0.014865071 0.03378486
-0.0012851506 0.05339081 0.00040575862 -0.057626262 0.04949346 -0.0027680844 -0.029782802 0.04465665
0.042334028 -0.01748076 0.0033954158 -0.057596996 -0.00043815374 0.031565152 0.008396491 -0.022002049
0.014422461 0.03205304 -0.060658716 0.026425086 -0.011250466 -0.014946125 -0.030550756 -0.040240847
0.05419059 -0.024694033 -0.028873026 -0.03822486 0.057329006 -0.018118933 -0.03782566 0.045092538
-0.026709288 0.020514071 -0.034842476 -0.038363002 -0.015779845 -0.02883903 0.01951556 0.035821468
-0.00429783 -0.0061309263 -0.03983213 -0.0028677732 0.040761724 -0.039456643 -0.030600205 -0.061983243
-0.05099953 0.026016407 -0.056921147 -0.017296538 -0.034496635 -0.03035473 -0.0032877997 0.044689327
-0.0029706806 -0.027762577 0.058014765 -0.06185233 0.00945545 -0.060905874 -0.010667406 0.029500946
-0.0063730106 0.061785728 0.040341467 0.030935295 -0.04132969 -0.053810872 -0.023498148 -0.058182724
-0.06222763 0.001790084 -0.05468736 -0.0012307018 -0.018522874 -0.017081603 -0.0034969524 0.015120693
0.031131074 0.011030428 8.816272e-05 0.061135247 0.04780157 -0.020113416 -0.011731856 0.04308115
0.030964278 0.005934544 0.0478803 0.052358933 -0.04477316 -0.055220693 -0.03743589 -0.030524753
-0.0316637 -0.04586731 0.00855381 0.059990063 -0.0052900836 -0.011223368 -0.012735873 0.048424527
-0.05299393 -0.017408587 0.059770264 -0.03568928 0.04128749 0.01696676 0.042425245 0.029713102
-0.012888178 -0.062149867 -0.034858823 0.051753215 -0.050601766 -0.058186293 0.014473796 0.040543877
-0.030046366 -0.028847672 0.047281355 -1.1689961e-05 -0.054652244 0.022511922 0.007960841 0.04704608
0.022325747 0.052131638 -0.021243118 -0.0074853078 -0.045581974 0.036639355 -0.046456277 -0.02658125
0.033506155 0.025783978 -0.000558272 0.021546178 -0.04568298 0.021423541 -0.013254166 0.058837652
0.024523929 0.016991727 -0.025817849 -0.04375633 0.0038436726 0.008176014 -0.028132707 0.041072167
0.05967471 -0.012208328 -0.021169432 -0.056125134 0.0072581917 0.018486992 -0.04672388 -0.015237972
0.0366636 0.010265097 0.033260897 -0.035137817 -0.0399236 -0.0035684183 -0.039614543 0.008343466
0.028856322 0.04231056 0.053400256 0.054309413 -0.006202355 -0.014276519 -0.047177553 0.014921352
0.009886958 -0.047275037 0.051704347 -0.05794984 0.05863203 0.018786624 0.043334767 0.042732775
0.02787172 0.031910248 -0.049665526 0.016179025 -0.043330505 -0.050919026 -0.058399804 0.02715855
0.05468799 0.0047897696 0.033456974 -0.057277434 -0.042293325 0.04260511 -0.04510483 -0.021395802
-0.009672262 0.047710016 -0.011700936 0.00465136 0.033512235 -0.026809938 0.0013092458 -0.057342812
0.0360957 -0.015712902 -0.04581339 -0.00904458 -0.04449097 -0.0043733194 -0.02086164 0.02526471
0.054319814 -0.03636246 -0.02527596 -0.046934217 0.025789544 0.03355729 0.022803381 -0.02380243
0.039397195 -0.053631715 -0.04305193 0.043639675 -0.018131338 -0.035226807 -0.007470116 -0.03023418
00000000: d0f3 393c 0c9c c83c 903a c7bc 48a5 353c
00000010: a0ef a63c cae1 52bd 444f b4bc 289b c33c
00000020: e219 5fbd 8c61 d6bc a4c4 d53c f088 633c
00000030: 72b5 663d 1086 86bc 10d0 2f3d 9898 42bd
00000040: aadc 463d e0e5 5bbd 604f af3c 886c 7b3d
00000050: b4af ea3c c895 7ebc a08c 73bc fe61 0a3d
00000060: 8072 a8ba 52b0 5a3d 00bc d439 8409 6cbd
00000070: a8b9 4a3d c068 35bb 10fb f3bc e4e9 363d
00000080: 7266 2d3d d033 8fbc a085 5e3b d4ea 6bbd
00000090: 00b8 e5b9 764a 013d 7091 093c a43d b4bc
000000a0: 304c 6c3c 0c4a 033d 4675 78bd 6c79 d83c
000000b0: e053 38bc 98e0 74bc 9445 fabc 96d3 24bd
000000c0: f4f6 5d3d 244b cabc 2087 ecbc ac91 1cbd
000000d0: d2d1 6a3d 286e 94bc 14ef 1abd f4b2 383d
000000e0: 70cd dabc 200d a83c fcb6 0ebd 8622 1dbd
000000f0: bc44 81bc d43f ecbc 18df 9f3c 88b9 123d
00000100: d0d4 8cbb f0e5 c8bb 0427 23bd 40f1 3bbb
00000110: c4f5 263d 4a9d 21bd 48ad fabc 24e2 7dbd
00000120: e2e4 50bd 5c20 d53c 2626 69bd 78b1 8dbc
00000130: 584c 0dbd 7caa f8bc 2078 57bb 280c 373d
00000140: c0af 42bb 586e e3bc e4a0 6d3d de58 7dbd
00000150: 08eb 1a3c 7078 79bd 58c6 2ebc f8ab f13c
00000160: b0d4 d0bb 0813 7d3d 183d 253d 046c fd3c
00000170: 5249 29bd ca68 5cbd 307f c0bc 0251 6ebd
00000180: 66e2 7ebd 40a1 ea3a daff 5fbd 804f a1ba
00000190: 48bd 97bc b8ee 8bbc 202d 65bb c8bc 773c
000001a0: 9806 ff3c f8b8 343c 00e4 b838 f468 7a3d
000001b0: 94cb 433d e4c4 a4bc f836 40bc dc75 303d
000001c0: cca8 fd3c 9076 c23b 221e 443d 5276 563d
000001d0: 1064 37bd 182f 62bd 6056 19bd 0c0f fabc
000001e0: ccb1 01bd 5cdf 3bbd 4825 0c3c 24b8 753d
000001f0: 7058 adbb 38e2 37bc 20aa 50bc cc58 463d
00000200: 2a10 59bd 749c 8ebc aad1 743d ec2e 12bd
00000210: 121d 293d e0fd 8a3c 18c6 2d3d e468 f33c
00000220: f028 53bc dc90 7ebd 20c8 0ebd 2efb 533d
00000230: cc43 4fbd c054 6ebd 8023 6d3c 5611 263d
00000240: cc23 f6bc f451 ecbc 18aa 413d 0020 44b7
00000250: 08db 5fbd ec6a b83c 306e 023c 64b3 403d
00000260: 7ce4 b63c fc87 553d 0c06 aebc 5047 f5bb
00000270: 2ab4 3abd 2613 163d f048 3ebd ecc0 d9bc
00000280: c03d 093d ec38 d33c 0059 12ba 9c81 b03c
00000290: 141e 3bbd 6c80 af3c 0028 59bc c0ff 703d
000002a0: 68e6 c83c 3c32 8b3c f47f d3bc d639 33bd
000002b0: 20e6 7b3b b0f4 053c 9076 e6bc 4a3b 283d
000002c0: 786d 743d 7005 48bc 846b adbc 78e3 65bd
000002d0: 20d6 ed3b 0872 973c 8a61 3fbd b0a8 79bc
000002e0: 922c 163d f02e 283c 943c 083d acec 0fbd
000002f0: ee86 23bd 20dc 69bb dc42 22bd 08b3 083c
00000300: 1864 ec3c d64d 2d3d 3aba 5a3d 8c73 5e3d
00000310: 203d cbbb 10e8 69bc 403d 41bd b078 743c
00000320: e8fc 213c 78a3 41bd f0c7 533d d05c 6dbd
00000330: 2428 703d 68e6 993c cc7f 313d 9008 2f3d
00000340: 3c53 e43c 52b4 023d 146e 4bbd e089 843c
00000350: 547b 31bd 7890 50bd a234 6fbd 9c7b de3c
00000360: 8400 603d 80f3 9c3b 2e0a 093d be9b 6abd
00000370: c43b 2dbd b282 2e3d d8bf 38bd 4046 afbc
00000380: 6878 1ebc 946b 433d 48b5 3fbc 706a 983b
00000390: 2044 093d 84a0 dbbc 009b ab3a 4ce0 6abd
000003a0: 16d9 133d 58b8 80bc d2a6 3bbd b82f 14bc
000003b0: 2a3c 36bd 104e 8fbb 08e6 aabc f0f7 ce3c
000003c0: 747e 5e3d cef0 14bd 880f cfbc 183e 40bd
000003d0: 9844 d33c 5e73 093d 28ce ba3c 50fd c2bc
000003e0: f45e 213d eeac 5bbd 3857 30bd 84bf 323d
000003f0: 2c88 94bc fc49 10bd e0c7 f4bb acad f7bc

fc_mean.bias f4 [6]
-0.061139673 0.036785275 -0.01842881 0.043146193 0.042540237 0.03779281
00000000: 986d 7abd 28ac 163d 04f8 96bc 10ba 303d
00000010: ac3e 2e3d a2cc 1a3d

fc_log_std.weight f4 [6, 256]
0.062023677 -0.024271943 -0.0602521 -0.0609707 -0.00028192997 0.016715124 0.05241453 0.038253687
0.033828534 -0.00088650733 -0.03917428 0.050206475 -0.027983084 -0.022450015 -0.01572866 -0.06024266
-0.0531397 -0.025124334 0.018577881 0.04634057 0.010488182 0.051759273 -0.06102392 -0.05564359
0.0075448602 -0.061607346 0.03361351 0.04201047 0.039396957 -0.011779569 0.009630702 0.03373155
0.0070635825 -0.00095093995 0.002348572 -0.008410804 0.041212626 -0.014356539 0.021607302 0.06009973
0.013938434 -0.0516128 0.020394802 0.048825197 -0.047043875 -0.021607399 -0.013147607 0.058120817
-0.052105628 -0.028441317 0.03128344 0.019372374 0.045460917 -0.059974395 -0.047916725 0.04700885
0.057252325 0.050150223 -0.026800677 0.055945367 0.057602413 -0.054003082 -0.051050067 -0.02000267
0.052124217 0.000734359 0.008754879 -0.03855641 0.042454302 0.018260695 -0.057317235 -0.012602255
-0.019069448 0.040549897 0.027971737 -0.04016631 -0.0039934963 -0.0008589998 0.017071858 -0.027449712
-0.0044921264 -0.0017668605 -0.030055366 0.06141945 -0.01663363 -0.02882231 0.02444598 -0.04004152
0.05895935 0.015251383 -0.0021541938 0.03536614 -0.05518084 -0.02029647 0.02977261 -0.052424535
-0.0310072 0.025007524 0.03433779 0.0355941 0.037943363 0.016529918 0.038297363 0.010896966
0.022836551 -0.0041883066 0.03737639 -0.021252401 0.04352852 -0.043448105 -0.008001402 0.057461686
-0.023810677 0.04284697 0.041463695 0.01647707 -0.0108817 0.014906667 0.007959038 0.00998316
0.024459682 0.044820838 0.060203053 -0.03218001 0.009980321 -0.028044023 -0.0548791 -0.042623088
0.043824762 -0.056442924 -0.01329641 0.014965564 -0.019790322 0.002452381 -0.029505916 -0.049678206
-0.03734333 -0.05753713 0.030281544 -0.018281065 -0.062309362 -0.06062597 0.05438891 0.04224679
0.050079964 -0.019284032 0.046872273 -0.06019286 -0.00614544 0.054622717 -0.02706471 0.03376057
-0.04171586 0.058436833 -0.042200945 -0.058218695 0.035462916 -0.030357845 0.032605685 0.012661941
0.033374548 0.051901333 0.039265953 0.05883214 -0.0113793835 0.023262829 0.05315285 -0.0036282465
0.0031663552 -0.029543482 -0.0033039302 0.03866618 -0.058456965 -0.056204125 0.030348025 0.046940476
-0.041732095 -0.04612598 0.0008111298 -0.01760438 -0.048725724 0.016866453 -0.030847147 0.04754562
0.039618 -0.013859823 -0.040051095 0.026650928 -0.03402032 -0.03993068 -0.0620182 0.027406797
-0.05286348 0.044241115 0.015205242 -0.061931804 0.057165273 0.017268643 -0.053461492 -0.023398392
0.002859734 0.005071722 0.051015705 -0.046186373 0.040194526 -0.05533611 -0.0068771318 -0.041761085
0.042755343 -0.0084799975 0.056026243 0.041686215 -0.02031093 0.039529048 0.023536794 -0.007004328
0.057124764 0.02751349 -0.00957489 -0.00915233 0.0026738942 -0.0459906 0.021575548 -0.05445099
-0.056126706 0.034649327 0.027459204 0.0035084784 0.049758293 -0.013325773 0.0374484 0.02480004
0.05822836 -0.019237101 -0.025027417 0.05246266 0.013257451 -0.043640196 0.02383408 0.00089571625
-0.026675835 -0.01785329 0.016509421 -0.027496725 0.012357816 -0.0058007315 0.05451402 0.030519746
0.018539347 -0.058888987 0.052139796 0.033988833 0.03992288 -0.0016666874 -0.0123045 0.039778516
00000000: 8a0c 7e3d f4d5 c6bc e8ca 76bd 6abc 79bd
00000010: 00d0 93b9 28ee 883c 9eb0 563d e6af 1c3d
00000020: ca8f 0a3d 8064 68ba 3675 20bd 4ea5 4d3d
00000030: c83c e5bc 18e9 b7bc 64d9 80bc 02c1 76bd
00000040: 04a9 59bd 8cd1 cdbc a430 983c 9ccf 3d3d
00000050: a0d6 2b3c 8801 543d 38f4 79bd 88ea 63bd
00000060: e03a f73b fc57 7cbd 52ae 093d 2c13 2c3d
00000070: b45e 213d 18ff 40bc 18ca 1d3c 182a 0a3d
00000080: a075 e73b 8048 79ba 80ea 193b 78cd 09bc
00000090: 92ce 283d b037 6bbc cc01 b13c 222b 763d
000000a0: 085e 643c f267 53bd 0013 a73c eefc 473d
000000b0: 14b1 40bd 0002 b1bc 1069 57bc 1810 6e3d
000000c0: b66c 55bd c4fd e8bc 1023 003d d0b2 9e3c
000000d0: 3a35 3a3d b6a7 75bd 5444 44bd 5a8c 403d
000000e0: 6a81 6a3d 526a 4d3d 188d dbbc f826 653d
000000f0: 82f0 6b3d 5632 5dbd e019 51bd a4dc a3bc
00000100: 3480 553d 0082 403a a070 0f3c 54ed 1dbd
00000110: 90e4 2d3d 7497 953c 7ac5 6abd b079 4ebc
00000120: 8837 9cbc a617 263d fc24 e53c 6e85 24bd
00000130: e0db 82bb 802e 61ba 48da 8b3c 38de e0bc
00000140: b032 93bb 0096 e7ba ac36 f6bc f692 7b3d
00000150: 4043 88bc c41c ecbc f042 c83c 9402 24bd
00000160: 5c7f 713d f0e0 793c 602d 0dbb 16dc 103d
00000170: 4e05 62bd c844 a6bc b0e5 f33c 1cbb 56bd
00000180: d002 febc 94dc cc3c c8a5 0c3d 1ecb 113d
00000190: 806a 1b3d c069 873c b2dd 1c3d 3089 323c
000001a0: b813 bb3c 103e 89bb fc17 193d 8419 aebc
000001b0: f64a 323d a4f6 31bd 5018 03bc f25c 6b3d
000001c0: 9c0e c3bc 4e80 2f3d d6d5 293d ecfa 863c
000001d0: 2849 32bc 183b 743c a066 023c 6890 233c
000001e0: ac5f c83c 0e96 373d 7a97 763d 30cf 03bd
000001f0: 8084 233c 94bc e5bc e8c8 60bd 8c95 2ebd
00000200: 9881 333d b230 67bd 30d9 59bc 2032 753c
00000210: 501f a2bc 20b8 203b 64b6 f1bc 607b 4bbd
00000220: 52f5 18bd 0eac 6bbd 0011 f83c 2cc2 95bc
00000230: 1a38 7fbd f052 78bd e8c6 5e3d f80a 2d3d
00000240: a620 4d3d 8cf9 9dbc 24fd 3f3d ca8c 76bd
00000250: b05f c9bb 12bc 5f3d d0b6 ddbc 8648 0a3d
00000260: 40de 2abd 765b 6f3d e6da 2cbd ba76 6ebd
00000270: 9041 113d 04b1 f8bc 8a8d 053d 0874 4f3c
00000280: c0b3 083d 7e96 543d 56d5 203d f8f9 703d
00000290: 9870 3abc b091 be3c ceb6 593d e0c7 6dbb
000002a0: a082 4f3b 2c05 f2bc c086 58bb 6e60 1e3d
000002b0: 9270 6fbd 4c36 66bd 6c9c f83c a844 403d
000002c0: 46ef 2abd 98ee 3cbd 00a2 543a 1037 90bc
000002d0: a094 47bd 842b 8a3c 28b3 fcbc 32bf 423d
000002e0: 7c46 223d 5014 63bc 9e0c 24bd 0c53 da3c
000002f0: e458 0bbd 5a8e 23bd cc06 7ebd 3884 e03c
00000300: 6087 58bd 2c36 353d 681f 793c 34ac 7dbd
00000310: 2226 6a3d f876 8d3c 70fa 5abd fcad bfbc
00000320: 606a 3b3b b030 a63b d8f5 503d ec2d 3dbd
00000330: 04a3 243d 1ea8 62bd 9059 e1bb ac0d 2bbd
00000340: 3a20 2f3d b0ef 0abc c67b 653d 2abf 2a3d
00000350: 1c63 a6bc 36e9 213d 3cd0 c03c 9084 e5bb
00000360: a8fb 693d f863 e13c 00e0 1cbc a8f3 15bc
00000370: 803c 2f3b a460 3cbd 34bf b03c 0008 5fbd
00000380: 1ee5 65bd 74ec 0d3d 20f2 e03c 80ee 653b
00000390: 5acf 4b3d 5854 5abc 7e63 193d 7429 cb3c
000003a0: dc80 6e3d 2097 9dbc 4c06 cdbc 16e3 563d
000003b0: c835 593c 10c0 32bd b03f c33c 80ce 6a3a
000003c0: 4887 dabc 1041 92bc c43e 873c d040 e1bc
000003d0: 7078 4a3c 1014 bebb 184a 5f3d 8c04 fa3c
000003e0: d4df 973c 9435 71bd 8a90 553d e037 0b3d
000003f0: 2c86 233d c074 daba d098 49bc ccee 223d

fc_log_std.bias f4 [6]
0.040590562 -0.032456517 -0.04565054 -0.035824575 -0.038177505 0.029212885
00000000: 4a42 263d 20f1 04bd 10fc 3abd cabc 12bd
00000010: 0460 1cbd dc4f ef3c
