output/MAPPO/lxl/weight/actor_agent_4_ep_2800.pth (torch, 292136 bytes, 8 tensors)

fc1.weight f4 [256, 12]
0	0x3e6e16c8	0.23250878
1	0xbe8f23bf	-0.2795696
2	0x3e613c40	0.2199564
3	0xbe6e392a	-0.23263994
4	0xbe8bbf59	-0.27294424
5	0x3d0fad28	0.035077244
6	0xbe88115f	-0.26575753
7	0x3d504f30	0.05085677
8	0xbbb864c0	-0.0056272447
9	0xbcdb55b0	-0.026774257
10	0xbdd73790	-0.105086446
11	0x3bf55f40	0.0074881613
12	0x3e7baa64	0.24576718
13	0x3e499a58	0.19687784
14	0x3e5668c6	0.20938405
15	0xbd3fef54	-0.0468591
16	0x3db2bd8c	0.087275594
17	0x3e2b47c6	0.16726598
18	0xbe40dd68	-0.1883446
19	0xbe176d15	-0.14787705
20	0x3e3d2d80	0.18474388
21	0xbe795669	-0.24349369
22	0xbe2dfd5d	-0.16991182
23	0xbe283d28	-0.1642958
24	0xbe0c63c2	-0.1370993
25	0xbe0cdf05	-0.1375695
26	0x3c83b890	0.016079217
27	0x3e8bcb4c	0.2730354
28	0x3dc423b8	0.09577125
29	0x3e1ff636	0.15621266
30	0x3e53f574	0.20699102
31	0x3e84014c	0.2578224
32	0xbe6410ea	-0.22272077
33	0x3dee6f74	0.11642352
34	0x3cbcc250	0.023041874
35	0xbdc62624	-0.096752435
36	0x3e3cc6aa	0.1843516
37	0xbd70f1b0	-0.05882424
38	0xbe53e3b8	-0.20692337
39	0xbe507260	-0.2035613
40	0xbe2084f1	-0.15675713
41	0xbe370df4	-0.17876416
42	0x3e2567fe	0.16152951
43	0x3e375626	0.17903957
44	0x3dd1172c	0.10209498
45	0x3dcddbf0	0.100517154
46	0xbe151784	-0.14559752
47	0x3e1f0eee	0.15533039
48	0x3e63334c	0.22187537
49	0x3d189538	0.03725168
50	0xbd659b98	-0.05605659
51	0xbe657248	-0.22406876
52	0x3d8a23b4	0.06745091
53	0xbe717070	-0.23578048
54	0x3d153d60	0.036435485
55	0xbded831e	-0.11597274
56	0x3e2d121c	0.1690144
57	0xbdbf2690	-0.09333527
58	0x3d925814	0.07145706
59	0x3e8d3040	0.27575874
60	0x3e7c4670	0.24636245
61	0xbe59f9fe	-0.2128677
62	0xbe55bff8	-0.20874012
63	0x3e866942	0.2625218
64	0x3e8d36c4	0.27580845
65	0xbe2e3066	-0.1701065
66	0x3cc815a0	0.024424374
67	0x3e2768c6	0.16348562
68	0xbe888fdd	-0.2667226
69	0xbd58e7f4	-0.052955583
70	0xbe86bf94	-0.26318038
71	0x3e6b451c	0.22975582
72	0x3d8deeb0	0.06930292
73	0xbe625b72	-0.22105196
74	0x3c519420	0.012791663
75	0xbd3fd78c	-0.04683642
76	0xbe396f7d	-0.18108936
77	0xbe92d23d	-0.28676024
78	0xbb775c80	-0.0037744343
79	0xbe11995d	-0.1421866
80	0x3e905c7a	0.28195554
81	0xbe92e05b	-0.28686795
82	0x3e0f00ae	0.13965103
83	0xbdc833a2	-0.09775473
84	0x3e6aa000	0.22912598
85	0x3e1d05a4	0.15334183
86	0xbd9c2d4e	-0.07625829
87	0x3bf54900	0.007485509
88	0x3d2ce788	0.042212993
89	0x3e4e5a90	0.20151734
90	0xbe27d25e	-0.16388842
91	0x3b6e3c00	0.003635168
92	0xbe29d0c8	-0.1658355
93	0x3db3390c	0.08751115
94	0x3becbc80	0.0072246194
95	0x3d76ed28	0.060284764
96	0x3d54c1f8	0.051942796
97	0x3e147ab2	0.1449993
98	0xbe5f1b67	-0.21787797
99	0x3d24ab18	0.04020223
100	0x3e7cf4bc	0.24702734
101	0x3e053680	0.13009071
102	0xbd0bbc30	-0.034115016
103	0xbd89fffe	-0.0673828
104	0x3dbef0ec	0.09323296
105	0x3d441ca8	0.04787889
106	0x3e69ee14	0.22844726
107	0x3e86e0c8	0.2634337
108	0xbe92cc52	-0.2867151
109	0xbe0d8203	-0.13819127
110	0xbe29c498	-0.16578901
111	0xbe423140	-0.189641
112	0xbe7c0ee9	-0.24615063
113	0x3e025338	0.12727058
114	0xbe48e43c	-0.19618315
115	0x3e6ae1b4	0.22937661
116	0xbaf32600	-0.0018550754
117	0x3c09a440	0.008400977
118	0x3e7437a8	0.23849356
119	0x3e6a4db8	0.2288121
120	0x3e8bd1a0	0.2730837
121	0xbd77e6d8	-0.060522884
122	0xbe4ee7dd	-0.20205636
123	0x3e46677a	0.1937541
124	0x3dc2d534	0.095133215
125	0x3d8699b8	0.06572288
126	0xbe6110ac	-0.21979016
127	0x3e56b19c	0.2096619
128	0xbdca9420	-0.09891534
129	0xbe2c2c15	-0.16813691
130	0x3d688188	0.056764156
131	0xbd20415c	-0.03912483
132	0x3df5226c	0.11969456
133	0x3e549aa0	0.2076211
134	0x3dbe8080	0.09301853
135	0x3df1dd8c	0.11809835
136	0xbdb05f1e	-0.08611892
137	0x3e392104	0.18079
138	0xbe4e18e2	-0.2012668
139	0x3e7edec0	0.2488966
140	0xbe848c98	-0.25888515
141	0xbde56504	-0.11200908
142	0x3da1d720	0.0790236
143	0x3e61a614	0.2203601
144	0xbd138600	-0.036016464
145	0x3e883704	0.26604474
146	0xbda97c8a	-0.08275707
147	0x3e4ca436	0.19984517
148	0x3e93637e	0.28786844
149	0x3c1c0ae0	0.009524077
150	0x3d498a98	0.04920444
151	0x3ccf2d70	0.025290221
152	0xbe3b5958	-0.182958
153	0xbe2a5978	-0.16635692
154	0xbdbed180	-0.09317303
155	0xbe0e5111	-0.13898112
156	0xbd9b7728	-0.075910866
157	0xbe532cea	-0.20622602
158	0x3e12f8d4	0.14352733
159	0x3e69240c	0.22767657
160	0x3dd093d4	0.10184446
161	0x3e212e4e	0.1574032
162	0xbdf71a9c	-0.12065622
163	0x3e1271b8	0.14301193
164	0x3dc764a4	0.097359926
165	0x3e6349a8	0.22196066
166	0xbdef5b4e	-0.11687337
167	0x3e8224ac	0.25418603
168	0xbe919934	-0.28437197
169	0x3d509fc0	0.0509336
170	0xbdf1a854	-0.11799684
171	0xbc264440	-0.010148108
172	0xbd260174	-0.04052873
173	0x3cbbbed0	0.022918135
174	0xbdadc586	-0.0848494
175	0xbde6b11a	-0.11264248
176	0x3c932370	0.017961234
177	0xbe62df15	-0.22155412
178	0xbccfea70	-0.025380343
179	0x3d901b04	0.07036403
180	0x3bb8b7c0	0.005637139
181	0x3e5d0ac8	0.21586144
182	0xbe179ef8	-0.14806736
183	0x3d9836c8	0.07432324
184	0xbd0c94d8	-0.034321636
185	0x3e4b545e	0.19856402
186	0xbcddb490	-0.027063638
187	0xbd7fcb88	-0.062449962
188	0x3d73b1c0	0.059495687
189	0xbe92e2a3	-0.28688535
190	0xbe3c0755	-0.18362172
191	0xbe8c2f3b	-0.27379784
192	0xbe26f50f	-0.1630442
193	0xbc387640	-0.011258662
194	0xbd094f80	-0.033523083
195	0xbe77a5ce	-0.24184343
196	0xbba25400	-0.0049538612
197	0x3cd658b0	0.026165336
198	0xbe1b2e76	-0.15154442
199	0x3ddd8c54	0.10817781
200	0xbcd51ca0	-0.026014626
201	0xbe13c846	-0.14431867
202	0xbe372a50	-0.17887235
203	0xbaf57000	-0.0018725395
204	0x3e3a46e8	0.18191111
205	0xbdb4d66a	-0.08829959
206	0x3e71ae10	0.23601556
207	0x3c809450	0.01569572
208	0xbddd4624	-0.10804394
209	0x3e807b04	0.25093853
210	0xbcbd8a60	-0.023137271
211	0x3dd88f7c	0.105742425
212	0xbda19476	-0.07889645
213	0x3e56d102	0.20978168
214	0x3e8679ba	0.26264745
215	0x3d84371c	0.06455824
216	0xbdbdd2d0	-0.09268725
217	0xbe817402	-0.2528382
218	0x3ae02500	0.0017100871
219	0x3cf3da70	0.029767245
220	0xbe66e55d	-0.22548433
221	0x3dddb778	0.108260095
222	0xbe8ce2fe	-0.2751693
223	0xbe424e22	-0.18975118
224	0x3e1ef4de	0.15523097
225	0x3e88e4a6	0.26736945
226	0x3e8f61e2	0.28004366
227	0x3e6629a8	0.22476828
228	0xbe49bb0d	-0.1970026
229	0x3df4e2b8	0.11957306
230	0xbe056cd3	-0.13029794
231	0xbe593cec	-0.21214646
232	0x3e7b2a90	0.24527955
233	0xbc0beea0	-0.008540779
234	0xbe0a6cec	-0.13518113
235	0x3dd639cc	0.10460243
236	0xbe11d839	-0.14242639
237	0x3e4260ea	0.18982282
238	0x3d02f400	0.031970978
239	0x3e40ded8	0.18835008
240	0xbe8ff88d	-0.28119317
241	0x3e4f66ac	0.2025401
242	0xbe2d5e18	-0.16930425
243	0x3d864e5c	0.065579146
244	0xbe48fb58	-0.1962713
245	0xbe15f7f4	-0.14645368
246	0x3e501c24	0.20323235
247	0xbd97b884	-0.074082404
248	0xbe90ecf6	-0.28305787
249	0x3b935d40	0.0044972003
250	0xbe8c6e49	-0.2742789
251	0xbe5e3ded	-0.2170331
252	0x3d343fb0	0.04400605
253	0x3e56d7d2	0.20980766
254	0x3dd97ca8	0.106194794
255	0x3cd8d120	0.026466906

fc1.bias f4 [256]
0	0x3d2683c0	0.04065299
1	0x3cd494b0	0.025949806
2	0x3c4c2100	0.01245904
3	0x3e25fdac	0.1621005
4	0x3e266562	0.16249612
5	0x3e119a60	0.14219046
6	0x3e48c936	0.19608006
7	0xbdaaf9f4	-0.08348456
8	0xbe8da965	-0.276683
9	0xbe71ad4e	-0.23601267
10	0xbe004418	-0.12525976
11	0x3e2fab9e	0.1715531
12	0xbe07ab31	-0.13248898
13	0xbda165d6	-0.07880752
14	0xbe88990f	-0.26679274
15	0x3e92ced0	0.2867341
16	0x3d18ff28	0.03735271
17	0x3e1e9184	0.15485197
18	0xbe3a24e5	-0.18178137
19	0xbd6ce5d0	-0.057836354
20	0x3d053df8	0.0325298
21	0x3df923d0	0.12165034
22	0x3e773478	0.24141109
23	0xbda25f94	-0.07928386
24	0xbe49ef1c	-0.19720119
25	0xbe617a10	-0.2201922
26	0x3e8be20e	0.27320904
27	0xbe211420	-0.15730333
28	0x3e3157ce	0.17318651
29	0xbe36a0ca	-0.17834774
30	0x3e59f628	0.21285307
31	0x3d91152c	0.07084116
32	0x3e034318	0.12818563
33	0xbac14d00	-0.0014747679
34	0xbd0a0a10	-0.033701003
35	0xbe2cae90	-0.16863465
36	0xbd8671ac	-0.0656465
37	0xbb19c380	-0.0023462474
38	0xbe4a972d	-0.19784231
39	0xbe068883	-0.13138013
40	0xbe283451	-0.16426207
41	0x3e8cfb2c	0.2753538
42	0xbdcf3940	-0.101183414
43	0xbe4dd00c	-0.20098895
44	0xbe88989e	-0.26678938
45	0xbe91b3df	-0.28457543
46	0xbe10b3d0	-0.14131093
47	0xbde719a8	-0.112841904
48	0xbe83f2f1	-0.25771287
49	0xbe43586e	-0.19076702
50	0xbe6c1de4	-0.23058277
51	0xbe8aaad1	-0.27083448
52	0x3dad7374	0.084692866
53	0xbd9da0fa	-0.076967195
54	0xbe452ae9	-0.1925465
55	0xbe5ae2f9	-0.21375646
56	0x3e361b8c	0.17783946
57	0xbd853f5a	-0.06506224
58	0x3cafb710	0.021449596
59	0x3e7d9558	0.24764001
60	0xb9a49400	-0.00031390786
61	0xbdb50094	-0.08838001
62	0x3e3fc8aa	0.18728891
63	0xbaeb0e00	-0.001793325
64	0x3e58cd2c	0.21172017
65	0xbe53f0f6	-0.20697388
66	0x3e8cacdc	0.2747563
67	0x3e1b03c8	0.15138161
68	0xbd990e2a	-0.07473405
69	0x3e078b18	0.13236654
70	0x3de21d4c	0.11040744
71	0x3d101fb8	0.0351865
72	0x3ce79f00	0.02827406
73	0x3d6f8d50	0.058484375
74	0x3e563e1c	0.2092213
75	0xbc9ad440	-0.018900037
76	0xbe8fe83a	-0.28106862
77	0xbd8ecd1e	-0.06972717
78	0xbdc217d8	-0.09477204
79	0x3bd32e40	0.0064447224
80	0xbe0849cf	-0.13309406
81	0xbe90f407	-0.28311178
82	0xbdc1f7e0	-0.094711065
83	0x3de418c0	0.11137533
84	0xbe52cfc3	-0.20587067
85	0x3e47a6a0	0.19497156
86	0xbe5e08f6	-0.21683106
87	0xbde1d5b6	-0.1102709
88	0x3c5134a0	0.012768894
89	0x3e1d9ee2	0.1539264
90	0x3e41736e	0.18891689
91	0xbe916d94	-0.28403914
92	0xbc3d4b20	-0.011553556
93	0xbe86d18c	-0.26331747
94	0x3e7d1618	0.2471546
95	0xbe80260d	-0.2502903
96	0xbe77e512	-0.24208477
97	0x3e92afcc	0.28649747
98	0xbe48f1eb	-0.19623534
99	0xbe484a91	-0.19559695
100	0x3ceea340	0.029130578
101	0xbe5696d2	-0.20955971
102	0x3e7b88ac	0.24563855
103	0xbd9d57c8	-0.076827586
104	0xbddad1b2	-0.106845275
105	0x3e82194c	0.25409925
106	0xbe73fbfb	-0.23826592
107	0x3dd18d34	0.102320105
108	0xbcb7c080	-0.022430658
109	0x3deffa60	0.11717677
110	0xbe7a638c	-0.24452037
111	0x3d502758	0.05081877
112	0xbe09868f	-0.13430236
113	0x3e01f4a8	0.12690985
114	0xbe8bfaec	-0.27339876
115	0xbe1e40a9	-0.15454353
116	0x3e76887c	0.24075502
117	0x3d460b30	0.048350513
118	0xbe80cfc8	-0.25158525
119	0x3c44d980	0.012014747
120	0x3e2d63d4	0.16932613
121	0x3d18bc90	0.037289202
122	0xbe8cc192	-0.27491432
123	0xbd41118c	-0.047135875
124	0x3d24d428	0.04024139
125	0x3e445e0c	0.19176501
126	0xbe47db3f	-0.1951723
127	0x3e2471a4	0.16058975
128	0xbe68df90	-0.22741532
129	0xbdd62376	-0.104559824
130	0x3e87b5ce	0.26505893
131	0xbd24a070	-0.040192068
132	0xbd42ec48	-0.047588617
133	0x3e8a3844	0.26996052
134	0x3dac71a4	0.08420113
135	0xbdbae148	-0.09125
136	0x3e3c30b6	0.18377957
137	0xbe05d9a6	-0.13071308
138	0x3d1de280	0.038546085
139	0xbdd0c39e	-0.10193561
140	0xbe02642c	-0.12733525
141	0xbe0bfffc	-0.13671869
142	0x3dcf8714	0.10133186
143	0x3dde5784	0.10856536
144	0xbe024dc6	-0.1272498
145	0xbca37430	-0.019952863
146	0xbe52f330	-0.20600581
147	0x3d816ed4	0.06319967
148	0x3e770c34	0.24125749
149	0xba5c5c00	-0.0008406043
150	0xbe22d5bc	-0.15901846
151	0x3d9ede48	0.077572405
152	0x3e1ea478	0.15492427
153	0xbe2c98b0	-0.1685512
154	0xbe6af2d1	-0.2294419
155	0xbe0b7255	-0.13617833
156	0xbdcb3002	-0.09921266
157	0xbd4732b8	-0.048632354
158	0x3de5e1a0	0.11224675
159	0x3e53386c	0.20626992
160	0xbdb81f1c	-0.08990309
161	0x3e6ceca4	0.23137146
162	0xbdff10fa	-0.1245441
163	0xbddab5b2	-0.10679187
164	0xbd0ac0f0	-0.033875406
165	0xbe61d32c	-0.22053212
166	0x3e8341c8	0.25636125
167	0x3e3e1052	0.18560913
168	0x3d9ce018	0.0765993
169	0x3e444408	0.19166577
170	0xbe2a1442	-0.1660929
171	0xbd2cece0	-0.04221809
172	0xbe498db8	-0.19682968
173	0x3df63268	0.12021333
174	0x3d0130e8	0.03154078
175	0x3d025698	0.031820863
176	0xbe02bb6d	-0.1276681
177	0xbe90d71b	-0.28289112
178	0xbe73c21a	-0.23804513
179	0x3de04b84	0.109519035
180	0xbe314f98	-0.17315519
181	0xbdb93e74	-0.09045115
182	0xbe078f27	-0.13238202
183	0xbdffe92a	-0.124956444
184	0x3e83e83c	0.25763118
185	0x3e754df8	0.23955524
186	0x3d4c4d38	0.04987833
187	0x3e767714	0.24068862
188	0xbcd02360	-0.025407493
189	0x3e8595a6	0.26090735
190	0xbb2f4080	-0.0026741326
191	0x3e58e7e4	0.21182209
192	0xbe8934bb	-0.26798043
193	0x3e229132	0.158757
194	0x3e8dafb6	0.2767312
195	0xbdee8fd6	-0.11648528
196	0x3aa9cf00	0.0012955368
197	0x3e0ede7a	0.13952056
198	0xbcb89280	-0.022530794
199	0xbdc43140	-0.09579706
200	0x3e167d94	0.14696342
201	0x3db9f3ac	0.0907968
202	0xbd622e08	-0.05521968
203	0x3c48bf80	0.012252688
204	0x3d649a78	0.055811375
205	0x3e1ae140	0.15124989
206	0xbe6d54d3	-0.23176889
207	0x3da9d6e8	0.08292943
208	0x3e86ebb2	0.26351696
209	0x3df21498	0.11820334
210	0xbe3bf7b6	-0.18356213
211	0xbe898d0b	-0.2686542
212	0x3e58ed84	0.21184355
213	0xbe33652c	-0.17519063
214	0x3d026548	0.03183487
215	0x3e408844	0.18801981
216	0xbe6ba99c	-0.2301392
217	0x3cd27220	0.025689185
218	0x3e71a6a4	0.23598725
219	0xbda29cf4	-0.07940093
220	0xbd91fa68	-0.07127839
221	0xbe75b0a3	-0.23993163
222	0x3e1daa70	0.15397048
223	0x3e90810c	0.28223455
224	0xbdcac5fa	-0.09901042
225	0x3ca18390	0.019716054
226	0x3e8f9306	0.28041857
227	0xbe924859	-0.28570822
228	0xbe536d32	-0.20647123
229	0x3e5a9914	0.21347457
230	0xbe713718	-0.23556173
231	0xbdcad186	-0.09903245
232	0xbc1ba5a0	-0.009499937
233	0xbe8b578c	-0.2721523
234	0xbe33f9cc	-0.17575759
235	0xbcb35a50	-0.02189365
236	0xbe892d1d	-0.2679223
237	0x3e73ad4c	0.23796576
238	0xbdb3812e	-0.087648734
239	0xbde38232	-0.11108817
240	0xbceee7c0	-0.029163241
241	0x3e485ae6	0.19565925
242	0x3e8dcdfc	0.27696216
243	0xbd8d29ba	-0.06892724
244	0x3d90b35c	0.0706546
245	0xbd5baf30	-0.05363387
246	0x3e18c872	0.14920214
247	0xbdb7c59e	-0.08973239
248	0xbe87c48c	-0.2651714
249	0x3e83f454	0.25772345
250	0xbe77eb28	-0.24210799
251	0xbe12378a	-0.14278999
252	0xbdddcd10	-0.10830128
253	0x3e53f054	0.20697147
254	0xbd95060a	-0.072765425
255	0x3e2637ca	0.1623222

fc2.weight f4 [256, 256]
0	0xbb0cc9c0	-0.0021482557
1	0xbd5445d0	-0.05182439
2	0xbd13f0ac	-0.036118194
3	0xbd673538	-0.056447238
4	0x3d21042e	0.039310627
5	0xbd258e9a	-0.0404192
6	0x3c0ca950	0.008585289
7	0x3c5035d0	0.012708142
8	0x3d5235e8	0.05132094
9	0xbd79dfa0	-0.06100428
10	0x3d50ce64	0.05097808
11	0xbd6e9992	-0.058251925
12	0xbd683558	-0.056691498
13	0x3d36990c	0.04457955
14	0xbcfacad8	-0.030614302
15	0x3b6888e0	0.0035481974
16	0xbc26d4d0	-0.010182574
17	0xbc8bc504	-0.017061718
18	0x3d35fb34	0.04442902
19	0x3c899478	0.016794428
20	0xbbe92100	-0.0071145296
21	0xbd30b50a	-0.043141402
22	0x3c9a9f0c	0.018874668
23	0xbc6b5718	-0.0143640265
24	0x3b8c6700	0.0042847395
25	0xbd159d82	-0.036527164
26	0xbc6f5c68	-0.014609434
27	0x3cb294ec	0.021799527
28	0xbc87cb10	-0.01657632
29	0xbc82899c	-0.015934758
30	0x3cf41bec	0.02979847
31	0xbd64bdba	-0.055845
32	0x3d2dadfe	0.04240226
33	0x3d5a2f50	0.053267777
34	0x3ce040fc	0.027374737
35	0xbca64b40	-0.020299554
36	0xbb79a300	-0.003809154
37	0xbbc9bbf0	-0.006156437
38	0xbc162540	-0.0091641545
39	0xbcb2bd80	-0.021818876
40	0xbd306ac2	-0.043070562
41	0x3d02308a	0.03178457
42	0xbcf70e40	-0.030158162
43	0x3d548eb6	0.051893912
44	0xbcfb8c10	-0.030706435
45	0xbcc7120c	-0.024300598
46	0xbd3035ca	-0.043020047
47	0xbceb964c	-0.02875819
48	0xb9a2f200	-0.00031079352
49	0x3d7ede86	0.062223934
50	0xbd74010e	-0.05957132
51	0x3cf3bbac	0.029752575
52	0x3d28689a	0.04111538
53	0x3d2667a4	0.040626183
54	0xbd1adaaa	-0.03780619
55	0xbd18a830	-0.03726977
56	0xbc846690	-0.016162187
57	0xbc8d3250	-0.017235905
58	0xbb2aea00	-0.0026079416
59	0xbcb27a94	-0.021786965
60	0xbd2ad6f2	-0.041708894
61	0xbd37c9ea	-0.044870295
62	0xbd5df5c4	-0.05418946
63	0x3d017194	0.031602457
64	0xbc621cb0	-0.013800785
65	0xbca1bb74	-0.019742705
66	0x3d2706d0	0.04077798
67	0x3d49bea6	0.049254082
68	0x3d3a45a6	0.04547658
69	0x3c1158f0	0.008871302
70	0xbc2a6450	-0.010399893
71	0x3d422bc8	0.047405034
72	0xbd108f44	-0.03529288
73	0x3d362c52	0.04447586
74	0xbca9dbdc	-0.02073472
75	0xbc9e42b0	-0.019318908
76	0xbce58e88	-0.028022066
77	0xbd6b7464	-0.057484046
78	0x3d0b97c4	0.03408028
79	0xbd610b94	-0.054942682
80	0x3d3cb796	0.04607352
81	0x3d7949fe	0.06086158
82	0x3c44b130	0.012005135
83	0x3caf5b98	0.02140598
84	0xbd33f198	-0.043931574
85	0x3c9cab7c	0.019124739
86	0x3d36c720	0.044623494
87	0xbb493460	-0.0030701384
88	0x3b78f300	0.0037986636
89	0xbd6657b6	-0.05623599
90	0xbc9aaa98	-0.018880174
91	0xbcff4c98	-0.031164452
92	0xbd462df4	-0.048383668
93	0x3d1edbf8	0.038783997
94	0xbc05bd70	-0.008162841
95	0x3d5494e2	0.0518998
96	0xbd5a9042	-0.05336023
97	0x3cf69e6c	0.030104838
98	0x3cad4ee8	0.02115579
99	0x3c72e7d0	0.014825776
100	0x3d761716	0.06008061
101	0xbc8a61d4	-0.016892351
102	0x3d7662e8	0.060152918
103	0xbcd3a964	-0.025837608
104	0x3d1569d2	0.03647787
105	0xbd3c8d6c	-0.046033308
106	0xbd6924f2	-0.05692
107	0x3d213ac4	0.039362684
108	0xbd76772e	-0.060172252
109	0x3d36131a	0.04445181
110	0x3ccee958	0.025257751
111	0xbba170f0	-0.0049267933
112	0xbd6fd25e	-0.05855023
113	0x3d58f254	0.052965477
114	0xbd314af0	-0.043284357
115	0x3b3b9340	0.0028621703
116	0x3d3fb952	0.046807595
117	0x3d70317a	0.058640935
118	0xbd63075a	-0.055426933
119	0x3d0c7d8a	0.03429941
120	0x3d26d9c6	0.04073503
121	0x3bfe7690	0.0077655986
122	0x3c052e98	0.008128785
123	0x3c5c7d68	0.013457634
124	0x3d09b44c	0.03361921
125	0x3cad89ec	0.02118393
126	0x3d1f5cf8	0.03890702
127	0xbcb95a7c	-0.022626154
128	0xbbc77f90	-0.0060882047
129	0xbd12c53c	-0.03583263
130	0x3bea4230	0.0071490034
131	0x3cb00a00	0.021489143
132	0xbd2cbda6	-0.04217305
133	0xbd04104e	-0.03224211
134	0xba85f180	-0.0010219067
135	0x3d36db9c	0.04464303
136	0x3d418268	0.047243506
137	0xbcd8dedc	-0.026473455
138	0xbd1a78da	-0.03771291
139	0x3d183a20	0.037164807
140	0x3b5676c0	0.003272459
141	0x3d6f664a	0.05844716
142	0x3be7e530	0.007076882
143	0x3d4ba7d0	0.049720585
144	0xbca3081c	-0.019901328
145	0x3cd775b4	0.026301242
146	0xbd3e8254	-0.04651101
147	0x3baee710	0.0053376034
148	0x3d6832b4	0.05668898
149	0xbd3b2d20	-0.04569733
150	0x3d662384	0.056186214
151	0xbd678fd0	-0.056533635
152	0x3d55056e	0.05200713
153	0xbd5e128a	-0.0542169
154	0xbd4dbe80	-0.050230503
155	0xbd2c2616	-0.04202851
156	0x3d6413a0	0.05568278
157	0xbb44f1a0	-0.0030051246
158	0x3d0f75c8	0.035024434
159	0x3cceee08	0.025259987
160	0xbd278cda	-0.04090581
161	0xbd2c1a66	-0.042017363
162	0xbcb7f7a0	-0.022456944
163	0xbd340bc0	-0.04395652
164	0xbcc08664	-0.023501582
165	0xbd1f7534	-0.038930133
166	0xbd3d6022	-0.046234258
167	0xbd3f9520	-0.046773076
168	0x3d081472	0.033222623
169	0xbce1a074	-0.02754233
170	0x3d7e9c44	0.062160745
171	0x3d55eac0	0.05222583
172	0x3cd7be9c	0.026336007
173	0xbd63230a	-0.055453338
174	0x3d557a52	0.052118607
175	0x3cdc8d78	0.026922926
176	0xbd02cf4e	-0.031935982
177	0x3d396a8a	0.04526762
178	0x3bf8b000	0.00758934
179	0xbb0e7ca0	-0.0021741763
180	0xbd3960a8	-0.045258194
181	0x3cd5f644	0.026118405
182	0xbd5f0cba	-0.054455496
183	0xbd760210	-0.06006056
184	0xbd2d0600	-0.04224205
185	0x3cfa3d4c	0.030546807
186	0xbd6757d8	-0.05648026
187	0xbd0749fe	-0.03302955
188	0xbc9238b4	-0.017849304
189	0xbd3d17c4	-0.046165243
190	0x3d7cc508	0.06171134
191	0x3c8ba7b8	0.017047748
192	0x3ccf0260	0.025269687
193	0xbcbeec40	-0.023306012
194	0x3d1073c4	0.035266653
195	0xbd78025e	-0.060549133
196	0x3c8766d4	0.016528524
197	0x3d2aeab6	0.041727744
198	0x3cec04f8	0.028810963
199	0x3ca687c8	0.020328417
200	0x3d432268	0.047640234
201	0xbd638b78	-0.05555293
202	0x3d6f6744	0.05844809
203	0xbcaaf57c	-0.02086901
204	0x3bda7110	0.00666631
205	0x3d3ffe86	0.04687359
206	0xbce62bd8	-0.028097078
207	0xbd2b1f9e	-0.0417782
208	0xbb957d40	-0.00456205
209	0xbd6b8c00	-0.05750656
210	0xbc305168	-0.010761596
211	0x3d06d8f0	0.03292173
212	0xbcd11064	-0.025520511
213	0xbd21727a	-0.039415814
214	0x3d707b72	0.058711477
215	0xbd47bf32	-0.048766322
216	0xbcdf5434	-0.02726183
217	0xbd3038b4	-0.043022826
218	0x3d19fd58	0.037595123
219	0x3ca8ccc4	0.020605452
220	0x3c9eee64	0.019400783
221	0xbd2f2d0e	-0.042767577
222	0xbd78fc1a	-0.060787298
223	0xbd428f0e	-0.04749971
224	0xbd2356f0	-0.039877832
225	0x3ab55400	0.0013834238
226	0x3ccc8da8	0.02496989
227	0x3c99e35c	0.018785171
228	0xbd334af2	-0.043772645
229	0xbc9fd674	-0.019511439
230	0xbd7c2f38	-0.06156847
231	0xbceda178	-0.029007658
232	0x3c0049f8	0.0078301355
233	0x3d141c52	0.03615982
234	0x3d072646	0.032995485
235	0x3cad0d54	0.02112452
236	0x3d417c86	0.047237895
237	0x3a901cc0	0.0010994896
238	0x3c699560	0.014256805
239	0x3d286b6c	0.04111807
240	0xbd733a0c	-0.05938153
241	0xbbfbde60	-0.0076864213
242	0xbd13c6fa	-0.03607843
243	0x3a080800	0.00051891804
244	0x3bce3ba0	0.006293729
245	0x3aa43440	0.0012527779
246	0xbd3f899e	-0.0467621
247	0xbc16a008	-0.009193428
248	0x3cbcbce0	0.023039281
249	0xbd5ec12c	-0.05438344
250	0xbd0349ea	-0.03205291
251	0x3d08c0fc	0.03338717
252	0xbd2fc890	-0.04291588
253	0x3d6a4992	0.05719907
254	0xbd69dff4	-0.057098344
255	0xbc998d8c	-0.018744253

fc2.bias f4 [256]
0	0x3c346130	0.011009499
1	0x3d260d70	0.04054016
2	0xbce9520c	-0.028481506
3	0xbcaae4b4	-0.020861007
4	0xbd2543ec	-0.04034798
5	0xbcf625c8	-0.030047312
6	0x3cf687b0	0.030093998
7	0xbd79a8dc	-0.060952052
8	0xbc938464	-0.018007465
9	0xbbfb7dd0	-0.00767491
10	0x3c563100	0.013073206
11	0xbb1a0680	-0.002350241
12	0xbbd03f00	-0.0063551664
13	0xbd0452d4	-0.032305554
14	0xbd18e5de	-0.037328593
15	0xbc80c038	-0.015716657
16	0xbc76e0c8	-0.01506824
17	0xbd6044aa	-0.054752983
18	0x3d315c24	0.043300763
19	0x3c059818	0.008153938
20	0x3d4a7f06	0.049437545
21	0xbd356140	-0.044282198
22	0x3d012a3a	0.03153441
23	0xbd3efdb0	-0.046628654
24	0xbc438d58	-0.011935554
25	0xbc90e3a8	-0.01768668
26	0xbd7698e0	-0.060204387
27	0xbd2b3634	-0.04179974
28	0x3d1f8a0c	0.03895001
29	0xbceb819c	-0.028748326
30	0x3cd63cfc	0.026152126
31	0x3d02267e	0.03177499
32	0xbca90a74	-0.020634867
33	0x3d1c2e2e	0.038129978
34	0xbd4fd5f8	-0.050741166
35	0xbd6cc6c4	-0.057806745
36	0x3b2c84a0	0.0026324168
37	0x3bc18340	0.005905539
38	0x3d6c9c0e	0.057766013
39	0xbcc4f5e4	-0.024043031
40	0xbd2deb4c	-0.042460725
41	0xbd5cf02a	-0.053939976
42	0x3bd974c0	0.006636232
43	0x3d119914	0.035546377
44	0x3cb53c08	0.022123352
45	0x3d571668	0.052511603
46	0x3c10d298	0.008839272
47	0x3ccaec10	0.024770766
48	0xbbe643d0	-0.007027127
49	0x3d7bed6a	0.061505713
50	0xbc2b2fb0	-0.010448381
51	0x3cb950b0	0.022621483
52	0xbc9a145c	-0.018808536
53	0x3d22d526	0.039754055
54	0xbc97b700	-0.018519878
55	0x3d2bdb12	0.04195697
56	0x3ca89988	0.020581022
57	0x3c1dfb80	0.009642482
58	0x3d281704	0.041037574
59	0xbbedb900	-0.0072547197
60	0xbcc3f898	-0.02392225
61	0x3d6affda	0.057372905
62	0x3c00b568	0.007855751
63	0xbd392848	-0.04520443
64	0xbc683f40	-0.014175236
65	0x3c145560	0.009053558
66	0xbd2de038	-0.04245016
67	0xbb6e9500	-0.003640473
68	0xbd74360a	-0.05962185
69	0xbc441200	-0.011967182
70	0xbb95fbc0	-0.00457713
71	0x3d3f7326	0.046740673
72	0x3aed8cc0	0.0018123612
73	0x3d162394	0.036655024
74	0x3c284520	0.010270387
75	0xbc88bc90	-0.016691476
76	0xbc8cc40c	-0.017183326
77	0x3cd693dc	0.026193552
78	0x3d6215b0	0.055196464
79	0xbcd44628	-0.02591236
80	0x3c5dba10	0.01353313
81	0xbbbfa290	-0.0058482364
82	0x3ccb75e8	0.024836496
83	0x3d3467f2	0.044044442
84	0x3d760d34	0.060071185
85	0xbcab1ee0	-0.020888746
86	0xbcce7868	-0.025203899
87	0x3d14e24a	0.03634862
88	0xbd4b5da6	-0.049649857
89	0x3d4694ba	0.04848168
90	0xbd4b7ca2	-0.049679406
91	0xbcaa1158	-0.020760223
92	0x3d1e336a	0.03862325
93	0x3d68c4e4	0.056828395
94	0x3d6c9d16	0.057766996
95	0xbc8f3b20	-0.017484248
96	0xbd58522e	-0.052812748
97	0xbc54f8b8	-0.012998752
98	0x3d40be08	0.047056228
99	0xbcd151fc	-0.025551789
100	0xbd295f4e	-0.041350655
101	0xbd697a1a	-0.05700121
102	0x3d45c88a	0.048286952
103	0x3cf6dae0	0.030133665
104	0xbca61484	-0.020273454
105	0x3b9e63f0	0.004833691
106	0xbcf01df0	-0.02931115
107	0xbca3e404	-0.020006187
108	0xbc217ca0	-0.009856373
109	0x3cae9f24	0.021316119
110	0x3c956d94	0.018240727
111	0x3d72c1e6	0.059266947
112	0x3d255d1c	0.040372
113	0xbd742476	-0.059605084
114	0x3ca586ec	0.020205937
115	0xbbe73100	-0.007055402
116	0x3be2c960	0.0069209784
117	0x3d4b320c	0.049608275
118	0x3cc0f8f8	0.023556218
119	0x3d4a8088	0.049438983
120	0xbc3fd280	-0.011707902
121	0xbca9d1b0	-0.02072987
122	0xbbc64e20	-0.0060517937
123	0xbaefef40	-0.0018305555
124	0xbbf735d0	-0.0075442567
125	0x3aa0e940	0.0012276545
126	0x3d562320	0.05227959
127	0xbc8e344c	-0.017358921
128	0xbcefae30	-0.029257864
129	0x3d79c09c	0.060974702
130	0x3cea12b4	0.028573371
131	0x3a3d3900	0.00072182715
132	0xbd0d49e8	-0.03449431
133	0x3b9901e0	0.004669413
134	0x3d6bcb08	0.057566673
135	0xbce4beec	-0.02792307
136	0xbcbc9820	-0.023021758
137	0x3cce6b0c	0.025197528
138	0x3d019ebc	0.03164552
139	0x3b8d6d10	0.00431598
140	0x3d0a407e	0.03375291
141	0x3cf9e5a8	0.030505016
142	0xbd522f70	-0.05131477
143	0xbb847030	-0.004041694
144	0xbb6268a0	-0.0034547225
145	0xbd5b26e0	-0.05350387
146	0x3ce80548	0.02832283
147	0xbd546670	-0.051855505
148	0x3d121880	0.035667896
149	0x3d0bbc58	0.034115165
150	0x3b4c3ca0	0.0031164065
151	0x3b81a0a0	0.0039559156
152	0x3c28d230	0.010304019
153	0x3d566ed2	0.05235178
154	0xbbc4a020	-0.0060005337
155	0x3c106048	0.008812018
156	0x3b8de3b0	0.004330121
157	0xbd43ecf6	-0.047833405
158	0xbd0f2a88	-0.03495267
159	0x3d4f184a	0.050560273
160	0x3cc6c358	0.024263069
161	0x3c079028	0.008274116
162	0xbd2e0370	-0.042483747
163	0xbca4e674	-0.02012942
164	0xbc50c350	-0.012741879
165	0xbd61cba8	-0.055125862
166	0x3d4af3dc	0.04954897
167	0x3d0cb1be	0.034349196
168	0xbd7db7ae	-0.06194275
169	0x3c8e6eb0	0.017386764
170	0x3d5d5102	0.054032333
171	0xbd501d54	-0.05080922
172	0x3bdf79a0	0.0068199188
173	0xbc0d7c38	-0.008635573
174	0xbca3831c	-0.019959979
175	0xbcb94310	-0.022614986
176	0x3d1b0d12	0.03785426
177	0x3d3c4080	0.04595995
178	0x3c8271b0	0.015923351
179	0x3d297956	0.04137548
180	0x3d1dfa76	0.038568936
181	0x3bf2ce70	0.007409863
182	0x3c0587d0	0.008150056
183	0xbd426eda	-0.047468998
184	0x3c50df80	0.012748599
185	0xbd6c6c0a	-0.05772022
186	0xbbe988e0	-0.0071269125
187	0x3d36338c	0.044482753
188	0x3cb5ad1c	0.022177272
189	0x3aeb2440	0.001793988
190	0x3d5d5912	0.054040022
191	0xbcd2fb7c	-0.025754683
192	0x3d398bbc	0.045299277
193	0x3d0764aa	0.033054985
194	0xbd3fade0	-0.04679668
195	0xbb074720	-0.002064176
196	0x3d6cfc7c	0.057857975
197	0xba9b3c40	-0.0011843517
198	0xbd67e774	-0.056617215
199	0xbae42f80	-0.0017409176
200	0xbc2b4bb8	-0.0104550645
201	0x3bd16b10	0.0063909367
202	0xbce7db08	-0.028302684
203	0x3bee0bc0	0.0072645843
204	0xbd024874	-0.031807378
205	0x3c376b70	0.011195049
206	0x3d12701a	0.03575144
207	0x3d779f58	0.060454696
208	0xbacbcac0	-0.0015548095
209	0x3d0f362c	0.03496377
210	0x3d234f62	0.039870627
211	0x3d4c1166	0.04982128
212	0xbd063c54	-0.032772377
213	0x3cf997e8	0.030467942
214	0xbc9369fc	-0.017994873
215	0xbc64d6a8	-0.013967194
216	0xbcf94228	-0.030427054
217	0xbd20955e	-0.039204948
218	0x3cac5e60	0.021041095
219	0x3d3d76cc	0.04625587
220	0x3d7f9262	0.06239546
221	0xbc2cb090	-0.010540143
222	0x3c9a6b14	0.018849887
223	0xbcdef0ec	-0.02721449
224	0x3d63fac6	0.055659078
225	0x3c3f1238	0.0116620585
226	0xbd58e638	-0.05295393
227	0xbd785950	-0.06063205
228	0xbd7ee858	-0.0622333
229	0x3c374b18	0.011187337
230	0xbd19515c	-0.037431106
231	0xbc2d4240	-0.010574877
232	0xbcef2848	-0.029194012
233	0xbc8d2858	-0.017231151
234	0x3d17e5bc	0.037084326
235	0xba528880	-0.00080312043
236	0x3d5a0b24	0.05323328
237	0x3cfed630	0.031107992
238	0xbd2f9e34	-0.042875484
239	0x3d36330c	0.044482276
240	0xbcf769d8	-0.030201837
241	0xbcee54f4	-0.029093243
242	0x3d2ba062	0.041901
243	0xbd238d1e	-0.0399295
244	0xbd10b12c	-0.035325214
245	0xbbbe1f40	-0.005802065
246	0xbb016a60	-0.0019747242
247	0x3c76c7c0	0.015062273
248	0xbd4e1768	-0.05031529
249	0xbcfbd43c	-0.03074085
250	0xbd7cf0ae	-0.061752968
251	0xbb1274e0	-0.0022347495
252	0x3d671578	0.05641696
253	0xbc9ad188	-0.01889874
254	0x3ba533b0	0.005041562
255	0xbc470e08	-0.012149341

fc_mean.weight f4 [6, 256]
0	0xbd163998	-0.03667602
1	0xbd4905fe	-0.04907798
2	0xba82a500	-0.0009967387
3	0x3c2fbb58	0.010725819
4	0xbd5404c4	-0.051762357
5	0xbcc30fb0	-0.023811191
6	0x3d6efb84	0.058345333
7	0x3d577c50	0.052608788
8	0x3ce08b40	0.02741015
9	0x3d07d33a	0.033160426
10	0x3c9d69e8	0.01921554
11	0x3d2cf3c2	0.042224653
12	0x3c339fd0	0.010963395
13	0x3d60efea	0.0549163
14	0xbcd498fc	-0.025951855
15	0xbd3f781e	-0.046745412
16	0x3ced854c	0.028994225
17	0x3c9b420c	0.018952392
18	0xbc8b7ebc	-0.017028205
19	0xbd6a133e	-0.057147257
20	0x3b7a19e0	0.0038162395
21	0xba8eb680	-0.001088813
22	0xbc1bcfa0	-0.009509951
23	0x3d64c2c8	0.05584982
24	0xbd0e505a	-0.034744598
25	0x3bc9a6c0	0.0061539114
26	0x3ca40f2c	0.020026766
27	0xbc6bec88	-0.014399655
28	0xbd455d98	-0.04818496
29	0xbce4f6f0	-0.02794978
30	0xbbb749d0	-0.005593516
31	0x3cca6c68	0.024709895
32	0x3d6f554e	0.058430962
33	0x3d7581ae	0.059938125
34	0xbc3d94a0	-0.0115710795
35	0x3d5df736	0.054190837
36	0xbce5d08c	-0.028053544
37	0x3d387ea2	0.04504264
38	0xbc863fb0	-0.01638779
39	0x3ae98100	0.0017814934
40	0x3d28c1e0	0.04120052
41	0xbd106f8e	-0.035262637
42	0x3c89c074	0.016815402
43	0x3d5e8132	0.05432243
44	0x3c8d7d48	0.017271653
45	0xbcc3ec98	-0.023916528
46	0xbca93dd4	-0.020659365
47	0xbd34de9e	-0.044157617
48	0xbd6acdec	-0.05732529
49	0x3ca6693c	0.020313852
50	0xbbbd1cd0	-0.005771257
51	0x3cb41d24	0.021986552
52	0x3bc26260	0.0059321374
53	0xbd60bfe6	-0.05487051
54	0x3d310908	0.043221503
55	0x3d58c646	0.052923463
56	0xbd739e94	-0.059477404
57	0xbcd27544	-0.025690682
58	0x3d2f9332	0.042864986
59	0x3ccf9db4	0.025343753
60	0x3b844d00	0.0040374994
61	0x3d164dfe	0.036695473
62	0xbd7c7bda	-0.06164155
63	0x3ac6f400	0.0015178919
64	0xbd7cc830	-0.06171435
65	0xbd0eb466	-0.03484001
66	0xbd0dd54a	-0.034627236
67	0xbd182f12	-0.037154265
68	0x3c34c250	0.011032656
69	0xbd60b12c	-0.054856464
70	0xbd6bbec8	-0.05755499
71	0xbc30a0f8	-0.010780565
72	0x3cb953a8	0.022622898
73	0x3c7af928	0.015318193
74	0x3cf5b6d4	0.029994406
75	0x3c517af8	0.012785666
76	0x3c18ada8	0.009318747
77	0xbd37fecc	-0.044920728
78	0x3c93b840	0.018032193
79	0x3bb19500	0.0054193735
80	0xbcbac878	-0.02280067
81	0x3bdac020	0.006675735
82	0xbd7cc61e	-0.061712377
83	0xb932c400	-0.00017048419
84	0xbbb5eec0	-0.005552143
85	0x3d16f4a6	0.03685441
86	0x3cb45d5c	0.022017173
87	0xbd72f876	-0.059318982
88	0x3d79822a	0.06091515
89	0xbbf7e9e0	-0.007565722
90	0x3d2f7c70	0.042843282
91	0x3d3b2b2c	0.04569547
92	0x3cb64c68	0.02225323
93	0x3d20dcfa	0.03927324
94	0x3d26121a	0.040544607
95	0xbbfa4810	-0.007637985
96	0x3c768820	0.015047103
97	0xbd040f58	-0.032241195
98	0xbcb271ac	-0.021782719
99	0xbc879de4	-0.01655478
100	0xbd531f32	-0.051543422
101	0xbd1c7afa	-0.038203217
102	0x3b2e28c0	0.0026574582
103	0xbbb6efb0	-0.005582772
104	0x3d73b952	0.059502907
105	0x3d537402	0.051624306
106	0x3c4266a0	0.011865288
107	0x3d4f4b34	0.05060883
108	0x3d2fbf80	0.042907238
109	0xbd5d3630	-0.054006755
110	0x3cf54e84	0.029944666
111	0x3b048500	0.0020220876
112	0x3d0ef4d8	0.03490147
113	0xbd172856	-0.0369037
114	0x3d4f3450	0.050587
115	0xbd48b3ce	-0.0489996
116	0x3b46bd80	0.0030325353
117	0xbc6919c0	-0.014227331
118	0x3bcb8e20	0.006212011
119	0x3c292fb8	0.010326318
120	0x3ce448a4	0.027866669
121	0xbd1dc8e8	-0.038521677
122	0x3c7df028	0.015499152
123	0xbc47b6b0	-0.012189552
124	0x3c956720	0.01823765
125	0x3c0205c8	0.007935949
126	0x3c0f3a98	0.008741997
127	0xbc696200	-0.014244556
128	0xbd00dde6	-0.03146162
129	0x3d353096	0.04423579
130	0x3d37dbdc	0.04488741
131	0xbd6d8522	-0.057988293
132	0xbd05164c	-0.032491967
133	0x3ce191b4	0.027535297
134	0x3b84eb00	0.0040563345
135	0xbd697f46	-0.057006143
136	0x3d52ea4e	0.05149298
137	0xbc9ff890	-0.019527704
138	0x3ce05840	0.02738583
139	0xbd6a52fc	-0.057208046
140	0x3b94afb0	0.004537545
141	0xb9e0df00	-0.00042890757
142	0x390bb200	0.00013322383
143	0x3d53b1c0	0.051683187
144	0x3c2f5f78	0.010703914
145	0x3c3f4d40	0.011676133
146	0x3b6313a0	0.0034649149
147	0x3d63163c	0.055441126
148	0xbb8c6440	-0.0042844117
149	0xbb8a0730	-0.0042122826
150	0xbd7cb7a2	-0.061698563
151	0xbcb8821c	-0.022522978
152	0x3cd486d4	0.025943197
153	0xbd6be252	-0.057588883
154	0xbd5e6d62	-0.054303534
155	0xbbd657a0	-0.0065412074
156	0xbd35837a	-0.04431484
157	0x3a135800	0.0005620718
158	0xbb1de940	-0.0024095327
159	0x3d2a9b8e	0.041652255
160	0x3d4010b6	0.046890937
161	0xbc0ab0f0	-0.008465037
162	0xbd0dcd30	-0.03461951
163	0xbd19d7ca	-0.037559308
164	0x3d20652e	0.039158992
165	0x3d1f84d6	0.03894504
166	0x3c556a60	0.01302585
167	0x3ce05948	0.027386323
168	0x3c9b596c	0.018963538
169	0xbd131d0e	-0.03591638
170	0xbd232b9a	-0.039836504
171	0x3cfd9f18	0.03095965
172	0xbd08d5fe	-0.033407204
173	0xbcc31d90	-0.023817807
174	0x3ce6e124	0.028183527
175	0xbb065ea0	-0.0020503178
176	0xbcf2e9dc	-0.029652528
177	0xbc777380	-0.015103221
178	0xbc5c0828	-0.013429679
179	0xbd258748	-0.040412217
180	0x3cb1fc10	0.021726638
181	0x3d318414	0.04333885
182	0x3d595226	0.05305686
183	0x3d66329c	0.05620061
184	0x3c5b6710	0.013391271
185	0xbc329788	-0.010900386
186	0xbd373fbc	-0.044738516
187	0x3d36fb58	0.044673294
188	0x3d029550	0.031880677
189	0xbce9c380	-0.028535604
190	0x3c6b3738	0.014356427
191	0xbcefdc18	-0.029279754
192	0x3cabf794	0.020992078
193	0x3b66b7a0	0.0035204664
194	0x3d6adf26	0.057341717
195	0x3b964220	0.0045855194
196	0x3cc04578	0.023470625
197	0xbd395398	-0.045245737
198	0x3d34f510	0.044179022
199	0x3d0bf820	0.034172177
200	0x3cc4cd58	0.024023697
201	0x3d6dcd16	0.058056913
202	0xbcdaba14	-0.026700057
203	0x3ba0d330	0.004907988
204	0x3d1f5926	0.038903378
205	0xbc676538	-0.0141232535
206	0x3cdc6ed4	0.026908316
207	0x3d6802f6	0.05664345
208	0x3d6bb3e2	0.057544596
209	0xbd01aec4	-0.03166081
210	0xbcd4c508	-0.025972858
211	0x3be69c00	0.0070376396
212	0xbba81f70	-0.0051307008
213	0x3d18bd06	0.03728964
214	0x3d05da2c	0.032678768
215	0xbd3c4cfe	-0.045971863
216	0x3bfe4a30	0.0077603087
217	0xbbd98930	-0.0066386685
218	0x3bb2b600	0.005453825
219	0xbd5a62a6	-0.053316735
220	0xbd75f888	-0.06005147
221	0xbd200b96	-0.03907355
222	0x3ccf7480	0.025324106
223	0xbd27813a	-0.040894724
224	0xbc89573c	-0.01676523
225	0x3d6c44da	0.05768285
226	0xbc227460	-0.009915441
227	0xbd393ad2	-0.04522211
228	0x3b8bde00	0.004268408
229	0x3d336b26	0.043803357
230	0x3c352ac8	0.011057563
231	0xbc98701c	-0.018608145
232	0xbd1c3da2	-0.038144715
233	0xbbe3b110	-0.0069485977
234	0xbd6d5cd2	-0.05794985
235	0x3d53d540	0.051717043
236	0xbba451d0	-0.0050146356
237	0x3d27fafc	0.04101084
238	0x3d06b03e	0.03288292
239	0xbc8aada8	-0.016928509
240	0xbd664b48	-0.056224138
241	0xbc51ed08	-0.01281286
242	0xbbe2e9c0	-0.006924838
243	0x3be62910	0.007023938
244	0x3d3ba08e	0.045807414
245	0x3d414458	0.04718432
246	0x3c8f5de8	0.017500833
247	0xbd6f9c66	-0.058498763
248	0x3c7bcb18	0.015368246
249	0x3b9dc290	0.0048144534
250	0x3cd7d53c	0.026346795
251	0x3d4f9452	0.05067856
252	0xbd2b7710	-0.041861594
253	0xbc692058	-0.014228903
254	0x3c81456c	0.015780173
255	0xbcb03e9c	-0.02151423

fc_mean.bias f4 [6]
0	0x3ca4251c	0.020037226
1	0xbac21540	-0.0014807358
2	0xbcd5b8f4	-0.02608917
3	0xbc209040	-0.009800017
4	0xbbff6810	-0.0077943876
5	0xbc3b39c8	-0.01142735

fc_log_std.weight f4 [6, 256]
0	0x3b499f80	0.0030765235
1	0x3d701cfa	0.058621384
2	0x3b5e0020	0.0033874586
3	0xbd0892e8	-0.033343226
4	0xbd247b60	-0.040156722
5	0x3c81aef8	0.015830502
6	0xbd222004	-0.039581314
7	0xbcf84418	-0.030305907
8	0xbc6a7690	-0.014310494
9	0xbd046a88	-0.03232816
10	0xbd4c7690	-0.049917758
11	0xbd3b0510	-0.045659125
12	0xbd00f910	-0.031487525
13	0xbcf75c10	-0.030195266
14	0x3b2f2fe0	0.0026731417
15	0xbb457220	-0.0030127838
16	0xbc551b78	-0.013007037
17	0xbc80cb48	-0.015721932
18	0x3c7537d8	0.0149669275
19	0x3d5dd8ca	0.054161824
20	0x3c60aba8	0.013712801
21	0x3d447170	0.047959745
22	0xbd1f3ce0	-0.038876414
23	0x3d24e4f4	0.04025741
24	0x3d4316dc	0.047629222
25	0xbd58f8a8	-0.052971512
26	0xbd4dffea	-0.050292887
27	0x3d0364d4	0.03207858
28	0x3cfbce58	0.03073804
29	0x3d351eec	0.044218943
30	0x3d5f9b16	0.05459126
31	0xbd12d0f6	-0.035843812
32	0x3d6f2e72	0.058393903
33	0x3cecaf88	0.028892294
34	0x3d16603a	0.036712863
35	0x3c60c960	0.013719887
36	0xbcfe2c60	-0.031027019
37	0xbcb01824	-0.021495886
38	0x3cf508c8	0.029911414
39	0xbd7eb8f4	-0.062188104
40	0xbd3d3a98	-0.046198457
41	0xbd634c98	-0.055492967
42	0x3d6a0dc6	0.05714204
43	0xbd7ede3c	-0.062223658
44	0x3cd2c6d0	0.025729567
45	0x3d18d3a0	0.037311196
46	0x3d27d81e	0.04097759
47	0x3c382850	0.01124008
48	0x3c536e18	0.012904666
49	0x3d780440	0.060550928
50	0x3c147e48	0.009063311
51	0x3d7c2060	0.061554313
52	0xbcf7782c	-0.03020867
53	0xbd0a11fa	-0.03370855
54	0x3cabf698	0.020991609
55	0xbcb45f2c	-0.022018038
56	0xbcd1e6b4	-0.025622703
57	0x3c9cc23c	0.019135587
58	0xbcfc17d4	-0.03077308
59	0x3d5771dc	0.05259882
60	0xbcb05fd4	-0.02153007
61	0x3d55c584	0.05219032
62	0x3ca6f704	0.020381458
63	0xbd6032de	-0.05473601
64	0xbd4752d2	-0.048662968
65	0x3c85e324	0.01634366
66	0xbd159e7a	-0.03652809
67	0xbd34760a	-0.044057883
68	0x3c847c70	0.016172618
69	0x3c875b9c	0.016523175
70	0x3c41d490	0.011830464
71	0xbd270894	-0.040779665
72	0x3c81f4e0	0.015863836
73	0x3cd995f0	0.026560754
74	0x3c871008	0.016487136
75	0xbd5a507a	-0.053299405
76	0xbd582fb6	-0.052779876
77	0xbd424e7c	-0.04743813
78	0x3ad3f380	0.0016170591
79	0x3ce4b6c8	0.027919188
80	0x3c9daf14	0.019248523
81	0xbca2c720	-0.01987034
82	0x3c3808e0	0.011232585
83	0xbd2af304	-0.041735664
84	0xbd228aa4	-0.039683
85	0xbd1af454	-0.037830666
86	0x3ce030d4	0.027367033
87	0xbce6a9c8	-0.02815713
88	0xbce4bf24	-0.027923174
89	0xbca188f8	-0.019718632
90	0xbd76384a	-0.060112275
91	0x3ce86608	0.028368965
92	0xbd61a2d4	-0.055086926
93	0xba251880	-0.0006297901
94	0x3d3489b6	0.044076644
95	0x3cb0a8c0	0.021564841
96	0xbd5caeb8	-0.053877562
97	0xbd7fa6ea	-0.06241504
98	0x3d22b2b6	0.039721213
99	0x3d68986a	0.05678598
100	0x3d3bdd1e	0.04586517
101	0xbc854100	-0.016266346
102	0x3d21711c	0.03941451
103	0xbd5d83e8	-0.054080874
104	0xbc331350	-0.010929897
105	0x3d3c0928	0.04590717
106	0xbd011adc	-0.031519756
107	0x3d5d1c68	0.05398217
108	0xbcc55e68	-0.024092868
109	0x3d0c6452	0.03427536
110	0x3ab08900	0.0013468564
111	0x3bcea250	0.0063059703
112	0xbd68a15c	-0.05679451
113	0x3c38b2e8	0.011273123
114	0xbd391bb2	-0.045192428
115	0x3d0ae124	0.033906117
116	0x3d184556	0.0371755
117	0xbd52da6a	-0.051477827
118	0x3cd6e45c	0.026231937
119	0xbd7a6ac8	-0.06113699
120	0xbc19d808	-0.009389885
121	0x3c50a738	0.012735181
122	0x3cbde710	0.023181468
123	0x3d323356	0.04350599
124	0xbd218c08	-0.039440185
125	0xbcf63560	-0.030054748
126	0xbd06879c	-0.03284417
127	0x3cbca6b4	0.023028709
128	0x3d3b08ce	0.045662694
129	0xbc80f4d8	-0.01574175
130	0x3bf3d4d0	0.0074411407
131	0x3d62b3c6	0.055347227
132	0xbd451e1a	-0.04812441
133	0x3cc1cda4	0.023657627
134	0xbce8b3c0	-0.028406024
135	0xbd132190	-0.03592068
136	0x3bd5e0c0	0.0065270364
137	0x3c5d1d28	0.013495721
138	0xbb865f80	-0.00410074
139	0xbc378ae0	-0.011202544
140	0xbd4ed158	-0.050492615
141	0xbc7f88f0	-0.015596613
142	0x3cc8359c	0.024439625
143	0x3c805d7c	0.015669577
144	0x3cdbcf04	0.026832111
145	0x3ab636c0	0.0013901815
146	0x3c853680	0.01626134
147	0xbce67644	-0.028132565
148	0x3aab9440	0.0013090447
149	0x3d4e92ae	0.050432853
150	0x3bbc5d90	0.005748458
151	0xbb0ce1c0	-0.0021496862
152	0xbcc8a298	-0.024491593
153	0xbd59625c	-0.05307232
154	0xbc57b580	-0.013165832
155	0xbd22fc2c	-0.03979127
156	0x3c17ff30	0.00927715
157	0x3cd53104	0.026024349
158	0x3d5caef0	0.05387777
159	0x3cbbdea8	0.02293332
160	0xbd66d7f2	-0.056358285
161	0x3b16e1c0	0.002302274
162	0xbd4db234	-0.050218776
163	0xbd553090	-0.052048266
164	0x3d5157aa	0.051108994
165	0xbc831654	-0.016001858
166	0xbcab14d4	-0.020883955
167	0xbd2d2462	-0.042271025
168	0xbce1d638	-0.027567968
169	0xbd598818	-0.053108305
170	0xbd0312a6	-0.032000206
171	0x3c05e698	0.008172654
172	0x3d5a0dd6	0.05323585
173	0xbaa62080	-0.0012674481
174	0x3d01238e	0.03152805
175	0x3c035a08	0.008017071
176	0x3cb44df8	0.022009835
177	0xbd7b5b58	-0.06136641
178	0xbd2cb56a	-0.042165197
179	0x3d2572ee	0.04039281
180	0xbd3d5908	-0.046227485
181	0x3c8bf128	0.017082766
182	0xbcb829f4	-0.022480942
183	0xbc0b9a18	-0.0085206255
184	0xbcd1b744	-0.025600083
185	0xbd6cae32	-0.057783313
186	0x3d791240	0.06080842
187	0xbccc01f4	-0.024903275
188	0xbd2ab1d0	-0.04167348
189	0xbcf34d4c	-0.029699944
190	0x3b1c8c20	0.0023887232
191	0xbc5255c0	-0.012837827
192	0x3b621b40	0.0034501106
193	0x3d05dfc0	0.032684088
194	0xbc032830	-0.008005187
195	0xbb477560	-0.0030434951
196	0xbd026790	-0.031837046
197	0xbd32b764	-0.043631926
198	0x3bdfcaa0	0.0068295747
199	0x3c759ce8	0.014991023
200	0x3ca04e94	0.019568719
201	0xbc10ad78	-0.008830421
202	0xbcd73918	-0.026272342
203	0xbd2a003c	-0.04150413
204	0x3d643b6c	0.05572073
205	0x3c577880	0.013151288
206	0x3d08e690	0.033423007
207	0x3cb30cb8	0.02185665
208	0x3c22f308	0.0099456385
209	0x3d736706	0.059424423
210	0xbcdc004c	-0.02685561
211	0xbcc44814	-0.02396015
212	0x3cc404ac	0.023928009
213	0x3b76f940	0.0037685186
214	0xbd637a3a	-0.055536486
215	0x3d3e5688	0.04646924
216	0x3d4110a6	0.047135018
217	0xbd313b58	-0.043269485
218	0xbccdbf3c	-0.025115602
219	0x3d1f9abc	0.038965926
220	0xbd5ad76c	-0.0534281
221	0xbc6a3e70	-0.014297113
222	0xbcda1f14	-0.026626147
223	0xbd1b0b68	-0.037852675
224	0xbd582054	-0.052765206
225	0xbd627bc2	-0.055293806
226	0xbd19a906	-0.03751471
227	0x3d1aebb2	0.037822433
228	0xbd20560e	-0.03914457
229	0x3cfa7c70	0.030576915
230	0x3d2eae1e	0.04264652
231	0xbd4402f8	-0.047854394
232	0x3d2ebc34	0.042659953
233	0xbcdabce4	-0.026701398
234	0xbd27b3f8	-0.040943116
235	0x3cb87b30	0.022519678
236	0xbd755004	-0.059890762
237	0x3b46fae0	0.0030361935
238	0xbbe49350	-0.006975569
239	0x3c33c450	0.0109720975
240	0xbced8b54	-0.0289971
241	0xbd4a71aa	-0.049424805
242	0xbcb3667c	-0.021899454
243	0xbc4b89e8	-0.012423016
244	0x3d6a4dbc	0.05720304
245	0xbbbc1370	-0.005739622
246	0xbccf64dc	-0.025316648
247	0x3d1df93e	0.038567774
248	0xbcac1614	-0.021006621
249	0x3cc2ae50	0.02376476
250	0xbc6dcc98	-0.014514111
251	0xbd44522a	-0.04792992
252	0xbd3f71ca	-0.046739377
253	0xbd06a3ae	-0.03287094
254	0xbd5c7d70	-0.053830564
255	0x3d74c5c0	0.0597589

fc_log_std.bias f4 [6]
0	0xbd779d7a	-0.060452916
1	0xbd0ed5b6	-0.03487178
2	0xbd691ca0	-0.056912065
3	0xbc058190	-0.008148566
4	0x3d35c142	0.044373758
5	0xbd288aa0	-0.041147828
