output/MAPPO/lxl/weight/actor_agent_2_ep_1700.pth (torch, 292136 bytes, 8 tensors)

fc1.weight f4 [256, 12]
-0.057700932 -0.08745204 0.102244854 -0.17811197 -0.060372025 0.008854449 0.16569868 0.11337441
0.07825822 -0.27646285 -0.13041809 0.113360494 -0.012533635 0.13290727 -0.08966003 0.111787856
0.28468126 0.26457137 -0.122278914 0.25672883 0.15755898 -0.23798802 -0.16837347 -0.09260969
0.11730683 -0.24840721 -0.028846264 -0.18795243 -0.22036687 -0.009439856 -0.1300372 -0.18995622
-0.2338648 0.24125081 0.27511364 0.24199396 -0.09233418 0.030356497 -0.08755648 -0.13517444
0.19918486 -0.18037732 0.0769704 -0.024395406 -0.08737826 -0.14002796 0.044254303 -0.21370439
0.104619116 0.01940468 -0.16710621 -0.18124878 -0.20111847 -0.2832913 0.07316688 0.16901976
0.07114869 -0.0135709345 0.06916982 0.056064844 0.1990414 -0.046344623 -0.10252473 -0.033402443
0.086239755 -0.15508756 -0.07874957 0.21964657 0.047792137 -0.1538986 0.08038962 0.1743682
0.11344713 0.079842836 -0.19525805 0.14753953 0.19056615 0.2081677 0.2259664 -0.26966724
0.28018242 0.08021861 -0.03892909 0.013346761 -0.2798364 0.12565655 0.12697506 -0.11152077
-0.26688287 -0.149239 0.1749993 0.17132357 -0.03814125 0.055464447 -0.22190031 -0.14138836
0.12779564 0.18859264 0.08882868 0.18530264 -0.15521702 0.1373452 -0.041478142 0.087307125
-0.13417286 -0.011850715 0.21057186 -0.13443653 0.19351843 0.05587104 -0.048778906 0.22786647
0.0375202 -0.27633783 0.047936052 -0.21083458 -0.09367427 -0.25150108 0.25303447 0.042687416
-0.231328 0.0056040287 -0.12119031 0.07456896 0.19612831 0.110010415 0.14573026 -0.15425442
0.001595974 0.085994184 0.2482748 -0.19789407 0.24932742 0.10704684 0.000116854906 0.10131773
0.2281388 0.09304601 0.23177248 0.12311146 0.1839036 -0.0109061 -0.2810033 -0.05708213
-0.28166774 0.13928324 5.635619e-05 -0.22822362 -0.15013973 -0.19436982 0.20383558 0.19995031
-0.04789023 -0.24845013 -0.079408884 -0.25718102 0.2663275 0.2847706 0.018956989 0.18554318
0.016196698 0.1756466 0.19793266 -0.12648071 0.11752787 0.13400486 0.10594916 -0.05499111
-0.1699059 -0.24549128 -0.11024095 -0.22897157 0.2433461 -0.17598045 0.042289227 0.1430656
-0.043507293 0.2099531 -0.21089387 0.19289061 -0.1891739 0.048817486 -0.1013986 0.097545296
-0.19841897 0.01248464 0.12882257 0.2753021 0.14515331 -0.19159028 -0.08779906 -0.14358
-0.2740869 -0.15799578 0.16386282 -0.17890824 -0.09911387 0.05607438 -0.051117122 0.17595276
-0.25959304 0.021177083 0.021913439 0.230407 0.06088841 -0.20392641 -0.17804456 -0.1990949
0.111077875 -0.2512677 -0.21372132 0.28222805 0.07202169 -0.26191545 0.17155007 0.2357645
0.12955686 -0.091818914 -0.22271669 -0.10429984 -0.15857911 0.23889738 -0.018657833 0.10768473
-0.03138888 0.1841034 -0.26378742 0.19622487 -0.25760895 -0.11403307 -0.08930351 -0.2858827
0.16133502 0.21137053 -0.010234237 -0.23443949 0.09181476 0.17046753 0.053116053 0.05161065
-0.15231623 0.053863943 -0.25118166 0.010655701 -0.11742583 -0.26422262 -0.2659616 0.21253586
-0.012987614 0.012086332 -0.22869438 -0.26302004 -0.26355487 -0.18552706 -0.14102058 0.030765444
00000000: d057 6cbd 0e1a b3bd c065 d13d fc62 36be
00000010: a848 77bd 4012 113c eaac 293e d830 e83d
00000020: d845 a03d 8a8c 8dbe 528c 05be 8c29 e83d
00000030: e059 4dbc d818 083e ae9f b7bd 08f1 e43d
00000040: bec1 913e e675 873e 5e6d fabd f671 833e
00000050: 2457 213e 22b3 73be 186a 2cbe 26aa bdbd
00000060: 903e f03d 765e 7ebe 004f ecbc 9a76 40be
00000070: daa7 61be a0a9 1abc 7928 05be e283 42be
00000080: 417a 6fbe 740a 773e b2db 8c3e 44cd 773e
00000090: b419 bdbd 30ae f83c d050 b3bd 2b6b 0abe
000000a0: 1ef7 4b3e d5b4 38be a8a2 9d3d e0d8 c7bc
000000b0: 60f3 b2bd 7d63 0fbe 0044 353d 53d5 5abe
000000c0: 8c42 d63d 90f6 9e3c e41d 2bbe 4899 39be
000000d0: 00f2 4dbe 8f0b 91be 84d8 953d 8413 2d3e
000000e0: 68b6 913d a058 5ebc e8a8 8d3d 40a4 653d
000000f0: 82d1 4b3e dcd3 3dbd 7cf8 d1bd 00d1 08bd
00000100: 789e b03d 46cf 1ebe 7447 a1bd 08eb 603e
00000110: b0c1 433d 9897 1dbe 50a3 a43d 948d 323e
00000120: f856 e83d a484 a33d baf1 47be 9a14 173e
00000130: c623 433e ea29 553e bc63 673e d311 8abe
00000140: 1274 8f3e a849 a43d 1c74 1fbd 60ac 5a3c
00000150: b746 8fbe 1cac 003e c005 023e 0065 e4bd
00000160: dfa4 88be 1cd2 18be 0433 333e 726f 2f3e
00000170: 003a 1cbd b02e 633d d639 63be 1cc8 10be
00000180: dcdc 023e 6e1e 413e d0eb b53d fabf 3d3e
00000190: 36f1 1ebe 38a4 0c3e fce4 29bd 14ce b23d
000001a0: 9c64 09be 8029 42bc 26a0 573e bba9 09be
000001b0: b229 463e 08d9 643d 64cc 47bd d455 693e
000001c0: c8ae 193d 277c 8dbe 9858 443d 05e5 57be
000001d0: 4cd8 bfbd c0c4 80be bc8d 813e 00d9 2e3d
000001e0: 3fe1 6cbe 00a2 b73b a032 f8bd 9cb7 983d
000001f0: dcd5 483e 244d e13d 503a 153e dff4 1dbe
00000200: 0030 d13a b81d b03d c03b 7e3e bea4 4abe
00000210: b04f 7f3e 603b db3d 0010 f538 ac7f cf3d
00000220: 389d 693e e88e be3d c455 6d3e dc21 fc3d
00000230: 3a51 3c3e 80af 32bc aadf 8fbe f4ce 69bd
00000240: c136 90be 44a0 0e3e 0060 6c38 74b3 69be
00000250: 3bbe 19be e208 47be 46ba 503e c6bf 4c3e
00000260: 8c28 44bd b669 7ebe 20a1 a2bd 3bad 83be
00000270: 145c 883e 74cd 913e b04b 9b3c 08ff 3d3e
00000280: f0ae 843c b4dc 333e dcae 4a3e 2984 01be
00000290: 74b2 f03d 9238 093e e0fb d83d 5c3e 61bd
000002a0: d0fb 2dbe 1162 7bbe 02c6 e1bd 8677 6abe
000002b0: b82f 793e 3834 34be 7837 2d3d ca7f 123e
000002c0: b434 32bd f2fd 563e 90f4 57be 1e85 453e
000002d0: ceb6 41be d8f4 473d 12aa cfbd d4c5 c73d
000002e0: 582e 4bbe 608c 4c3c 10ea 033e 66f4 8c3e
000002f0: 12a3 143e 3e30 44be fecf b3bd a306 13be
00000300: 1e55 8cbe a5c9 21be a8cb 273e b933 37be
00000310: 36fc cabd 40ae 653d 3060 51bd f62c 343e
00000320: 61e9 84be 907b ad3c d083 b33c d0ef 6b3e
00000330: 2066 793d 16d2 50be 5051 36be 89df 4bbe
00000340: cc7c e33d 29a6 80be c3d9 5abe 3280 903e
00000350: 1c80 933d c819 86be d2aa 2f3e 406c 713e
00000360: 8eaa 043e 8e0b bcbd d80f 64be 289b d5bd
00000370: 9062 22be 84a1 743e 50d8 98bc d089 dc3d
00000380: a091 00bd 9a85 3c3e 250f 87be 2cef 483e
00000390: 52e5 83be 2c8a e9bd c2e4 b6bd 385f 92be
000003a0: 0235 253e 8471 583e 80ad 27bc e810 70be
000003b0: 6009 bc3d 0a8f 2e3e 3890 593d b065 533d
000003c0: c9f8 1bbe 70a0 5c3d e29a 80be 4095 2e3c
000003d0: f47c f0bd 3048 87be 1e2c 88be 00a3 593e
000003e0: 00ca 54bc c005 463c dc2e 6abe 90aa 86be
000003f0: aaf0 86be cefa 3dbe b367 10be d007 fc3c

fc1.bias f4 [256]
-0.030621856 0.16459629 -0.19996697 -0.28540775 -0.19363666 0.1636292 -0.27486944 -0.21109618
-0.12656114 -0.11315179 0.07523447 0.18407512 -0.16527814 -0.19751227 -0.061599657 0.27080065
-0.042602137 0.19366506 -0.26290482 0.28552365 -0.10347091 -0.14762105 -0.26409003 -0.115493715
0.09954989 0.22125983 -0.03124851 0.1564433 -0.26111028 0.05795136 -0.039582893 0.25979137
-0.08303712 -0.14242242 -0.15910318 0.17304689 0.07452637 0.21645993 -0.027711123 -0.08389345
0.09180659 0.08613351 0.25738692 0.0741505 0.24293607 -0.085907966 0.25284338 0.07799432
0.0053548217 -0.13265598 -0.10756086 0.18891597 -0.22160952 0.13307959 0.081009835 0.23741579
-0.219726 0.21526086 0.17266062 0.0615848 0.07234609 0.019434333 -0.23541588 -0.22513933
-0.089684054 0.21597397 0.21572024 0.060454667 -0.22095028 -0.010205537 0.16523427 0.18562466
0.17864594 -0.2800368 -0.2539795 0.2651415 -0.14033936 0.033876568 0.15311053 0.189296
0.10968673 -0.23865725 -0.117214054 0.18807748 0.081903845 -0.20426683 0.016877115 -0.12148808
-0.08695322 0.01475513 -0.08659606 0.13223082 0.17495483 0.22297561 0.05890152 0.25600827
0.26959264 -0.1282943 -0.2652273 0.00069472194 0.27502352 -0.25061664 0.014595419 -0.060346723
0.050963342 0.07989454 -0.08759268 0.27149618 0.14852735 0.092882514 0.20365849 -0.24247067
-0.1305491 -0.03502488 -0.03317201 -0.26699656 -0.17933789 -0.15654972 -0.05235134 0.19231158
0.05550757 -0.14156197 -0.25437808 -0.24477604 0.010252833 0.1763502 0.113622606 0.1369006
-0.06909029 0.052556217 0.14219323 0.03493309 0.088962644 -0.11645511 -0.0012063384 -0.28477076
-0.12894367 -0.19793612 -0.124243304 -0.101566195 0.08106652 -0.24595496 0.05161932 0.1431286
-0.24911274 0.094308525 0.033311993 -0.21031463 -0.14057532 0.09540138 -0.05552189 0.041239023
-0.038510412 -0.115245536 -0.026756465 -0.28501615 -0.08169991 0.05256179 0.22885674 0.19497368
-0.06190078 0.15242502 -0.26237097 0.19718707 0.06812835 0.27412546 -0.08081433 -0.044676468
-0.21071891 0.17289409 -0.24070501 0.2796297 0.2486462 0.23915553 0.23104304 0.11150679
-0.14012851 -0.19097112 0.06516799 0.26123202 0.079788476 0.022919387 -0.15699829 -0.15284175
0.10179445 0.2864957 0.083842546 0.27559775 0.19853207 0.006614715 0.049113244 0.24975431
-0.109125674 -0.23873751 -0.097972155 -0.15440904 -0.28450778 -0.03795284 -0.14793566 0.020876974
-0.12069838 -0.27907354 0.07799056 0.06960267 0.10012853 -0.23299667 0.25013506 0.11182928
0.17283437 0.17582184 -0.24341327 -0.09627809 -0.20601214 -0.21944155 0.050825298 -0.1273854
-0.25090912 0.19504842 0.26938802 -0.11751124 0.021543145 0.120421976 0.26155347 0.05560279
-0.15203184 -0.04975176 -0.11899932 -0.1899445 0.10739544 -0.14395115 -0.046730906 0.011609584
-0.0783595 0.20444286 -0.2611225 -0.15672712 -0.017470628 0.15086573 -0.07672472 -0.28764257
-0.07546735 0.116178274 0.1554308 -0.20472637 -0.21536681 0.12707844 0.23307973 -0.27338004
-0.16241723 -0.010357469 0.14418566 -0.059435725 -0.20325199 -0.1576687 0.12924615 -0.2631721
00000000: b0da fabc ee8b 283e 24c4 4cbe f720 92be
00000010: b048 46be 6a8e 273e b0bb 8cbe 9929 58be
00000020: 3e99 01be 20bc e7bd 8814 9a3d 307e 3c3e
00000030: ac3e 29be a840 4abe ec4f 7cbd 62a6 8a3e
00000040: 947f 2ebd 2250 463e 769b 86be 2830 923e
00000050: 8ee8 d3bd f929 17be cf36 87be f887 ecbd
00000060: d0e0 cb3d f091 623e e0fc ffbc ac32 203e
00000070: 3fb0 85be 685e 6d3d ac21 22bd 6003 853e
00000080: 5e0f aabd 2fd7 11be f2eb 22be 3433 313e
00000090: 48a1 983d aca7 5d3e 7002 e3bc 54d0 abbd
000000a0: 1805 bc3d c466 b03d 38c8 833e 38dc 973d
000000b0: 3cc4 783e 84f0 afbd b074 813e 7cbb 9f3d
000000c0: 8077 af3b f8d6 07be de48 dcbd 3073 413e
000000d0: 9bed 62be 0446 083e 7ce8 a53d 201d 733e
000000e0: daff 60be 586d 5c3e f2cd 303e 5840 7c3d
000000f0: 302a 943d c034 9f3c dc10 71be ed8a 66be
00000100: 46ac b7bd 4828 5d3e c4e5 5c3e 509f 773d
00000110: ca40 62be 2035 27bc 2c33 293e 6414 3e3e
00000120: f6ee 363e fc60 8fbe 9a09 82be a0c0 873e
00000130: 1fb5 0fbe 28c2 0a3d 02c9 1c3e d0d6 413e
00000140: 70a3 e03d 9162 74be ec0d f0bd 6297 403e
00000150: 34bd a73d 532b 51be e041 8a3c bece f8bd
00000160: 8814 b2bd 80bf 713c 4659 b1bd 8467 073e
00000170: 5c27 333e b853 643e b842 713d 8413 833e
00000180: 0c08 8a3e 955f 03be dfcb 87be 001e 363a
00000190: e2cf 8c3e d350 80be a021 6f3c 202e 77bd
000001a0: f0be 503d c09f a33d ca63 b3bd 8c01 8b3e
000001b0: 8e17 183e 3039 be3d da8b 503e 3b4a 78be
000001c0: aaae 05be 4076 0fbd 60df 07bd c6b3 88be
000001d0: 5aa4 37be 924e 20be 5c6e 56bd 54ed 443e
000001e0: e85b 633d 9ff5 10be d83d 82be 92a6 7abe
000001f0: 80fb 273c 2695 343e f8b2 e83d ac2f 0c3e
00000200: 367f 8dbd 3045 573d 1a9b 113e 0016 0f3d
00000210: 0c32 b63d 0480 eebd 001e 9eba 79cd 91be
00000220: cf09 04be c4af 4abe 4673 febd f001 d0bd
00000230: 3406 a63d 9edb 7bbe c86e 533d 4e90 123e
00000240: 6917 7fbe d424 c13d 2872 083d b85c 57be
00000250: faf2 0fbe cc61 c33d ec6a 63bd 40ea 283d
00000260: 18bd 1dbd da05 ecbd 6030 dbbc a3ed 91be
00000270: 4852 a7bd 084b 573d 6c59 6a3e 2ea7 473e
00000280: ac8b 7dbd 4e15 1c3e 7d55 86be 68eb 493e
00000290: e086 8b3d 2c5a 8c3e fc81 a5bd acfe 36bd
000002a0: b3c6 57be 260b 313e 607b 76be a02b 8f3e
000002b0: 1c9d 7e3e 30e5 743e 8c96 6c3e ac5d e43d
000002c0: d97d 0fbe ef8d 43be cc76 853d 34c0 853e
000002d0: 2468 a33d 70c1 bb3c 29c4 20be 8c82 1cbe
000002e0: 9c79 d03d 90af 923e a4b5 ab3d 261b 8d3e
000002f0: fe4b 4b3e 40c0 d83b f82a 493d 98bf 7f3e
00000300: 487d dfbd 9b77 74be a0a5 c8bd 671d 1ebe
00000310: 01ab 91be 7074 1bbd 727c 17be 3006 ab3c
00000320: b630 f7bd bae2 8ebe 84b9 9f3d d88b 8e3d
00000330: 3010 cd3d ae96 6ebe b411 803e c006 e53d
00000340: 7efb 303e a40a 343e 5441 79be 722d c5bd
00000350: d9f4 52be 49b5 60be 302e 503d 5171 02be
00000360: 2977 80be c6ba 473e 3aed 893e bca9 f0bd
00000370: 407b b03c cc9f f63d 56ea 853e c0bf 633d
00000380: 3cae 1bbe 80c8 4bbd eab5 f3bd d080 42be
00000390: 24f2 db3d ee67 13be e868 3fbd 2036 3e3c
000003a0: f27a a0bd 7859 513e d9b1 85be 137d 20be
000003b0: 901e 8fbc 8c7c 1a3e da21 9dbd e345 93be
000003c0: a08e 9abd e0ee ed3d 4029 1f3e caa3 51be
000003d0: 1e89 5cbe da20 023e 74ac 6e3e 78f8 8bbe
000003e0: b450 26be 60b2 29bc 68a5 133e e072 73bd
000003f0: 4a21 50be e773 21be 1a59 043e 7ebe 86be

fc2.weight f4 [256, 256]
0.005849853 -0.03563147 0.056278236 0.022518948 0.005576469 -0.05512695 0.0359153 0.01247289
0.045425527 0.004620187 0.04410989 0.00034955144 -0.040434085 0.046223156 -0.056619935 0.043949425
0.04594671 -0.04868065 -0.060260333 0.0042290315 0.0478013 0.008634597 -0.02908276 0.022159234
0.00741636 0.003971979 0.059280768 0.00061222166 0.010368459 -0.044337578 -0.056902133 0.0089029
-0.018521443 -0.029724948 0.0022782907 -0.03642188 0.0364585 0.028383113 -0.012553215 0.007379681
-0.051494837 -0.05134192 0.06069728 -0.045666113 0.029984668 0.034715436 0.014158003 0.008925654
-0.055609435 0.03949342 -0.02865193 0.03349539 0.033702552 0.0020427704 -0.030103043 0.014821112
-0.045360588 0.009744912 0.057094067 -0.023962334 0.019107148 -0.052961707 -0.05592876 -0.020856544
0.034642912 -0.037184075 -0.024949707 0.019509636 -0.000117726624 0.04952672 0.0061486363 0.046456225
-0.032030717 -0.03460618 0.031842873 0.051313303 0.010480128 -0.05831279 -0.033775397 -0.02848228
0.041110188 0.03629695 0.044055276 -0.0055032894 0.021579377 -0.038772643 0.026612714 -0.04910052
0.04815872 -0.0057932734 -0.005031295 0.043384306 0.007577382 0.029938824 -0.012230888 0.039130397
-0.028572783 -0.06017167 0.018838055 0.05853445 -0.035325542 -0.022011861 -0.02379693 -0.0587734
0.0428377 0.025196873 0.015952088 -0.05935718 0.0002772659 0.027337722 0.052215286 0.0014352128
0.021333337 0.014064029 0.04340311 -0.009383656 -0.037034042 -0.008445084 0.022886105 0.02511932
-0.046820626 -0.05985976 0.036010727 -0.022389047 0.04291658 -0.05228182 -0.043413065 0.045198105
-0.001273714 0.040131688 -0.041489422 0.03797347 -0.055996493 -0.015500486 -0.016467363 -0.024110824
-0.045004323 -0.0018557608 0.032421857 -0.046319984 -0.0045332685 0.04194074 0.011519454 0.020328984
-0.035118803 -0.009684801 0.0069412515 -0.050999038 0.01584889 0.05278573 0.040624738 -0.04917729
-0.049834676 0.013203494 0.0021210983 -0.058094554 0.013015807 0.025489159 0.052419752 0.007289283
0.038442418 -0.019446433 -0.031554684 0.04754395 0.028806984 -0.0058058575 0.015914463 -0.043638684
0.016818509 -0.041651845 0.04120615 0.05270978 0.055240467 0.017599903 -0.0073436424 0.008972809
0.004502192 0.01405374 -0.029989183 -0.024791256 -0.05236733 0.0011608377 -0.013028398 0.014207676
0.018704847 -0.009947345 -0.057375632 -0.01414071 -0.01863189 0.031214006 0.0618048 0.010224156
-0.031454436 -0.048999503 -0.03604205 0.039062902 0.01757621 -0.03281673 -0.04547336 0.018244267
0.011427134 0.012267627 0.01465109 -0.00065772235 -0.011641599 0.009538025 0.009593509 -0.04973167
-0.023530483 0.04244452 -0.053795718 -0.026309788 -0.014860198 0.053562783 0.0029319301 -0.054799855
0.037468866 -0.02599106 -0.03029342 0.00806348 -0.030605994 -0.008636087 0.032076173 0.0527692
0.015068665 0.060014866 -0.058479503 -0.0077088773 0.016191304 -0.010363899 0.015996948 -0.013944186
-0.018499404 0.025122859 -0.056638904 -0.047632255 0.023479976 0.057135627 -0.04934331 -0.023498379
-0.024493419 0.059258416 -0.05492069 -0.0066691414 -0.04172997 0.04832822 0.022607245 0.0004196316
0.031477354 0.045956403 -0.020431988 -0.017083988 -0.0017875656 0.059495278 -0.0009861514 -0.030829117
00000000: 20b0 bf3b 4ef2 11bd 0284 663d a879 b83c
00000010: d0ba b63b cccc 61bd ec1b 133d 185b 4c3c
00000020: 1e10 3a3d f064 973b 92ac 343d 0044 b739
00000030: 369e 25bd 7e54 3d3d 4eea 67bd 5004 343d
00000040: 9e32 3c3d 5c65 47bd 8ad3 76bd b093 8a3b
00000050: 4ccb 433d 2078 0d3c f83e eebc 4887 b53c
00000060: f004 f33b 6027 823b 64d0 723d 807d 203a
00000070: 78e0 293c 529b 35bd 3612 69bd 78dd 113c
00000080: 48ba 97bc bc81 f3bc 604f 153b 1c2f 15bd
00000090: 8255 153d b483 e83c 00ac 4dbc 40d1 f13b
000000a0: 40ec 52bd e84b 52bd b69d 783d 640c 3bbd
000000b0: 68a2 f53c c631 0e3d f8f6 673c e83c 123c
000000c0: b8c6 63bd dac3 213d 74b7 eabc 7632 093d
000000d0: b00b 0a3d 00e0 053b a89a f6bc 40d4 723c
000000e0: 06cc 39bd 20a9 1f3c 78db 693d a84c c4bc
000000f0: 9886 9c3c 60ee 58bd 8e15 65bd 58db aabc
00000100: bae5 0d3d 544e 18bd 5463 ccbc acd2 9f3c
00000110: 00e4 f6b8 88dc 4a3d 807a c93b e248 3e3d
00000120: a432 03bd 36bf 0dbd ac6d 023d e62d 523d
00000130: d8b4 2b3c 64d9 6ebd 1258 0abd ac53 e9bc
00000140: 2863 283d 1cac 143d 4e73 343d f054 b4bb
00000150: 3cc7 b03c 10d0 1ebd e802 da3c a01d 49bd
00000160: 1442 453d 80d5 bdbb 90dd a4bb beb3 313d
00000170: b04b f83b 4442 f53c 1064 48bc 3247 203d
00000180: 7811 eabc 9276 76bd 4452 9a3c d2c1 6f3d
00000190: 84b1 10bd 3852 b4bc c8f1 c2bc 60bc 70bd
000001a0: 9676 2f3d ac69 ce3c f4ad 823c 8420 73bd
000001b0: 005e 9139 5cf3 df3c b2df 553d c01d bc3a
000001c0: 40c3 ae3c d06c 663c 76c7 313d e8bd 19bc
000001d0: 02b1 17bd 405d 0abc a47b bb3c 08c7 cd3c
000001e0: fcc6 3fbd 822f 75bd fc7f 133d 3c69 b7bc
000001f0: 4cc9 2f3d 7625 56bd e6d1 31bd a621 393d
00000200: c0f2 a6ba 2061 243d d0f0 29bd 128a 1b3d
00000210: 945c 65bd c0f5 7dbc 90e6 86bc 1084 c5bc
00000220: 7456 38bd 003d f3ba c8cc 043d 06ba 3dbd
00000230: d08b 94bb 0eca 2b3d 18bc 3c3c f888 a63c
00000240: bcd8 0fbd 00ad 1ebc 7073 e33b 5ee4 50bd
00000250: 88d5 813c da35 583d 2066 263d 206e 49bd
00000260: 721f 4cbd 7853 583c 2002 0b3b 8ef4 6dbd
00000270: 4040 553c a4ce d03c 18b6 563d f0da ee3b
00000280: cc75 1d3d 204e 9fbc 7c3f 01bd 72bd 423d
00000290: a0fc eb3c 103f bebb 0c5f 823c 7abe 32bd
000002a0: f8c6 893c 209b 2abd c8c7 283d 36e6 573d
000002b0: d443 623d ac2d 903c f0a2 f0bb b002 133c
000002c0: 2087 933b a841 663c e0ab f5bc 0817 cbbc
000002d0: 207f 56bd 4027 983a 1075 55bc 50c7 683c
000002e0: e83a 993c 30fa 22bc b602 6bbd 70ae 67bc
000002f0: e8a1 98bc 84b4 ff3c 0827 7d3d 3883 273c
00000300: 5ed6 00bd b4b3 48bd d4a0 13bd 6c00 203d
00000310: fcfb 8f3c d66a 06bd 4642 3abd 0075 953c
00000320: e038 3b3c 28fe 483c 200b 703c 006b 2cba
00000330: 68bc 3ebc 6045 1c3c 182e 1d3c 70b3 4bbd
00000340: 00c3 c0bc 4eda 2d3d e658 5cbd a087 d7bc
00000350: 3078 73bc a664 5b3d a025 403b d075 60bd
00000360: f478 193d 34eb d4bc e829 f8bc b01c 043c
00000370: 6cb9 fabc 607e 0dbc 4e62 033d 8424 583d
00000380: 90e2 763c 26d2 753d 3488 6fbd c09a fcbb
00000390: a0a3 843c 58cd 29bc 080c 833c 2876 64bc
000003a0: 108c 97bc 74ce cd3c 32fe 67bd 0a1a 43bd
000003b0: 1459 c03c 0c07 6a3d 361c 4abd ac7f c0bc
000003c0: 6ca6 c8bc f4b8 723d 84f4 60bd d088 dabb
000003d0: 0ced 2abd d0f3 453d d432 b93c 0002 dc39
000003e0: 66ee 003d c83c 3c3d fc60 a7bc b8f3 8bbc
000003f0: c04c eaba 52b1 733d c041 81ba 588d fcbc

fc2.bias f4 [256]
-0.0070352107 -0.06135886 0.047320493 0.00834468 -0.038373508 -0.05250314 -0.018595695 -0.028805204
0.040418856 0.034706675 -0.014509536 -0.060159884 0.025625363 0.003644608 -0.0030081645 0.048560552
-0.027891085 0.052710928 -0.024948485 0.012942702 -0.05496286 0.026947767 0.026681915 -0.059645005
-0.0046989545 -0.020095937 0.04141888 0.0246896 -0.014304131 -0.043748945 0.015715994 -0.053139433
-0.04671877 0.004245192 -0.004256785 0.035768837 0.0029539838 -0.045547068 0.031832874 -0.05394741
-0.03920006 -0.03102076 -0.03412468 -0.01768063 -0.02670829 0.046043195 -0.045404606 0.028780758
-0.018857233 -0.05100523 0.038352653 0.061151028 0.013291068 -0.03297413 -0.038219854 0.041302048
-0.003824927 0.030631714 -0.04988025 0.04849498 0.034462273 0.022453018 0.012919828 -0.046592563
-0.03613069 -0.061417617 0.053983122 0.054547884 0.05046539 0.02009385 -0.03616461 0.03417778
-0.021086246 -0.02910263 -0.01096572 0.031781122 -0.03741491 -0.017615184 0.0035953224 0.03988988
-0.0062378347 0.057372086 -0.035019703 -0.05653649 0.007034205 -0.006277047 -0.00026473403 -0.014982812
-0.026243858 -0.054081164 0.035129406 0.04429312 -0.059786826 0.019375592 -0.015624434 -0.03260789
0.0046952143 0.009747773 0.025018722 -0.06175951 -0.058097176 0.055213764 0.05165804 0.016169392
-0.057399362 -0.054777414 0.051004447 0.0021973923 0.023582041 0.01839634 -0.01507546 0.02888316
0.03417507 -0.05646667 -0.030226082 0.030811012 -0.034562632 -0.041432284 -0.033037715 0.022561528
-0.0043201 -0.050186686 -0.001582019 0.029167965 -0.031554088 0.03509047 -0.035711437 -0.06185548
-0.03366916 -0.05906319 0.020499967 0.026372246 -0.053565107 -0.010142244 0.04395034 0.038336903
0.002627045 0.008270353 0.02970133 -0.021301113 -0.027014315 0.0150999725 -0.050490484 0.032566614
0.014860235 0.01332286 -0.05818683 0.009801373 -0.0034834966 -0.030847892 0.0567083 -0.05672346
0.03410624 -0.0072988197 -0.048760675 -0.052373864 -0.051212072 -0.00883653 -0.020353176 -0.0107869655
-0.0027436465 0.038171113 -0.034132905 -0.060169615 -0.025825128 0.0497723 -0.040091664 0.02876956
0.018283658 0.03921272 -0.008354843 0.056557573 -0.0038575158 0.040172227 -0.058304332 -0.009778872
-0.054336376 -0.0035817772 -0.053960606 0.02776827 0.0024246424 -0.044901423 -0.0312064 -0.01480937
-0.046470575 -0.057021044 -0.033196047 -0.020169742 -0.021548055 -0.015059605 0.023644991 0.02546902
0.048535503 -0.02102378 -0.061878853 -0.00021646917 0.027181365 -0.02483406 -0.013418116 -0.040711448
-0.041817658 -0.036467023 -0.05519007 -0.023579389 -0.054843977 -0.04693719 -0.020388596 -0.01913073
0.009710871 0.0028905869 -0.006073393 -0.060629755 -0.018395163 0.01905021 0.039608024 0.027008854
0.05870699 0.043053746 0.044283226 0.015198648 -0.03306993 0.01618693 0.03539715 0.006971985
0.0071508065 0.042496644 -0.041092977 0.022076316 -0.020485789 -0.053963743 -0.027470566 -0.00990884
0.032048114 0.008259013 -0.007329844 0.02942159 -0.008608595 -0.027452178 -0.014371783 -0.016144656
-0.058574222 -0.0069597214 -0.059688732 -0.009441696 0.023994565 0.026072636 0.04418301 0.036376238
-0.008125432 -0.015455581 0.013085239 -0.04394108 -0.035156563 -0.042871937 0.017248727 -0.024623245
00000000: a087 e6bb 6e53 7bbd 22d3 413d 20b8 083c
00000010: 8a2d 1dbd 880d 57bd 0056 98bc e4f8 ebbc
00000020: 3e8e 253d 9628 0e3d 68b9 6dbc 366a 76bd
00000030: 48ec d13c 60da 6e3b a024 45bb 6ee7 463d
00000040: d87b e4bc 6ae7 573d c460 ccbc a00d 543c
00000050: bc20 61bd 90c1 dc3c 0894 da3c 524e 74bd
00000060: b0f9 99bb 3ca0 a4bc d8a6 293d d841 ca3c
00000070: e05b 6abc 1832 33bd d4be 803c bca8 59bd
00000080: 2e5c 3fbd 401b 8b3b 807c 8bbb 5882 123d
00000090: a097 413b 908f 3abd 3063 023d f6f7 5cbd
000000a0: 3e90 20bd 401f febc 52c6 0bbd f8d6 90bc
000000b0: 58cb dabc ca97 3c3d 2efa 39bd a0c5 eb3c
000000c0: 7c7a 9abc dcea 50bd ac17 1d3d 8079 7a3d
000000d0: c8c2 593c e20f 07bd 6c8c 1cbd 562c 293d
000000e0: a0ab 7abb 5cef fa3c 3c4f 4cbd aca2 463d
000000f0: 5028 0d3d 64ef b73c b0ad 533c d8d7 3ebd
00000100: c6fd 13bd 0a91 7bbd 681d 5d3d 9a6d 5f3d
00000110: ccb4 4e3d dc9b a43c 5821 14bd 00fe 0b3d
00000120: 10bd acbc a468 eebc 90a9 33bc ec2c 023d
00000130: 6040 19bd b84d 90bc 809f 6b3b 9263 233d
00000140: c066 ccbb fefe 6a3d d270 0fbd ce92 67bd
00000150: 307f e63b b0af cdbb 00cc 8ab9 787a 75bc
00000160: 5cfd d6bc 3684 5dbd dae3 0f3d b46c 353d
00000170: 08e3 74bd 90b9 9e3c a0fd 7fbc da8f 05bd
00000180: 50da 993b 20b5 1f3c 10f4 cc3c 8af7 7cbd
00000190: 4ef7 6dbd d427 623d 6297 533d ac75 843c
000001a0: 981b 6bbd 485e 60bd 0aea 503d 2002 103b
000001b0: 202f c13c ecb3 963c 10ff 76bc 609c ec3c
000001c0: 28fb 0b3d 9849 67bd b09c f7bc 6067 fc3c
000001d0: 8c91 0dbd e6b4 29bd 8e52 07bd f4d2 b83c
000001e0: a08f 8dbb 8e90 4dbd c05b cfba a8f1 ee3c
000001f0: dc3e 01bd 06bb 0f3d 2846 12bd 2c5c 7dbd
00000200: ace8 09bd 3eec 71bd 8cef a73c 9c0a d83c
00000210: 1667 5bbd a82b 26bc 4605 343d 2807 1d3d
00000220: 802a 2c3b 6080 073c 3450 f33c ac7f aebc
00000230: 204d ddbc e065 773c 1ccf 4ebd 9264 053d
00000240: 5878 733c 2048 5a3c 5055 6ebd f095 203c
00000250: 604b 64bb b8b4 fcbc f646 683d dc56 68bd
00000260: fcb2 0b3d f02a efbb 46b9 47bd fa85 56bd
00000270: c0c3 51bd 18c7 10bc b4bb a6bc d0bb 30bc
00000280: c0ce 33bb 5059 1c3d f2ce 0bbd 6a74 76bd
00000290: 388f d3bc 0ade 4b3d 2837 24bd 24ae eb3c
000002a0: 9cc7 953c 849d 203d c0e2 08bc eaa8 673d
000002b0: 60ce 7cbb a28b 243d 86d0 6ebd 9037 20bc
000002c0: d28f 5ebd 40bc 6abb cc05 5dbd 487a e33c
000002d0: c0e6 1e3b 8eea 37bd 90a4 ffbc 00a3 72bc
000002e0: ee57 3ebd e68e 69bd 94f8 07bd 043b a5bc
000002f0: 8c85 b0bc 90bc 76bc 24b3 c13c 68a4 d03c
00000300: 2acd 463d 103a acbc ae74 7dbd 00fc 62b9
00000310: 74ab de3c cc70 cbbc a8d7 5bbc 0cc1 26bd
00000320: fe48 2bbd 725e 15bd fc0e 62bd 9029 c1bc
00000330: 14a4 60bd 3641 40bd fc05 a7bc 0cb8 9cbc
00000340: 581a 1f3c 0070 3d3b 5003 c7bb e856 78bd
00000350: 74b1 96bc 300f 9c3c 063c 223d ac41 dd3c
00000360: be76 703d 2059 303d 5462 353d c003 793c
00000370: 5674 07bd 749a 843c 9afc 103d 4075 e43b
00000380: 5051 ea3b f610 2e3d 1c51 28bd 64d9 b43c
00000390: d0d1 a7bc 1609 5dbd f409 e1bc b058 22bc
000003a0: e244 033d d050 073c 302f f0bb 8c05 f13c
000003b0: 100b 0dbc 64e3 e0bc a077 6bbc cc41 84bc
000003c0: 86eb 6fbd 600e e4bb 2c7c 74bd 58b1 1abc
000003d0: 4090 c43c 4896 d53c 3ef9 343d 40ff 143d
000003e0: 8820 05bc 6839 7dbc 7863 563c 90fb 33bd
000003f0: 5400 10bd 7c9a 2fbd 344d 8d3c b0b6 c9bc

fc_mean.weight f4 [6, 256]
-0.03552059 0.044840015 -0.048550904 -0.03130623 -0.03961815 -0.015000656 -0.038628012 0.02462253
0.0017702729 -0.052227706 -0.028525136 -0.022028923 -0.052100554 -0.028255887 0.050866753 0.015920848
0.034719728 -0.062212892 0.011207029 0.04946407 0.018200591 -0.006162025 -0.022487454 -0.023933277
-0.027233705 0.057076603 0.008210748 -0.032200836 -0.052669033 0.057401597 -0.04164592 0.021888874
-0.0260792 0.03560555 0.040297143 0.023464292 0.016834952 -0.054042786 0.0061045587 -0.02381067
0.046394117 0.04790546 0.02940566 -0.013299979 -0.061107934 0.01900889 -0.027860947 -0.015761353
-0.041166134 -0.004250832 -0.036393724 0.057342328 -0.04736717 0.012848377 0.055743992 -0.0044435933
-0.021382608 0.05609861 0.03832517 0.0034081042 0.04688339 0.012588702 0.04371646 -0.019465335
0.047046848 -0.015228316 -0.031900883 0.030439466 -0.04723368 -0.02323512 0.043645076 -0.04000344
-0.051679634 -0.060533658 -0.0063933656 0.02842386 -0.0034735203 -0.047869764 -0.015553601 0.030501582
-0.00095882267 -0.03159412 0.030509152 0.05100414 0.0029416084 -0.0065749735 0.0006948933 0.013571791
0.03578212 0.041112803 0.03159655 -0.017378844 -0.041780278 0.05346989 -0.021759972 0.018836975
-0.026623487 0.022216536 -0.042945303 0.033940017 -0.048997194 0.0034064427 0.019745938 0.026391774
0.057887577 0.002487801 -0.0215365 -0.027765527 -0.01758074 0.037160024 0.03971319 -0.054257467
-0.03203512 -0.039485596 -0.02738627 -0.061947733 0.006246969 0.024481833 -0.05998689 -0.05902613
0.0065402165 0.0055866987 0.058908574 0.00885684 0.0593187 0.05060321 0.050555326 -0.00720571
-0.025723942 0.05472885 0.060428433 0.0016497076 -0.059068613 0.060920544 0.012768276 0.05441063
-0.055875614 -0.016843334 -0.035616115 0.016291372 0.037043862 -0.0063636005 -0.015405111 -0.013680406
0.05383779 -0.060200527 -0.018266872 0.04320322 0.02014514 -0.032463893 0.054595366 0.06057316
-0.011379339 0.035575323 -0.012096435 0.05182302 -0.056944832 0.03104297 0.046326794 -0.0025298
-0.028562479 0.03170216 -0.014441781 -0.042471364 -0.00840842 0.055272155 -0.007936381 0.050634213
-0.009387605 0.047723018 -0.02541887 0.023246378 0.027171567 0.01338692 0.055772714 0.003990501
-0.03814999 0.004536532 -0.023828425 -0.025971979 -0.021252535 0.062213376 -0.04653234 -0.040894903
0.056267716 0.010139741 0.025663003 -0.01728955 0.035396002 0.046397313 -0.0480645 -0.009675384
0.043952964 -0.0226288 -0.04277177 -0.055695064 -0.022247635 -0.03142622 0.03549041 -0.030437984
-0.002782382 -0.020611525 0.047708236 0.027476162 -0.018529207 -0.0030044764 -0.050864503 -0.0021913648
-0.0558675 0.019176275 0.010570072 0.04250513 0.056944735 0.048055753 0.024189457 -0.0041916817
-0.029231377 -0.04208663 -0.0019806847 0.054888606 0.056668423 -0.038448907 -0.013406329 0.027057499
0.061558783 -0.01911334 0.019881688 -0.0009899735 -0.005703859 -0.0057854727 -0.020551622 -0.024356432
-0.061788 -0.008917674 -0.057334267 -0.04920265 -0.016176797 0.015752994 -0.009543322 0.029894501
-0.030802831 0.019266494 -0.0034693778 -0.039267033 -0.0068413317 -0.0073862 -0.05266662 0.05490169
0.012443282 -0.04746169 -0.050276265 0.049716175 -0.060583293 -0.028395154 -0.04812762 0.055636823
00000000: 0a7e 11bd 2aaa 373d 50dd 46bd f63a 00bd
00000010: a446 22bd 50c5 75bc 6838 1ebd 30b5 c93c
00000020: 8008 e83a b8ec 55bd 8cad e9bc 0076 b4bc
00000030: 6467 55bd e478 e7bc a859 503d 706c 823c
00000040: 4636 0e3d f2d2 7ebd b09d 373c d69a 4a3d
00000050: 6819 953c d0ea c9bb 9c37 b8bc b80f c4bc
00000060: 3819 dfbc 28c9 693d 6086 063c 06e5 03bd
00000070: 7cbb 57bd f01d 6b3d ea94 2abd 4c50 b33c
00000080: 0ca4 d5bc 20d7 113d 9e0e 253d 3038 c03c
00000090: 74e9 893c f85b 5dbd c008 c83b 980e c3bc
000000a0: c207 3e3d 8438 443d 24e4 f03c 28e8 59bc
000000b0: 504c 7abd 88b8 9b3c a43c e4bc f41d 81bc
000000c0: d29d 28bd 904a 8bbb 9611 15bd cadf 6a3d
000000d0: 1404 42bd 0082 523c d053 643d 909b 91bb
000000e0: 942a afbc a8c7 653d dafa 1c3d 805a 5f3b
000000f0: cc08 403d d840 4e3c 0810 333d c475 9fbc
00000100: 32b4 403d 3080 79bc 80aa 02bd 305c f93c
00000110: 1a78 41bd 9457 bebc 2ec5 323d a6da 23bd
00000120: 06ae 53bd 24f2 77bd 707f d1bb 28d9 e83c
00000130: 00a4 63bb 1613 44bd 88d4 7ebc 74de f93c
00000140: 8059 7bba d668 01bd 54ee f93c b8e9 503d
00000150: 00c8 403b e072 d7bb 8029 363a 385c 5e3c
00000160: 4690 123d e665 283d 626b 013d 145e 8ebc
00000170: cc21 2bbd 3e03 5b3d f841 b2bc 0050 9a3c
00000180: 8019 dabc 74ff b53c 6ae7 2fbd b004 0b3d
00000190: 48b1 48bd a03e 5f3b 3cc2 a13c 9033 d83c
000001a0: 861b 6d3d 600a 233b 506d b0bc 8874 e3bc
000001b0: 7c05 90bc 1c35 183d 4caa 223d 143d 5ebd
000001c0: 4237 03bd a6bb 21bd 2c59 e0bc e8bc 7dbd
000001d0: 60b3 cc3b 208e c83c d0b4 75bd 62c5 71bd
000001e0: 504f d63b a010 b73b 1e4a 713d 481c 113c
000001f0: 2af8 723d 5045 4f3d 1a13 4f3d e01d ecbb
00000200: 04bb d2bc 5c2b 603d ce83 773d 003b d83a
00000210: eef1 71bd d287 793d 0832 513c aedd 5e3d
00000220: d4dd 64bd 08fb 89bc 34e2 11bd 7c75 853c
00000230: 4ebb 173d c085 d0bb b865 7cbc c823 60bc
00000240: 0485 5c3d d494 76bd 68a4 95bc dcf5 303d
00000250: 6c07 a53c dcf8 04bd 649f 5f3d 901b 783d
00000260: 6870 3abc 6eb7 113d 2030 46bc 6044 543d
00000270: fc3e 69bd d44d fe3c 2ac1 3d3d 00cb 25bb
00000280: dcfb e9bc 20da 013d 389d 6cbc 74f6 2dbd
00000290: 78c3 09bc 0e65 623d 9807 02bc d265 4f3d
000002a0: 78ce 19bc 3679 433d 3c3b d0bc 306f be3c
000002b0: e896 de3c d054 5b3c ee71 643d c0c2 823b
000002c0: 2a43 1cbd 30a7 943b d433 c3bc 30c3 d4bc
000002d0: cc19 aebc 74d3 7e3d b298 3ebd 6a81 27bd
000002e0: fa78 663d 2821 263c 383b d23c d0a2 8dbc
000002f0: 66fb 103d 1c0b 3e3d 48df 44bd 8085 1ebc
00000300: 0608 343d 0860 b9bc 7431 2fbd 8220 64bd
00000310: ac40 b6bc c8b8 00bd 645e 113d 1459 f9bc
00000320: a058 36bb 80d9 a8bc b669 433d b015 e13c
00000330: 90ca 97bc c0e6 44bb 4c57 50bd 009d 0fbb
00000340: 52d5 64bd 9017 9d3c 182e 2d3c dc19 2e3d
00000350: e23e 693d 1cd6 443d f828 c63c 605a 89bb
00000360: a476 efbc 0863 2cbd 60ce 01bb e0d2 603d
00000370: 261d 683d 9a7c 1dbd 38a6 5bbc b0a7 dd3c
00000380: 1025 7c3d 9493 9cbc ecde a23c 00c2 81ba
00000390: 70e7 babb 1094 bdbb e05b a8bc 2487 c7bc
000003a0: 6a15 7dbd 701b 12bc 56d7 6abd b888 49bd
000003b0: 3485 84bc 6c0c 813c 985b 1cbc 50e5 f43c
000003c0: 3856 fcbc c4d4 9d3c 805e 63bb 78d6 20bd
000003d0: 402d e0bb f007 f2bb f4b8 57bd 98e0 603d
000003e0: e8de 4b3c 3067 42bd 7cee 4dbd 30a3 4b3d
000003f0: 3026 78bd f49c e8bc 7821 45bd 70e3 633d

fc_mean.bias f4 [6]
-0.019990794 0.01687605 -0.040554166 -0.058529325 0.0150186345 -0.007912107
00000000: bcc3 a3bc a43f 8a3c 201c 26bd 72bc 6fbd
00000010: b810 763c c8a1 01bc

fc_log_std.weight f4 [6, 256]
-0.055708222 -0.006820835 -0.04241489 0.040447667 0.011690691 0.05422795 -0.013348766 -0.040817484
0.009753376 0.011869617 -0.042445205 -0.014350772 0.031076394 -0.0015319735 0.022606835 0.015761085
0.03128191 -0.023489863 -0.017241687 -0.031221844 -0.06213168 -0.026927426 -0.04497073 -0.035280757
-0.047122046 0.057147913 0.032714553 0.03497473 -0.055498555 -0.04862853 0.03062319 -0.042576753
0.054140627 0.050442785 -0.008951023 -0.033256814 -0.0528121 0.049234286 -0.041549362 -0.04059127
-0.027974337 0.013328083 -0.01473853 0.011484526 0.054600373 -0.017875552 -0.056649335 -0.04429812
-0.052452445 0.0034739599 0.040602542 -0.038763963 0.023986198 0.050359137 0.02463656 0.0066211224
0.009504624 -0.052321993 0.03434807 -0.061756574 -0.026290096 0.026575692 -0.02234669 0.020501144
-0.05304482 0.043785483 -0.04519976 -0.05501572 0.0045625716 0.05269657 0.018127613 -0.042299703
0.009191453 -0.06076879 -0.01942414 -0.061622955 -0.018112205 0.043165304 -0.0021173283 -0.037711985
0.030877292 0.032275483 0.03415604 0.034934647 -0.006050676 0.029349826 -0.028511345 -0.002789177
0.05455417 0.059739575 0.01980833 0.060668185 0.041556522 0.052345484 0.019346602 0.040465206
-0.01848615 -0.061557017 -0.015425369 -0.002178587 0.060126834 -0.020422764 0.022723012 0.00480558
0.0075502843 -0.06073253 -0.009756848 -0.014593951 0.05819931 -0.06050825 0.045531534 -0.053031906
-0.010836467 0.04994142 0.043624736 0.062176697 -0.060208455 0.019787751 0.0028112605 -0.009148017
0.024971753 -0.05708257 0.023774311 -0.001200363 0.054293647 0.05402886 0.013662793 -0.018726274
-0.042989545 0.010718279 -0.024728566 -0.017365053 -0.04754235 0.019896448 0.02552215 -0.0020699725
-0.03447494 0.015357703 -0.03924834 -0.011867486 0.013761766 -0.04822558 0.037697457 0.06123042
-0.006760448 0.05955843 0.05892343 0.028636567 -0.03724491 -0.0137574 0.020779155 0.04726757
0.060290217 0.034876354 -0.04679843 0.04914356 0.009590834 0.043433905 0.04525382 -0.026207313
-0.05185017 -0.03384435 0.020695172 0.001245074 0.010464773 0.054496318 0.017821439 -0.052092776
0.046643212 0.05303993 -0.05278483 0.017565042 -0.060378358 0.020112514 -0.024589464 -0.030223884
-0.056539685 -0.03871782 -0.011564486 0.03393711 0.025249228 -0.0133640915 0.035264082 -0.0031230003
-0.0002497807 -0.0094010085 0.018022083 0.0451362 0.049185067 0.05591578 -0.020470187 0.034770176
-0.04124873 0.061542578 0.013075605 0.035719723 -0.009812832 -0.012122594 0.054467 0.0616209
0.026269585 -0.0074008405 0.061709292 0.049440384 0.029131494 0.03948792 -0.04512287 0.016142525
-0.04944036 -0.05661206 0.034921356 -0.0044233724 0.01422894 -0.058460638 0.059512824 -0.028048828
-0.03369821 -0.048666015 0.05251006 -0.0026207492 0.051003493 -0.051734015 -0.06213002 0.018148705
-0.007228531 0.043722183 0.02542799 0.04918638 -0.0029062852 0.038342714 0.038059287 -0.053957015
0.057087645 -0.059909083 -0.060052827 -0.055500172 0.038946822 -0.029303804 0.028252155 0.0067670494
-0.04045882 0.023259938 0.01920595 -0.029134981 0.054975726 -0.017216861 -0.019347407 0.026541859
0.054954425 0.0066580996 -0.038811095 0.04046423 -0.025103495 0.04839932 0.033562772 0.05875416
00000000: 4e2e 64bd 5081 dfbb 3cbb 2dbd 74ac 253d
00000010: 508a 3f3c 201e 5e3d c8b4 5abc 3c30 27bd
00000020: a0cc 1f3c c878 423c 06db 2dbd 801f 6bbc
00000030: ec93 fe3c 80cc c8ba f831 b93c 641d 813c
00000040: 7621 003d d06d c0bc 703e 8dbc f4c4 ffbc
00000050: ca7d 7ebd e896 dcbc 3a33 38bd 8e82 10bd
00000060: 0c03 41bd ee13 6a3d b2ff 053d aa41 0f3d
00000070: 7452 63bd b62e 47bd 7cdd fa3c f664 2ebd
00000080: 90c2 5d3d 189d 4e3d 50a7 12bc 4c38 08bd
00000090: 8051 58bd e4a9 493d aa2f 2abd 0843 26bd
000000a0: 702a e5bc 085e 5a3c e079 71bc 9829 3c3c
000000b0: a4a4 5f3d c06f 92bc 2209 68bd f271 35bd
000000c0: 60d8 56bd 60ab 633b da4e 263d f6c6 1ebd
000000d0: b47e c43c 6245 4e3d 9cd2 c93c 00f6 d83b
000000e0: 48b9 1b3c 964f 56bd 90b0 0c3d 76f4 7cbd
000000f0: 545e d7bc 44b5 d93c 6810 b7bc 04f2 a73c
00000100: 8645 59bd 6858 333d 6223 39bd 2a58 61bd
00000110: a081 953b 5cd8 573d 5c80 943c 7442 2dbd
00000120: c097 163c b2e8 78bd 601f 9fbc 5a68 7cbd
00000130: 0c60 94bc 1ace 303d e0c2 0abb e277 1abd
00000140: 60f2 fc3c 4c33 043d 34e7 0b3d a217 0f3d
00000150: c044 c6bb 0c6f f03c a090 e9bc a0ca 36bb
00000160: 3274 5f3d 7cb1 743d 1445 a23c 347f 783d
00000170: 2c37 2a3d 3868 563d c47c 9e3c d8be 253d
00000180: 4470 97bc 3623 7cbd b0ba 7cbc a0c6 0ebb
00000190: 8e47 763d a44d a7bc 9c25 ba3c 2078 9d3b
000001a0: 6068 f73b acc2 78bd 30db 1fbc 781b 6fbc
000001b0: 6662 6e3d 80d7 77bd 467f 3a3d fc37 59bd
000001c0: 708b 31bc 608f 4c3d daaf 323d feac 7e3d
000001d0: 249d 76bd ec19 a23c 203d 383b 90e1 15bc
000001e0: 9091 cc3c 6acf 69bd 58c2 c23c 8055 9dba
000001f0: 0463 5e3d 5e4d 5d3d e8d9 5f3c d867 99bc
00000200: ce15 30bd b89b 2f3c 9093 cabc 2841 8ebc
00000210: c4bb 42bd e0fd a23c d413 d13c 60a8 07bb
00000220: 9835 0dbd e09e 7b3c dec2 20bd d86f 42bc
00000230: 0879 613c 3088 45bd a668 1a3d c0cc 7a3d
00000240: c086 ddbb 8af3 733d b259 713d 3c97 ea3c
00000250: 1e8e 18bd b866 61bc 0c39 aa3c a49b 413d
00000260: e0f2 763d 82da 0e3d b6af 3fbd c24a 493d
00000270: e022 1d3c c0e7 313d 125c 393d b8b0 d6bc
00000280: d860 54bd 60a0 0abd ec88 a93c c031 a33a
00000290: 7074 2b3c 8837 5f3d 44fe 913c 3c5f 55bd
000002a0: f40c 3f3d 6640 593d e834 58bd 90e4 8f3c
000002b0: 4c4f 77bd 00c3 a43c d86f c9bc 1498 f7bc
000002c0: 2896 67bd 9496 1ebd f878 3dbc a401 0b3d
000002d0: 78d7 ce3c 10f5 5abc 1271 103d 40ab 4cbb
000002e0: 00f5 82b9 b006 1abc 0ca3 933c bce0 383d
000002f0: 4876 493d f207 653d 18b1 a7bc 2c6b 0e3d
00000300: 6ef4 28bd 1214 7c3d 103b 563c d84e 123d
00000310: 00c6 20bc d89d 46bc ca18 5f3d 3266 7c3d
00000320: 5033 d73c c082 f2bb e2c2 7c3d 0082 4a3d
00000330: 2ca5 ee3c 16be 213d c2d2 38bd 543d 843c
00000340: fa81 4abd 0ce2 67bd b209 0f3d f0f1 90bb
00000350: 8020 693c 6c74 6fbd b8c3 733d a8c6 e5bc
00000360: 2207 0abd 0456 47bd ca14 573d e0c0 2bbb
00000370: 0ae9 503d 0ce7 53bd 0c7c 7ebd 98ac 943c
00000380: 50dd ecbb 0816 333d 5c4e d03c a877 493d
00000390: 6077 3ebb 400d 1d3d 0ee4 1b3d 0802 5dbd
000003a0: bcd4 693d 3a63 75bd f4f9 75bd 2654 63bd
000003b0: b486 1f3d 880e f0bc 1071 e73c 20be dd3b
000003c0: 26b8 25bd a08b be3c cc55 9d3c 7cac eebc
000003d0: 3a2e 613d 600a 8dbc 747e 9ebc 506e d93c
000003e0: e417 613d 302c da3b 62f8 1ebd d2bd 253d
000003f0: d8a5 cdbc 5e3e 463d 1e79 093d 34a8 703d

fc_log_std.bias f4 [6]
0.033824027 -0.014429495 0.047002323 -0.055168547 0.04121267 0.019014105
00000000: 108b 0a3d b069 6cbc 8285 403d 6af8 61bd
00000010: 9ece 283d 78c3 9b3c
