output/MAPPO/lxl/weight/actor_agent_3_ep_3100.pth (torch, 292136 bytes, 8 tensors)

fc1.weight f4 [256, 12]
000000 72 58 e9 bd b8 e2 61 bd 9a c6 f1 bd 00 f5 d0 3a
       -0.11393823 -0.055147856 -0.11805458 0.0015942156
000010 90 f7 82 3e 9e f0 52 3e 98 0a 2e 3d 7e c2 83 be
       0.255795 0.205996 0.04249057 -0.25734323
000020 04 8a cb 3d 0e 31 fe bd 20 7e 29 bc 4e 73 83 be
       0.09938434 -0.124117 -0.010345012 -0.25673908
000030 32 53 2b be 0c bb cd 3d f0 e7 c2 bc 5c 4d 5a be
       -0.16730955 0.10045442 -0.023792237 -0.21318573
000040 f4 10 68 be ad e0 04 be 62 53 32 be b2 c3 f1 bd
       -0.22662717 -0.12976332 -0.1741462 -0.11804904
000050 74 2c 7f 3e 60 81 89 bc 35 7c 86 be a6 f5 21 3e
       0.24919301 -0.016785324 -0.26266637 0.15816364
000060 6a 77 29 3e bf 00 82 be 3e 55 80 be 7c 07 06 3e
       0.16549459 -0.25391194 -0.25065035 0.13088793
000070 40 97 87 3b f3 1a 0d be 14 88 f8 3d 54 52 79 bd
       0.0041379035 -0.13779812 0.1213533 -0.06086953
000080 54 de 77 bd b0 0d 60 3e 3c cb 7d 3e 5c 0e 31 bd
       -0.060514763 0.21880221 0.24784559 -0.043226585
000090 40 9a 09 bc 90 a0 ab 3c a0 9d 03 bc e2 93 8e 3e
       -0.0083985925 0.020950586 -0.008033186 0.278472
0000a0 08 cd dc 3d 10 8c 62 3e 7a cd c1 bd 20 c0 2c 3c
       0.10781294 0.22123742 -0.0946302 0.010543853
0000b0 d5 dd 67 be 64 5a 7f be 84 34 0e be e2 fa 44 3e
       -0.22643216 -0.24936825 -0.1388722 0.19236329
0000c0 00 ce f9 bc f0 42 8e bc 68 0c 27 3d 30 60 08 bd
       -0.030493736 -0.017365903 0.040783316 -0.033294857
0000d0 5a 07 4c be dc 38 5d 3e 02 73 c0 bd 80 55 65 be
       -0.1992468 0.21603721 -0.09396936 -0.22395897
0000e0 20 a6 e0 3c b6 7f 4d be 84 0c 7c bd 68 af 79 3d
       0.027422965 -0.20068249 -0.061535373 0.060958296
0000f0 dc 34 01 3e 70 94 c3 3c 5a a2 2b 3e ce 44 ec bd
       0.1261782 0.023874491 0.16761151 -0.11536561
000100 c0 32 b2 bc 12 2d 4a be e8 f8 2b 3d dd 2d 22 be
       -0.021752715 -0.19743755 0.041985422 -0.15837808
000110 cc a2 ef 3d a4 51 8c be a4 10 8b 3e 32 2e 44 be
       0.11700973 -0.27406037 0.27161133 -0.19158247
000120 2a 61 48 3e f8 79 cb 3d 60 18 4a 3c 82 c4 30 3e
       0.19568315 0.09935373 0.012334913 0.17262462
000130 50 82 ac 3c 68 da 27 3d da 3b 29 3e a0 4f 1b 3c
       0.021058232 0.040979773 0.16526738 0.009479433
000140 80 d9 f1 3b f0 90 ab bc d4 bc fc 3d bc c9 27 bd
       0.0073806643 -0.020943135 0.123407036 -0.040963873
000150 74 8e 51 3e 90 d9 e7 3d e0 3d 88 3c 54 98 88 be
       0.20464498 0.11320794 0.016631067 -0.26678717
000160 fc b9 e7 3d 00 1e 32 bc 6e 3d 53 be 66 50 4e 3e
       0.113147706 -0.01087141 -0.20628902 0.20147857
000170 39 5a 03 be 91 ed 39 be 7e 99 45 be 56 58 66 be
       -0.12827386 -0.1815703 -0.19296834 -0.22494635
000180 44 1e fb 3d 7c e9 8d 3e c8 d3 e4 3d 58 fe 27 3e
       0.12261632 0.27717197 0.111732066 0.16405618
000190 a2 34 07 3e 6e 1f 32 3e 14 7a 14 3e a0 f8 60 3d
       0.13203672 0.17394802 0.14499694 0.054924607
0001a0 8a ca 91 3e 00 59 8e 3e 9c ef 09 be 34 c5 65 bd
       0.28474838 0.27802277 -0.1347031 -0.05609627
0001b0 b4 e9 5e bd cc 64 7f bd 8c 25 4c be ad 1d 81 be
       -0.054422095 -0.062351987 -0.19936198 -0.25217953
0001c0 88 26 65 3e e6 b1 a0 bd 20 0b 31 3c 78 b8 dc 3d
       0.2237798 -0.078464314 0.010805875 0.10777372
0001d0 b4 f3 58 3e 20 10 7c bc f4 38 34 3e 18 af 73 bd
       0.21186715 -0.015384704 0.17599851 -0.059493154
0001e0 62 a8 0f be 38 19 a8 3d 00 e7 da 3a 40 c3 df 3d
       -0.14029077 0.08207935 0.0016700923 0.10925913
0001f0 5c 00 84 3e c6 05 80 3e 39 7c 8d be a0 22 74 be
       0.25781524 0.25004405 -0.27633837 -0.23841333
000200 18 5f 1c bd 4a a1 8c bd bc 3a 59 3e 2a 2b cf bd
       -0.038176626 -0.06866701 0.21213812 -0.10115655
000210 fa 88 42 3e 8e b2 0b 3e 28 5b 3b 3e da c5 81 be
       0.18997565 0.13642332 0.18296492 -0.2534626
000220 e4 95 55 bd 94 47 81 bd 6e 17 1b 3e 90 1c fb bd
       -0.0521449 -0.063124806 0.15145656 -0.12261307
000230 b0 ae 67 bd 30 b9 6f 3e 44 40 4b 3e 32 47 89 3e
       -0.05656308 0.23410487 0.19848734 0.2681213
000240 60 19 90 bc d2 e2 8d bd 80 f9 8c bc 66 e7 d5 bd
       -0.017590225 -0.06928028 -0.017208815 -0.104445264
000250 c4 1b 71 3e f0 b0 48 be 61 18 6a be fc 93 24 bd
       0.23545748 -0.19598746 -0.22860862 -0.04018019
000260 e4 1f 91 bd 5c 29 4b 3e 52 85 19 3e 86 2b 0f 3e
       -0.07086161 0.19839996 0.14992264 0.13981447
000270 d2 fa e4 bd d2 8a 15 3e b2 04 37 3e ba e7 15 3e
       -0.11180653 0.14603737 0.17872885 0.14639178
000280 a8 9c 69 3e ac 2a 60 3e 98 2f 2e be a0 35 46 3e
       0.22813666 0.21891278 -0.17010343 0.19356394
000290 64 72 2a be 80 75 6b bc c7 d6 1d be 10 8d 4a 3d
       -0.16645199 -0.014371276 -0.15413962 0.049450934
0002a0 e0 4c 74 3e 5c 6a 1d 3e 7c 36 fe 3d 95 4a 51 be
       0.2385745 0.15372604 0.12412736 -0.20438607
0002b0 98 42 c5 3d d4 34 0f 3e 3c 8e 82 be fc d4 79 bd
       0.096318424 0.13984996 -0.2549914 -0.060994133
0002c0 c8 77 56 be e6 78 c6 bd 80 ed ea 3d d8 28 84 3d
       -0.2094413 -0.09691028 0.11471081 0.06453103
0002d0 f4 6d ce bd 88 84 f4 3d 1a bc 1c 3e ac b8 05 3e
       -0.10079566 0.11939341 0.1530613 0.13058728
0002e0 00 26 43 3c 6a 16 9d bd 30 d9 08 3e 2d 50 84 be
       0.011910915 -0.07670291 0.133641 -0.2584242
0002f0 80 e2 ba bc b0 6b 40 3e 0e 7b 8b bd 59 9d 4d be
       -0.022813082 0.1879108 -0.0681058 -0.20079555
000300 14 25 68 be c8 5a 5f 3e b4 fb 4a 3e 02 73 48 be
       -0.22670394 0.21811974 0.1982258 -0.19575122
000310 92 77 8a 3e 70 40 74 bd 68 00 6d 3e d5 35 1c be
       0.2704435 -0.059631765 0.23144686 -0.1525491
000320 ef 7b 71 be 88 24 9c 3d 8f 28 70 be 1a 25 a0 bd
       -0.23582433 0.07624155 -0.23452972 -0.078195766
000330 04 5e 67 3e 8c be 80 3d ec cc e4 3d c4 d3 2d 3e
       0.22594458 0.06286344 0.11171898 0.16975313
000340 34 e7 4c be 30 8d b2 3c 80 ae c0 bd b4 84 88 be
       -0.20010072 0.02179584 -0.09408283 -0.26663744
000350 16 1c 5d be f5 f3 7d be 5a dd 68 be 5c b8 e5 bd
       -0.21592745 -0.24800093 -0.22740689 -0.112168044
000360 78 ec 90 3e d0 ef e9 bc c0 68 00 bc d8 bd b9 bd
       0.2830541 -0.028556734 -0.007837474 -0.09069413
000370 db 2a 2b be 74 8f 70 3e e2 ba 92 3e 8c cb 71 3e
       -0.16715567 0.23492223 0.28658205 0.23612803
000380 00 e3 00 bb e0 7e 06 3c 64 1d 4b be 90 27 2e be
       -0.0019666553 0.00820896 -0.1983543 -0.1700728
000390 2b 26 30 be 40 e3 82 3c 68 5d 5c be a0 0c 82 3e
       -0.1720206 0.015977502 -0.21520007 0.25400257
0003a0 08 97 62 3e b2 47 93 bd be dd 4e 3e 98 a1 d4 3d
       0.22127926 -0.07191409 0.20201775 0.10382384
0003b0 28 6a 3a 3e 3a e8 51 be 64 7d ad bd 23 dc 89 be
       0.18204558 -0.20498744 -0.08471182 -0.26925763
0003c0 58 34 34 3d ec 0c ee bd 21 54 09 be 04 6d 6d be
       0.04399523 -0.116235584 -0.13410999 -0.23186117
0003d0 f2 e1 4c be ac 69 f9 3d 6a 3e 82 3e c8 fd 9a 3d
       -0.20008066 0.121783584 0.25438243 0.07567936
0003e0 c4 57 6d 3e b4 46 99 3d ec 9d 23 be e8 0e 6a 3e
       0.23178011 0.07484189 -0.15978211 0.22857249
0003f0 36 e2 92 3e c6 0e e3 bd 80 6e 42 bb 3d 27 8f be
       0.2868821 -0.11086802 -0.0029667914 -0.27959624

fc1.bias f4 [256]
000000 6c a1 16 be 56 5a 3e be b4 f8 37 bd 18 69 0b bd
       -0.14710015 -0.18589148 -0.044914916 -0.034035772
000010 5e 64 33 3e 2a 20 0d 3e 7e 6e 24 3e 2d 92 14 be
       0.17518756 0.13781801 0.16057774 -0.14508887
000020 50 55 de 3c 94 5a 4a be 7a fc 0b 3e c0 96 87 bc
       0.02714029 -0.19761115 0.13670531 -0.016551375
000030 e3 f4 4a be 78 c2 2f 3e c8 13 08 3e e8 ef 15 be
       -0.1981998 0.17164028 0.13288796 -0.14642298
000040 60 8d 03 3d 6c b6 8c 3e 48 ee 9e 3d 76 2b 3b be
       0.032117248 0.27482927 0.07760292 -0.18278298
000050 c0 46 4e 3d 00 f4 e8 bb 01 a5 8c be c4 17 2d be
       0.05036044 -0.007109165 -0.27469638 -0.16903597
000060 4e 99 35 3e 4e cf 70 be 54 22 07 3e 54 65 6d bd
       0.17734262 -0.2351658 0.13196689 -0.057957962
000070 18 01 45 3e 1c f5 22 be 24 c9 45 3e cf 1c 91 be
       0.19238698 -0.15913814 0.1931501 -0.28342292
000080 7c 6e 81 3e 10 4f 8e bc 4a 1c c7 bd fc 15 91 3d
       0.25279605 -0.017371684 -0.097221926 0.07084271
000090 18 6f 83 3d 0d 21 6b be 54 7b dd bd d4 26 ed 3d
       0.06417674 -0.22961827 -0.108145386 0.115796715
0000a0 14 78 c6 3d d0 f3 5a be 74 26 09 3e 60 b6 72 3e
       0.09690872 -0.2138207 0.13393575 0.23702383
0000b0 00 e0 fe 3d a0 3c 75 3c 28 e0 78 3d 82 a8 5e be
       0.12445068 0.014968067 0.060760647 -0.21743968
0000c0 24 c7 8a be 60 28 76 bd 42 e0 4a 3e cd 45 50 be
       -0.27105057 -0.0600971 0.1981211 -0.20339127
0000d0 e0 1f 92 bd 08 81 44 be d8 fa 21 3d 14 1b 8f bd
       -0.07134986 -0.19189847 0.039545864 -0.069875866
0000e0 f0 27 bd 3c 2c 46 32 3e c8 38 fe 3d dc 75 f1 bd
       0.023090333 0.17409581 0.12413174 -0.11790058
0000f0 54 3f 7b 3e 1f 85 6a be 54 b1 00 3e 00 bd ce 3b
       0.24535877 -0.22902344 0.12567645 0.0063091516
000100 f0 b1 59 3e c0 ce ab bb 30 09 c9 3c 44 e1 d4 3d
       0.21259284 -0.0052431524 0.024540514 0.103945285
000110 40 2c 3b 3d 18 cd 78 3e 74 20 b3 3d 64 03 e2 bd
       0.045696497 0.24296987 0.08746424 -0.11035803
000120 2c 7d 5a 3e 34 4a 56 bd 6d bc 7e be 60 97 5d 3e
       0.21336812 -0.05231686 -0.24876566 0.21639776
000130 53 ae 7c be 26 7a e3 bd 42 a1 a7 bd 00 24 55 3b
       -0.24675874 -0.11107282 -0.08185054 0.0032522678
000140 a8 1f 72 3e b6 d6 f1 bd 72 37 06 3e 75 e6 5c be
       0.23644888 -0.11808531 0.13107088 -0.21572287
000150 10 79 8f 3d 74 69 32 bd c0 07 48 3c 92 f9 05 3e
       0.07005513 -0.0435576 0.012208879 0.13083485
000160 fc 4b 64 be 68 b1 97 3d 64 00 56 3e b8 cd 0c 3d
       -0.2229461 0.074068844 0.20898587 0.034375876
000170 5e cc 3f be 58 3a 63 3e be be 27 3e 98 07 78 be
       -0.18730304 0.22190225 0.16381356 -0.24221647
000180 36 20 89 3e e0 c0 f2 3d e0 d8 bf 3d 1c 31 aa 3d
       0.26782387 0.11853194 0.093675375 0.08310148
000190 b2 a1 40 be 10 a1 09 be f0 24 9b 3c bc df d4 3d
       -0.18811682 -0.13440347 0.018938512 0.103942364
0001a0 14 31 24 3e 46 e7 8c be 73 cb 81 be 7c 1d 3d bd
       0.16034347 -0.27520198 -0.25350532 -0.046170697
0001b0 b2 8c 3e be ac 64 33 bd 88 7b be 3d 20 94 4c bc
       -0.18608359 -0.04379718 0.093009055 -0.012486488
0001c0 e0 79 46 3c 52 11 58 3e d0 54 81 3e 40 1b 44 3e
       0.012114018 0.21100357 0.2526002 0.1915102
0001d0 b4 3f 5c 3e 6b 29 8d be b4 02 cb 3d 1a d9 83 3e
       0.21508676 -0.27570662 0.09912625 0.25751573
0001e0 3c 0b ab bd cc 4a 3f 3e 2c f2 3f bd a4 0e b9 3d
       -0.08351752 0.18680876 -0.046861812 0.090359956
0001f0 16 53 2b 3e 80 39 67 bc 84 cc b1 3d 20 a7 28 3d
       0.16730914 -0.01411283 0.086815864 0.041175008
000200 0e d9 48 be a0 22 fa bc d4 f9 3b 3e 68 47 0c bd
       -0.1961405 -0.030534089 0.1835702 -0.034247786
000210 ec ca bb 3d 3a 41 1f be 18 9e 94 3d 14 34 3d be
       0.09169564 -0.15552226 0.072567165 -0.18476897
000220 d0 64 18 bd 9b ba 82 be 60 37 84 3d b8 8a 8b bd
       -0.037205517 -0.25532994 0.064558744 -0.06813568
000230 c6 0e 39 3e 58 93 42 be c8 ac 62 be 9c 90 61 3e
       0.18072042 -0.1900152 -0.22136223 0.2202782
000240 44 c7 71 3e ac 79 bd 3d d6 88 b2 bd fc 9e 77 3e
       0.2361117 0.09251723 -0.08717506 0.24181741
000250 d4 c2 c2 bd fe fe 5b be 78 3f 0a 3e 40 ef 5c bd
       -0.09509817 -0.2148399 0.13500774 -0.053939104
000260 58 33 27 3e 6c fb 99 bd 9c 21 91 3d 40 fe dc bc
       0.1632818 -0.07518658 0.070864886 -0.026976705
000270 e8 4c 8f be b6 db 8c be 1a f1 86 bd 36 bb 7a be
       -0.27988362 -0.27511376 -0.06588955 -0.24485478
000280 d8 a4 c8 3d c5 de 8b be f4 be 84 3e 7f c3 4a be
       0.097970665 -0.27318397 0.25926936 -0.19801138
000290 10 1f 3a 3d 00 d0 5e bd 88 15 75 3e 53 83 83 be
       0.04543978 -0.054397583 0.23933995 -0.2568613
0002a0 33 59 8a be 4e 2a 8b be a0 6b 88 bd b4 77 19 be
       -0.2702118 -0.27180713 -0.06661153 -0.1498707
0002b0 7a 53 53 be 79 f5 3d be 90 17 7a 3e 6e 3d 03 3e
       -0.20637313 -0.18550672 0.24423051 0.12816402
0002c0 68 fc f7 bd 8c 0a 34 3e 34 2a fc bd b0 37 28 3d
       -0.121086895 0.17582148 -0.12312737 0.041068733
0002d0 07 de 71 be 00 d6 4e ba c6 38 df bd d0 be cd 3d
       -0.23619853 -0.0007890165 -0.108995005 0.1004616
0002e0 66 1a 81 3e 70 4f c7 bd 58 ac 00 bd ac 3a 69 bd
       0.25215453 -0.097319484 -0.03141436 -0.05694072
0002f0 94 6b 5c 3e a8 ce af 3d ea 02 71 be 90 6a a9 bc
       0.21525413 0.085843384 -0.23536268 -0.020680696
000300 18 f6 ab 3d 44 8d 65 3e 08 f3 98 3d 38 26 77 be
       0.08396548 0.2241717 0.074682295 -0.24135673
000310 28 6a 94 bd ed 89 8e be 7c 55 9d 3d c8 00 bb bd
       -0.0724681 -0.27839604 0.076823205 -0.091310084
000320 20 86 02 bc 98 43 89 3e 62 b3 7d be b4 bb 3e 3e
       -0.007966548 0.26809382 -0.2477546 0.1862629
000330 6a 28 94 bd bb e0 06 be b0 03 a6 3d f4 55 0c 3e
       -0.07234271 -0.13171665 0.08106172 0.13704664
000340 b4 b9 a8 bd 24 26 79 3e 6c 69 62 be b8 e9 89 3e
       -0.08238545 0.24330956 -0.22110528 0.26936126
000350 d8 05 7a 3e c8 52 37 3e 16 2b 4c be 80 d5 3d be
       0.24416292 0.17902672 -0.19938311 -0.18538475
000360 f8 9e ff 3d be 82 0c be 16 51 47 3e 6d ac 14 be
       0.12481493 -0.13721749 0.19464526 -0.145189
000370 46 81 86 3e ee 49 ac bd 3f cc 92 be ec 4d dc bd
       0.26270503 -0.084125385 -0.28671452 -0.1075705
000380 94 f7 31 bd 42 88 e6 bd de 0c 4f be 3f 1c 18 be
       -0.043449 -0.11256458 -0.20219752 -0.14854525
000390 c0 b5 d3 bc 00 2c 99 3a cb 6f 8e be d0 fc a3 3c
       -0.025843501 0.0011686087 -0.27819666 0.020018011
0003a0 e0 46 05 3d 91 ef 5a be 26 5e 89 3e 61 82 8d be
       0.032538295 -0.2138045 0.26829642 -0.27638534
0003b0 e0 69 78 3c b0 34 91 3c 44 82 24 be 9e 12 85 be
       0.015161961 0.017725319 -0.16065317 -0.25990766
0003c0 50 38 61 3e a2 c6 48 be c0 94 28 3c 68 e3 ca 3d
       0.21994138 -0.19607022 0.010289371 0.099066556
0003d0 7a 17 89 3e 3c 7c 0e 3e 0a e6 1c be 15 8d 4d be
       0.26775724 0.13914579 -0.15322128 -0.2007335
0003e0 20 03 6a bd 5f fb 87 be c0 e9 5f 3e 01 78 87 be
       -0.057131886 -0.26558968 0.21866512 -0.26458743
0003f0 64 6a ac 3d 86 6a 24 3e ab 03 92 be 34 19 64 be
       0.0841873 0.1605626 -0.28518423 -0.22275239

fc2.weight f4 [256, 256]
000000 64 e0 ca 3c dc d7 e6 bc 60 1d f7 3c 08 09 39 bc
       0.0247652 -0.028179102 0.030165374 -0.011293657
000010 76 ac 35 3d 80 94 10 bc 4a d6 10 3d 86 c8 27 3d
       0.044353925 -0.008824468 0.035360612 0.04096272
000020 60 69 4e 3c 56 89 3f 3d d4 fe 71 3d 28 e7 83 bc
       0.012598366 0.046761833 0.059080914 -0.016101435
000030 28 fa 81 bc e8 65 5c 3c 40 5c f3 3b d0 da ec 3c
       -0.015866354 0.013452031 0.0074267685 0.028912932
000040 20 9a 16 bb ac 54 88 bc f8 b5 88 bc f0 42 b5 bb
       -0.002298005 -0.016641937 -0.016688332 -0.005531661
000050 cc 9e 66 bd 4a 6b 63 3d 9e b8 0a bd b0 d9 3f 3d
       -0.056303784 0.05552224 -0.03386747 0.046838462
000060 da 2f 28 bd 80 09 3e bd f8 a2 3a bd 30 c0 6a 3d
       -0.04106126 -0.04639578 -0.045565575 0.05731219
000070 74 a4 18 3d ce 9d 62 3d e0 92 a8 3c 86 cc 00 3d
       0.03726621 0.055326276 0.020577848 0.03144505
000080 e0 27 e4 3c a4 02 b6 bc 50 da 6d 3d 34 51 8e bc
       0.027851045 -0.022218056 0.058069527 -0.017372705
000090 26 a8 4e 3d 26 d3 27 3d a8 73 b6 bc 8c dd cf 3c
       0.050453328 0.04097285 -0.022271946 0.025374196
0000a0 60 c3 72 bb 9a 8b 24 3d 00 56 5c bb 90 d4 2a bc
       -0.0037042722 0.040172197 -0.0033620596 -0.010426655
0000b0 a8 54 5a 3d a8 1c 5b 3c bc ff 7b 3d f8 4f ea bc
       0.05330339 0.013373531 0.061523184 -0.028602585
0000c0 0c ea 88 bc 30 71 57 3c f4 59 ee 3c 48 7f 2b 3d
       -0.016713165 0.013149545 0.029095627 0.04186943
0000d0 18 4f 06 3c 10 81 b2 bb 02 4f 55 3d 02 6f 5b bd
       0.008197568 -0.0054475144 0.0520773 -0.053572662
0000e0 a4 82 6b 3d e4 19 79 bd 24 14 4e 3d 3c 39 db 3c
       0.057497635 -0.060815707 0.050312176 0.02676069
0000f0 9c 4d b4 bc ac f1 8f bc a0 4b 75 3c 88 c2 75 bc
       -0.022009663 -0.017571293 0.014971644 -0.014999993
000100 00 24 6b 3b dc d4 1c 3d f4 72 ed bc 0e d8 44 bd
       0.0035879612 0.038288936 -0.028985478 -0.04805761
000110 f2 62 5c 3d dc 39 8a 3c 68 80 63 bd d4 b7 b9 3c
       0.0538053 0.016873293 -0.05554238 0.022670664
000120 68 1f 31 3d 80 4a 39 3d 40 d8 d0 ba 58 21 bb 3c
       0.043242842 0.045237064 -0.0015933588 0.022843048
000130 c0 a1 83 3b d2 d9 15 3d 98 16 7a 3c 00 0c 5d 3c
       0.004017085 0.036584683 0.015264176 0.013491631
000140 e6 1a 72 bd 44 8e 2a 3d 90 56 53 3c d0 19 d6 bb
       -0.059107684 0.04163958 0.012899056 -0.006533839
000150 60 d0 67 bc 64 37 f3 bc 14 a9 de 3c 30 34 49 3d
       -0.014148802 -0.029689498 0.027180232 0.049122036
000160 46 51 43 3d b8 2d ca 3c ac d2 f8 3c 28 3a 2b bd
       0.04768493 0.024680004 0.030373894 -0.04180351
000170 b8 6b 6a bc 4c c5 a9 3c 70 3a 00 3d d8 9e a2 3c
       -0.014307909 0.020723961 0.03130573 0.019851133
000180 0c 91 04 3d d4 1e 0f 3d ea 3d 10 3d 18 ad 53 3d
       0.03236489 0.03494151 0.035215296 0.051678747
000190 0c 2d 3d 3d 0c 80 b6 3c e0 6e 23 3b c0 7c a9 ba
       0.04618554 0.022277854 0.0024937913 -0.0012930855
0001a0 72 9a 17 3d 3c 21 44 bd 60 a0 8b bb ca 18 79 3d
       0.037012525 -0.047883257 -0.0042610615 0.060814656
0001b0 20 be 8f bc 2a b2 16 3d 48 e3 47 bd 68 53 7f bc
       -0.017546713 0.036791004 -0.048800737 -0.01558385
0001c0 ac 0c e9 bc f8 b5 d0 bc c2 ac 1b bd 94 16 11 3d
       -0.028448425 -0.025477394 -0.03800655 0.035421923
0001d0 dc cd 05 3d 68 a6 3b bd 00 b0 17 38 a0 92 98 bc
       0.032667026 -0.045812994 3.616512e-05 -0.018624604
0001e0 70 6e 6a bd 00 a0 4d b9 38 a5 10 3c c8 c3 1d bc
       -0.057234228 -0.00019609928 0.008828454 -0.009629197
0001f0 50 81 74 bd 7a 7d 5f bd 90 e1 7a bd 22 e2 49 bd
       -0.059693635 -0.054563023 -0.06125027 -0.049287923
000200 28 f3 a9 bc d0 9f b8 3b 66 0d 54 3d 80 e1 de bb
       -0.020745829 0.0056342855 0.05177059 -0.006801784
000210 20 bf 29 bd 26 04 56 bd dc a3 35 3d 52 88 5f bd
       -0.041442037 -0.05225005 0.04434572 -0.054573365
000220 4c 86 5e 3d 90 6a 17 3c 32 a3 20 bd 0c 5f f0 bc
       0.054327294 0.009241715 -0.039218135 -0.029342197
000230 80 94 1e 3a c0 e0 17 3b 80 37 70 ba 40 d1 09 3d
       0.000604935 0.0023174733 -0.00091635436 0.033646822
000240 10 e8 20 bd 00 a9 1f 3d 6a 45 3b bd 4e 76 39 bd
       -0.039283812 0.03897953 -0.045720495 -0.04527884
000250 60 db 7e 3b 0a 53 5a bd 30 71 b5 bc 98 5f 65 3d
       0.0038888082 -0.05330185 -0.022148699 0.05599937
000260 80 b0 ae bc a8 7a 37 3d 5c dc 69 3d a0 a4 9f 3b
       -0.021324396 0.04479471 0.057094917 0.0048719198
000270 96 ed 02 3d 72 da 39 bd fc 2d fb bc ae de 50 3d
       0.03196486 -0.04537434 -0.030661575 0.050993614
000280 b6 b4 50 3d ca 8c 6b bd 4a ed 35 bd 22 f9 0f 3d
       0.05095359 -0.057507314 -0.04441575 0.0351497
000290 8c b1 bc bc c0 03 f5 3a 62 92 4b 3d 70 00 54 3d
       -0.02303388 0.0018693134 0.04970015 0.05175823
0002a0 64 d2 49 3d 64 42 e7 bc 38 73 73 3c 84 aa 4a 3d
       0.04927291 -0.0282299 0.014859013 0.049479023
0002b0 80 16 ab bc 10 47 db 3c 60 7d 49 3d 6e 23 6a bd
       -0.020884752 0.026767284 0.049191833 -0.057162695
0002c0 02 1b 74 bd 68 49 22 3c fa 9b 52 bd 44 8f 35 bd
       -0.05959607 0.009905197 -0.051418282 -0.044326082
0002d0 7a b4 4f 3d 4c 9d 7f bd d0 43 2e 3d 8a 91 0c 3d
       0.050709225 -0.06240587 0.04254514 0.034318484
0002e0 6e 46 6d bd 86 07 7d bd c4 1a 6d 3d 0c ca 32 3d
       -0.057928495 -0.061774753 0.057886854 0.04364972
0002f0 90 0a d4 bb 40 2a 3a 3d f4 8d 81 3c 7e af 68 bd
       -0.0064709857 0.04545045 0.015814759 -0.056807987
000300 6e 9c 73 3d 40 91 13 3b e6 20 51 3d 3c a2 e1 3c
       0.059475355 0.0022516996 0.051056765 0.02754318
000310 78 62 43 3c d2 01 2f 3d 28 83 a1 bc 78 b6 08 bc
       0.011925332 0.042726345 -0.01971586 -0.008344285
000320 da 1f 73 3d e0 49 d5 3b 74 58 54 3d 64 ec 31 3d
       0.059356548 0.0065090507 0.051842168 0.04343833
000330 00 52 48 bb b0 89 61 3d e8 b2 53 3c b0 36 e2 bc
       -0.0030566454 0.05506295 0.012921073 -0.027613968
000340 10 fa e1 bc 78 48 84 bc dc d9 26 3d 88 ea 5a 3c
       -0.02758506 -0.016147837 0.04073511 0.013361581
000350 c4 6a 2a bd 00 9f 09 3c a0 05 d8 bc a4 85 63 bd
       -0.041605726 0.008399725 -0.02636987 -0.05554737
000360 d0 ab fb bc 6e 71 50 bd d0 c4 f6 bb 6c 10 5b 3d
       -0.030721575 -0.050889425 -0.007530786 0.053482458
000370 02 46 7a 3d 30 1d 80 bb 6c cc 67 bd c2 f5 13 3d
       0.06110192 -0.0039097294 -0.056591436 0.036123045
000380 b8 fc 71 bc b0 63 eb bc 58 f6 58 3c 10 e9 6e bc
       -0.0147697255 -0.028734058 0.013242327 -0.014581934
000390 9e b4 5b 3d a0 b7 2a bc ee 4a 01 bd c0 b0 da 3c
       0.053639047 -0.010419756 -0.0315656 0.02669561
0003a0 b4 3b 28 bd 58 a0 19 bc a0 df d0 3b a8 fe 2e bd
       -0.041072562 -0.009376608 0.0063743144 -0.042723328
0003b0 4c cb 7e bd 58 3f dc bc 1c a3 27 3d d8 67 7c 3c
       -0.062205598 -0.026885673 0.040927038 0.015405618
0003c0 ec 22 93 3c f8 44 5a bc 2e fd 6e 3d c0 1c cf 3a
       0.017960988 -0.0133221075 0.05834692 0.0015801415
0003d0 24 aa fa 3c 1c d7 fe 3c 80 21 75 bb e0 e0 28 3b
       0.030598707 0.031108432 -0.0037404 0.0025768802
0003e0 70 ca 0f bc a0 d9 01 3b b4 e4 07 3d e0 d1 45 bc
       -0.008776292 0.0019813552 0.033177093 -0.012073964
0003f0 ec c7 71 bd 10 c2 87 3b 84 74 e0 3c 50 8c 17 bc
       -0.05902855 0.004143007 0.027399309 -0.009249762

fc2.bias f4 [256]
000000 88 d6 cc bc b4 57 2a bd 80 fb fc bb 30 17 a6 bb
       -0.02500464 -0.041587546 -0.007720411 -0.005068682
000010 58 c1 32 bd 60 c9 46 bb f0 cd 5f bc 90 f5 c5 3b
       -0.04364142 -0.0030332431 -0.013659939 0.006041236
000020 28 df ea 3c 68 b1 55 3c 46 1a 7b bd 58 5a 6a 3d
       0.028670862 0.013042785 -0.061304353 0.057215065
000030 c4 ed 42 bd 0a e0 2b bd e0 6b 74 bc 90 fb 7d bd
       -0.047590032 -0.041961707 -0.0149182975 -0.062007487
000040 ec 48 d3 bc d8 a9 f5 3c 0c 1a 17 bd 1c d7 ad bc
       -0.025791608 0.029988214 -0.036890075 -0.021220736
000050 60 78 22 3b 28 dc 6c 3c bc 77 f9 bc 90 86 1f 3c
       0.0024790987 0.014456786 -0.030452602 0.009736672
000060 a0 bd 1f 3b 70 51 55 bd 18 21 6b 3c d0 a4 f2 3c
       0.00243745 -0.052079618 0.014351152 0.029619604
000070 20 fd 56 3d 40 4a 45 bd d8 17 2c 3c d2 54 24 3d
       0.052487493 -0.048166513 0.010503732 0.040119953
000080 74 26 a0 bc 00 75 80 3a 20 f8 c5 3b ce 45 35 bd
       -0.019549586 0.0009800494 0.0060415417 -0.044256024
000090 6e c2 67 bd 20 2f 2e 3c e6 3a 39 bd dc e8 17 3d
       -0.056581907 0.010631353 -0.045222186 0.037087306
0000a0 28 19 aa bc 68 66 bb 3c 6e c3 6d 3d b0 ae 8a 3c
       -0.020763949 0.02287598 0.058047704 0.016929
0000b0 00 8a 69 3c 04 ac 19 3d c4 c5 63 bd 50 e2 38 3c
       0.014254093 0.037517563 -0.055608526 0.011284426
0000c0 cc 7c 1d bd d0 f4 94 3c 78 7f 66 3c 04 19 ca bc
       -0.038449094 0.018183142 0.014068477 -0.024670132
0000d0 aa 90 10 bd 8e 4b 3e 3d 10 15 68 bc a8 06 8a 3c
       -0.035294212 0.046458773 -0.014165178 0.016848877
0000e0 60 5a ab bb 4c 41 95 bc bc b4 56 3d a0 24 2b bc
       -0.0052292794 -0.018219613 0.052418455 -0.010445744
0000f0 54 a0 1a bd d0 95 1d 3d 80 7a ce bc e0 e8 0d 3b
       -0.037750557 0.03847295 -0.025204897 0.0021653697
000100 fc fc 8b bc 58 60 25 3d 14 83 96 3c e4 3c 59 bd
       -0.017088406 0.040375084 0.01837305 -0.053036585
000110 42 1b 2b bd a0 04 81 bb 38 1f ff 3c 60 21 f8 bb
       -0.041774042 -0.003937319 0.031142816 -0.007572338
000120 a8 e4 2b bd ec 13 46 3d 70 47 fa bb c0 26 f3 ba
       -0.04196611 0.048358843 -0.0076379105 -0.0018550977
000130 88 fc e9 3c c0 a1 d0 3c a0 7e 99 bb 2e 8e 3b 3d
       0.0285628 0.025467753 -0.0046842843 0.04578989
000140 ac ce 9b 3c 78 15 13 3c 38 5a 04 3c ea ac 7e bd
       0.019019447 0.0089772865 0.00807815 -0.062176622
000150 f8 1e 9f bc 00 7f f5 bb 50 5e e1 bc 30 2c 28 3c
       -0.019423947 -0.007491946 -0.027510792 0.010264441
000160 c0 47 ca 3c 90 c1 9e 3b 70 4c e7 3c 4a 0e 38 bd
       0.024692416 0.004844852 0.02823469 -0.044935502
000170 80 2f db bc 34 fc d9 3c 70 8a c0 bc 22 92 41 bd
       -0.026756048 0.026609518 -0.023503512 -0.047258504
000180 32 71 46 bd 38 b8 e6 3c b2 43 60 3d e8 ee f0 bc
       -0.048447795 0.028164014 0.05475206 -0.029410794
000190 48 9d 33 bd 56 3c 44 bd a0 90 85 3c 94 dc d7 bc
       -0.043851167 -0.047909103 0.016304314 -0.026350297
0001a0 d0 79 5d 3d fa e0 32 bd 6a d7 7e 3d 58 55 7c bd
       0.054071248 -0.043671586 0.062217154 -0.061604828
0001b0 26 e1 7d bd 48 1f e7 3c 88 5c 96 3c 68 83 ea 3c
       -0.061982296 0.028213158 0.01835467 0.028627113
0001c0 f2 53 41 3d fc ad c2 bc 88 8f 13 bc 5c ad 0f bd
       0.047199197 -0.023764603 -0.0090063885 -0.035077438
0001d0 ac 6f af bc b0 6b 0f bd 60 b3 20 bc 46 53 3c bd
       -0.021415554 -0.03501481 -0.009808391 -0.045977853
0001e0 f8 3e be 3c 50 34 8b bb 10 1e 12 3c 46 69 30 3d
       0.023223385 -0.0042481795 0.0089183 0.043069147
0001f0 30 81 a9 3b 04 78 e3 bc e0 a5 fd bc e4 f5 19 bd
       0.005172871 -0.027767189 -0.030962884 -0.037588015
000200 18 63 46 bd ea 43 2b 3d 6a 8c 23 3d 40 77 c6 ba
       -0.048434347 0.041812815 0.03992883 -0.001514174
000210 78 64 d1 bc 14 30 ec bc 50 03 3b bc 2c 07 e3 bc
       -0.025560603 -0.02883152 -0.011414364 -0.02771338
000220 40 75 67 bb d0 89 6a 3d 50 8f b9 bc be 16 58 bd
       -0.003531769 0.057260334 -0.022651345 -0.052756064
000230 5a 96 7d bd bc 6a 1f 3d 1e 31 37 3d c0 94 70 bc
       -0.061910965 0.03892015 0.044724576 -0.014683902
000240 88 5b 4b bd be 10 24 3d b0 62 5d bd 78 b2 6a bc
       -0.049647838 0.04005503 -0.054049194 -0.014324777
000250 20 05 12 bb 60 7d 35 3b 00 57 ac bb 56 67 4c 3d
       -0.0022280887 0.0027693138 -0.0052593946 0.049903236
000260 c8 16 d9 3c 58 b1 b8 bc b0 b8 88 bb 60 71 57 bd
       0.02650012 -0.022545502 -0.004172407 -0.052598357
000270 c4 41 cc 3c da 8b 7f bd d4 c7 77 bd fc 27 65 bd
       0.024933703 -0.062389232 -0.060493305 -0.055946335
000280 20 09 e4 3c f0 e4 17 3c 74 24 a2 bc 00 b4 16 bd
       0.027836382 0.009270892 -0.019792773 -0.036792755
000290 44 14 28 bd b2 38 7b 3d f0 3d 6d bc 40 b6 1e 3c
       -0.04103495 0.061333366 -0.014480099 0.0096870065
0002a0 fa 6b 77 3d d8 31 06 3d 12 43 10 3d 52 60 4c 3d
       0.06040571 0.03276238 0.035220213 0.049896546
0002b0 a0 0c 59 3c 22 6d 6c 3d f4 c9 a2 3c 3e 37 5b 3d
       0.013247639 0.057721265 0.01987169 0.05351948
0002c0 b8 b9 5d bc 00 9e 71 3a 28 c5 41 bc c0 a1 53 3d
       -0.013533048 0.0009216964 -0.011826791 0.05166793
0002d0 e0 71 40 3b 38 35 e4 3c 90 ad 7d bc 70 2b a2 3c
       0.002936475 0.027857408 -0.015483275 0.019796103
0002e0 34 a0 74 bd 94 5b 8f 3c c0 c3 24 bc 76 87 35 bd
       -0.059723094 0.017499723 -0.010056436 -0.04431864
0002f0 9c 18 d4 bc e6 e9 30 bd 20 24 33 3d ee 79 73 3d
       -0.02589064 -0.043191813 0.043735623 0.059442453
000300 6c 9a a5 3c 00 0a 99 3c 20 ac 19 3d 22 56 4c 3d
       0.020215236 0.018681526 0.037517667 0.04988683
000310 e0 3b 2d bc 84 5f 64 bd a0 80 38 3b fe 0b 11 bd
       -0.010573357 -0.055755153 0.0028152838 -0.035411827
000320 60 a6 62 3d ae 7f 5a 3d e4 25 f9 bc 1c b8 cd 3c
       0.05533445 0.05334442 -0.030413575 0.025112204
000330 d8 58 bc 3c 16 84 27 bd 48 89 30 3c f8 59 6c 3d
       0.022991583 -0.04089745 0.010774918 0.05770299
000340 30 b9 7e bc 60 22 44 3c a0 22 1e bd b0 93 b5 3c
       -0.015547082 0.011971086 -0.03860724 0.02216515
000350 d4 91 bc 3c 5e 76 52 3d 38 91 4a 3c 9c e5 e4 bc
       0.023018755 0.051382415 0.012363724 -0.027941518
000360 88 8b 86 bc ee 06 56 3d 00 b7 cd 3c 5c 7a 82 bc
       -0.016423956 0.052252702 0.025111675 -0.015927486
000370 98 91 2b bc 08 7e 90 3c c0 a3 35 3d 0c 12 bf 3c
       -0.010471724 0.017638221 0.044345617 0.023324035
000380 ec c3 33 3d 4c 20 11 3d 00 c8 f7 3b 36 86 09 bd
       0.043888018 0.03543119 0.0075616837 -0.03357526
000390 90 f2 5f 3c 9a c3 0b bd 5c 05 3f 3d a4 44 b3 3c
       0.013668671 -0.034122087 0.04663597 0.021883316
0003a0 c4 fa 12 bd d0 4e 21 3d 9c 5d 4d bd 60 e0 76 3b
       -0.03588368 0.039381802 -0.0501381 0.003767036
0003b0 a8 32 5f 3d e4 1a 24 bd 70 af f8 3b 00 8e 71 3d
       0.05449167 -0.040064707 0.007589273 0.058973312
0003c0 8e 28 22 3d 70 c7 4b bd 00 66 78 3b 00 77 04 3c
       0.039589457 -0.049750745 0.0037902594 0.008085012
0003d0 b2 fb 4e bd 60 c1 d6 3c 80 9d e1 ba 4c 8d 03 3d
       -0.050533004 0.026215255 -0.0017213076 0.032117173
0003e0 a0 5c 27 3d d4 11 70 bd cc 71 37 bd fc 28 c8 3c
       0.04085982 -0.058610752 -0.04478626 0.024433605
0003f0 38 cd ea 3c 20 8d 0f 3d d8 64 1f bc 3c 53 f8 bc
       0.028662309 0.035046697 -0.009728633 -0.030313127

fc_mean.weight f4 [6, 256]
000000 e6 0d 27 3d a8 36 eb bc e2 d0 1c 3d d0 e0 2a bd
       0.04078474 -0.028712586 0.038285144 -0.041718304
000010 2c c5 4e 3d fc 6a b6 bc 68 d6 3a bc 54 27 94 bc
       0.050481007 -0.022267811 -0.0114036575 -0.01808516
000020 e4 36 57 3d 78 d3 bc bc cc f9 bf 3c b0 c5 76 3d
       0.052542582 -0.023050055 0.023434542 0.060247123
000030 80 a5 4d 3c 88 2b 25 3c 76 ef 79 bd e0 ac ba 3c
       0.012551665 0.010081179 -0.061019383 0.022787511
000040 c0 65 23 3c f6 42 26 bd 36 9d 11 3d fc ec 51 3d
       0.00997299 -0.040591203 0.03555032 0.051251397
000050 6e c4 3f 3d 30 62 c4 3b 2c 58 a5 3c be 67 5a 3d
       0.04681819 0.00599315 0.020183645 0.053321593
000060 ac e2 02 bd a8 9c 6d bd 72 80 0c 3d fa 61 39 bd
       -0.031954452 -0.058010727 0.034302182 -0.045259453
000070 20 95 73 3d 58 62 3a bd 26 4e 56 bd 10 69 70 3c
       0.05946839 -0.045503944 -0.052320622 0.014673486
000080 d8 d0 4e bc 38 f1 50 bc 68 fb 21 3c 64 f4 c9 bc
       -0.012623034 -0.0127528235 0.0098866 -0.024652667
000090 80 dc 27 bc a0 20 1a bd 28 39 42 bd 7c 9a 66 bd
       -0.010245442 -0.03762877 -0.04741779 -0.05629967
0000a0 78 9f 09 3d 48 64 13 3c 16 23 6c bd 9e 2a 17 3d
       0.033599347 0.008996077 -0.057650648 0.036905877
0000b0 92 fe 36 3d 88 2e c0 bc a0 27 31 bc e4 84 40 3d
       0.04467637 -0.023459688 -0.01081267 0.047001734
0000c0 70 96 72 bc c0 77 55 bc e4 d2 28 3d 18 98 db 3c
       -0.014806375 -0.013029039 0.041216746 0.026805922
0000d0 9c da ad 3c 2e 93 10 bd f0 3f bf 3b 2c bc d0 bc
       0.021222405 -0.03529661 0.0058364794 -0.025480352
0000e0 f4 dc a5 bc fc 2f 5a bd ea 5c 7b bd 2c 89 f9 3c
       -0.02024696 -0.053268418 -0.061367907 0.030460916
0000f0 50 c6 27 bd c0 0e a8 bc 50 ce d5 3b 38 7e 06 bc
       -0.04096061 -0.020514846 0.0065248385 -0.008208804
000100 8e 45 1f bd 14 6e 67 3d b8 77 9c 3c 44 9e 79 3d
       -0.038884692 0.056501463 0.019100055 0.06094195
000110 20 67 26 bb e0 c6 ca 3b ea fc 62 bd f2 52 2a 3d
       -0.0025391057 0.0061882585 -0.05541698 0.04158301
000120 d0 64 6e bc b4 27 b9 bc a0 39 d9 bb 88 77 d5 bc
       -0.014550403 -0.02260194 -0.006629184 -0.026057974
000130 84 6f bc bc 90 33 01 bd 8e b4 0d 3d 00 a2 f3 ba
       -0.023002394 -0.031543314 0.03459602 -0.0018587708
000140 40 9b 10 3c ec 29 88 3c 52 4e 63 bd ea bd 56 bd
       0.008826077 0.016621552 -0.055494614 -0.05242721
000150 7a 2f 15 3d 78 79 55 bd c0 7b 90 3b 6c 98 48 bd
       0.03642223 -0.052117795 0.0044092834 -0.048973486
000160 b2 64 78 bd 9e 07 73 bd bc 24 4b bd 7a 8f 33 bd
       -0.060642906 -0.059333436 -0.04959558 -0.043838
000170 48 8d 48 bc 7c 57 ba 3c 3c 0a a1 3c c8 b1 28 3c
       -0.012240715 0.022746794 0.0196582 0.010296293
000180 18 8f 22 3d 20 e9 17 bb de 26 60 bd 24 e2 81 bc
       0.039687246 -0.0023179725 -0.054724567 -0.015854903
000190 c2 bb 41 3d 14 6c e0 3c 60 08 f7 3b 00 58 e8 bc
       0.0472982 0.027395286 0.00753884 -0.028362274
0001a0 74 6b 18 3d 48 12 b8 3c 00 5e 89 3c 90 e7 03 bd
       0.03721185 0.022469655 0.016768456 -0.032203257
0001b0 a8 6e df 3c 30 2f 38 bd c8 74 25 3c a4 49 23 3d
       0.027274445 -0.044966877 0.010098644 0.03986515
0001c0 86 64 16 bd 68 c1 fc bc 66 71 18 bd c0 c6 2b bb
       -0.03671696 -0.030853942 -0.03721752 -0.0026210994
0001d0 86 00 60 3d 34 5a d4 3c e0 17 0f 3c c8 d8 c2 bc
       0.054688 0.025921918 0.00873372 -0.02378501
0001e0 6c f4 9b bc e0 c0 7c bc 90 bf 1a bc d0 35 5a 3d
       -0.019037448 -0.015426844 -0.009445086 0.053273976
0001f0 88 19 9d bc 78 33 02 3d 36 f4 4a bd a8 08 66 bd
       -0.019177213 0.031787366 -0.049549304 -0.0561606
000200 f0 6a e6 3c f8 d0 76 3d 94 6c 1f bd f8 e0 75 3d
       0.028127164 0.060257882 -0.038921908 0.060029
000210 f0 5a d8 3c c6 f3 3a bd 8c 43 f2 3c 5e 0e 25 3d
       0.02641055 -0.045642637 0.029573224 0.040296905
000220 e4 d8 ca bc 60 68 db bb f0 ff 1f 3c e8 45 e2 bc
       -0.024761625 -0.006695792 0.00976561 -0.027621225
000230 00 d9 67 3c 30 a3 76 bc 10 d0 7f 3c 78 1e e8 bc
       0.014150858 -0.015053555 0.015613571 -0.028334841
000240 a6 fe 54 3d 66 70 2a 3d ee 40 69 3d 64 ae a9 3c
       0.052000664 0.041611098 0.056946687 0.020713039
000250 48 59 59 3c 98 8d f5 3c 00 98 e5 bb 98 8d 14 3d
       0.013265915 0.029974744 -0.007006645 0.036267847
000260 d8 5c 6f 3d 7a c6 29 bd 08 7e 04 bc c4 ee f2 bc
       0.058438152 -0.041449048 -0.008086689 -0.029654868
000270 c0 5c d8 3c 12 f9 44 3d e8 40 74 3d 74 9e 3d bd
       0.026411414 0.048089094 0.059632212 -0.04629369
000280 c0 23 35 bd 78 d8 a6 3c 48 61 4d bc 08 00 66 bd
       -0.044223547 0.020366892 -0.012535401 -0.056152374
000290 b0 1b e2 bc d8 cf 3f 3c b4 24 cc 3c d8 9c 21 bd
       -0.027601093 0.011707269 0.024919845 -0.03945622
0002a0 a0 e7 7f 3d f6 fd 17 bd a8 4f f4 3c 26 94 08 bd
       0.062476754 -0.03710743 0.02982314 -0.03334441
0002b0 00 c4 10 bd 80 34 a7 3c b0 67 2f bd 7a d9 13 3d
       -0.03534317 0.020410776 -0.042823493 0.036096074
0002c0 08 0d 56 3c 1a 99 50 3d a0 08 8e 3c c0 c4 1d 3c
       0.01306463 0.05092726 0.017338097 0.009629428
0002d0 cc 20 d6 bc fc 95 54 3d 90 1d 56 3d 18 47 a6 3c
       -0.026138686 0.05190085 0.052274287 0.020297572
0002e0 dc b8 41 3d 2c e3 3c 3d f0 76 14 3c ac 34 fd bc
       0.047295436 0.046115085 0.00906156 -0.030908905
0002f0 00 f2 c4 bb 9c 2e 68 bd c8 fd e3 bc b8 e1 36 3d
       -0.006010294 -0.056685075 -0.027830973 0.044648856
000300 9c 78 d4 bc 8a 32 0a bd 2c fb 18 3d ce e1 64 bd
       -0.025936417 -0.033739604 0.03734891 -0.055879407
000310 40 56 6b 3d 06 2f 19 3d a8 c7 13 bd d8 25 52 bc
       0.0574553 0.03739836 -0.03607908 -0.012826405
000320 36 bb 29 3d dc 47 b6 3c 62 b2 4c bd c0 6c b0 3c
       0.041438304 0.022251062 -0.049974807 0.021536231
000330 50 c7 f6 bb 56 56 52 bd fc cf 42 3d 20 78 5f bb
       -0.007531084 -0.051351868 0.04756163 -0.00340987
000340 e0 62 82 3b d2 e8 6c bd 50 ed e4 3c a0 30 27 bc
       0.003979072 -0.057839222 0.02794519 -0.010204464
000350 ca 9e 76 bd f0 14 b8 bc d8 06 32 bc e8 d1 00 bd
       -0.060210027 -0.022470921 -0.0108658895 -0.031450182
000360 40 6d 14 bb cc 67 7d bd a4 21 1c bd 28 08 3e 3d
       -0.0022648126 -0.061866567 -0.03811802 0.046394497
000370 f0 20 50 bc 4a b5 07 3d 10 ff c4 bb 90 c3 cf 3b
       -0.012703165 0.033131875 -0.006011851 0.0063404515
000380 7a a3 19 bd 00 db e5 3b 12 91 37 bd e0 22 da bb
       -0.03750942 0.007014632 -0.044816084 -0.0066569895
000390 46 bf 4b bd 16 1e 7f 3d 5c ab d6 bc c0 f1 6c bd
       -0.04974296 0.06228455 -0.026204757 -0.05784774
0003a0 4c d0 ee 3c ac bc f5 3c ec e7 f1 bc 3e 6b 6f 3d
       0.029152058 0.029997192 -0.029529534 0.058451883
0003b0 00 79 cc 3c e0 8d df bc 78 9e 55 bc 3e 2a 58 3d
       0.024960041 -0.027289331 -0.01303827 0.05277466
0003c0 00 c5 ff ba 80 3e 6b bb 78 b3 5e 3c 40 e0 17 bc
       -0.0019513667 -0.0035895407 0.013592593 -0.009269774
0003d0 98 9d 7c bd e0 cc 71 bd 4c 62 f5 3c 52 67 19 3d
       -0.06167373 -0.059033275 0.029954098 0.03745205
0003e0 90 8e bd bb 02 8a 16 3d da 63 4f bd c2 ff 1d bd
       -0.005784817 0.03675271 -0.050632335 -0.038573988
0003f0 78 23 72 bc 30 59 29 bc 48 19 b8 bc e4 4a af 3c
       -0.014778964 -0.010336205 -0.022472993 0.021398015

fc_mean.bias f4 [6]
000000 90 7e af bc 34 9e 21 bd 28 da 64 3c b8 69 d6 3c
       -0.021422654 -0.039457515 0.013968028 0.026173458
000010 a0 a0 72 3b b0 ef 8f bb
       0.003702201 -0.0043925866

fc_log_std.weight f4 [6, 256]
000000 40 2c d5 3a 98 93 a4 3c 1e 79 16 bd 40 52 22 3d
       0.0016263798 0.02008991 -0.0367366 0.03962922
000010 30 23 e4 3b 66 61 7c bd 7c c9 36 3d 60 82 70 3b
       0.0069622025 -0.061616324 0.044625744 0.0036698803
000020 60 62 4c 3d 38 84 5a 3c 20 f1 5e 3b f2 31 2b 3d
       0.049898505 0.0133371875 0.0034018233 0.04179568
000030 40 c7 45 3b 34 65 b7 bc 2c 11 c6 3c 28 8f 54 bc
       0.0030178577 -0.022387125 0.02417811 -0.012973584
000040 20 18 0f 3b b8 01 53 3d a0 63 25 3b f4 25 01 3d
       0.0021834448 0.05151531 0.0025236383 0.031530336
000050 6e 8e 46 3d ec d5 d3 bc 90 1a e1 3b b4 8a 16 bd
       0.048475675 -0.025858842 0.0068696216 -0.03675337
000060 0c 68 66 3d e8 09 a5 3c 38 5f c5 bc 00 0d 0f 3a
       0.05625157 0.020146325 -0.024093255 0.0005456954
000070 3e 3f 55 bd 7e 9c 5d 3d 18 0d 71 bd 12 84 14 bd
       -0.052062266 0.05410432 -0.058850378 -0.036258765
000080 00 82 66 bb 8a 37 5f 3d d8 84 03 bc 52 55 16 3d
       -0.00351727 0.054496326 -0.008027278 0.03670246
000090 c0 23 d4 ba c4 fa d7 3c 00 8f e5 39 98 ed 7f bc
       -0.0016184971 0.026364692 0.00043784827 -0.015620612
0000a0 a8 a9 4c 3c e0 df 4d bb 08 16 13 3d d8 34 2e bc
       0.012491621 -0.0031413957 0.035909683 -0.010632716
0000b0 60 48 b6 bc 80 60 da 3c bc c6 bb bc ea db 3a 3d
       -0.022251308 0.026657343 -0.022921912 0.045619883
0000c0 c6 16 7b bd 48 00 64 3c 10 7c 92 bc b2 e6 63 bd
       -0.061301015 0.013916083 -0.017881423 -0.05563993
0000d0 5a ed 58 3d 90 c8 84 bc 10 be b9 3c 00 2d ce 3a
       0.05296073 -0.016208917 0.022673637 0.0015729964
0000e0 60 d7 fd bc e0 75 54 3b 74 46 ab bc e0 a2 0b bc
       -0.030986488 0.0032418892 -0.020907618 -0.008522719
0000f0 e0 05 57 bd d8 46 cc bc 2e 17 63 3d 80 4f 53 3d
       -0.052495837 -0.024936125 0.055442028 0.05158949
000100 ec a9 34 3d e8 f6 87 bc 08 ff c8 3c e4 a7 aa bc
       0.044107363 -0.016597226 0.02453567 -0.02083201
000110 c4 5f 7d 3d ac b8 86 3c d6 86 18 bd d4 ae 55 bd
       0.061858907 0.01644548 -0.037237965 -0.052168682
000120 20 ea 4d bd 86 89 20 3d 88 82 4e bc 4a 60 00 bd
       -0.050272107 0.039193653 -0.012604363 -0.03134183
000130 6c 43 a8 bc 64 11 88 bc 70 b5 ea 3c 30 11 26 3c
       -0.020539962 -0.016609855 0.02865097 0.010135934
000140 f2 43 3f bd 86 8d 3f 3d 36 1c 22 bd e0 1c e6 bc
       -0.046695657 0.046765827 -0.039577685 -0.02808994
000150 58 35 19 bc 70 3d 77 bc 48 3d 66 bd b0 70 61 bd
       -0.009351097 -0.015090331 -0.056210786 -0.055039108
000160 94 26 d2 bc 2c 86 5a bd a6 bf 38 bd 84 ba 1f bd
       -0.025653161 -0.053350613 -0.045104645 -0.038996235
000170 dc b8 25 bd 14 7c cc bc ce 75 53 bd 78 9f e3 3c
       -0.0404595 -0.024961509 -0.05162602 0.027786002
000180 bc 74 dc 3c 38 36 87 bc 40 44 be 3a 50 65 4a 3d
       0.026911132 -0.016505346 0.001451619 0.049413025
000190 30 ec e3 bc 22 1a 2c bd 04 59 fc bc c6 9b 24 3d
       -0.027822584 -0.04201711 -0.030804165 0.04018762
0001a0 9c 6f 68 3d 00 f8 d5 bc 00 84 e8 b9 64 ce d3 bc
       0.056747064 -0.026119232 -0.00044348836 -0.02585525
0001b0 30 5f ba bc 30 43 29 3c 2c e7 4b bd 70 00 6a bd
       -0.022750467 0.01033096 -0.04978101 -0.057129323
0001c0 bc e3 09 3d 00 06 63 3d d8 04 03 3d 50 ff 7d bc
       0.03366445 0.055425644 0.03198704 -0.015502766
0001d0 ac 48 a6 bc 94 7f 63 3d fe 07 00 bd 10 16 fd bb
       -0.020298325 0.05554159 -0.031257622 -0.0077235773
0001e0 f0 0f f1 bb 7e 03 6c bd 70 32 7e bc e0 89 d6 bc
       -0.007356636 -0.057620518 -0.015514955 -0.02618879
0001f0 08 c5 2b bd f0 ba 44 bc 70 1a 1f 3c 44 b6 cc 3c
       -0.04193595 -0.01200746 0.009710893 0.024989255
000200 88 3f 2d 3d a4 9f 4d bd 00 41 57 bc e0 7d 10 bc
       0.042296916 -0.050201073 -0.013138056 -0.008819073
000210 30 1c 57 3d 38 e5 f6 3c 20 a0 56 bc 3c 0e 8a 3c
       0.052517116 0.030138597 -0.0130997 0.01685249
000220 6c 69 44 3d f0 5a 95 bb c0 92 b5 bb 2a 22 1a bd
       0.0479521 -0.0045579597 -0.0055411756 -0.037630238
000230 38 7e 59 3d 4a 1f 74 bd 88 06 ca 3c 7c 6d a0 bc
       0.053098887 -0.059600152 0.024661317 -0.019583456
000240 f4 21 65 bd 40 c1 7e 3b c4 8b f8 3c 56 57 79 bd
       -0.055940583 0.003887251 0.030340083 -0.060874306
000250 50 05 79 3d d2 b7 18 bd 40 bf 5a bd 00 a8 22 ba
       0.060796082 -0.03728468 -0.053405046 -0.00062048435
000260 6c ab 3e 3d 36 a7 34 3d a8 2b 7d 3d 20 a7 d1 bc
       0.0465502 0.044104777 0.061809212 -0.025592387
000270 5c 88 94 bc a0 11 f9 3b c0 f3 96 bc 56 2f 4f 3d
       -0.018131427 0.007600978 -0.018426776 0.050582252
000280 7c b9 0f bd e4 fe aa bc 00 7f 44 bd dc ce 2c bd
       -0.035089 -0.020873494 -0.04797268 -0.042189464
000290 00 52 ab b9 90 5b 24 bd a2 bb 25 bd 00 3a b8 bc
       -0.00032676756 -0.040126383 -0.040462144 -0.022488594
0002a0 d0 df c6 3b 38 ce 03 3c f8 4a ab 3c e0 f8 53 bd
       0.006069161 0.008044772 0.020909771 -0.051751018
0002b0 5e 4f 0a 3d d8 7b 6f 3c de 94 3a 3d 00 e3 ec bb
       0.033767097 0.014616929 0.045552127 -0.007229209
0002c0 44 9b 09 3d bc 86 b2 3c a4 5e 9d 3c 26 50 63 3d
       0.03359534 0.021792762 0.019210167 0.055496357
0002d0 5a 8a 53 bd 00 27 b4 bc c4 19 bb 3c 98 da 50 3d
       -0.051645614 -0.021991253 0.022839434 0.050989717
0002e0 d4 ac cc 3c 54 d2 95 bc 20 e2 48 3b c0 62 da ba
       0.024984755 -0.018288769 0.003065236 -0.001666151
0002f0 78 a0 70 3d ac 6f 4b 3d fe 63 19 3d 30 8f 20 3c
       0.058746785 0.049667045 0.037448876 0.009799764
000300 ac 7e 9e 3c 78 97 45 bd f0 9e 93 3c 60 56 19 3c
       0.019347511 -0.048240155 0.018020123 0.009358972
000310 34 e4 c6 bc 38 7d aa 3c c8 cf 29 bd b0 ee bb bc
       -0.024278738 0.020811662 -0.04145792 -0.022940964
000320 be 99 74 bd 64 bd dd bc 40 ec c9 3c 4c 09 7e 3d
       -0.059716932 -0.027067848 0.024648786 0.062020585
000330 60 0f fc 3c 24 39 10 bd 12 86 64 3d a4 78 3e bd
       0.03076905 -0.035210744 0.055791922 -0.04650177
000340 3e 4c 46 3d 58 5c 7c 3d 84 03 7f 3d a2 44 28 bd
       0.048412554 0.061611503 0.062259212 -0.04108108
000350 a0 b5 e5 bb c8 02 90 bc 38 bd 2a bc ec dd 1d bd
       -0.007010177 -0.017579451 -0.01042109 -0.03854172
000360 b4 13 86 bc e8 b0 2e 3d 60 a5 92 bb f2 88 40 3d
       -0.016366817 0.04264918 -0.0044752806 0.0470056
000370 e0 21 bc bb f2 82 62 3d 96 2f 42 3d 70 0d da bb
       -0.005741343 0.05530066 0.047408663 -0.006654434
000380 b0 ac c5 bc 62 c8 3a 3d 1e 2e 6c 3d ac f2 02 3d
       -0.024130195 0.045601256 0.05766117 0.03196971
000390 b6 3f 0c 3d 2a b4 77 3d e4 cb 35 bd 70 6a 88 3b
       0.034240447 0.060474552 -0.0443839 0.004163079
0003a0 20 d2 a3 bc 08 06 02 3d 54 d4 57 bd a8 94 63 3c
       -0.019997656 0.031744033 -0.052692726 0.013890423
0003b0 20 9f 01 3b a8 54 10 bc 08 83 59 3d 9c 1a 35 3d
       0.0019778684 -0.008809246 0.053103477 0.04421483
0003c0 74 44 10 bd 6a 4e 78 3d a0 d8 10 3b fc 10 8d 3c
       -0.035221532 0.060621656 0.0022101775 0.017220013
0003d0 e0 33 74 3c 94 93 0a bd 40 c7 a9 3a d8 92 3c bd
       0.014904946 -0.033832148 0.0012953058 -0.04603848
0003e0 28 2e 45 3d e8 11 bf bc 78 8e 1e bd 3e 5e 18 3d
       0.04813972 -0.023323968 -0.038710088 0.03719925
0003f0 a0 e7 34 3d 62 81 4a 3d 98 bf a0 3c 84 06 3d 3d
       0.044166207 0.049439795 0.019622609 0.046148792

fc_log_std.bias f4 [6]
000000 30 0f 34 3d 5c 8d 68 3d 66 99 55 bd e0 ef 6d 3d
       0.043959796 0.056775436 -0.052148245 0.05809009
000010 2e cc 2a 3d ac 67 14 bd
       0.041698627 -0.03623168
