output/MAPPO/lxl/weight/actor_agent_0_ep_8400.pth (torch, 292136 bytes, 8 tensors)

fc1.weight f4 [256, 12]
000000 c0 76 0b bc 02 91 87 be 69 ae 87 be 42 b0 2b be
       -0.008512199 -0.2647782 -0.26500252 -0.16766456
000010 14 b2 8b be 50 80 29 3e 46 c0 99 bd 90 ba 9e bc
       -0.272843 0.16552854 -0.075073764 -0.01937607
000020 77 ee 84 be 27 b7 05 be e0 aa 73 3e 2c c8 87 3d
       -0.25963184 -0.13058148 0.23795652 0.06629977
000030 b8 9d 29 3d 16 55 80 3e eb 36 8d be 20 0f 39 be
       0.041410178 0.25064915 -0.27580962 -0.18072176
000040 c4 d8 42 3e 98 4b 3d be 12 e6 90 bd ac 67 54 bd
       0.19028002 -0.18485868 -0.070751324 -0.05185668
000050 e2 72 3f 3e 8c df 7b 3e 40 bf 69 3e 24 87 ea bd
       0.18696168 0.24596995 0.22826862 -0.11451557
000060 cc 39 79 3e ce d6 8a 3e 7c 83 22 3e 48 b6 23 3e
       0.24338454 0.27117008 0.1587047 0.15987504
000070 54 ea 8b 3d 00 96 90 bc 39 64 6e be f4 10 f4 bd
       0.06831804 -0.01764965 -0.2328042 -0.11917296
000080 ea de 4d 3e 0d 07 8b be ae 06 6c be 18 0d 1e be
       0.20104566 -0.27153817 -0.23049423 -0.15434682
000090 c4 3c ec 3d 5c 19 a5 bd 40 ea 70 3d a0 99 92 3c
       0.115350276 -0.080614775 0.05881715 0.01789552
0000a0 bf 8c 14 be b8 61 e2 bd ae 2b 08 3e ec 29 5d bd
       -0.14506815 -0.110537946 0.13297912 -0.053995058
0000b0 c4 4c c3 3d 3d 37 19 be 40 15 66 bc 70 4f c1 3c
       0.09536126 -0.14962478 -0.014043152 0.023597449
0000c0 22 1a 1e 3e c0 14 7d bc 9c 24 39 3e 90 ce 78 3e
       0.15439656 -0.015446842 0.18080372 0.24297547
0000d0 28 00 df 3d 4c 61 8b 3e 00 4c 2e ba e0 75 f6 3c
       0.10888702 0.2722267 -0.0006648898 0.030085504
0000e0 48 6c 5e 3e c4 33 0c be 1c c1 78 3e 1a 3a 06 be
       0.21720994 -0.13691622 0.24292415 -0.13108101
0000f0 b8 71 79 be cc 0d 8f 3d c4 d2 e3 bd 00 09 39 bc
       -0.24359787 0.069850534 -0.11124185 -0.01129365
000100 5a af 54 3e b2 75 1d 3e 55 62 0c be c0 8d ec bb
       0.20770016 0.15376928 -0.13709386 -0.0072190464
000110 90 db 90 3c 5c 52 b0 bd e0 a6 34 3d f8 b6 78 3e
       0.01768282 -0.08609459 0.044104457 0.24288547
000120 18 65 e3 bd 76 0c 80 3e fc f4 c6 3d ed 5c 15 be
       -0.111032665 0.25009507 0.09714696 -0.1458623
000130 e2 c8 1d 3e a8 4c 78 be 96 a4 05 be e4 d1 c1 3d
       0.15408662 -0.24247992 -0.13051066 0.094638616
000140 a0 14 b8 bc 59 3b 09 be f0 80 8e 3c 50 1a 3d 3e
       -0.022470772 -0.13401546 0.017395467 0.18467069
000150 82 86 b5 bd 74 ae 6b 3e b0 a4 7a 3e 62 3d 80 3e
       -0.08863546 0.23015767 0.24476886 0.2504683
000160 98 b7 0c bd d4 4e e5 3d e8 b7 25 be 54 c2 06 3e
       -0.034354776 0.11196676 -0.16183436 0.13160068
000170 c8 ac 49 be 88 5b d4 bd 97 8d 01 be 85 c3 2d be
       -0.19694817 -0.10369021 -0.12651668 -0.16969116
000180 88 22 57 3e 9a e3 08 3e 6c fc 8d 3e 48 c2 9a 3d
       0.21009266 0.13368073 0.27731645 0.075565875
000190 80 8f a7 bb 5c db 02 3e 5e 8c 4a 3e 40 55 f0 3c
       -0.005113542 0.12778991 0.19780108 0.029337525
0001a0 ea e9 63 be 1c 6e 7b 3e a8 e2 01 3d c0 7b 87 3b
       -0.222572 0.24553722 0.031710297 0.004134625
0001b0 f0 92 e3 3d a8 b6 77 be 14 2b 5e 3e 3e 40 32 be
       0.111120105 -0.24190772 0.2169612 -0.17407319
0001c0 d0 88 5a 3d 56 0a 94 bd 18 df cd bd 2e b8 2b 3e
       0.05335313 -0.07228534 -0.100523174 0.16769478
0001d0 4c b9 8d 3e be 43 39 3e 40 e8 53 3d 80 fc 7e 3c
       0.27680433 0.18092248 0.051735163 0.01556313
0001e0 a0 78 16 3e 94 3e 01 3e 02 f9 c1 bd 71 b9 1b be
       0.14694452 0.12621528 -0.094713226 -0.15207459
0001f0 04 0f 8d be 70 1b 7d 3e fc 48 88 3e dc ca 8a 3e
       -0.2755052 0.24717498 0.26618183 0.27107894
000200 60 d6 a8 3c c8 dd 09 be f2 a8 30 3e 84 34 c6 bd
       0.020610034 -0.13463509 0.17251948 -0.09677985
000210 d8 bb 0c 3e 62 56 6b be e1 5e 89 be a0 be ab 3d
       0.13743532 -0.22982171 -0.268302 0.08385968
000220 36 6b 1d 3e f2 b2 50 3e 68 2d 83 be ce d2 ad bd
       0.15372929 0.20380762 -0.2562058 -0.084874734
000230 2a f5 12 be 88 a7 93 3d 22 ed 01 3e 42 ef ac bd
       -0.14351335 0.072096884 0.12688115 -0.08444072
000240 aa 27 8b 3e ac 91 79 3e c8 c1 1d 3d 40 71 76 bc
       0.271787 0.24371976 0.038514882 -0.015041649
000250 72 d3 8d 3e 20 c2 49 bc c0 ec a4 bb ec 78 d3 bd
       0.27700382 -0.012314349 -0.0050331056 -0.103257984
000260 69 67 17 be 72 58 86 3e c0 89 5f bc f0 72 7a 3e
       -0.14785542 0.26239353 -0.013643682 0.24457908
000270 82 ee a3 bd ba 81 76 be 00 0e 8f 3d a0 7d 67 3e
       -0.08004476 -0.24072924 0.06985092 0.22606516
000280 92 12 01 3e 90 d9 c1 3c 77 47 56 be 80 14 64 3e
       0.1260474 0.023663312 -0.20925699 0.22273445
000290 00 41 94 bc 70 f3 a7 3c dc 95 b5 bd f8 5d cf 3d
       -0.0180974 0.020501822 -0.08866474 0.10125345
0002a0 17 e1 6b be 6c 81 40 bd 14 12 37 bd 36 5e 28 3e
       -0.23035084 -0.046998426 -0.044694975 0.16442189
0002b0 01 24 4b be 20 1d 8c bc e4 60 66 be bc 7c 74 bd
       -0.19837953 -0.017103732 -0.22497898 -0.05968927
0002c0 a0 f3 81 be 30 26 42 3e 7c 61 36 be a8 c3 61 3e
       -0.25381184 0.1895988 -0.17810625 0.22047293
0002d0 d2 00 70 be 4d 4a 73 be de 20 85 be 7a 1d c0 bd
       -0.23437813 -0.23758812 -0.26001638 -0.09380622
0002e0 9e 07 93 3e 16 aa 84 bd 94 ce 91 3e b8 ab 1f 3e
       0.2871675 -0.06477754 0.2847792 0.15592849
0002f0 a4 e5 82 3e 58 1c 75 3d d0 04 e0 3d e2 c8 23 3e
       0.25565827 0.059841484 0.10938418 0.159946
000300 a9 a0 8a be 7c da 29 be 80 7b 38 3b 7c e6 7f 3e
       -0.270757 -0.16587251 0.0028149784 0.24990267
000310 f6 97 3e 3e 8c 89 1f 3e 62 ce fd bd 68 d3 0a 3d
       0.18612656 0.15579814 -0.1239288 0.03389302
000320 7e ae 8b 3e 04 fb 82 be 30 ec 54 3e 70 5c 91 3e
       0.27281564 -0.25582135 0.20793223 0.28390837
000330 5a 8f 05 3e 3e c0 91 3e 60 7f 20 bc d2 7a 52 be
       0.13042966 0.28466982 -0.009795994 -0.20554665
000340 a8 0a dc 3d 59 5c 6f be 46 d0 24 3e e0 fd d2 bc
       0.1074422 -0.23375072 0.16095075 -0.025755823
000350 3e 59 68 be b0 b0 d7 3c 38 87 8a 3e f8 e3 9e bd
       -0.22690293 0.026329368 0.2705629 -0.07758325
000360 90 d0 ef 3d 04 c4 e9 bd 84 e7 74 3e 94 66 01 3e
       0.11709702 -0.1141434 0.23916441 0.12636787
000370 11 f0 82 be dc e8 cc 3d c6 2e d1 bd a0 e5 60 3e
       -0.2557378 0.10005352 -0.102139995 0.21962595
000380 70 5a 97 bc 76 34 11 3e cc f4 9d 3d 34 98 98 bd
       -0.018475741 0.14180169 0.07712707 -0.074509054
000390 8c 5e 82 3d fa 59 b2 bd a0 19 7a be 7a 47 68 be
       0.0636569 -0.08708568 -0.24423838 -0.22683516
0003a0 30 4b 66 bd b6 57 2a 3e 7c d9 d3 bd e6 16 5a be
       -0.05622405 0.16635022 -0.10344216 -0.21297798
0003b0 08 58 62 3e b6 79 c5 bd 56 3a 2f be dc d4 7e 3e
       0.22103894 -0.09642355 -0.17112097 0.24885887
0003c0 bc dc 64 3e 04 4c 67 3e c8 42 2f 3e 40 8a 00 3c
       0.22349828 0.22587591 0.17115319 0.007845461
0003d0 a4 8d 4e bd 98 b1 56 3e 78 b7 5f 3e 9c 1b e9 3d
       -0.050428048 0.20966184 0.21847332 0.11382219
0003e0 da d9 85 3e cf c2 83 be b4 07 0d 3e 20 08 4a bd
       0.2614277 -0.25734565 0.1377247 -0.049324155
0003f0 ea 36 53 3e 34 49 4e 3e 9c 0f 6a bd 30 36 32 3d
       0.20626417 0.20145112 -0.057143793 0.04350871

fc1.bias f4 [256]
000000 54 66 2f bd 54 76 88 bd f8 99 db bd 20 53 b8 3c
       -0.042822197 -0.06663194 -0.107227266 0.022500575
000010 6c f2 b0 3d 5a 07 39 be e8 eb 32 3d 4c 37 a8 3d
       0.08639988 -0.1806921 0.04368201 0.08213672
000020 e1 7b 80 be 0c 0e c4 bd 27 b0 60 be 40 c3 8f be
       -0.25094512 -0.09572992 -0.21942197 -0.2807865
000030 d4 ea d6 bd cd 95 15 be 0a 4c 0b 3e a4 cd f6 3d
       -0.10494009 -0.14607926 0.13603225 0.120509416
000040 a9 7b 3b be 00 92 76 3a 71 09 6a be 20 77 b7 bc
       -0.18308891 0.0009405911 -0.22855164 -0.02239567
000050 4a 05 cc bd 90 5c 1e 3e a8 82 a6 3d 58 e6 f7 bd
       -0.09961946 0.15464997 0.081303895 -0.121044815
000060 88 05 0f be 82 d3 3e be d2 b0 05 3e 84 5a 56 be
       -0.13966954 -0.18635371 0.13055733 -0.20932966
000070 d4 36 ea 3d cf 35 80 be a0 cb 56 be 8d 8a 1f be
       0.11436239 -0.25041053 -0.20976114 -0.15580197
000080 54 b0 19 be 00 b6 22 bb 80 57 dc bd 94 cd 4a 3e
       -0.1500867 -0.0024827719 -0.10758877 0.19804984
000090 80 96 e6 bc b1 a2 20 be c6 41 25 3e d2 ab 76 be
       -0.028147936 -0.15687062 0.16138372 -0.24088982
0000a0 a0 e2 62 3e a8 88 82 3e e8 4a 65 3e 0c 02 8a bd
       0.22156763 0.25494885 0.22391856 -0.06738672
0000b0 4a 46 52 3e 00 3e 6b 3c e0 97 2c 3e ba 5a c2 bd
       0.20534626 0.014358044 0.1685481 -0.09489961
0000c0 40 3e 3c 3c 18 37 f2 3d 9e 88 82 be ec 42 2b be
       0.011489451 0.118269145 -0.25494856 -0.16724747
0000d0 34 2d a4 bd 30 9d 89 3e 9e a9 e6 bd 04 65 aa bd
       -0.08016434 0.26877737 -0.11262821 -0.083200485
0000e0 b0 22 60 3e 85 33 7b be 80 ca 4f 3c 98 dd 23 be
       0.21888232 -0.24531372 0.012682557 -0.160025
0000f0 66 46 f5 bd 76 b8 25 3e b9 2d 88 be dc c5 88 3e
       -0.11976318 0.16183648 -0.26597384 0.26713455
000100 d0 9e 9d bd c2 f7 32 be 64 40 ce 3d 90 24 da bc
       -0.07696307 -0.17477325 0.10070875 -0.026628762
000110 00 70 77 be 52 23 d7 bd 3a 88 88 bd 74 69 8a be
       -0.24163818 -0.10504784 -0.06666608 -0.2703358
000120 88 98 31 bd 5c d6 73 bd 60 8d ca bd 14 e7 d3 3d
       -0.043358356 -0.0595306 -0.098902464 0.10346809
000130 2c ea 70 3e 28 e2 e5 3d 00 46 4b bc 48 02 79 3d
       0.2352683 0.112247765 -0.012406826 0.06079319
000140 06 8a 17 3e 48 fb e4 3d a0 dd 0c 3e cc 13 0d 3e
       0.14798746 0.111807406 0.13756418 0.13777083
000150 a8 44 7d bd 07 26 37 be 7c 49 68 bd 5c 26 a4 3d
       -0.061833054 -0.178856 -0.056710705 0.08015129
000160 5d b9 46 be 71 be 83 be ba 47 db bd 46 90 30 be
       -0.19406648 -0.25731233 -0.1070704 -0.17242536
000170 d4 87 30 3e 40 2e b5 3c cc 64 34 3e b4 1d f5 3d
       0.17239314 0.02211678 0.17616576 0.11968556
000180 6c 56 47 3e 50 76 00 be 90 b9 5b 3d 7e 32 50 3e
       0.19466561 -0.12545133 0.053643763 0.20331761
000190 9e 31 2a be 90 44 78 bd 56 26 14 3e ae 7d 50 be
       -0.1662049 -0.06061226 0.14467749 -0.20360443
0001a0 f8 72 65 3e e8 ec 46 3e 98 cc 0a bd 40 65 a9 3b
       0.22407138 0.1942631 -0.033886522 0.0051695406
0001b0 84 42 f9 3d b8 57 50 3d 0a 4c 41 3e 7a 10 8b 3e
       0.1217089 0.050864905 0.18876663 0.27161008
0001c0 7c 9b 3d be cc 1f 4c 3e 74 d5 8f bd 5c d2 66 3e
       -0.18516344 0.19934005 -0.07023135 0.22541183
0001d0 56 55 46 3e 94 f8 f1 bd 9a 38 68 be 4e f9 79 be
       0.1936849 -0.11814991 -0.22677842 -0.24411508
0001e0 b0 75 9a bc 59 ba 30 be 10 36 ed bd 90 77 61 be
       -0.018854946 -0.17258586 -0.11582577 -0.22018266
0001f0 28 d3 5d 3e 10 38 ec bd bc 25 c0 3d 10 92 17 3d
       0.21662581 -0.115341306 0.09382197 0.03700453
000200 5e e7 5c be e0 f5 f5 bd a0 10 c3 bc cc de 39 3e
       -0.21572635 -0.120097876 -0.023811638 0.18151397
000210 b0 9f d9 3d 79 42 05 be 5e 1c 51 3e 84 2f 56 3e
       0.10626161 -0.13013639 0.20420977 0.20916563
000220 90 b2 ad bc c6 c4 44 3e be 2c 7c be 80 f5 87 bb
       -0.02120331 0.19215688 -0.24626443 -0.004149139
000230 14 79 68 3e 2e bb 8f bd f4 77 65 bd 80 b2 7c 3d
       0.22702438 -0.070181236 -0.0560226 0.06169367
000240 b4 31 e0 3d 44 88 f2 bd 78 f0 59 be 28 c0 68 3d
       0.1094698 -0.11842397 -0.21283138 0.05682388
000250 38 be 82 be cc 3a c2 bd cc 81 ad 3d 16 95 4d 3e
       -0.2553575 -0.09483871 0.084720224 0.20076403
000260 70 cf e2 bc 89 62 23 be ec 8c 2a bd ce 05 92 3e
       -0.027686805 -0.15955557 -0.0416383 0.28520054
000270 48 d6 30 3e b4 89 9c 3d c5 bc 04 be 18 1e 50 3d
       0.17269242 0.07643452 -0.12962635 0.05080995
000280 00 4c ab ba 84 a4 88 3e e8 a9 0e 3d 9e 60 87 be
       -0.0013068914 0.26688015 0.034830004 -0.264409
000290 de 0f 30 3e fc 26 ad 3d e0 39 21 bd a4 49 6a bd
       0.17193553 0.08454701 -0.039361835 -0.057199135
0002a0 20 73 b1 bd b2 7c a0 bd d9 ee 05 be 2b 31 8f be
       -0.086645365 -0.07836284 -0.13079394 -0.279672
0002b0 60 f1 75 3d d4 ce 4b 3e 24 eb 5e be fa d0 a6 bd
       0.060044646 0.19903117 -0.21769387 -0.08145328
0002c0 42 73 54 3e da 57 81 3e e0 f2 00 bc 68 48 8f 3e
       0.20747092 0.25262338 -0.007870406 0.2798493
0002d0 70 c9 f6 3c 98 93 4b 3d 66 62 4d 3e 20 43 35 3c
       0.03012535 0.049701303 0.20057067 0.011063367
0002e0 85 34 8e be 58 ba 5f be 5c d7 65 3e 42 e7 c1 bd
       -0.27774444 -0.21848428 0.22445434 -0.09467937
0002f0 c2 d1 c9 bd 7c 7c d8 3d 86 c7 3b 3e 77 8f 04 be
       -0.09854461 0.105706185 0.18337831 -0.12945352
000300 98 f7 5c 3e 40 08 e5 bd d4 e9 8d 3e f0 a5 86 3e
       0.21578825 -0.11183214 0.2771746 0.26298475
000310 46 41 cb bd 88 a4 ba bd 7c 2e 3d be 33 a4 3a be
       -0.09924559 -0.09113413 -0.18474764 -0.182267
000320 ca b4 7b be 60 55 24 bc 66 74 81 be e0 e7 1a 3c
       -0.24580684 -0.010030121 -0.25284117 0.009454697
000330 4e 0c 63 be 36 6c 25 3e 30 45 68 be 18 d3 07 3d
       -0.22172663 0.1615456 -0.22682643 0.0331603
000340 01 e7 7d be 7e dc 92 be 24 0e a9 bd 96 1f d8 bd
       -0.24795152 -0.28683847 -0.0825465 -0.105528995
000350 50 6a 40 3d 58 3d 74 3e a0 fc 71 be b6 c1 ef bd
       0.046976388 0.23851526 -0.23631525 -0.11706869
000360 0a fb cd bd 24 41 e0 3d 10 8b d8 3d 18 5b bf 3d
       -0.100576475 0.109499246 0.10573399 0.09343547
000370 fc 70 87 bd c0 51 71 3d e8 39 34 3e 94 52 58 3e
       -0.06613347 0.058915854 0.17600214 0.21125251
000380 f3 9b 32 be 86 07 19 3e 00 2a 5f bc f2 07 9c bd
       -0.17442302 0.14944276 -0.013620853 -0.07618703
000390 ee 7e 3a 3e 50 45 be 3d 15 7b 6d be 16 3f 4d be
       0.18212482 0.09290564 -0.23191483 -0.20043597
0003a0 bc 05 74 3e c9 2b 1f be 8c e5 6f bd 80 7b 19 3e
       0.23830312 -0.15544046 -0.058568522 0.14988518
0003b0 5c 8a 0a 3e 30 36 8d 3d fe 75 11 be 36 75 90 3e
       0.13529342 0.06895101 -0.14205167 0.28214425
0003c0 ec 06 36 be cc c8 2e be 20 0e 4b 3c 98 f4 fc 3d
       -0.17776078 -0.17068785 0.012393504 0.1235134
0003d0 90 f2 a8 3c 58 82 32 3d e6 9e b4 bd 14 95 58 bd
       0.020623475 0.043581337 -0.0881937 -0.052876547
0003e0 36 47 86 3e 38 c0 89 be 4a fa d0 bd 8f a9 21 be
       0.26226205 -0.26904464 -0.10203989 -0.15787338
0003f0 6c 2a 47 bd d7 a1 88 be 84 92 01 3e 30 e2 2e bd
       -0.04862444 -0.26685974 0.12653548 -0.042696178

fc2.weight f4 [256, 256]
000000 00 0b 0b 3a 00 14 18 3a 6a 6f 66 bd 66 e2 4c bd
       0.00053040683 0.000580132 -0.056258596 -0.050020598
000010 e8 02 61 bd 08 a6 2a 3d 02 c4 3d bd 36 05 4f 3d
       -0.054934412 0.041662246 -0.046329506 0.05054208
000020 00 e6 d1 b9 10 d0 17 bd 88 a7 75 bd 10 76 e1 bb
       -0.0004003495 -0.03706366 -0.059974223 -0.006880529
000030 18 f2 46 bd de 48 0a bd f2 d8 01 3d 32 cb 62 bd
       -0.048570722 -0.033760898 0.031701036 -0.055369563
000040 a0 da 3d bd dc e9 6a bd f8 6d 96 bc 76 c8 65 3d
       -0.046351075 -0.057351932 -0.018362984 0.056099378
000050 44 66 b5 3c 9c e8 96 bc 0a 57 18 bd 0e f5 41 bd
       0.02214349 -0.018421464 -0.037192382 -0.047352843
000060 68 4a 16 bd 1c c1 0d bd 64 23 cb 3c 80 e4 3d 3a
       -0.036692053 -0.03460799 0.024797149 0.0007243827
000070 96 65 06 3d 4c bb a4 bc b0 0d 04 3d a8 4e eb bc
       0.032811724 -0.020108841 0.032239616 -0.02872403
000080 ae f5 75 bd 12 d6 05 3d 40 29 bd bc 34 2c 71 bd
       -0.06004875 0.032674856 -0.023090959 -0.058880046
000090 80 3f 0c 3b c0 47 09 3c 84 cd ec 3c 42 9e 1f bd
       0.0021400154 0.008378923 0.028906591 -0.038969286
0000a0 4c 35 ae 3c ec bd d1 bc 90 5b cb bb 8a 27 79 bd
       0.021265648 -0.025603257 -0.0062059835 -0.060828723
0000b0 04 54 53 3d 20 82 0e 3c 22 24 77 bd 4c 8b bb bc
       0.051593795 0.008698016 -0.060337193 -0.02289357
0000c0 62 3c 1c 3d c0 6a bf 3c 66 07 01 bd 00 a0 2b 3c
       0.038143523 0.023366332 -0.031501196 0.010475159
0000d0 d0 80 18 3c b4 e1 8c 3c b8 54 7a bd 1a 22 06 3d
       0.009308055 0.017197467 -0.06111595 0.032747366
0000e0 3c 0f 72 3d bc d6 10 bd a6 ed 76 bd 38 bf 63 bc
       0.05909656 -0.035361037 -0.060285233 -0.013900571
0000f0 48 54 2b bc 3a 0a 73 bd 98 da 0d 3d 68 10 51 bd
       -0.010457106 -0.059335925 0.034632295 -0.051041037
000100 60 c5 1c 3c 78 18 da bc 2c 24 9e 3c 88 82 37 bd
       0.009568542 -0.026622996 0.019304357 -0.04480222
000110 fc c5 03 3d 9e b1 4a bd fc 39 39 bd b8 a2 0c 3c
       0.032171234 -0.049485795 -0.045221314 0.008583717
000120 20 50 93 bb 08 78 37 3d 18 dc 5b bc 84 28 86 bc
       -0.0044956356 0.044792205 -0.013419174 -0.016376741
000130 54 58 4d 3d f0 7c 29 3c d4 bc 2b bd 66 7f 3c 3d
       0.050133064 0.010344729 -0.041928127 0.046019934
000140 24 65 e4 bc da f5 7c 3d 80 37 bd bc e8 c7 49 3d
       -0.027880259 0.0617579 -0.023097754 0.04926291
000150 c4 2b 2b bd 1c 69 2b bd 08 05 1b 3c 30 2f 84 3b
       -0.041789785 -0.041848287 0.009461649 0.0040339455
000160 3c c5 25 3d c0 68 e9 bb f0 1a fb 3c 0a af 3c bd
       0.0404713 -0.007123083 0.030652493 -0.046065368
000170 00 94 25 ba 28 5c b0 3c 3c f1 81 bc 06 78 3a 3d
       -0.0006316304 0.021528319 -0.0158621 0.04552462
000180 a0 73 1b 3c 86 7e 5f bd 5c 8c 5a bd d0 d0 91 3c
       0.009488016 -0.05456402 -0.053356513 0.017799765
000190 18 58 53 bd d8 b3 fe bc 2a a9 05 3d 70 b5 9a 3c
       -0.051597685 -0.031091616 0.03263203 0.018885344
0001a0 7a 58 3e bd 36 0b 1a 3d 76 ea 6f 3d 40 0d 19 3b
       -0.046471097 0.037608348 0.05857321 0.0023353845
0001b0 50 aa 40 bd d4 4d c2 3c f8 ee af bc f0 b9 d4 3c
       -0.047037423 0.023718752 -0.021476254 0.025967568
0001c0 52 bf 2d bd 54 94 37 3d 00 d8 14 b8 02 b2 79 bd
       -0.042418785 0.04481919 -3.5487115e-05 -0.060960777
0001d0 04 df 46 3d 20 20 a6 3b a8 df f0 3c a0 9d e3 bc
       0.048552528 0.0050697476 0.029403523 -0.027785122
0001e0 3a e3 6a 3d 98 23 77 bd 34 2d da bc 50 ad e7 3b
       0.057345606 -0.06033668 -0.026632883 0.007070221
0001f0 44 b3 33 3d fe a5 22 bd f8 64 de 3c 92 80 49 3d
       0.043872133 -0.039709084 0.027147755 0.04919488
000200 40 a8 fb bb b0 a1 a4 bb 24 d4 06 bd e4 a2 cc bc
       -0.007679969 -0.0050241575 -0.032917157 -0.024980016
000210 40 1a de ba a6 78 3a 3d 2e 10 28 bd aa a5 0f bd
       -0.0016945079 0.045525216 -0.041031055 -0.0350701
000220 d0 60 2a bc 32 3e 08 3d 8e 6d 7f bd 10 38 e7 3c
       -0.010399058 0.03326244 -0.06236034 0.028224975
000230 6c 8c 6f bd 3c df 4e 3d c0 e8 4d bd aa 23 60 3d
       -0.058483526 0.05050586 -0.050270796 0.054721512
000240 4a f6 04 3d c0 5b 1b bb 18 87 3e 3d 08 8c cb 3c
       0.032461442 -0.002370581 0.046515554 0.024847046
000250 10 cc 76 3c 9e 88 55 3d 7e 5f 2a bd 3c 10 44 3d
       0.015063301 0.05213224 -0.041594975 0.047867045
000260 c0 7c 1e 3b 1e 26 52 3d 3a 56 78 bd 6c 67 d3 bc
       0.0024183244 0.051305883 -0.060629107 -0.025806151
000270 30 27 14 bd fa 48 43 bd 04 58 a2 3c c8 be a4 bc
       -0.036170185 -0.047677018 0.01981736 -0.020110503
000280 76 be 19 bd 70 51 01 bd 10 8e 15 bd 20 96 59 3d
       -0.037535153 -0.031571805 -0.036512434 0.053121686
000290 20 26 a5 bc f8 5e d7 bc 46 2f 62 bd 60 29 4d 3d
       -0.020159781 -0.026290402 -0.055220865 0.050088286
0002a0 1e 3d 24 bd ee 6a 4a bd 8a f5 25 bd a0 96 90 bb
       -0.04009735 -0.049418382 -0.040517367 -0.004412487
0002b0 a4 19 c2 3c 2c ab 2f 3d 40 d3 fc 3a b0 b2 34 3d
       0.023693867 0.04288785 0.0019289032 0.044115722
0002c0 60 f2 89 bc 44 0e 6a bd 84 72 d1 3c 0c 09 cd 3c
       -0.016839206 -0.05714251 0.0255673 0.025028728
0002d0 a6 45 18 bd 24 37 55 bd 48 a8 be 3c c0 64 be bb
       -0.037175797 -0.05205454 0.023273602 -0.00581035
0002e0 98 58 3b 3d e0 a7 0e bd 44 13 c5 bc 24 ce c4 3c
       0.045738786 -0.034828067 -0.024057038 0.024024077
0002f0 48 78 4c 3d 60 ce 5c bb 68 de f0 3c 44 7f 4f bd
       0.049919397 -0.0033692345 0.029402927 -0.05065848
000300 f8 c2 4d bc b8 be 05 3c 08 de 77 bc 2c 0e 1d bd
       -0.012558691 0.008163147 -0.01512862 -0.038343593
000310 ac 76 d8 3c dc cc 79 3d 2c c3 8b bc 08 79 0d bd
       0.026423775 0.060986385 -0.017060839 -0.034539253
000320 60 af ac 3c 88 17 64 3c a6 fa 4d bd e0 30 bc bb
       0.021079719 0.013921626 -0.050287865 -0.005743131
000330 f0 ce 54 3c 70 d1 b4 3c 80 11 54 ba 06 fb 58 3d
       0.012988791 0.022072524 -0.0008089766 0.05297377
000340 04 9a 1f bd aa 74 07 3d ca d6 5a bd bc ec 26 bd
       -0.03896524 0.033070244 -0.053427495 -0.04075311
000350 f0 4b 46 bd 10 fe 8f 3c b8 ec 90 3c 7e 13 60 bd
       -0.048412263 0.017577201 0.017691001 -0.05470609
000360 06 72 17 3d 34 b8 1e bd 1c 92 b5 bc f0 ee 5c 3c
       0.036973976 -0.03874989 -0.022164397 0.0134847015
000370 66 2d 67 bd 80 06 13 3c 86 7d 67 3d 18 6d af bc
       -0.05643978 0.008973718 0.056516193 -0.021414325
000380 10 7c 81 bb 4a e8 32 3d 60 cf a4 bc f0 cf b3 bc
       -0.003951557 0.04367856 -0.020118415 -0.021949738
000390 5a 1b 06 bd 1c b1 b9 bc 34 7f c5 bc 08 a0 07 3d
       -0.03274093 -0.02266746 -0.024108507 0.033111602
0003a0 7a c2 34 3d 84 99 27 3d a6 22 0a bd 74 0e a8 bc
       0.04413078 0.04091789 -0.03372445 -0.020514704
0003b0 f0 c3 73 bc 8e bf 28 bd f0 2e af bb a4 7e 3d 3d
       -0.014878258 -0.041198306 -0.0053461716 0.046263352
0003c0 58 a9 29 bd cc ae 1a 3d 0c 58 f9 3c 36 c6 24 bd
       -0.041421264 0.037764356 0.030437492 -0.04022809
0003d0 d4 0e 5a bd fc 88 5f bd c0 5a fb 3c 52 29 5c bd
       -0.053236797 -0.054573998 0.030682921 -0.053750344
0003e0 08 72 ad 3c e0 7f 8e 3c 62 81 74 3d 40 a3 72 bb
       0.021172538 0.01739496 0.0596937 -0.0037023574
0003f0 00 39 6e bb 50 d7 c1 3b f4 bb 99 3c 80 92 25 bc
       -0.0036349893 0.00591556 0.01876638 -0.010105729

fc2.bias f4 [256]
000000 d0 62 fa bc 4c 41 d4 bc e2 3e 72 3d 14 be 89 3c
       -0.030564696 -0.025910042 0.059142 0.01681427
000010 2c ef 76 bd 74 c9 ce 3c b0 cd b7 3b e4 e9 87 bc
       -0.060286686 0.025242545 0.0056092367 -0.01659102
000020 ea 19 36 3d e4 cf 69 bd 1e 7b 56 3d 80 99 08 ba
       0.044458307 -0.057083026 0.052363507 -0.00052108616
000030 88 e9 23 3c f8 ba 10 3d a0 88 38 bd 92 2d 41 3d
       0.010004409 0.035334557 -0.04505217 0.0471626
000040 1a 2c 25 bd 3e 64 2a bd d4 f6 8b 3c 50 5a 12 bd
       -0.04032526 -0.041599505 0.01708547 -0.03573066
000050 d4 f9 53 bd 72 33 70 3d d0 a0 0d bc c0 88 5c bc
       -0.051751927 0.058642812 -0.008644298 -0.013460338
000060 38 37 75 3d 4c ab 49 bd f8 f6 a6 bc 8c 67 37 bd
       0.059867114 -0.049235627 -0.020381436 -0.044776484
000070 78 90 8e 3c 5e 97 61 bd 58 bd f0 bc 00 00 fc bb
       0.017402872 -0.055075996 -0.029387161 -0.0076904297
000080 f4 51 5b 3d 58 d7 77 3d 7e 6e 74 bd e0 6a ed bb
       0.053544953 0.060508102 -0.059675686 -0.0072454065
000090 c0 7c 70 3b 06 e5 53 bd 16 10 06 3d 38 a6 c7 3c
       0.003669545 -0.051732086 0.032730184 0.024371251
0000a0 30 9d 84 bc a4 d3 5b bd a0 0c 5a 3c 22 da 5c bd
       -0.016188234 -0.053668633 0.013308674 -0.053918965
0000b0 e0 52 88 3c e4 52 34 bd 88 7b 2d 3c dc c6 2c 3d
       0.01664108 -0.044024363 0.010588534 0.042181835
0000c0 38 73 d2 bc 7c b9 9c bc 9a 58 30 3d 30 6f ef bb
       -0.025689706 -0.019131415 0.043053247 -0.0073069558
0000d0 0c ad 94 bc fc 4e 97 bc d4 27 14 bd a0 8d 32 bb
       -0.018148921 -0.01847028 -0.036170796 -0.002724506
0000e0 42 8c 22 3d 90 b0 ac 3c 26 4d 4d bd d8 85 ae bc
       0.03968454 0.021080285 -0.050122403 -0.021304056
0000f0 5c 8a 6e bd d0 54 75 bd 30 73 e5 3b e8 10 1f bc
       -0.05823742 -0.059895337 0.007002257 -0.009708621
000100 00 05 75 ba 24 f0 14 3d f8 47 65 3c a0 ae a4 3b
       -0.00093467534 0.03636183 0.0139942095 0.0050256997
000110 00 93 58 bc 50 ce a8 3b 10 ff c5 bb 02 38 53 bd
       -0.013218641 0.0051515475 -0.0060423687 -0.051567085
000120 b0 89 41 bc b4 34 22 bd 82 e4 20 3d 70 10 e5 bc
       -0.011812612 -0.039601043 0.039280422 -0.02796194
000130 58 fe 39 bc 90 d5 c8 bb 62 33 29 bd d4 ab 35 3d
       -0.011352144 -0.0061289743 -0.041308768 0.04435332
000140 38 d5 68 bc 14 e9 7a bd 90 8b cc 3c 5c d9 d3 3c
       -0.014210992 -0.061257437 0.024968892 0.025860481
000150 b4 4c 33 bd b0 59 56 bc ac 6b 3d bd ea 5f 0a 3d
       -0.04377432 -0.013082907 -0.046245262 0.033782877
000160 5c 21 d1 bc aa 00 30 3d a0 e4 f7 bb 40 55 85 bc
       -0.025528602 0.042969383 -0.007565096 -0.016276002
000170 68 d0 f3 bc 42 30 20 bd ac 28 be 3c e6 0f 76 bd
       -0.029762462 -0.039108522 0.023212753 -0.060073756
000180 7c fd 9c bc 20 14 22 3d c6 30 05 bd d6 78 66 3d
       -0.01916384 0.039569974 -0.032517217 0.056267582
000190 40 65 64 3c c0 f3 a0 3c 98 e7 7c 3c 40 77 3b bb
       0.0139401555 0.019647479 0.015436076 -0.0028605014
0001a0 e0 32 6c bb 00 72 de bb a4 26 77 bd d6 26 05 bd
       -0.0036041066 -0.006788492 -0.060339585 -0.03250774
0001b0 00 b8 ea ba 00 08 04 bc 80 f7 18 3c 40 19 ab bc
       -0.001790762 -0.008058548 0.009336352 -0.020886064
0001c0 f8 39 7c bd d0 16 d0 3b 74 80 64 bd 0a 11 12 bd
       -0.06157872 0.0063503757 -0.055786565 -0.03566078
0001d0 28 8b bc 3c c0 8b 22 3b 44 cf a3 bc d0 b7 15 bc
       0.023015574 0.0024802536 -0.019996293 -0.009138063
0001e0 00 13 08 3c ac 40 8c 3c 58 6d ca bc 40 ad 90 3b
       0.008305311 0.017120682 -0.024710342 0.0044151843
0001f0 96 f9 1a bd b8 52 1a 3d 5a ee 35 3d fe a2 14 bd
       -0.03783568 0.037676543 0.044416763 -0.036288254
000200 0a 02 1d bd f0 13 b3 bc c4 aa 86 bc ec 11 35 3d
       -0.038332023 -0.021860093 -0.01643885 0.044206545
000210 50 16 81 bb a4 d5 42 bd 5e 4a 22 bd 12 00 38 3d
       -0.0039394274 -0.047567025 -0.039621703 0.044921942
000220 20 6e c1 bc 30 45 f1 bb 24 57 07 bd 2c 0f 1c 3d
       -0.023612082 -0.007362984 -0.03304209 0.038100407
000230 4e 39 5e 3d 1c d2 b6 bc f0 93 b0 3b 88 64 3b bc
       0.05425387 -0.022316985 0.0053887293 -0.011437543
000240 0e b5 21 3d 76 52 3a bd c4 f4 f3 bc c8 6f c1 bc
       0.039479308 -0.045488797 -0.0297798 -0.023612872
000250 96 5d 3b bd 0c fd ca bc ba 9d 49 bd a0 c2 f6 3b
       -0.045743547 -0.024778865 -0.049222685 0.0075305253
000260 74 19 25 bd 20 e3 1c bd 92 58 3d bd 5a 73 01 bd
       -0.040307477 -0.03830254 -0.046227045 -0.03160415
000270 c0 47 ea bb 10 b1 ff bb d0 19 44 bc f6 77 71 3d
       -0.0071496665 -0.00780309 -0.011969045 0.058952294
000280 0a e8 6b bd 88 cd 1a 3c cc fa 50 3d 70 32 8a bc
       -0.057594337 0.0094484165 0.05102043 -0.016869754
000290 be 96 43 bd 58 d2 17 bd 8c 1c 87 3c 9c bd f5 bc
       -0.04775118 -0.037065834 0.016493104 -0.02999764
0002a0 00 cc 3d b9 d8 5b 6d bc c0 1f 23 3c 9c 91 8e bc
       -0.0001810044 -0.014487229 0.0099563 -0.017403416
0002b0 20 7c 6f 3d dc 8f a6 bc d0 6c 8d 3b 80 c2 c1 ba
       0.058467984 -0.02033227 0.00431595 -0.0014782697
0002c0 30 f6 cc 3c 20 ee eb 3b 94 62 70 3d 88 a0 20 3d
       0.025019735 0.0072000176 0.05868776 0.039215595
0002d0 90 21 06 3c 80 c6 e6 3a 20 af 90 3c 90 c5 a8 3c
       0.008186713 0.0017606765 0.017661631 0.020602018
0002e0 bc 35 28 3d 52 ce 01 bd c0 52 5e bd 68 21 fa bc
       0.04106687 -0.031690903 -0.054278135 -0.030533507
0002f0 80 12 5e ba 96 16 29 3d 10 cc 33 bc b8 83 c8 3c
       -0.00084713846 0.041281305 -0.010973945 0.02447687
000300 dc 1f 77 bd e0 7c 27 bb 64 da fc bc b0 c7 16 3c
       -0.060333118 -0.002555661 -0.030865856 0.009202883
000310 72 1d 37 bd 68 95 56 3c 10 5c 8b bb ce 12 0c bd
       -0.044705816 0.013097145 -0.004252918 -0.03419762
000320 30 18 6c bc 26 9f 63 bd 0c 0f c6 bc 1c 5e 04 3d
       -0.014410064 -0.055571698 -0.024177097 0.032316312
000330 60 eb 2d 3b d2 96 02 bd ca cc 71 3d 80 4d 8f bb
       0.0026538 -0.031882115 0.059033193 -0.0043732524
000340 ee 0a 57 bd 66 3e 61 bd 58 97 5d bd 36 d1 2d 3d
       -0.052500658 -0.05499115 -0.05409941 0.042435847
000350 66 8f 7b 3d 32 59 34 bd 28 af f3 3c 06 1d 56 3d
       0.061416052 -0.044030376 0.029746607 0.052273773
000360 d6 50 14 3d 48 9c 4a 3c 5e 71 6d bd 1a 98 4e 3d
       0.036209904 0.012366362 -0.057969444 0.050438024
000370 16 ba 73 3d be bc 00 3d d2 72 38 bd f8 98 23 bd
       0.059503637 0.03143 -0.045031376 -0.039940804
000380 5a c1 2c 3d 9c d4 e0 3c d8 36 56 bc b8 5f 64 bd
       0.042176582 0.02744513 -0.013074599 -0.055755347
000390 d8 2b 4e 3c e0 c6 7c 3c 1c 59 71 3d cc 60 e6 bc
       0.012583695 0.015428275 0.058922872 -0.028122328
0003a0 6c 89 60 3d 50 8f 07 bc d4 2b 54 bd 14 c3 20 bd
       0.054818556 -0.008273914 -0.05179961 -0.03924854
0003b0 6c 9b 38 3d b8 63 1f bc 1c dc d6 bc b2 ef 02 3d
       0.045070097 -0.009728365 -0.026228003 0.031966873
0003c0 58 15 69 bc 80 b9 cb bb 04 d6 06 bd 64 7f 37 bd
       -0.01422628 -0.0062171817 -0.032918945 -0.044799224
0003d0 56 e4 4e bd a0 88 dc 3c 9c 57 db bc dc a8 c8 bc
       -0.050510727 0.026920617 -0.026775174 -0.02449458
0003e0 a8 4c 78 bd e4 b8 6c 3d fe 9a 52 bd ec 52 9a bc
       -0.06061998 0.057793513 -0.051417343 -0.018838368
0003f0 00 d8 17 3a 0e c7 66 bd 74 18 a1 bc f0 c3 d8 3c
       0.00057923794 -0.056342177 -0.01966498 0.026460618

fc_mean.weight f4 [6, 256]
000000 72 bb 20 bd 88 54 0f bc c0 9c 30 bd ca c3 40 3d
       -0.03924126 -0.008748181 -0.04311824 0.04706172
000010 48 54 90 bc 80 62 16 3a 90 15 b2 bb 54 b9 bd bc
       -0.017618313 0.00057367235 -0.0054346994 -0.02315966
000020 16 83 12 bd ae 29 33 3d 00 cf e8 b9 b2 0e 74 bd
       -0.035769545 0.04374092 -0.00044404715 -0.059584327
000030 c4 3d 3a 3d be 68 23 bd 00 6c f1 3b 0c 78 33 bd
       0.04546906 -0.03989481 0.007367611 -0.043815657
000040 08 c9 71 bd f0 ef 99 3c a4 f1 f3 bc 00 14 9f b8
       -0.05902961 0.018791169 -0.02977831 -7.585436e-05
000050 18 7f 2e 3d 1c 7e 84 3c 7c 8e 55 bd 54 27 53 bd
       0.042601675 0.016173415 -0.052137837 -0.051551178
000060 b0 df 34 3c d0 24 cb bc 9c 7f 93 3c 1a 29 18 3d
       0.011039659 -0.024797827 0.018005185 0.037148573
000070 a2 8d 1a 3d c0 d7 29 bd 7e 5c 57 bd ea 85 18 bd
       0.037732728 -0.04146552 -0.05257844 -0.037237085
000080 b0 18 37 bd 82 52 69 3d 1c f5 ee bc 88 7c 78 bd
       -0.04470128 0.05696345 -0.029169612 -0.060665637
000090 40 6d ff bb 08 aa 03 3d 18 bc 07 3c ea d2 1a bd
       -0.007795006 0.032144576 0.008284591 -0.0377988
0000a0 94 dd b9 3c cc d1 f1 3c 20 b1 e9 bb 82 5c 36 bd
       0.022688664 0.029518984 -0.0071317106 -0.044521816
0000b0 20 a8 a1 3c dc f0 2b 3d b8 d7 e3 3c f4 c7 31 bd
       0.019733489 0.04197775 0.027812824 -0.04340358
0000c0 64 3f 05 3d 00 64 1e bb a8 af ab bc 64 03 57 3d
       0.032531157 -0.0024168491 -0.020957783 0.052493468
0000d0 08 d7 82 bc 10 bc d4 3b d8 05 c5 bc 00 87 b5 ba
       -0.015971676 0.0064921454 -0.024050638 -0.0013849437
0000e0 b8 d7 b9 3c a0 ae d1 bb 56 2c 58 3d 20 ff 65 bc
       0.02268587 -0.0063989908 0.052776657 -0.014037877
0000f0 72 82 18 bd 78 0b 37 3d 60 98 6f bd a6 40 40 bd
       -0.037233777 0.04468867 -0.058494925 -0.046936654
000100 c0 6c 10 bd 8a d8 2e 3d b6 d9 28 bd 70 1e 6b 3d
       -0.035259962 0.042686976 -0.04122325 0.057402074
000110 e2 0c 12 3d e0 9e 1a 3d 44 f3 5a bd 70 da 61 bd
       0.035656817 0.03774917 -0.053454652 -0.05513996
000120 9c 14 88 bc 30 f8 20 bc 10 95 c2 bb 92 8f 4e 3d
       -0.01661139 -0.0098247975 -0.00593818 0.050429888
000130 a8 71 f1 bc 74 85 f6 bc 12 b4 73 bd 54 74 99 3c
       -0.02947314 -0.030092932 -0.0594979 0.018732227
000140 98 78 b8 bc d0 18 ce bc 28 e2 69 3c f0 91 87 bb
       -0.022518441 -0.025158316 0.014275111 -0.00413727
000150 90 be b2 bb 46 a8 48 bd c8 50 57 bd c0 c4 70 bd
       -0.0054548457 -0.048988603 -0.052567273 -0.058781385
000160 c0 c3 86 3a d4 04 92 bc c2 d9 28 3d e6 48 58 3d
       0.0010281727 -0.017824568 0.041223295 0.052803896
000170 b4 99 37 3d 04 fb 8b 3c 80 5f d5 bc f0 dd 11 bc
       0.044824317 0.017087467 -0.026046515 -0.008903012
000180 90 be 97 bb 24 3f 1e bd b4 03 9f 3c 76 15 22 bd
       -0.004630871 -0.038634434 0.019410945 -0.039571248
000190 90 ee 56 bd d6 87 29 bd 46 14 12 3d 76 37 6f 3d
       -0.052473605 -0.04138931 0.035663866 0.0584025
0001a0 3c b1 9d bc b0 d2 ef 3b 40 3e 04 bc 7a 22 2e 3d
       -0.019249551 0.007318817 -0.008071482 0.04251335
0001b0 4e 68 29 3d f2 df 59 3d 6c 22 f1 bc a0 fd 06 3c
       0.04135924 0.053192087 -0.029435359 0.00823918
0001c0 40 7f 4e 3c 80 8b cc ba 74 81 72 3d 16 17 48 bd
       0.012603581 -0.0015605539 0.059205487 -0.04885014
0001d0 6c c6 8e 3c 40 36 41 bc 70 24 76 bc 90 2b 14 3c
       0.0174286 -0.011792719 -0.015023336 0.009043589
0001e0 3e 16 15 bd 54 85 9b 3c 12 9a 05 3d d4 56 cc 3c
       -0.036398165 0.018984474 0.032617636 0.024943747
0001f0 98 fb 0d bc 24 b3 ce 3c 5e 88 70 3d 6c e2 10 3d
       -0.008665942 0.025231905 0.0587238 0.035372183
000200 c8 de 5b 3c 30 0b 2d bc e6 c9 33 bd b4 5c d6 bc
       0.013419814 -0.010561749 -0.043893717 -0.026167251
000210 3c 91 27 bd 7e 6a 22 bd b8 28 3f 3c da c6 19 3d
       -0.04090999 -0.03965234 0.011667423 0.037543155
000220 54 78 e6 bc 8c 1c fe bc 90 29 65 3c de 51 79 bd
       -0.028133549 -0.031019472 0.01398696 -0.06086909
000230 6a 48 61 3d 80 c7 8d 3a aa 77 4f 3d 80 98 9b bc
       0.0550007 0.0010816902 0.05065123 -0.018993616
000240 50 dd 2a bd 4e 0d 43 bd 1a 62 6f bd 8a 9e 54 3d
       -0.041714966 -0.04762011 -0.058443166 0.051909007
000250 d8 9f 85 bc d0 72 8a 3b a0 02 35 bb 8c e8 6a 3d
       -0.016311571 0.0042251125 -0.0027619973 0.05735068
000260 80 cd 30 bd 28 b5 1d bd d0 07 bf bc 8c cd c5 3c
       -0.04316473 -0.038502842 -0.023319155 0.024145864
000270 70 54 72 3d 80 89 30 bb 80 a0 53 bc ca 7d 74 bd
       0.059162557 -0.0026937425 -0.012916684 -0.059690274
000280 40 1f 8f 3c 40 56 56 bb 90 fc b4 3c f4 8a 23 bd
       0.017470956 -0.0032705218 0.022093087 -0.039927438
000290 f0 37 f1 3c 24 c3 88 bc e0 86 30 bb 70 c9 63 bd
       0.029445618 -0.016694613 -0.002693586 -0.055612028
0002a0 82 b3 2c 3d 78 58 2e 3c e6 b9 6a 3d 00 97 bd 3c
       0.04216338 0.01064121 0.057306193 0.023143291
0002b0 98 b4 d5 3c 88 8a a7 3c 60 70 55 3c 08 97 b3 bc
       0.02608709 0.020451799 0.013027281 -0.021922603
0002c0 08 b2 f5 bc bc f4 33 bd d0 46 07 bd 60 c0 2f 3b
       -0.029992118 -0.04393457 -0.033026516 0.0026817545
0002d0 a8 96 24 bd 92 07 77 3d 5c 96 50 bd 90 79 23 bd
       -0.04018274 0.060309954 -0.050924644 -0.039910853
0002e0 90 c5 e1 bc 16 fc 18 bd e0 a2 98 3c 94 26 25 3d
       -0.027560025 -0.037349783 0.018632352 0.040319994
0002f0 d4 07 83 3c 08 75 95 bc 68 6c 57 bc d2 fb 12 3d
       0.015994944 -0.018244281 -0.013148405 0.035884686
000300 40 5a d1 bb 80 19 2b bd ca 9a 3b bd e4 ed 46 bd
       -0.0063889325 -0.041772366 -0.045801915 -0.048566714
000310 f0 c0 5e 3d 00 ad 74 bc 14 20 58 bd a2 0b 00 3d
       0.05438322 -0.014933825 -0.052764967 0.031261094
000320 b0 0b 32 bc 46 d8 4f 3d a0 43 c9 bb 80 b9 31 3b
       -0.010867044 0.050743364 -0.0061420947 0.0027118623
000330 f0 8f 67 3c 0a ac 77 bd b4 b1 c3 3c 80 a9 9c 3a
       0.0141334385 -0.060466804 0.023888446 0.001195237
000340 98 2b 16 3c 98 52 5a 3c d0 f5 f6 bb 22 0e 43 3d
       0.009165667 0.013325356 -0.0075366274 0.0476209
000350 e8 44 54 bd 00 c3 46 3d 0a d2 63 bd 56 7f 0f bd
       -0.051823527 0.04852581 -0.05562023 -0.035033546
000360 e8 89 b6 3c 7a df 76 3d d0 a8 9b bc 50 71 e9 3b
       0.022282556 0.060271718 -0.019001395 0.0071241036
000370 80 58 5e 3b 20 c3 5d bd f0 85 65 bc 16 d6 4d 3d
       0.0033927262 -0.054141164 -0.014008984 0.050252996
000380 30 63 9a bb f2 fe 32 3d e0 99 9b bb c2 56 7c 3d
       -0.004711531 0.043700166 -0.004748568 0.061606176
000390 a0 3f 18 3b 7c f2 33 3d e6 c9 77 3d a0 d0 44 3d
       0.0023231283 0.043932423 0.06049528 0.048050523
0003a0 70 33 ce bc c8 ad 0d 3c 80 90 4f bc 0c 64 e0 bc
       -0.025171012 0.00864739 -0.012668729 -0.027391456
0003b0 66 05 16 bd 4c 73 96 3c bc 5c 1e bd 80 ce 18 bd
       -0.036626242 0.018365525 -0.038662657 -0.03730631
0003c0 f0 90 fa bc 30 01 6f 3d 9c 66 4c 3d 80 2d 76 bc
       -0.03058669 0.058350742 0.049902543 -0.0150254965
0003d0 70 6f 4c bd e8 34 4f bd 2c 4d 10 bd a8 88 35 bd
       -0.049910963 -0.050587565 -0.035229847 -0.04431978
0003e0 28 6b 33 bd 54 57 15 3d fc c9 ec 3c 84 57 00 3d
       -0.043803364 0.036460236 0.028904907 0.03133346
0003f0 50 90 5e bd 2c 4a c4 3c 28 2d 16 bd 84 54 80 bc
       -0.054336846 0.02396115 -0.036664158 -0.0156653

fc_mean.bias f4 [6]
000000 80 d4 46 bc 18 7d f4 bc f4 ce 71 bd d6 02 1f bd
       -0.012135625 -0.029844806 -0.059035257 -0.038821064
000010 a6 48 62 3d fc 6d ba bc
       0.055245064 -0.022757523

fc_log_std.weight f4 [6, 256]
000000 50 4c 52 3d c8 f3 0a 3d 62 7d 03 3d e0 fb 92 bc
       0.05134231 0.033923894 0.032101996 -0.017942369
000010 58 fb 55 3c 54 14 c6 3c 8c 81 26 3d 10 70 c5 3b
       0.013060413 0.024179615 0.04065089 0.006025322
000020 90 b9 70 3d 86 74 25 3d 98 c0 35 bc 2a 31 30 3d
       0.058770716 0.04039433 -0.011093281 0.043015637
000030 14 ec 9d 3c be a6 4c 3d f8 70 33 3c 72 f5 62 3d
       0.01927761 0.049963705 0.010952227 0.055409856
000040 2c 21 56 3d b8 8b e9 bc 34 00 5a 3d a0 5a 08 3d
       0.05227773 -0.028509006 0.05322285 0.03328955
000050 e4 70 1a 3d e8 85 ea bc 60 82 ca bc e8 8d 63 bd
       0.037705317 -0.028628305 -0.02472037 -0.055555254
000060 2a 50 1e bd 6e 0c 24 bd 4e 9a 1c 3d 20 d3 35 3c
       -0.03865067 -0.040050916 0.038233094 0.011097699
000070 80 1a 99 ba 14 55 0f 3d c0 22 a7 3c a2 ea 04 3d
       -0.0011680871 0.034993246 0.020402312 0.032450326
000080 98 ae be bc 1a d3 5f 3d e0 c2 43 bb 36 c9 34 bd
       -0.023276612 0.05464468 -0.0029870793 -0.044137202
000090 54 79 de 3c 32 df 3f bd 48 8e 16 3d d8 2b ae 3c
       0.027157463 -0.046843715 0.036756784 0.02126114
0000a0 80 ab 27 bb 60 dd 6e bc b4 6a 86 bc 00 c0 cd 3a
       -0.00255844 -0.014579147 -0.016408302 0.0015697479
0000b0 cc 64 3c 3d 90 84 22 bc 34 a9 49 3d 94 63 19 bd
       0.045994565 -0.009919301 0.04923363 -0.03744848
0000c0 40 21 92 3c 24 c5 3b 3d e0 83 41 3d 00 b0 b9 39
       0.01783812 0.045842305 0.047244906 0.0003541708
0000d0 b4 e5 ef 3c 38 5c 5e 3c 08 0d df bc a0 af 25 bd
       0.029284336 0.013571791 -0.027227893 -0.040450692
0000e0 96 5f 6d bd 7c 60 c9 3c a8 f6 73 3c dc 8a 9f 3c
       -0.057952486 0.02458214 0.01489035 0.019475393
0000f0 ce 54 47 bd 40 a8 75 3d 3c a8 75 3d d0 ff 4e 3d
       -0.04866486 0.05997491 0.059974894 0.05053693
000100 fc db c4 bc b8 2d 9b 3c 5c 36 74 3d 54 5f eb 3c
       -0.024030678 0.018942699 0.059622154 0.02873198
000110 00 cf 8f b9 00 1d 79 3a a6 61 38 bd b2 90 0c 3d
       -0.00027429312 0.00095029175 -0.045015 0.03431768
000120 90 71 40 bc a0 da 5b bc d2 1b 3d bd fc 06 08 3d
       -0.011745825 -0.0134188235 -0.04616911 0.033209786
000130 92 6b 35 3d 10 f6 12 3d c0 de 12 bd 18 24 6b bd
       0.04429204 0.035879195 -0.035856962 -0.05740747
000140 24 88 d5 3c 58 47 3d bc b8 07 a0 3c e0 a2 2f 3d
       0.026065893 -0.011552654 0.01953493 0.04287994
000150 76 d2 1d bd ce 6f 1e bd cc 19 e0 bc 50 8c a1 bb
       -0.03853079 -0.038680844 -0.02735605 -0.0049300566
000160 14 9a 02 bd 24 a4 1c bd a0 0b ae 3b 34 2d 99 bc
       -0.03188522 -0.038242474 0.0053114444 -0.018698312
000170 d8 2e d7 bc 22 a7 59 bd 98 69 34 3c 80 d2 2c 3c
       -0.026267454 -0.053137906 0.011011504 0.010548234
000180 d8 a0 1d bc d8 33 11 3d 78 2f 7f 3c 50 6c 2d 3c
       -0.009620868 0.035449833 0.015575282 0.010584906
000190 da 68 1e 3d 02 5f 44 3d a2 b7 0f bd f0 eb 72 3c
       0.038674213 0.04794217 -0.035087235 0.01482676
0001a0 e8 c0 04 3c 40 1d 27 3b b2 2f 07 3d 64 25 ad bc
       0.008102633 0.0025499612 0.03300447 -0.021135993
0001b0 d0 92 5c 3d e0 9e a0 3c 40 3e ea 3b 3c d3 9b 3c
       0.05385095 0.019607008 0.007148534 0.019021623
0001c0 50 ea 55 3d 22 f8 4a 3d 80 9f 1b bc 76 32 2f bd
       0.05222541 0.049553044 -0.009498477 -0.042772733
0001d0 c8 48 5e bd 0c f9 de 3c 44 fa 82 bc f0 99 55 3c
       -0.05426863 0.027218364 -0.015988477 0.01303719
0001e0 b2 f2 16 bd c8 91 29 3c 24 bc c2 bc 5e fd 29 bd
       -0.036852546 0.010349698 -0.023771353 -0.041501395
0001f0 38 42 c1 3c e4 37 c3 bc de 70 20 bd a4 09 5f 3d
       0.023591146 -0.023830362 -0.03917014 0.054452553
000200 74 00 77 3d 58 ea 5e 3c 8c c5 7b bd 40 fb 12 bd
       0.060303167 0.013605677 -0.061467692 -0.035884142
000210 12 b4 3a 3d b0 ab 8b bb 38 f9 4a 3d a4 a0 02 bd
       0.045581885 -0.00426241 0.04955408 -0.03189148
000220 a8 2c 1a bc 00 dc cc bc 80 f8 5b bb f8 a5 fc bc
       -0.009410061 -0.025007248 -0.0033564866 -0.030840859
000230 e8 cd a3 3c a8 8f 07 3d 6c be a5 3c ac 24 4a bd
       0.019995645 0.033095986 0.020232402 -0.04935138
000240 60 00 97 bb 00 5e 67 3b b2 12 2b 3d a2 8e 3a 3d
       -0.004608199 0.003530383 0.041765876 0.04554618
000250 38 4f 1c bc a0 b9 2d bc 58 76 d8 3c c0 c7 b0 3b
       -0.009540372 -0.0106033385 0.026423618 0.005394906
000260 80 4b 60 bb 78 fe 33 3d 74 f9 e7 bc 70 5b f5 bc
       -0.003422469 0.043943852 -0.02831719 -0.029950827
000270 ca 96 3a 3d 62 3b 0c 3d c6 07 0b 3d 64 4a 27 3d
       0.04555396 0.03423632 0.03394296 0.04084243
000280 a0 93 df bb dc 76 03 3d e2 86 37 bd d2 30 59 3d
       -0.006823018 0.032095775 -0.04480637 0.053025074
000290 14 63 fe bc 8c 72 0a 3d 7c 60 4e 3d c0 5c 88 3c
       -0.031053104 0.033800647 0.050384983 0.01664579
0002a0 a0 d1 3b bb a0 df bb 3c cc 4a 76 bd ba bb 65 bd
       -0.0028658882 0.022933781 -0.060129926 -0.056087233
0002b0 8e d0 1b bd 6a 16 30 3d 40 4f 12 3b 10 b6 2e bd
       -0.03804069 0.042990126 0.0022325069 -0.042654097
0002c0 94 66 98 3c 70 f0 ec bb 72 25 06 bd f0 34 ba bb
       0.0186036 -0.007230811 -0.032750554 -0.00568258
0002d0 7c 4f 53 3d 92 52 3d bd 74 f9 b4 3c 5a 9f 59 bd
       0.051589474 -0.046221323 0.022091605 -0.053130485
0002e0 b8 14 98 bc f8 90 3b bd be 5b 54 3d b0 04 6e 3d
       -0.018564567 -0.04579255 0.051845305 0.05810994
0002f0 9c 42 bf bc 58 85 0a 3d 6e 46 5e 3d f2 0a 67 3d
       -0.023347192 0.033818573 0.054266386 0.056406923
000300 d8 99 0d bc 44 61 87 bc 30 96 40 bd 10 e9 20 3d
       -0.008642636 -0.016525872 -0.04701823 0.039284766
000310 2c 33 58 bd e8 53 bd bc b6 50 76 bd 1c 89 e3 bc
       -0.052783176 -0.023111299 -0.060135566 -0.02777534
000320 b0 f4 e9 3c 80 54 34 3d 1e 25 7a 3d 92 f8 09 3d
       0.028559059 0.044025898 0.061070554 0.03368432
000330 82 b2 09 bd bc 5b 92 3c 3c b8 d2 bc 12 af 01 bd
       -0.033617504 0.017866008 -0.025722615 -0.0316611
000340 c4 ac 11 bd 14 01 e1 bc 84 84 a6 bc 58 f2 21 bd
       -0.035565153 -0.027466334 -0.02032686 -0.039537758
000350 9c e1 95 bc 84 58 66 3d b4 3c fe bc 70 69 e3 3b
       -0.018296055 0.05623676 -0.031034805 0.0069400594
000360 a4 59 eb 3c b4 9f 67 bd 48 bf 81 3c b8 12 50 3d
       0.028729267 -0.05654879 0.01583828 0.0507991
000370 9c 0e 3d 3d b6 5e 14 bd 90 f6 b0 3b 60 87 0c bd
       0.04615651 -0.036223136 0.0054004863 -0.03430879
000380 70 58 0a bc ee 8c 2b bd ae fc 4d bd fc e7 7e bd
       -0.008443937 -0.041882448 -0.050289802 -0.062232956
000390 a6 c5 43 bd 80 80 56 3c e4 76 7b bd c4 8d 81 3c
       -0.047795914 0.01309216 -0.06139268 0.01581467
0003a0 94 a8 82 3c a0 0c 59 bd 94 95 34 bd 80 d2 3f 3b
       0.015949525 -0.052990556 -0.04408796 0.0029269755
0003b0 dc 68 d0 3c d0 c5 a3 bc 92 33 75 3d 10 96 f1 3c
       0.025440626 -0.019991785 0.059863634 0.0294905
0003c0 c0 d2 b1 3c 0c 13 fa 3c be a7 16 3d bc f0 b8 bc
       0.021706939 0.03052666 0.036781065 -0.022575729
0003d0 8a 23 07 3d 04 77 e9 3c ec ef d5 bc 80 18 bd 3a
       0.032992877 0.028499134 -0.02611538 0.0014426857
0003e0 74 71 6d bd 80 8b f8 3b 60 1a 4f 3d 78 5c 68 bd
       -0.057969525 0.007584989 0.050562263 -0.05672881
0003f0 84 72 e5 bc e4 3e e9 3c 16 2f 38 bd f4 d8 0b bd
       -0.028008707 0.028472371 -0.04496678 -0.03414245

fc_log_std.bias f4 [6]
000000 e0 ec 5c 3b 40 31 f6 ba d8 dd 75 bd 70 40 cc 3b
       0.0033710524 -0.0018782988 -0.06002602 0.0062332675
000010 ac ac 4f bd 22 94 14 bd
       -0.050701782 -0.036274083
