output/MAPPO/lxl/weight/critic_agent_0_ep_5000.pth (torch, 280350 bytes, 5 tensors)

fc1.weight f4 [256, 12]
000000 5c 18 5e be 30 df 8a be 60 8b d3 3c 1e 48 16 3e
       -0.2168898 -0.27123404 0.025823295 0.14675948
000010 3c bc ac 3d 42 12 de bd 1c 7a 2f 3e 5c 66 84 3e
       0.0843434 -0.10843326 0.17136425 0.25859344
000020 86 e1 1d be 8f 1d 52 be 22 02 4f 3e 76 91 8e 3e
       -0.15418062 -0.20519088 0.20215657 0.27845353
000030 80 fd 69 bd f8 e9 12 be 80 e1 6f bb 98 ce 6d 3e
       -0.057126522 -0.14347064 -0.0036602914 0.2322334
000040 fa 4c a7 bd 0c b2 87 be a4 c1 6d 3e 38 c3 07 3e
       -0.08168979 -0.26503026 0.232184 0.13258064
000050 48 c2 27 3d 52 af 89 be 5e 93 09 3e 40 d3 57 3e
       0.040956765 -0.2689157 0.13435122 0.21076679
000060 9c 3e ec 3d 90 8b 6b 3e c4 b0 de 3d ca f1 4f 3e
       0.11535379 0.23002458 0.10873559 0.20307079
000070 98 52 83 3d 20 cf fa bd 04 93 0c be 10 bf db 3c
       0.06412238 -0.12246537 -0.13727957 0.026824504
000080 61 88 6c be b0 9e 20 be f0 6f 55 3d 40 51 d6 3b
       -0.230989 -0.15685534 0.052108705 0.0065404475
000090 fe 8a 4b 3e 8a 31 38 3e 6e e2 24 be ee 95 dd bd
       0.1987724 0.17987648 -0.16102001 -0.108196124
0000a0 10 c0 42 3d 24 82 34 bd 24 eb 6b 3e 50 8d 1e bd
       0.047546446 -0.044069424 0.23038918 -0.038708985
0000b0 40 c9 26 bc 36 e9 df bd 04 5a 90 be 1a a6 bb bd
       -0.010179818 -0.10933153 -0.28193676 -0.09162541
0000c0 60 f0 2e bc b6 f0 54 3e 00 9e 8b 3b 86 99 92 3e
       -0.010677427 0.20794949 0.0042607784 0.28632754
0000d0 c0 9e db bc f0 62 06 3e 6c a9 cd bd 16 06 8b 3e
       -0.026809096 0.13123679 -0.1004208 0.2715308
0000e0 60 3b 56 be 6e c9 8a 3e 60 7c 36 bd 6f a9 24 be
       -0.20921087 0.27106804 -0.044552207 -0.16080259
0000f0 90 c7 d2 3c ba e2 3e be a0 ec 95 bd 5a df 80 be
       0.025729924 -0.18641177 -0.07320523 -0.25170404
000100 0c d7 2c bd 16 f7 36 3e 98 9d 1e be dc e2 23 bd
       -0.042197272 0.17867693 -0.15489805 -0.04001127
000110 5a 8b 19 be 00 7c 11 3c c0 30 44 bd 88 2f 12 3d
       -0.14994565 0.008879662 -0.047898054 0.03568986
000120 38 2d 4a bd a8 3f 58 bd e6 08 3a be 90 0a fc 3c
       -0.04935953 -0.052795082 -0.18167457 0.030766755
000130 98 f0 43 3e f9 c2 82 be 60 57 5b 3d 40 1a 19 bc
       0.19134748 -0.25539377 0.053550124 -0.009344637
000140 72 11 87 be 84 8c 91 be 08 3f 37 3d e2 e7 5e be
       -0.26380497 -0.28427517 0.044737846 -0.21768144
000150 32 a4 2c 3e 20 be 7b bc 5e aa 22 3e 82 06 a7 bd
       0.1685951 -0.015365154 0.15885302 -0.08155538
000160 ad 9d 39 be 74 98 55 3e 4c 79 96 bd 56 71 82 3e
       -0.18126555 0.20858938 -0.07347354 0.25477093
000170 20 d9 7d 3c d0 e2 df bc e9 1b 25 be f1 5e 82 be
       0.015493661 -0.027329832 -0.16123928 -0.2546306
000180 5d 6d 7c be 85 e1 87 be e0 7b 7b 3e d8 30 ba 3d
       -0.24651094 -0.26539245 0.24558973 0.090913475
000190 39 46 91 be ec e3 02 be 94 52 b1 3d 9c b8 08 3e
       -0.28373888 -0.12782258 0.08658329 0.13351673
0001a0 4c 98 28 3e f0 13 9a 3d c0 39 ca 3b 7c e2 34 3e
       0.16464347 0.07523334 0.006171435 0.17664522
0001b0 c0 5a 87 be 84 bb fd 3d 04 45 84 3d a4 1d 73 3e
       -0.26436424 0.123892814 0.06458476 0.23741776
0001c0 1a 40 5f be b8 0d 15 bd c2 73 52 be 5c ce 5c be
       -0.21801797 -0.036390036 -0.2055197 -0.21563095
0001d0 e0 ab 9e bd 50 60 91 3e 46 b3 ef bd 12 b7 2a 3e
       -0.07747626 0.28393793 -0.117041156 0.16671398
0001e0 00 2d 3e 3d fc 04 75 3e 04 cc 57 3e 3d 98 83 be
       0.046429634 0.23927683 0.2107392 -0.25702086
0001f0 18 8d 65 3e b0 47 d4 3d 3e 60 3d 3e a0 8b 82 3c
       0.22417104 0.10365236 0.18493745 0.015935719
000200 9b e9 43 be 76 01 54 3e eb 37 8d be 38 bf 80 3d
       -0.19132082 0.20703682 -0.27581725 0.06286472
000210 b9 40 39 be 08 92 1b 3d 06 37 2a 3e 50 cc b3 bd
       -0.18091096 0.037981063 0.16622552 -0.08779204
000220 8c 3d 2b 3e 30 83 0b bd 26 03 c3 bd 08 60 a7 bd
       0.16722697 -0.034060657 -0.09522085 -0.081726134
000230 10 41 38 3e 92 89 ae bd c8 a9 14 3d 5a 4d 28 3e
       0.1799357 -0.08522333 0.03629473 0.16435757
000240 e6 47 90 3e 48 48 a7 3d 9a bb 0d 3e 2b c8 09 be
       0.28179854 0.081680834 0.13841096 -0.13455264
000250 40 d8 21 3d 42 10 9c bd 92 c8 8f 3e 92 12 37 3e
       0.039512873 -0.076202884 0.2808271 0.17878178
000260 80 5e 70 bd d0 72 5c 3d e0 78 a8 3c b6 28 a7 bd
       -0.058683872 0.05382043 0.02056545 -0.08162062
000270 00 80 53 bc 4a 26 86 3e 4c 73 a6 bd 88 ec 26 3d
       -0.012908936 0.26201087 -0.0812746 0.040752918
000280 68 0e 3d 3e 74 84 60 be 0c 69 27 3e d0 f1 9e 3d
       0.18462527 -0.21925527 0.16348666 0.07760966
000290 82 fb 84 3e 76 ca 83 be ef 7b 67 be 27 c4 06 be
       0.25973135 -0.25740403 -0.2260587 -0.13160764
0002a0 94 24 0a be 1a a9 d4 bd 42 59 7f be a8 9d be 3d
       -0.13490516 -0.10383816 -0.24936393 0.09307414
0002b0 80 e5 76 3e d0 a6 8d 3e c0 1c bf bc d0 1a 93 bc
       0.24110985 0.2766633 -0.023329139 -0.017957121
0002c0 b6 12 58 be b4 e0 6c 3e 78 b6 f1 bd 00 94 4e 3e
       -0.21100888 0.23132592 -0.11802381 0.20173645
0002d0 a0 e5 f4 3c 94 06 71 3e d4 7e 7f 3e 1c 87 a2 bd
       0.02989465 0.23537666 0.24950725 -0.07935926
0002e0 e2 3f 8c bd 50 66 f7 bc e4 c9 45 3e 0c bd 61 be
       -0.06848122 -0.030200154 0.19315296 -0.22044772
0002f0 2e 7d 93 3e c0 4f 2d be c9 70 4e be f4 b8 14 3e
       0.28806442 -0.16924953 -0.20160212 0.14523679
000300 b8 2f 2c be e0 49 4e 3d 90 02 5d bd 88 2f 88 3e
       -0.16815078 0.05036342 -0.053957522 0.26598763
000310 30 13 b4 3c 6b 64 1f be 44 81 37 be 56 5e 66 be
       0.021981806 -0.1556565 -0.17920405 -0.22496924
000320 32 12 86 3e 46 27 f5 bd 56 47 83 3e 18 3f 23 bd
       0.26185757 -0.119703814 0.25640363 -0.039855093
000330 e1 ab 92 be a0 95 71 3d 7c 70 35 be 50 1a b5 3c
       -0.28646758 0.058980584 -0.1771869 0.022107273
000340 bc 6d 55 3e 00 d0 77 bc 58 6f 31 3d 3c 48 16 3e
       0.20842642 -0.015125275 0.043319076 0.14675993
000350 78 cb d2 bd 11 cc 89 be fc bb 6b 3e c2 dc 82 be
       -0.10292715 -0.26913503 0.23020929 -0.2555905
000360 e0 78 2f 3c 70 dd c2 3c 86 9e 89 be 08 fb 3e 3e
       0.010709971 0.02378723 -0.26878756 0.18650448
000370 a8 7c ea 3d 40 33 8f 3e 8e 12 2e be 11 ee 0d be
       0.114495575 0.27968788 -0.16999266 -0.13860346
000380 37 65 6c be eb 6a 64 be 70 13 75 3e d4 9e 04 be
       -0.23085485 -0.22306411 0.23933196 -0.12951213
000390 73 dd 86 be 00 20 16 b9 a0 4d 7f 3c 80 23 5d 3b
       -0.26340827 -0.00014317036 0.015582472 0.0033743083
0003a0 98 cf bc 3d eb 96 02 be 7e b5 57 3e 10 c2 f2 3c
       0.09219283 -0.12752883 0.21065328 0.029633552
0003b0 6f e9 05 be 2a 5c 32 3e 98 a4 57 3e 02 d4 29 be
       -0.13077329 0.1741797 0.21058881 -0.16584781
0003c0 72 2f 92 3e ae c0 ed bd 86 e3 90 3e 08 d1 fd 3d
       0.28551823 -0.11609016 0.28298587 0.12393385
0003d0 15 b6 63 be ac 7b c2 3d 48 a3 c8 bd f0 d6 83 3e
       -0.22237428 0.09496245 -0.097967684 0.25749922
0003e0 f9 d7 81 be 67 54 4d be 78 d3 2a be 6c 5c bc 3d
       -0.25360087 -0.20051728 -0.16682231 0.091973156
0003f0 bc e0 ae bd e0 da 5a 3c 5c 50 91 be bd 6b 88 be
       -0.085389584 0.013357848 -0.28381622 -0.26644698

fc1.bias f4 [256]
000000 48 7d d9 3d f9 d3 5c be 08 18 e1 3d 90 59 94 bd
       0.106195986 -0.21565236 0.10990912 -0.07243645
000010 50 d1 c0 3d 75 1d 04 be c0 dd 91 3e b2 6f 50 be
       0.09414923 -0.12901862 0.28489494 -0.20355108
000020 34 21 81 3d d0 dd 37 bd 9c 44 cc 3d a8 52 04 bd
       0.06305161 -0.04488927 0.09974024 -0.03230539
000030 40 9e 96 bd 84 a3 1e 3e 02 18 26 3e 70 d9 50 be
       -0.073544025 0.15492064 0.16220096 -0.20395446
000040 8e 15 36 3e a0 14 3f 3c 1c 5c c1 3d 57 2a 11 be
       0.1778166 0.011662632 0.094413966 -0.14176308
000050 e8 87 8a be ae d0 87 bd 52 ff 15 3e 0a 4a 1d be
       -0.27056813 -0.06631599 0.14648178 -0.15360275
000060 78 5a c2 3d fe ce 80 3e 08 2b dd 3d 10 81 5e 3e
       0.09489912 0.25157923 0.10799223 0.21728921
000070 b4 95 58 3e b0 ff 36 be cf 95 8b be 70 72 d1 bc
       0.21150857 -0.17870975 -0.27262732 -0.025567263
000080 91 0a 41 be 70 76 65 3e 2a 3e 35 3e b0 08 78 3e
       -0.18851687 0.22408462 0.17699495 0.24222064
000090 da 86 4e 3e d0 31 b3 bc de 29 88 3e e4 0d 77 3e
       0.2016863 -0.021874338 0.26594442 0.24126393
0000a0 40 03 88 3c 44 36 39 be 60 cd 2a 3d c8 f8 dc 3d
       0.016603112 -0.18087107 0.041699767 0.10789639
0000b0 70 b6 ff 3d 0a f8 86 3e 40 d8 50 3d 60 75 5d 3d
       0.12485969 0.26361114 0.050987482 0.054067016
0000c0 40 70 bc 3b d8 8f 65 3e 00 89 a1 3a fc 4d 79 3e
       0.005750686 0.22418153 0.0012324154 0.24346155
0000d0 ac 08 8d be 4e 74 42 be 28 b7 44 bd c0 ac cf 3d
       -0.2754568 -0.18989679 -0.048026234 0.10140371
0000e0 e4 be 7e 3e 12 06 22 be 72 cf 90 be 84 1f 47 be
       0.24877506 -0.15822628 -0.28283268 -0.19445616
0000f0 79 8b 21 be 00 98 60 3c d4 22 23 3e 7d b7 19 be
       -0.15775861 0.013708115 0.15931255 -0.15011401
000100 b8 cc 95 3d 90 35 1a 3d 10 c5 c4 3c 04 3c 6b 3e
       0.07314438 0.037648737 0.024019748 0.22972113
000110 b6 fd e9 bd d3 24 30 be d6 ad 6f be 4a 79 39 3e
       -0.11425345 -0.17201547 -0.23406157 0.18112674
000120 00 83 5e 3d 8a 51 89 3e 68 f5 40 3d de 85 f0 bd
       0.05432415 0.26820022 0.047109038 -0.11744283
000130 f1 ce 85 be cc d7 63 3e f4 a9 81 3e dc b8 05 3e
       -0.26134446 0.22250289 0.25324976 0.130588
000140 e4 df cf bd 5a 63 20 3e 50 69 7a 3e f8 36 c2 3d
       -0.101501256 0.156629 0.24454236 0.09483141
000150 f7 42 0c be da 0a 80 3e 8c ea 91 3e 9d 08 17 be
       -0.1369742 0.2500828 0.28499258 -0.1474938
000160 bc 32 82 be e2 3f f6 bd f8 f0 b5 3d 40 b6 98 3c
       -0.25429332 -0.120239034 0.08883852 0.018641591
000170 c0 03 10 3e 60 82 f1 3d 94 fd 64 3e d4 1c 88 3e
       0.1406393 0.11792445 0.22362357 0.26584494
000180 b0 07 44 bd 90 18 2f 3e 04 26 c9 3d 3f d5 20 be
       -0.047858894 0.17099214 0.09821704 -0.15706347
000190 70 0b bb bc 6d f4 63 be 20 22 41 bc 6b b2 84 be
       -0.022832602 -0.2226121 -0.011787921 -0.25917372
0001a0 26 1c 3e be f2 bb cc bd c2 f6 82 be 70 bb b2 bc
       -0.18565425 -0.09996785 -0.25578886 -0.021817893
0001b0 f0 9c f3 3d 08 72 08 3e 44 54 5f be 94 a7 5d bd
       0.11895168 0.1332475 -0.21809489 -0.054114893
0001c0 f0 c8 b5 3d b8 3f 8a 3e e6 24 67 be e2 ba 96 bd
       0.088762164 0.2700174 -0.2257267 -0.07359864
0001d0 26 ef 12 3e 80 ac 50 3c b0 bb 22 bd 47 e5 20 be
       0.1434904 0.01273644 -0.039729774 -0.15712462
0001e0 fa 5c 3c 3e 04 5a 71 3e c8 9b 0c bd 84 94 6c 3e
       0.18394843 0.23569494 -0.034328252 0.23103529
0001f0 80 9d 10 3e df 52 4f be 30 36 f1 bd 10 c1 52 3e
       0.14122581 -0.20246457 -0.117779136 0.2058146
000200 30 51 38 3d 84 df 62 3e 80 f6 49 be d4 4f b9 bd
       0.0449993 0.22155577 -0.19722939 -0.09048429
000210 b6 ef b6 bd 90 21 21 3e a3 e0 73 be 1c 0e 84 3e
       -0.0893244 0.1573546 -0.23816161 0.25792015
000220 84 e5 90 3d 11 db 09 be 20 dc ee bd d2 5b 41 3e
       0.07075027 -0.13462473 -0.11663079 0.18882683
000230 1a 3a 2a 3e 92 1a 32 be 78 4f 70 3e 2a b4 02 3e
       0.16623726 -0.17392948 0.23467815 0.1276404
000240 ce 35 72 be 2a 62 02 3e 9e 8e 3d 3e 56 ea 1f be
       -0.23653337 0.12732759 0.18511435 -0.15616736
000250 7c f2 b1 3d b4 2e 93 3d cc 2c df 3d 8e 6e 80 be
       0.08688828 0.07186642 0.10897216 -0.25084347
000260 04 b6 dc 3d 6b 21 1f be c1 b2 0f be fb 84 8c be
       0.10776904 -0.15540092 -0.14033033 -0.27445206
000270 2f b9 0b be a8 1b 76 3e f8 ba c1 3d 97 e7 7c be
       -0.1364486 0.24033988 0.094594896 -0.2469772
000280 da 36 68 be e8 bf 92 be 2a 1e 12 be 5c 4d 62 3e
       -0.22677174 -0.28662038 -0.14269319 0.22099823
000290 54 9c 09 3e 48 cd 68 3e e0 cf 72 3e 7c db d2 3d
       0.1343854 0.22734559 0.2371211 0.102957696
0002a0 18 06 6f 3e 50 47 1d 3d b8 24 63 3d 24 83 69 3e
       0.23342168 0.038398087 0.05545494 0.22803932
0002b0 86 3f 8a 3e 98 99 ba 3d 5c 7c 60 bd 50 0a ca 3d
       0.2700159 0.09111327 -0.0548061 0.09865248
0002c0 b0 a8 d7 3d 68 f3 f6 3d 8c e1 3a bd ce a6 15 3e
       0.105302215 0.12058145 -0.045625255 0.14614412
0002d0 c8 b2 4b be 70 35 79 3e 86 19 80 3e 3a 58 9b bd
       -0.19892418 0.24336791 0.25019473 -0.07585187
0002e0 80 55 93 3e 89 17 21 be 48 75 1e bd 78 c7 01 bd
       0.2877617 -0.15731634 -0.038686067 -0.03168437
0002f0 ca 39 b5 bd f8 a9 f7 bd d6 42 31 be 3f b7 25 be
       -0.08848913 -0.12092966 -0.17310652 -0.16183184
000300 e0 d0 e7 bc f2 04 01 be dc 5b 12 be 60 8b cb bd
       -0.028297842 -0.12599543 -0.14292854 -0.09938693
000310 ca 44 3d 3e 40 dd fa bb 70 d4 75 3d 00 7a 3b bc
       0.18483272 -0.0076557696 0.06001705 -0.011442661
000320 20 de e0 3c bc e4 8e 3e 40 ef 12 3e 18 78 41 3e
       0.027449667 0.27908885 0.14349079 0.18893468
000330 98 24 79 3e 38 a4 23 3e d4 d4 e0 3d 80 59 44 3d
       0.24330366 0.15980613 0.10978094 0.047936916
000340 14 02 53 3e 08 a3 35 bd ac 95 45 be f0 f4 7e bd
       0.20606261 -0.04434493 -0.19295377 -0.06224531
000350 3c ff db bd 68 22 80 3e 85 c3 6d be b2 19 65 be
       -0.107420415 0.2502625 -0.23219116 -0.22373083
000360 2b ff 2d be 64 4a 9e 3d 70 d2 62 3e 9c 2e 23 bd
       -0.1699187 0.07729033 0.22150588 -0.039839372
000370 8c a7 cd 3d c0 6b db 3c 90 bd 94 3d ec 23 43 3e
       0.10041723 0.026784778 0.07262719 0.19056672
000380 90 07 c9 3d c8 57 8d 3d e3 b9 53 be ce 45 fc bd
       0.098158956 0.069015086 -0.20676379 -0.12318002
000390 b4 9d c1 bd 7a c1 72 be 50 1e cd 3d 4e c8 66 be
       -0.094539076 -0.23706618 0.10015547 -0.22537348
0003a0 4c e6 a4 3d 10 94 ab 3c 88 23 db 3d 90 8d ab bc
       0.08051738 0.020944625 0.107001364 -0.020941526
0003b0 14 c1 7c be 30 32 71 3d c6 20 88 be 30 7d 16 3e
       -0.24683028 0.058885753 -0.26587504 0.14696193
0003c0 b4 89 a4 3d 80 d5 85 bc e8 15 d3 3d a0 76 fc bc
       0.08034077 -0.016337156 0.10306913 -0.030818284
0003d0 f8 c2 35 bd 5e 28 89 3e aa 09 4e be d4 ad a3 bd
       -0.04437539 0.2678861 -0.20120874 -0.079921395
0003e0 5f 1d 83 be a0 77 ea 3c 60 db 72 3c f0 f3 0b 3d
       -0.25608346 0.028621495 0.014822811 0.034168184
0003f0 54 89 45 3e 88 87 82 be 50 93 dd 3c 60 cf 4d 3e
       0.19290668 -0.25494027 0.027047783 0.20098639

fc2.weight f4 [256, 256]
000000 88 9a 45 3c 50 72 5e bc 88 4f 39 bd 80 1b d7 bb
       0.012060769 -0.013577059 -0.045241863 -0.0065645576
000010 38 da c8 bc d8 22 3c bc 70 b3 5d bc a0 99 a6 3b
       -0.024518117 -0.011482917 -0.013531551 0.0050842315
000020 14 5e c9 3c 1a c3 5e bd e8 48 20 bc a4 04 e8 bc
       0.024580993 -0.054385282 -0.009783007 -0.028322525
000030 8e a5 50 3d 78 bb 64 bd 1c c9 29 3d 9e 07 7e 3d
       0.050939135 -0.055842847 0.04145156 0.062018983
000040 b8 a7 7b bc a0 8d 3a bb e4 af 9e bc 36 fb 21 3d
       -0.0153598115 -0.0028465763 -0.01937098 0.039546214
000050 c0 0f bf bc 50 31 16 bc 4e b0 6c 3d a0 a5 55 bb
       -0.02332294 -0.00916703 0.057785325 -0.003259994
000060 9a 2f 5a bd c4 44 36 bd 8c f4 c4 bc f2 43 32 3d
       -0.053268053 -0.044499174 -0.02404239 0.04352183
000070 90 7a dd 3b 58 f0 3e 3c e8 d4 08 bd ce 66 77 bd
       0.0067589954 0.011653982 -0.03340617 -0.060400777
000080 98 71 a3 bc be 84 4a bd c0 1f 53 3b 70 7a 19 bc
       -0.019951627 -0.049443 0.003221497 -0.00936757
000090 7c f1 d2 3c f8 f6 1d 3c 32 6b 3e bd 96 2e 01 bd
       0.025749914 0.0096414015 -0.04648895 -0.03153857
0000a0 48 58 3d 3c 6c 5c 18 bd 16 d0 71 bd d8 4c 83 bc
       0.011556692 -0.037197515 -0.059036337 -0.016027853
0000b0 66 86 07 3d 48 71 87 bc f8 47 1a 3c 54 69 e8 bc
       0.033087157 -0.016533509 0.009416573 -0.028370537
0000c0 68 a4 2e 3c 90 4d 3c bc e0 26 dd bc a8 55 e3 3c
       0.010659315 -0.011493102 -0.026996076 0.027750805
0000d0 d0 f4 e9 3b 18 35 6a 3c 40 d5 d8 bb 0c 2d 9e bc
       0.0071397796 0.014294885 -0.0066172183 -0.01930859
0000e0 30 f3 a4 bb 04 43 41 bd 18 e1 13 bc 30 31 16 bd
       -0.005033873 -0.04718305 -0.0090258345 -0.036668003
0000f0 e8 42 39 bc 9c 64 41 3d ce c0 38 3d 64 2e f3 bc
       -0.011307456 0.04721509 0.045105748 -0.029685207
000100 c4 0b 58 3d 48 2e 41 3c 80 2d 8c ba fe 38 59 3d
       0.052745596 0.0117908195 -0.0010694712 0.053032868
000110 0a 4c 4f bd 20 0b 48 3c 5e bb 3c 3d 10 93 6b bd
       -0.050609626 0.012209684 0.046077125 -0.057513297
000120 9c c2 d1 bc d0 f6 18 3c 6a d3 63 3d 06 9a 5b 3d
       -0.025605492 0.009336188 0.055621542 0.053613685
000130 00 5b 90 3a 80 f7 53 ba 5a 31 2a 3d 70 c3 64 bc
       0.0011013448 -0.00080858916 0.04155097 -0.013962612
000140 48 f4 51 3c 92 8f 54 bd ec c0 79 3d 2c c0 a3 bc
       0.012814589 -0.05189473 0.060975 -0.019989096
000150 08 64 7f bc 44 c2 1e bd 08 b9 12 bd 20 38 c0 3c
       -0.015587814 -0.038759485 -0.03582099 0.023464262
000160 2e 85 24 3d cc 04 50 bd 58 b3 c0 bc 82 81 6a bd
       0.040166073 -0.050785825 -0.023523018 -0.057252415
000170 50 1b 42 3c 16 30 38 bd c0 d7 a4 3a 00 8c 66 bd
       0.011847332 -0.044967733 0.0012576506 -0.05628586
000180 c2 38 6f bd 2a 75 38 bd f8 d5 2f bc c0 ea 3b 3c
       -0.058403738 -0.04503361 -0.0107321665 0.011469543
000190 e4 a3 ae 3c 68 17 62 3c 22 bf 21 3d 1c f2 6f 3d
       0.021318384 0.013799526 0.03948892 0.058580503
0001a0 80 29 e8 3c 90 6c 75 3c b4 30 eb 3c 48 4e 47 3c
       0.028340101 0.014979497 0.028709747 0.01216466
0001b0 a0 78 8d bb f8 2d 32 3c 50 75 93 bb 28 b5 e7 3c
       -0.004317358 0.010875218 -0.0045000687 0.028284624
0001c0 dc a0 ff 3c 58 df a1 bc 02 8d 73 bd 80 97 63 bc
       0.031204633 -0.019759819 -0.059460647 -0.013891101
0001d0 90 6a 26 bc 60 24 45 bc 70 2e 32 bc de 98 2c bd
       -0.010157242 -0.012032598 -0.010875329 -0.042137973
0001e0 50 55 3d 3d d6 86 7e 3d 18 a9 0f 3c ec 30 58 3d
       0.04622394 0.06214031 0.008768342 0.05278103
0001f0 78 bd aa 3c e4 33 7e 3d 78 77 fb 3c 30 3c ac bc
       0.020842299 0.062061206 0.030696616 -0.021024793
000200 b0 ad b9 3b 24 6d c4 3c 58 3e aa bc f0 56 a8 3b
       0.005666457 0.023977824 -0.020781681 0.005137317
000210 a8 99 6b bd b4 9f 73 bd 44 f0 9e 3c c0 7c 01 bd
       -0.057519585 -0.059478477 0.019401677 -0.03161311
000220 b8 45 57 bd d0 fb 11 3d f2 8e 29 bd f8 bb 14 3c
       -0.052556723 0.035640538 -0.04139609 0.009078018
000230 5c 4f a7 bc 42 6d 1a 3d 40 9a dc 3c b8 33 f7 3c
       -0.020423584 0.037701853 0.02692902 0.030176029
000240 90 1e d4 3b b0 7e 92 bb e0 cf bd bc 70 71 11 3d
       0.00647337 -0.0044706687 -0.023170412 0.035508573
000250 00 1f 1e bc 90 23 05 bc 70 29 ec 3b 44 ac e0 3c
       -0.009650946 -0.008126155 0.007207088 0.027425893
000260 f8 b3 1e bc be 93 11 bd 80 9d fe 3a d2 ca 6b 3d
       -0.009686463 -0.03554129 0.0019425601 0.05756647
000270 0c 9c 52 3d fa d9 42 bd 2c cd 80 bc f2 78 05 3d
       0.05141835 -0.04757116 -0.015722834 0.032586046
000280 d8 df 76 bd f0 ae f6 3b fc 69 ac bc 28 28 c3 bc
       -0.060272068 0.0075281784 -0.021046631 -0.023822859
000290 74 c6 82 3c c8 92 42 3c a4 52 a0 3c a0 b0 d7 bc
       0.01596377 0.011875816 0.019570656 -0.026329339
0002a0 90 e2 2d 3c b4 eb 07 bd 88 46 53 bc 74 b9 cc bc
       0.010613099 -0.03318377 -0.012895234 -0.024990775
0002b0 40 cd 29 bb e8 71 04 bd de 50 38 bd 82 a8 55 bd
       -0.0025909692 -0.032335192 -0.044998996 -0.052162655
0002c0 e0 94 04 bb 9a e8 66 3d dc b9 b8 bc 80 f3 e2 3a
       -0.0020230338 0.05637417 -0.022549562 0.0017315
0002d0 40 52 f4 3c ec 3e c9 3c 9c 39 cd 3c c0 64 ba 3a
       0.029824376 0.024566136 0.025051884 0.00142207
0002e0 da f4 4b bd c8 02 3e bc c8 81 0c bd e2 c1 1b bd
       -0.049794056 -0.011597343 -0.034303457 -0.038026698
0002f0 e0 8e ee 3c 16 ba 07 3d 08 d7 3e bc e8 cf c2 3c
       0.029120862 0.03313645 -0.011647947 0.023780778
000300 d4 95 44 bd 6c b8 58 3d ee 9c 26 3d ce fd 3e bd
       -0.04799445 0.052910253 0.040677004 -0.046628766
000310 aa 73 65 3d 00 86 60 39 60 16 8e 3c 40 af 7f bd
       0.05601851 0.00021412224 0.017344654 -0.06242299
000320 54 83 4b 3d 94 f7 a3 bc 70 2a 0d bd dc 14 e8 3c
       0.04968579 -0.020015515 -0.0344643 0.028330259
000330 3c ad 01 bd 64 61 a3 3c f8 11 36 3d 20 5c 7c 3c
       -0.03165935 0.0199439 0.04445073 0.015402824
000340 6c da b2 3c 5e 52 60 3d 6e fc 58 3d 9c 43 b5 3c
       0.021832667 0.05476605 0.05297511 0.022126965
000350 d4 3b 06 3d f2 58 4a 3d 42 f1 30 bd dc 8c df 3c
       0.0327719 0.04940123 -0.04319883 0.027288847
000360 d4 85 d9 3c 6c 0d 3b bd 14 b2 93 bc c0 98 10 bc
       0.026553072 -0.045667097 -0.01802925 -0.008825481
000370 f8 b7 27 3d 4a bf 52 bd 10 f6 23 3d 20 2f 7c 3c
       0.04094693 -0.05145196 0.040029585 0.015392095
000380 a0 76 c9 bb 24 90 62 3d 48 a1 d4 bc ec 1a 67 3d
       -0.0061481744 0.055313244 -0.025955811 0.05642216
000390 c4 37 93 bc 68 fd d9 bc 18 86 10 3d 7a bc 55 3d
       -0.017970927 -0.026610091 0.03528413 0.0521817
0003a0 94 2a e1 3c 60 39 f2 bb 36 1a 3d 3d ae 02 4b bd
       0.027486123 -0.0073920935 0.046167575 -0.049563102
0003b0 10 3c 48 bd 70 84 dc 3b e0 40 77 bb 60 98 c9 bc
       -0.048885405 0.006729655 -0.0037727877 -0.02460879
0003c0 d8 73 2f bd e0 62 f0 bc 60 3a 4e 3c 16 12 67 3d
       -0.042835087 -0.029344022 0.01258716 0.056413732
0003d0 1c 66 c1 3c ac 2a 6f bd 8c 38 ce bc a0 04 0b bb
       0.02360826 -0.058390304 -0.025173448 -0.0021212474
0003e0 f4 43 94 bc 04 c7 b2 bc 20 df b7 bc e0 5b bf 3c
       -0.018098809 -0.021823414 -0.022445261 0.02335924
0003f0 82 d1 1d 3d f0 c4 eb 3c 1a ee 06 3d 78 da 4c bd
       0.03852988 0.02878043 0.032941915 -0.050013036

fc2.bias f4 [256]
000000 04 d8 97 3c ec 4a 00 3d 28 b4 65 bc 78 42 08 3d
       0.018535621 0.03132145 -0.014020003 0.033266515
000010 5c cf 10 bd 88 33 2b bc e0 84 15 bb a0 f6 11 bd
       -0.035354003 -0.010449298 -0.0022814795 -0.03563559
000020 c2 c1 20 bd a0 1e eb 3b c4 1f 01 3d 90 9a 42 3c
       -0.03924728 0.0071752816 0.031524435 0.011877671
000030 40 64 a7 3a 00 16 ec bb f4 32 20 bd a2 de 47 bd
       0.0012770966 -0.007204771 -0.039111093 -0.048796304
000040 b2 67 04 bd 28 ea b5 3c 8e 26 4f bd 20 26 fe 3b
       -0.032325454 0.022206381 -0.050573878 0.0077560097
000050 18 56 e1 bc 68 bc 6f bd 20 0a 17 bd 10 fc 7a 3c
       -0.027506873 -0.058529288 -0.03687489 0.015318885
000060 04 e6 50 3d a8 8f 6f 3c 44 3d b0 3c b8 96 da bc
       0.05100061 0.014621653 0.021513589 -0.026683196
000070 70 66 2b bd 18 96 12 bd 88 0d 92 3c f0 ae fe 3c
       -0.04184574 -0.03578767 0.017828718 0.031089276
000080 6e fb 60 bd 90 53 30 bd 2c af 53 bd 0c a4 c7 3c
       -0.054927282 -0.04304844 -0.05168073 0.024370216
000090 08 b8 4e bd 00 33 4e 3d 80 08 61 ba 82 43 73 bd
       -0.050468475 0.050341606 -0.00085843354 -0.059390552
0000a0 d8 ea 11 3c 6a 54 39 3d 44 82 51 3d 18 81 47 bc
       0.008906089 0.04524652 0.05114962 -0.012176774
0000b0 84 08 32 bd cc 43 b8 bc 00 cc 46 b9 b8 c2 5b 3d
       -0.043465152 -0.022493266 -0.00018958747 0.053652495
0000c0 ee 70 33 bd a0 27 9d 3c 40 2f 2b bd 92 21 23 3d
       -0.04380887 0.019183934 -0.041793108 0.039826937
0000d0 a6 f2 60 3d 18 c1 3e bd 40 a1 be ba 00 9d 8a bc
       0.054918908 -0.046570867 -0.0014543906 -0.016920567
0000e0 44 c1 0b 3d 94 a3 1b 3d 78 70 f8 bc 00 b0 d7 bb
       0.03411986 0.037997797 -0.030327067 -0.00658226
0000f0 bc fd 3c bd 24 1f 09 3d fc 58 6b bd d4 9c f7 bc
       -0.046140417 0.033476964 -0.05745791 -0.030226149
000100 e2 f8 6b bd 74 ba 90 bc 4a b3 31 3d 60 e2 77 3c
       -0.0576104 -0.017667033 0.043383874 0.015129656
000110 d0 9b df 3c 0a 1d 0f bd 84 4c 66 bd 0e e9 7b 3d
       0.027295977 -0.034939803 -0.056225315 0.061501555
000120 30 cb 6f bd a4 5e 13 bd 86 ee 47 3d 10 8e 25 bd
       -0.058543384 -0.03597893 0.048811458 -0.040418684
000130 00 a7 4d 3a c8 74 2e bd d0 90 f6 bb ba 3b 0e 3d
       0.00078450143 -0.04259184 -0.007524587 0.03472493
000140 bc 7f 53 bd 8e c2 71 3d c0 92 52 3b 0e a6 50 3d
       -0.05163549 0.059023432 0.0032130927 0.050939612
000150 32 da 1d 3d 30 02 46 3c 56 e3 14 3d cc ce 3a bd
       0.038538165 0.0120854825 0.036349617 -0.045607373
000160 a0 e4 0f 3c 3e a6 50 3d fc 7d 22 bd 20 0c 1f bd
       0.008782536 0.05093979 -0.03967093 -0.038829923
000170 80 29 62 bb d8 06 c9 3c 94 b4 47 3d 60 41 4c 3c
       -0.00345096 0.024539396 0.048756197 0.0124667585
000180 8a 1b 46 bd 60 dd 5b 3c c4 0c a8 bc 20 24 4b 3b
       -0.048366107 0.013419479 -0.0205139 0.0030996874
000190 32 06 59 bd 20 7b 07 3c 38 6f 53 bd 04 c3 c7 3c
       -0.052984424 0.008269101 -0.05161974 0.024384983
0001a0 c8 e3 a2 bc 30 72 f0 bc 22 d0 02 3d c0 89 5a bb
       -0.019884005 -0.029351324 0.031936772 -0.0033346266
0001b0 78 65 2d 3c 60 f4 a2 bb 7e 59 4c bd 98 ea 79 bd
       0.010583274 -0.0049729794 -0.049890034 -0.06101474
0001c0 a4 f8 49 bd d8 61 62 3c 08 fe 7f bd 80 ee 9b 3c
       -0.049309388 0.013817273 -0.062498122 0.019034624
0001d0 d6 aa 2e 3d 10 cc 06 bd 44 67 91 bc 5a 89 66 3d
       0.04264339 -0.032909453 -0.017749436 0.056283332
0001e0 8a 81 4a bd 58 2e 49 3c 28 21 1c bd 1e b0 39 bd
       -0.049439944 0.012279116 -0.038117558 -0.045333974
0001f0 24 0c b0 bc 48 b2 e1 3c 0c f8 24 3d 5c b4 fd bc
       -0.021490164 0.027550831 0.04027562 -0.030969791
000200 a4 7e 7e 3d e4 56 ac bc e8 59 9e 3c 5c 7d 01 bd
       0.062132493 -0.021037526 0.01932998 -0.031613693
000210 d8 0f 0f 3c 7c ed a9 bc aa 08 01 3d 48 f0 51 3d
       0.008731805 -0.020743124 0.031502403 0.05125454
000220 38 64 3f 3c 88 ca e7 bc 30 ff be 3b 36 56 48 3d
       0.011681609 -0.028294817 0.0058287606 0.048910342
000230 24 c4 69 bd 50 67 02 bc be 8c 32 3d 1c cd ac 3c
       -0.05707182 -0.007959202 0.043591253 0.021093898
000240 22 57 5b 3d 9e 8f 4c 3d 90 aa 11 bc 2a 0c 66 bd
       0.053549893 0.04994165 -0.008890763 -0.056163944
000250 a0 78 33 3b e8 24 41 bd 78 42 1c 3c a2 8e 21 3d
       0.002738513 -0.047154337 0.009537332 0.039442666
000260 78 33 40 bd d8 14 70 bd 4c cf ce bc de 37 14 3d
       -0.046924084 -0.05861363 -0.025245331 0.03618609
000270 f8 57 1c bc 80 b2 7e bc 12 15 2c 3d 44 4d 45 3d
       -0.009542458 -0.015545487 0.04201228 0.04816939
000280 e2 67 6e bd 82 df 20 3d ac bd 4c bd f4 dd 5e bd
       -0.05820454 0.039275654 -0.049985573 -0.05441089
000290 06 05 24 3d c0 d0 d3 3a 40 43 d1 bc 18 d0 68 bc
       0.040043853 0.0016160235 -0.025544763 -0.01420977
0002a0 c0 2b 1a 3d 50 f3 ab 3c d8 43 33 bc 18 f6 3f 3d
       0.03763938 0.020990044 -0.010941468 0.046865553
0002b0 98 fb 18 bc c8 c5 f6 3c 30 f2 04 bc 90 6e 2d 3c
       -0.009337328 0.030123606 -0.008114383 0.010585442
0002c0 4a c2 62 3d 2c b0 03 bd e0 a2 cc 3b 5a 20 43 bd
       0.05536107 -0.032150432 0.006245002 -0.047638275
0002d0 0c 16 01 3d 20 c8 7b 3c fe c0 75 3d e6 ec 43 3d
       0.031515166 0.015367538 0.059998505 0.047833346
0002e0 de 4d 34 3d 90 c7 7b 3d e2 a8 64 bd 28 a8 37 3c
       0.044019572 0.061469615 -0.05582512 0.011209525
0002f0 8e 70 5b bd 50 9d e2 3c c4 5c 9f bc c0 e5 43 3c
       -0.053574137 0.027662903 -0.019453414 0.011956632
000300 20 ad bc 3c 30 26 20 3c aa e9 03 bd a8 df e9 bc
       0.023031771 0.00977473 -0.03220526 -0.02854903
000310 f6 f6 1c bd c0 f5 c7 ba 40 63 e5 bc ec a7 d4 3c
       -0.038321458 -0.0015255734 -0.028001428 0.025958978
000320 80 26 47 3b 28 a4 c4 3c a4 81 33 bd c0 45 92 bb
       0.0030387938 0.024004057 -0.043824807 -0.0044638813
000330 92 03 29 3d 62 de 68 bd 60 33 6f 3c 28 a4 29 bc
       0.04126317 -0.056852706 0.014599651 -0.010354079
000340 a0 57 0c 3d 80 22 98 bb 2a f8 5b bd 70 0e 53 bd
       0.034263253 -0.0046427846 -0.053703465 -0.05152744
000350 48 13 04 3d d8 47 26 3c 58 dc b6 3c b4 f6 52 3d
       0.03224495 0.010148965 0.022321865 0.051504806
000360 ac 5f 7c bd c2 79 67 3d aa 32 72 bd 20 99 19 3d
       -0.061614677 0.0565126 -0.05913035 0.037499547
000370 c0 eb fb 3a e0 77 1e bb 06 d1 7a 3d 50 df a1 3c
       0.0019220039 -0.0024180338 0.061234497 0.019759804
000380 3a ac 4c bd 96 3f 03 3d 6e b5 7a 3d 30 9f 0e 3d
       -0.049968936 0.032043062 0.06120818 0.03481978
000390 80 19 97 bb 00 4e 7c 3a 50 6b de 3b d0 3f ee 3b
       -0.004611194 0.000962466 0.006787695 0.0072707906
0003a0 98 1a de bc 20 1d 3e 3d 14 81 4d bd 04 f8 03 bd
       -0.02711229 0.046414495 -0.050171927 -0.032218948
0003b0 6e 38 35 bd 38 90 3b 3d f0 1f 66 3c 80 07 df 3c
       -0.04424327 0.045791835 0.0140457 0.027225256
0003c0 9a 46 3a bd d8 69 7b 3c 72 b9 73 3d a8 d7 fa 3c
       -0.045477487 0.015345059 0.059503026 0.030620411
0003d0 8c 00 07 3d 7e 35 0e bd f0 b4 ba bc 38 f3 71 3d
       0.032959506 -0.034718983 -0.022791356 0.059069842
0003e0 30 70 60 bc 26 3a 49 3d 58 01 3e bd 58 54 e5 bc
       -0.013698623 0.04912772 -0.046388 -0.02799432
0003f0 ec 3b b0 bc c8 6d 19 3d e0 29 71 bc b8 c4 3c 3d
       -0.021512948 0.03745821 -0.014719456 0.046086043

fc3.weight f4 [1, 256]
000000 c0 24 f7 bb 28 e1 ac bc f0 b4 39 3d 48 85 41 bd
       -0.0075422227 -0.021103457 0.04533857 -0.047246248
000010 bc f1 ed bc 02 56 7e bd 5a a1 46 3d 20 fd ae 3c
       -0.029045932 -0.062093742 0.04849372 0.021360934
000020 ec 86 16 bd 7c 61 fb bc a0 b3 5e bb 58 94 78 3c
       -0.036749765 -0.030686133 -0.0033981577 0.015172087
000030 20 8f 39 3b cc 9b ab 3c 08 50 47 3c f0 5e 9c 3c
       0.002831407 0.020948313 0.012165077 0.019088238
000040 14 4d 8e bc 00 dd 60 3a 98 d8 63 bd 60 08 2a 3c
       -0.017370738 0.00085778534 -0.05562648 0.010377973
000050 b0 a1 cb 3c 22 71 6c bd 1e 20 3c 3d 40 40 2a 3d
       0.024857372 -0.05772508 0.045929067 0.04156518
000060 ca 9e 50 bd 70 e8 04 bd e0 9d e8 3c 68 e7 ff bc
       -0.050932683 -0.032448232 0.028395593 -0.031238273
000070 f0 00 a1 bc ec d7 93 3c 00 dd 13 3c 90 2a b9 bb
       -0.019653767 0.018047296 0.0090248585 -0.005650826
000080 cc 7e 83 bc 6e a1 30 bd bc a7 00 3d 70 6e 73 bc
       -0.016051672 -0.0431227 0.031409964 -0.014857873
000090 2a 1b 60 3d a2 a1 1b bd 1c 77 77 3d 20 1d 64 3d
       0.054713406 -0.037995942 0.060416326 0.05569184
0000a0 b0 5f 5a 3c 72 f9 7e 3d 88 62 77 3c c0 a2 ac 3a
       0.013328478 0.06224961 0.015099175 0.0013171062
0000b0 ca 4f 45 3d 0c 3c 23 3d 0c 08 2e 3d c0 48 e4 3b
       0.048171796 0.039852187 0.042488143 0.0069666803
0000c0 88 45 c5 3c 56 f9 67 bd 86 e1 12 bd c8 df 19 bc
       0.024081007 -0.05663427 -0.035859607 -0.0093917325
0000d0 50 b2 d9 3b 42 fd 66 3d 92 9b 79 3d 1a a6 13 bd
       0.006643571 0.05639387 0.06093938 -0.03604708
0000e0 7a ba 31 bd 28 e3 71 3d 26 b4 18 bd 60 10 34 bb
       -0.04339073 0.059054524 -0.037281178 -0.002747558
0000f0 54 75 f6 3c 00 4e 03 3c c0 4c d7 3a 0c 0d 50 3d
       0.030085243 0.008014202 0.0016426072 0.050793692
000100 34 2a da 3c f0 2d d6 bc dc 58 04 bd a0 a9 da bc
       0.026631452 -0.026144952 -0.032311305 -0.026692212
000110 c0 2a 81 ba 50 b6 4a 3c 80 8e 23 3d 08 b2 ae bc
       -0.000985466 0.012372568 0.03993082 -0.021325126
000120 72 07 67 3d 9c 49 be 3c bc 98 84 bc b4 6f e6 3c
       0.056403585 0.023228459 -0.01618611 0.028129436
000130 90 83 3b bc e6 61 31 3d 22 54 5b 3d c4 2b f2 bc
       -0.011444941 0.043306254 0.053547032 -0.029561885
000140 40 fd 1f bd 40 a2 c0 3c 00 e4 4a ba 00 0e 61 3c
       -0.039059877 0.023514867 -0.0007739663 0.013736248
000150 80 c8 f6 3a 10 fe 19 bc ce ef 1f bd 54 90 31 3d
       0.0018828064 -0.009398952 -0.039047055 0.043350533
000160 40 58 aa bb 52 04 2c bd e0 64 1e 3d 66 f8 37 3d
       -0.0051985085 -0.041996308 0.03867042 0.044914626
000170 7a 55 48 bd a0 22 2f bc 88 33 b3 bc 00 6c 6f 3b
       -0.04890964 -0.010689408 -0.021875158 0.003653288
000180 18 a0 78 3d 34 12 f7 bc 08 a2 27 bd 30 a3 e5 3b
       0.060699552 -0.030160047 -0.04092601 0.007007979
000190 0a 1c 30 bd 90 6f 1a 3c 80 8d 8d 3b 5c 70 fa 3c
       -0.04299549 0.009426013 0.0043198466 0.030571155
0001a0 6a 1c 28 bd e0 9d 64 3d 40 4c 3b bc 48 1a ba 3c
       -0.041042723 0.055814624 -0.011431754 0.02271761
0001b0 16 9d 0f 3d 0c c3 dc bc 48 19 04 3d 30 4a 0c bc
       0.03506192 -0.026948474 0.032250673 -0.00856261
0001c0 4a 3d 5d bd f2 e5 3c bd e0 7f 98 3c 68 72 39 bd
       -0.054013528 -0.04611773 0.018615663 -0.045275122
0001d0 52 c0 07 3d bc 43 53 bd e4 82 9d 3c f4 2e e2 bc
       0.033142395 -0.05157827 0.019227453 -0.02761028
0001e0 88 2d ca bc f8 31 19 3c ac e4 70 bd 30 d7 0a 3d
       -0.024679914 0.009350292 -0.05881183 0.033896625
0001f0 00 84 31 3a 8c af 2a bd 68 ed 42 3c 28 9c 63 bd
       0.00067716837 -0.04167132 0.011897422 -0.055568844
000200 d8 21 7a bc d6 c3 28 3d f0 1c 8a 3b bc 9d f8 bc
       -0.015266858 0.04120239 0.0042148754 -0.030348651
000210 dc 09 1c 3d 22 32 09 bd a8 e0 f9 3c 5a d5 68 bd
       0.03809534 -0.033495076 0.030502632 -0.056844093
000220 36 2f 22 3d 2c 7c ca 3c 3c 60 90 3c 80 a3 6d 3c
       0.039595805 0.024717413 0.017624013 0.0145043135
000230 e2 f9 5a 3d 08 06 9f bc 9a b8 4c 3d 00 ed 59 3c
       0.053460963 -0.019412056 0.049980737 0.013301134
000240 7a 33 43 3d 00 86 39 3d e0 c4 93 bb 0c 35 86 3c
       0.047656514 0.045293808 -0.0045095533 0.016382717
000250 f4 30 c0 3c ac 2a 28 bd c6 7e 30 3d 00 e3 0a bc
       0.023460843 -0.04105632 0.04308965 -0.008476973
000260 9c 8b 52 3d 74 57 17 3d 0c 55 0f bd 28 0c 5b bc
       0.051402673 0.036948636 -0.034993216 -0.0133695975
000270 90 60 45 bd 44 92 af 3c ec 8e 9c 3c f4 90 49 bd
       -0.048187792 0.02143205 0.01911112 -0.049210504
000280 e0 3d 1d bc 24 de 17 3d fe f9 5e 3d 38 98 db 3c
       -0.009597272 0.037077084 0.05443763 0.026805982
000290 5c af 21 bd 60 5e e8 bc f2 cc 2f 3d 8c 4e 62 3d
       -0.039473876 -0.028365314 0.04292006 0.05525069
0002a0 60 9f 4c bc e4 1e 91 bc aa c6 36 3d b4 5c 3e bd
       -0.01248917 -0.017714925 0.044623055 -0.046475127
0002b0 d8 63 91 3c 80 df f2 3c bc ba f8 bc c8 63 5d 3d
       0.017747805 0.029647589 -0.03036248 0.054050237
0002c0 f8 dd 47 3d 60 3d 24 3b 48 33 8f 3c 1e 79 12 bd
       0.04879567 0.0025060996 0.017480507 -0.035760038
0002d0 d0 23 fe bc d0 e1 66 3d d8 59 d7 3c e8 c1 9b bc
       -0.031022936 0.056367695 0.026287958 -0.01901336
0002e0 2e 71 68 bd 0a 55 18 3d 6e e6 42 bd 56 67 3a 3d
       -0.05674856 0.037190475 -0.047583036 0.045508705
0002f0 00 72 21 3b 5c d4 6b bd 70 7e 7d 3c 24 ee b0 bc
       0.00246346 -0.05757557 0.01547204 -0.02159793
000300 5c d4 cf bc e0 f3 99 bb 90 dc 6f bd c0 44 69 3c
       -0.025369816 -0.0046982616 -0.058559954 0.014237583
000310 3c fb ea bc 90 9a 6b bd b6 d0 26 bd 2a 47 59 3d
       -0.028684251 -0.05752045 -0.040726386 0.053046383
000320 60 ed 76 bd 48 2b f7 3c 9c 2a a0 bc 80 8b cb bc
       -0.060284972 0.030172005 -0.019551568 -0.024846792
000330 e2 43 4c 3d 54 eb c4 bc 30 c7 cd bb 88 db 06 bc
       0.049869426 -0.024037994 -0.0062798485 -0.008231051
000340 60 25 04 3d 2c 72 88 3c 30 c2 db bc 08 c8 20 bd
       0.032262206 0.016656004 -0.026825994 -0.039253265
000350 fa 22 68 3d 68 3e 7d bd e8 73 5c 3d f8 51 6d 3d
       0.05667398 -0.061827093 0.053821474 0.0579395
000360 08 1c 2c bc 06 47 51 3d 48 80 51 bd 90 6f 0a bc
       -0.01050473 0.051093124 -0.05114773 -0.00844945
000370 c6 2a 73 3d e6 89 4d bd 08 8a e4 bc 10 67 24 3c
       0.059366964 -0.05018034 -0.02789785 0.010034338
000380 76 99 75 3d 08 36 2b bc 00 c5 ad bb c2 53 6b 3d
       0.059960805 -0.010449894 -0.0053030252 0.057452925
000390 84 e6 9b bc 28 d3 ef 3c 2c 8d fa bc b0 a2 a5 3b
       -0.019030817 0.029275492 -0.030584894 0.0050547943
0003a0 f6 a0 6e 3d 38 f7 5b bc c0 c4 c0 bc 40 a4 3e bd
       0.058258973 -0.013425641 -0.023531318 -0.04654336
0003b0 98 13 b5 bc b8 cd a0 3c 64 b6 1d bd 6a 4b 03 3d
       -0.02210407 0.019629344 -0.03850402 0.032054342
0003c0 2a d9 5c 3d 30 e8 81 3b 22 a4 07 bd 9a 81 79 3d
       0.05391804 0.0039644465 -0.033115514 0.060914613
0003d0 3e f0 59 3d 48 53 2b 3d a8 25 f4 3c 40 08 de 3c
       0.05320763 0.04182747 0.029803112 0.027103543
0003e0 c8 14 65 3c 60 c3 35 bd 2a ad 20 bd 2c 1a 38 bd
       0.013982005 -0.044375777 -0.039227642 -0.044946834
0003f0 b0 c3 13 3d d8 53 64 bc d0 26 cf bb 08 e9 46 bd
       0.036075294 -0.0139360055 -0.0063217655 -0.04856208
