output/MAPPO/lxl/weight/critic_agent_4_ep_4200.pth (torch, 280350 bytes, 5 tensors)

fc1.weight f4 [256, 12]
0	0x3d93ff34	0.072264105
1	0xbe85bc5c	-0.2612027
2	0xbe61dfbe	-0.22058007
3	0x3c1091c0	0.008823812
4	0xbe815d76	-0.25266618
5	0xbdc0220e	-0.093814954
6	0x3e26cf12	0.16289929
7	0x3e2a5512	0.16634014
8	0x3d89fc88	0.0673762
9	0x3e877e7c	0.26463687
10	0xbd339f18	-0.043852895
11	0xbdffa60c	-0.12482843
12	0xbe0a054e	-0.13478586
13	0x3e6fc314	0.2341426
14	0x3e5eb39c	0.21748203
15	0x3dbf799c	0.09349367
16	0xbe4b2f04	-0.19842154
17	0xbd85d704	-0.065351516
18	0x3db7ee78	0.08981031
19	0xbd64058c	-0.055669352
20	0xbe7dd06c	-0.24786538
21	0xbe8158a2	-0.25262934
22	0x3e297c1c	0.1655125
23	0xbe1fec29	-0.15617432
24	0x3e47c07c	0.1950702
25	0x3e6e0db4	0.23247415
26	0x3e326eb6	0.17425045
27	0x3daac12c	0.08337626
28	0x3dad6434	0.08466378
29	0x3dbb0c94	0.091332585
30	0xbd46e670	-0.048559606
31	0xbe578e62	-0.21050408
32	0x3e89ba24	0.26899827
33	0xbe8f0912	-0.27936608
34	0xbdcfc9dc	-0.101459235
35	0x3dbcdf28	0.09222251
36	0xbd9589f2	-0.073017016
37	0x3e2ae7bc	0.16689962
38	0x3e3834b4	0.17988855
39	0x3ce46a20	0.027882636
40	0x3d5eaac0	0.05436206
41	0xbc7970e0	-0.015224665
42	0xbd871a02	-0.065967575
43	0xbe43b50a	-0.1911203
44	0x3be65b40	0.007029921
45	0x3dcf7924	0.101305276
46	0x3db1d63c	0.0868344
47	0xbe9078c5	-0.2821714
48	0xbd323d24	-0.04351534
49	0xbe079ada	-0.13242665
50	0xbe63b686	-0.22237596
51	0xbe1d930e	-0.15388128
52	0x3e7bd170	0.24591613
53	0xbe8786e6	-0.26470107
54	0x3e0d666e	0.13808605
55	0xbd808236	-0.06274836
56	0x3da4e648	0.08051735
57	0x3cf21270	0.029549807
58	0x3e240f7e	0.16021535
59	0x3d570a78	0.05250022
60	0xbdb5e5a4	-0.08881691
61	0xbb8d09c0	-0.004304141
62	0xbe8faa24	-0.28059494
63	0x3e7e9b54	0.2486394
64	0xbdf89e22	-0.121395364
65	0x3e6465e4	0.22304493
66	0x3e189ecc	0.14904326
67	0xbe35a8b2	-0.17740133
68	0x3e4df862	0.20114282
69	0xbd260bfc	-0.040538773
70	0xbcb086f0	-0.021548718
71	0xbd93356c	-0.07187924
72	0x3df1cb30	0.11806333
73	0x3e8302dc	0.2558812
74	0xbe509adc	-0.20371574
75	0x3e48a8a4	0.19595581
76	0x3e8f901c	0.28039634
77	0x3e1b453e	0.15163133
78	0x3e0a952a	0.13533464
79	0xbd94c6fc	-0.07264516
80	0x3b29fb80	0.002593726
81	0xbdb22d24	-0.08700016
82	0x3e32a076	0.17444023
83	0xbe83d444	-0.25747883
84	0xbd691bb0	-0.05691117
85	0x3c4db1c0	0.012554586
86	0x3d721f10	0.059111655
87	0xbe48e4b4	-0.19618493
88	0x3d5595d0	0.052144825
89	0x3e02aac6	0.12760457
90	0xbe8c85ad	-0.27445737
91	0x3cde2070	0.027115077
92	0xbe8096e2	-0.25115114
93	0x3d536d60	0.05161798
94	0x3d824b98	0.063620746
95	0x3cf6d4c0	0.030130744
96	0x3c9b2f40	0.018943429
97	0x3e608114	0.2192424
98	0xbe182d0f	-0.14860938
99	0xbe6b3c4d	-0.22972222
100	0x3dc646f4	0.09681502
101	0x3e1dc39c	0.1540665
102	0xbe1d9898	-0.15390241
103	0xbe245ec2	-0.16051772
104	0x3e8a9246	0.27064723
105	0xbe814130	-0.25245047
106	0xbd8cf686	-0.06882958
107	0xbd16b2d0	-0.036791623
108	0x3dd425dc	0.103587836
109	0xbdf0dbe4	-0.11760691
110	0x3d8e6584	0.06952956
111	0x3ca9ecf0	0.020742863
112	0xbe12f2a5	-0.14350374
113	0xbe0f3912	-0.13986614
114	0x3e141836	0.1446236
115	0x3e80b290	0.25136232
116	0x3e027fe6	0.12744102
117	0xbdde366a	-0.108502224
118	0x3e844eb8	0.25841308
119	0x3e09e2fc	0.13465494
120	0x3cd0d550	0.02549234
121	0x3e119060	0.14215231
122	0x3e1af5e4	0.15132862
123	0x3d298d28	0.041394383
124	0xbe83918c	-0.2569698
125	0x3e50fc78	0.20408809
126	0x3e5cbc74	0.21556264
127	0x3c159000	0.009128571
128	0x3e17a78e	0.14810011
129	0xbda7dc58	-0.08196324
130	0x3ddc4f60	0.10757327
131	0xbe12db31	-0.14341427
132	0xbbad89c0	-0.005295962
133	0x3e4448fa	0.19168463
134	0x3e859a0c	0.2609409
135	0xbd43c5a4	-0.047795907
136	0xbe015fa9	-0.12634148
137	0x3c8fc590	0.01755026
138	0x3e537eca	0.20653835
139	0xbd155ee8	-0.036467463
140	0xbe6be1b0	-0.23035312
141	0x3d5a9660	0.053366065
142	0xbd33b270	-0.043871343
143	0x3d0e3ef8	0.03472802
144	0x3e277c78	0.16356075
145	0x3e76a248	0.24085343
146	0xbde4258c	-0.11139974
147	0xbe85a853	-0.26104984
148	0xbe25b4d2	-0.16182259
149	0xbdff9dde	-0.12481283
150	0xbe7fd0f5	-0.24982055
151	0xbd13a4e0	-0.03604591
152	0x3da837a8	0.082137406
153	0xbe80b5ca	-0.25138694
154	0xbde5745a	-0.11203833
155	0x3e52c678	0.20583522
156	0x3dfcbb78	0.12340444
157	0x3e0cfc80	0.13768196
158	0x3d071ee8	0.03298846
159	0xbe343932	-0.17599943
160	0xbca5f340	-0.020257592
161	0x3e42ce78	0.19024074
162	0xbd6d7964	-0.057977095
163	0x3bddca00	0.006768465
164	0x3d82a094	0.06378284
165	0x3e77a9f8	0.24185932
166	0x3de0a1c8	0.10968357
167	0xbdc3a9c6	-0.09553866
168	0x3e8f2af4	0.27962458
169	0x3e906966	0.28205413
170	0x3e59fe0c	0.21288317
171	0xbe90d05e	-0.28283972
172	0xbe84d9a4	-0.25947297
173	0x3e3730e2	0.17889741
174	0xbe8db456	-0.27676648
175	0xbe3fb880	-0.18722725
176	0x3e749968	0.23886645
177	0x3e83f4ee	0.25772804
178	0x3e58dcc4	0.21177965
179	0xbe581f30	-0.21105647
180	0xbdbdde0e	-0.09270869
181	0xbd9d7bd0	-0.07689631
182	0x3dbfcbd0	0.09365046
183	0xbd633ea4	-0.05547966
184	0xbe29f385	-0.16596802
185	0xbc998640	-0.018740773
186	0xbda5d8bc	-0.080979794
187	0xbe084b65	-0.1331001
188	0x3e0203cc	0.12696761
189	0xbe3cb868	-0.1842972
190	0xbe565598	-0.20931089
191	0xbd1d4458	-0.038395256
192	0xbe8118f0	-0.25214338
193	0x3e870968	0.26374364
194	0x3e0686f6	0.13137421
195	0x3db0e9f4	0.08638373
196	0xbe6acb7e	-0.22929189
197	0xbcb0aec0	-0.021567702
198	0xbced6fe0	-0.02898401
199	0xbe61073c	-0.21975416
200	0x3dbdef0c	0.0927411
201	0x3e5d18d0	0.21591496
202	0xbd93e4b8	-0.07221359
203	0x3e389ea8	0.18029273
204	0x3e4bbf9a	0.19897309
205	0xbd594768	-0.053046614
206	0x3e29e1c0	0.16590023
207	0xbe052fb1	-0.13006474
208	0x3e29f00a	0.16595474
209	0xbd8d84f6	-0.06910126
210	0xbe899f20	-0.26879215
211	0xbe5d1f2c	-0.21593922
212	0x3daf3478	0.085549295
213	0xbe1bb98a	-0.15207496
214	0xbd6b688c	-0.05747275
215	0xbe4fae16	-0.20281252
216	0x3dbea170	0.093081355
217	0xbe7b407b	-0.24536316
218	0xbe61e22f	-0.22058938
219	0x3e509030	0.20367503
220	0x3b146880	0.0022645295
221	0x3dea5c18	0.11443347
222	0xbe348d38	-0.17631996
223	0x3cdae1f0	0.026719064
224	0xbe601078	-0.21881282
225	0xbd368b44	-0.044566408
226	0xbe817782	-0.2528649
227	0x3ae03a00	0.0017107129
228	0xbd68fca4	-0.056881562
229	0xbe575a34	-0.21030504
230	0x3d2bda08	0.041955978
231	0x3e900d2e	0.28135055
232	0x3e056076	0.13025078
233	0x3e8368a8	0.25665784
234	0xbe621edc	-0.22082084
235	0x3e3c977e	0.18417165
236	0xbe53012c	-0.20605916
237	0xbe133f78	-0.1437968
238	0x3d0b2640	0.033972025
239	0xbe3afc36	-0.18260273
240	0x3d538ae8	0.051646143
241	0x3e81f566	0.25382537
242	0x3d2ed4a8	0.042683274
243	0x3d49be08	0.049253494
244	0x3da55280	0.08072376
245	0x3dc508d8	0.096208274
246	0x3e62628c	0.22107905
247	0x3e37b620	0.17940569
248	0x3e6ed914	0.23324996
249	0xbe46a746	-0.19399747
250	0xbdc95b4a	-0.09831865
251	0xbd98f0a6	-0.07467775
252	0xbe46cffd	-0.19415279
253	0xbe40d0f0	-0.18829703
254	0x3e891f98	0.26781917
255	0x3de0d56c	0.10978207

fc1.bias f4 [256]
0	0x3e32567e	0.17415807
1	0x3e0b4f76	0.1360453
2	0xbe91a6dc	-0.28447616
3	0x3e91a856	0.28448743
4	0xbe75dff4	-0.24011213
5	0xbd859df6	-0.06524269
6	0xbe85385c	-0.2601956
7	0xbe03cbc1	-0.12870695
8	0xbdd11f26	-0.10211019
9	0x3dc4a314	0.09601417
10	0x3e1eeb80	0.15519524
11	0x3e1f8320	0.15577364
12	0xbd037438	-0.032093257
13	0x3dbd7194	0.09250179
14	0xbe2e6e92	-0.17034367
15	0xbba68080	-0.0050812364
16	0x3e7c7178	0.2465266
17	0x3cf2a7b0	0.029620975
18	0xbd673350	-0.05644542
19	0xbe8ef000	-0.2791748
20	0x3e90a0a6	0.28247565
21	0x3e851d0c	0.25998724
22	0xbe7af00a	-0.2450563
23	0xbdaf2790	-0.08552468
24	0xbe3bfd92	-0.18358448
25	0xbba23680	-0.0049503446
26	0xbe8d2cae	-0.2757315
27	0x3e60079c	0.21877903
28	0xbe79cb17	-0.24393879
29	0x3e2f3386	0.17109498
30	0x3dc16f10	0.094450116
31	0x3e85b59a	0.26115113
32	0xbde8f7c6	-0.11375384
33	0x3e5bf82c	0.21481389
34	0x3e89b948	0.2689917
35	0x3dd6829c	0.104741305
36	0x3e77428c	0.2414648
37	0x3e34c7ca	0.17654338
38	0x3d802028	0.06256133
39	0xbdb9b252	-0.09067215
40	0x3e84fa02	0.2597199
41	0x3e365128	0.17804396
42	0x3e17a220	0.1480794
43	0x3c76c480	0.015061498
44	0xbc98d540	-0.018656373
45	0xbe66982e	-0.2251899
46	0xbe23785e	-0.15963885
47	0xbde62126	-0.11236791
48	0xbe82a676	-0.25517625
49	0x3db22750	0.086989045
50	0x3e57128c	0.21003169
51	0x3dc0fdf4	0.09423438
52	0x3b8e2040	0.0043373406
53	0x3ddafda0	0.106929064
54	0xbb4fac00	-0.0031688213
55	0xbdba3c6a	-0.09093554
56	0xbcbe1db0	-0.023207515
57	0x3d9d43c8	0.07678944
58	0xbdec4e50	-0.115383744
59	0x3e89edaa	0.26939136
60	0xbdefeaea	-0.11714728
61	0x3e81b18a	0.25330764
62	0xbe89df59	-0.26928213
63	0x3db6bdcc	0.0892292
64	0x3e86eb98	0.2635162
65	0x3d45d738	0.04830095
66	0xbe811d40	-0.25217628
67	0x3e8194f4	0.25308955
68	0x3da0cdf4	0.078517824
69	0xbd8ac32c	-0.06775507
70	0x3e8986d2	0.26860672
71	0xbe750ecc	-0.23931426
72	0xbe0bb262	-0.13642266
73	0x3e249fbe	0.16076562
74	0xbcd8ff30	-0.02648887
75	0xbe51c2b5	-0.20484431
76	0xbe8e61d0	-0.27809
77	0x3e91ea6a	0.28499156
78	0xbe4c6144	-0.19958979
79	0xbe3a414b	-0.1818897
80	0x3dbade44	0.09124425
81	0x3e82a170	0.25513792
82	0xbda17330	-0.078832984
83	0x3e58c908	0.21170437
84	0x3e14cc96	0.14531168
85	0xbd092d48	-0.03349045
86	0xbcde0e10	-0.027106315
87	0x3dc7e318	0.097601116
88	0x3e284d52	0.16435745
89	0x3e82157a	0.2540701
90	0x3e42d6ce	0.19027254
91	0x3d4d7b08	0.05016616
92	0x3ceab350	0.028649956
93	0xbe7c4e08	-0.24639142
94	0xbe269f9f	-0.16271828
95	0x3d750750	0.059821427
96	0x3e4171b0	0.18891025
97	0xbe56d00e	-0.20977804
98	0x3e0a3da2	0.13500074
99	0xbb846b80	-0.0040411353
100	0xbd041a78	-0.032251805
101	0xbe0328f8	-0.12808597
102	0xbe1a3dee	-0.15062687
103	0xbdcf6546	-0.10126738
104	0xbcd71550	-0.02625528
105	0xbcb6fda0	-0.022337735
106	0xbe1fb040	-0.15594578
107	0xba2db200	-0.00066259503
108	0xbe53b727	-0.20675336
109	0x3b115000	0.0022172928
110	0x3e2f7c3c	0.17137235
111	0xbe56626e	-0.20935985
112	0x3e100268	0.14063418
113	0xbda44464	-0.08020857
114	0x3d20e6b8	0.03928253
115	0x3d9899e8	0.0745123
116	0x3e816fa2	0.25280482
117	0xbdd18540	-0.102304935
118	0xbe6644e8	-0.22487223
119	0x3dc7ed20	0.09762025
120	0xba450e00	-0.000751704
121	0x3e122306	0.14271173
122	0xbe7c2ab2	-0.24625662
123	0xbe73cb2d	-0.23807974
124	0x3e54c086	0.20776567
125	0x3d32e088	0.04367116
126	0xbdef9884	-0.11699012
127	0xbe88fe14	-0.26756346
128	0xbe88cb4e	-0.2671761
129	0xbe031f3c	-0.12804884
130	0x3e268f4a	0.16265598
131	0xbbeee340	-0.007290274
132	0x3cf11f50	0.029433876
133	0xbe57b9b3	-0.21066932
134	0x3e156190	0.14587998
135	0xbe0e7be1	-0.13914444
136	0x3d040598	0.032231897
137	0xbdd86208	-0.10565573
138	0x3d003718	0.03130254
139	0x3e830ff8	0.2559812
140	0xbe82ccbc	-0.25546825
141	0xbad58b00	-0.0016292036
142	0xbe062a2e	-0.13102028
143	0x3e75e3b4	0.24012643
144	0x3e22df48	0.15905488
145	0xbe8fd0ba	-0.28088933
146	0x3e6afc18	0.22947729
147	0xbe71799b	-0.23581545
148	0x3d8329fc	0.06404492
149	0xbe6d72c6	-0.23188314
150	0x3e4b3e18	0.19847906
151	0xbe409677	-0.18807398
152	0xbe117786	-0.14205751
153	0xbe0bd6a6	-0.136561
154	0x3b03d600	0.0020116568
155	0xbe2a0458	-0.1660322
156	0x3e87511c	0.2642907
157	0x3e1f91a2	0.15582898
158	0xbdffb81a	-0.124862865
159	0xbd2f1d98	-0.042752832
160	0x3b2f0a00	0.0026708841
161	0xbe1ec005	-0.15502937
162	0x3e10dea0	0.14147425
163	0xbcbe3c80	-0.023222208
164	0xbe67cf6a	-0.22637716
165	0x3e021da0	0.12706614
166	0x3dc5d398	0.09659499
167	0xbe8df0c7	-0.2772276
168	0xbe1ace6c	-0.15117806
169	0xbd04b1e0	-0.032396197
170	0x3dbc7e54	0.09203783
171	0xbe2cb05a	-0.16864148
172	0x3dda3f04	0.106565505
173	0xbe93078a	-0.2871669
174	0xbd7ea634	-0.062170222
175	0x3d61aff0	0.055099428
176	0x3e838e34	0.2569443
177	0xbd77be54	-0.060484245
178	0x3de9b764	0.11411932
179	0xbe3a8a84	-0.18216902
180	0x3e8fbd5e	0.28074163
181	0xbd502dd4	-0.050824955
182	0xbd1c3120	-0.038132787
183	0xbe71e335	-0.23621829
184	0xbdc35b60	-0.09538913
185	0x3d882890	0.06648362
186	0x3e23b07a	0.15985289
187	0x3e83bcb2	0.257299
188	0x3e6ecdf8	0.23320758
189	0xbdf9cf44	-0.12197736
190	0xbe8ffbdf	-0.2812185
191	0xbdeb8658	-0.115002334
192	0xbe329028	-0.17437804
193	0xbe5224d9	-0.20521869
194	0xbcdb47c0	-0.026767612
195	0x3e7a3178	0.24432933
196	0xbe2f404d	-0.17114373
197	0xbd36c310	-0.04461962
198	0x3ddd8a54	0.108173996
199	0xbdef01aa	-0.11670239
200	0xbb129d00	-0.0022371411
201	0x3c8d6620	0.017260611
202	0xbe8e89c2	-0.27839476
203	0xbe5ed7f4	-0.21762067
204	0x3dc5343c	0.096291035
205	0x3d0d9290	0.0345636
206	0x3bac6580	0.005261123
207	0x3e78c27c	0.2429294
208	0xbe2a8340	-0.1665163
209	0x3e618fa0	0.22027445
210	0xbe0f1a4f	-0.1397488
211	0xbdd75ce4	-0.10515764
212	0x3c803aa0	0.015652955
213	0xbe874d31	-0.2642608
214	0x3d590058	0.052978843
215	0x3e7cb8f0	0.24679923
216	0xbe80dc5d	-0.25168124
217	0xbd778d24	-0.060437337
218	0xbcdf5900	-0.027264118
219	0x3e3bf53c	0.18355268
220	0xbe0e42ad	-0.13892622
221	0xbe274b0f	-0.16337226
222	0xbe2bfe5d	-0.1679625
223	0xbe67079c	-0.22561496
224	0x3e297fb8	0.16552627
225	0xbe67969e	-0.2261605
226	0xbdf10416	-0.117683575
227	0x3e7a2068	0.24426425
228	0x3e1c71da	0.15277806
229	0x3e306efe	0.1722984
230	0xbe1546a0	-0.14577723
231	0xbdc94aba	-0.09828706
232	0xbe155f15	-0.14587052
233	0xbe3c54dc	-0.18391746
234	0x3e88697a	0.26642972
235	0x3e1523f4	0.14564496
236	0x3cf394d0	0.029734045
237	0xbe7a12be	-0.24421212
238	0xbe5a6418	-0.21327245
239	0x3e753270	0.23945022
240	0x3d2f2b50	0.042765915
241	0x3e3f0a62	0.18656304
242	0x3e22f0de	0.15912196
243	0x3dbb0728	0.09132224
244	0x3e77b2b0	0.24189258
245	0xbe3f8cd6	-0.18706068
246	0xbe43f7a4	-0.19137436
247	0x3d933b10	0.07189
248	0x3e70dcbc	0.23521703
249	0xbe6bb1f7	-0.23017107
250	0xbe538b0c	-0.20658511
251	0x3e3599a4	0.1773439
252	0x3e31d9ec	0.17368287
253	0xbe23756b	-0.1596276
254	0xbe84958b	-0.25895342
255	0xbe86c1a7	-0.2631962

fc2.weight f4 [256, 256]
0	0x3d0da332	0.034579463
1	0x3c2195d0	0.009862378
2	0x3c0a90b8	0.008457355
3	0x3d0c0c8e	0.03419166
4	0xbc071cb8	-0.008246593
5	0xbb978770	-0.0046242997
6	0xbd24cfd2	-0.040237255
7	0xbd660052	-0.05615265
8	0x3c467390	0.012112513
9	0x3c220e68	0.00989113
10	0xbd320b90	-0.043468058
11	0xbafd4b80	-0.0019324869
12	0x3cdea9e4	0.02718062
13	0xbd454ce2	-0.048169024
14	0xbcd67580	-0.026179075
15	0xbd408e52	-0.047010727
16	0xbd6d580e	-0.057945304
17	0xbd3dac10	-0.04630667
18	0x3d31e80a	0.04343418
19	0x3ccca740	0.024982095
20	0xbd76088e	-0.060066752
21	0xbcf66d30	-0.030081362
22	0xbc55cd90	-0.013049498
23	0xbcc759e8	-0.024334863
24	0x3d177eb8	0.036986083
25	0xbd409c20	-0.047023892
26	0xbd247d88	-0.04015878
27	0x3d3e8598	0.046514124
28	0x3d24cce6	0.04023447
29	0x3bb16140	0.0054132044
30	0x3ca98a88	0.02069594
31	0x3c98fd4c	0.018675469
32	0xbcf59c30	-0.029981703
33	0xbd5e7c6e	-0.054317884
34	0xbc7d15b0	-0.015447065
35	0x3d6680b6	0.056275092
36	0xbd5f5328	-0.054522663
37	0xbb899fe0	-0.004199967
38	0xbd1d6346	-0.038424753
39	0xbd6f57c0	-0.058433294
40	0xbbc8e760	-0.0061310977
41	0xbcb10340	-0.021607995
42	0xbc93c06c	-0.01803609
43	0xbcb28c8c	-0.021795534
44	0x3c959e84	0.018264063
45	0x3d7bac16	0.06144341
46	0xbbd5a920	-0.0065204054
47	0xbb4a6060	-0.0030880198
48	0xbd5167ac	-0.05112426
49	0xbb8063a0	-0.003918126
50	0xbca7d370	-0.020486563
51	0xbd78f194	-0.06077726
52	0x3d1e2d6e	0.038617544
53	0xbcf449f4	-0.02982042
54	0xbd64dc08	-0.0558739
55	0xbd44e4d0	-0.048069775
56	0xbd7fa6a6	-0.062414788
57	0x3c857fc8	0.016296282
58	0xbb2b92e0	-0.0026180074
59	0x3d1e8d7e	0.038709156
60	0xbd0ecaba	-0.034861304
61	0xbd198830	-0.037483394
62	0xbd4a70a2	-0.04942382
63	0x3d4032c8	0.04692343
64	0xbab3af40	-0.0013708845
65	0x3ce71400	0.028207779
66	0x3d60a996	0.05484923
67	0xbd037606	-0.032094978
68	0xbd5e841c	-0.054325208
69	0x3d10efcc	0.035384938
70	0xbd74cd1a	-0.059765913
71	0x3d121304	0.035662666
72	0xbc889bc4	-0.016675837
73	0x3c43c278	0.01194822
74	0xbcce2b54	-0.025167145
75	0x3ae85740	0.0017726198
76	0xbd6c1708	-0.05763915
77	0xbba9f560	-0.0051867217
78	0xbd78776a	-0.060660757
79	0xbcab7474	-0.020929553
80	0xbcbea6b0	-0.023272842
81	0x3d4bfd7e	0.049802296
82	0x3c99e178	0.01878427
83	0x3d291bd6	0.041286312
84	0xbd49fd66	-0.049313925
85	0x3c423a60	0.011854738
86	0xbd000bb0	-0.031261146
87	0x3d69c640	0.05707383
88	0xbd0c8356	-0.03430494
89	0x3c61c610	0.013780132
90	0xbcfd7f2c	-0.03094443
91	0x3cd63730	0.026149362
92	0x3c9231d4	0.017846026
93	0x3d34e458	0.044163078
94	0x3babe480	0.005245745
95	0xbd07750c	-0.03307061
96	0x3d210a42	0.039316423
97	0x3d72fd14	0.059323385
98	0x3d071fe0	0.032989383
99	0xbce170c0	-0.027519584
100	0x3d65986a	0.056053557
101	0xbd2237f0	-0.039604127
102	0x3d3be638	0.04587385
103	0xbd6ec266	-0.05829086
104	0x3ac4a680	0.0015003234
105	0x3d51bf6c	0.051207945
106	0x3d5e74a6	0.054310463
107	0xbd343214	-0.04399307
108	0xbcd357bc	-0.025798671
109	0x3d418dbc	0.04725431
110	0xbcce8264	-0.02520866
111	0x3d7b392e	0.061333828
112	0xbbb02e00	-0.0053765774
113	0xbca1ed7c	-0.019766562
114	0xbd259982	-0.0404296
115	0x3d05a8b4	0.03263159
116	0xbd120964	-0.035653487
117	0xbcab63c0	-0.020921588
118	0x3cfb7934	0.030697443
119	0xbd41c98e	-0.04731136
120	0xbd37a4d0	-0.04483491
121	0x3d5388be	0.05164408
122	0xbd08f688	-0.033438236
123	0xbd695140	-0.05696225
124	0x3d189fbe	0.037261717
125	0x3b93aef0	0.004506938
126	0x3b82e470	0.003994517
127	0xbd493418	-0.049121946
128	0x3c3abc48	0.011397429
129	0xbcdfaadc	-0.027303152
130	0xbd19af48	-0.037520677
131	0x3d019962	0.031640418
132	0xbd35fa6a	-0.044428267
133	0x3d5a0ec4	0.053236738
134	0xbc6e6ed8	-0.014552794
135	0xbd254318	-0.04034719
136	0x3d69b052	0.057052918
137	0xbd45e15c	-0.048310623
138	0xbc5631d0	-0.0130734
139	0xbcbdfe10	-0.023192436
140	0x3bb79f80	0.0056037307
141	0x3cc2af40	0.023765206
142	0xbc1ccd90	-0.009570494
143	0xbc05a0f0	-0.008156046
144	0xbd442856	-0.04789003
145	0x3b81cd70	0.0039612576
146	0xbcadeec8	-0.021232024
147	0x3d753278	0.059862584
148	0xbd20868a	-0.039190806
149	0xbcc0f8f8	-0.023556218
150	0xbbd34250	-0.006447114
151	0xbc87687c	-0.016529314
152	0xbc23ef20	-0.010005742
153	0xbc389190	-0.011265174
154	0xbd610586	-0.05493691
155	0xbd513dec	-0.051084444
156	0x3d74d816	0.059776388
157	0x3cd40f5c	0.02588623
158	0xbbb4a1a0	-0.0055124313
159	0x3cda8664	0.02667541
160	0xbd0caf24	-0.034346715
161	0xbc906dd4	-0.017630495
162	0xba88da40	-0.001044102
163	0xbd495cb2	-0.049160667
164	0x3d5ede8e	0.054411463
165	0x3cb5702c	0.022148214
166	0xbc0239e8	-0.007948376
167	0xbab1e100	-0.0013571084
168	0x3ba3de30	0.005000852
169	0x3d6d81b2	0.057985015
170	0xbd3487b0	-0.044074714
171	0x3c9fa018	0.019485518
172	0x3d63d328	0.055621296
173	0xbc32adc8	-0.0109056905
174	0xbd4a8e34	-0.04945202
175	0x3d65cf4e	0.056105904
176	0xbcf06e88	-0.02934958
177	0xbd7c6ee0	-0.061629176
178	0x3d179fdc	0.03701769
179	0x3baf2590	0.005345054
180	0xbd1ead6a	-0.0387396
181	0xbbfb4a80	-0.007668793
182	0x3d212ac6	0.039347433
183	0x3cc6a738	0.024249658
184	0xbc246e00	-0.010035992
185	0x3b9aed60	0.0047280043
186	0x3bbef8b0	0.0058279857
187	0xbc6c8130	-0.014435098
188	0xbc88ae68	-0.016684726
189	0x3d50fd1c	0.051022634
190	0x3d269c9e	0.040676706
191	0x3cd3a710	0.025836498
192	0x3d0e0194	0.034669474
193	0x3d7d67a6	0.061866425
194	0xbd3e2e28	-0.046430737
195	0xbb711880	-0.0036788285
196	0xbbc786e0	-0.0060890764
197	0xbd7e9a84	-0.062159076
198	0x3d65321c	0.05595599
199	0xbd768c2a	-0.060192265
200	0x3d356576	0.044286214
201	0xbb1fe300	-0.0024396777
202	0x3cd58a3c	0.026066892
203	0xbb5ff120	-0.0034170821
204	0xbc928ce0	-0.01788944
205	0x3d51aaec	0.051188394
206	0x3d423686	0.04741528
207	0x3d2d3842	0.04228998
208	0xbcbccc2c	-0.023046575
209	0x3d06584a	0.032799043
210	0x3d435e4c	0.04769735
211	0xbcca4778	-0.024692282
212	0xbca1043c	-0.01965534
213	0xbce7dc8c	-0.028303407
214	0xbd088fc2	-0.033340223
215	0x3cff53d4	0.031167902
216	0x3d7124f2	0.058873124
217	0x3d4cf9b6	0.05004283
218	0x3c27a630	0.010232493
219	0xbc3cd988	-0.011526473
220	0x3d4d42a8	0.050112396
221	0x3d390354	0.04516919
222	0x3bc166a0	0.0059021264
223	0x3d38d55a	0.045125343
224	0xbd468db4	-0.048474982
225	0x3c214338	0.009842686
226	0x3d343c9e	0.04400312
227	0x3c759e30	0.014991328
228	0x3c5811d0	0.013187841
229	0xbcc83928	-0.024441317
230	0x3d4adb22	0.049525388
231	0x3ce799ac	0.028271519
232	0xbd4c2064	-0.049835578
233	0xbd12b770	-0.03581947
234	0x3d16004c	0.036621377
235	0x3b0ee080	0.0021801293
236	0x3d131564	0.03590907
237	0xbc4255b8	-0.011861257
238	0x3cec3aa8	0.028836563
239	0x3c7dbbd8	0.01548668
240	0x3cfe5358	0.0310456
241	0xbca43c48	-0.020048276
242	0x3d0cc126	0.03436389
243	0x3c847190	0.016167432
244	0xbd67d282	-0.05659724
245	0xbd09b420	-0.033619046
246	0x3cae9d08	0.021315113
247	0x3cd9c98c	0.026585363
248	0xbcc2f02c	-0.023796163
249	0xbd5f125e	-0.054460876
250	0xbd7e8884	-0.06214191
251	0xbcdb7c24	-0.026792593
252	0xbd57945c	-0.05263172
253	0x3d621bd2	0.055202313
254	0x3cb1a114	0.021683253
255	0xbb7761e0	-0.0037747547

fc2.bias f4 [256]
0	0xbd3b87e2	-0.045783885
1	0x3bedfb50	0.007262625
2	0xbcee0008	-0.02905275
3	0xbc335050	-0.010944441
4	0x3bef6770	0.007306032
5	0x3cbd7b44	0.023130067
6	0x3d603638	0.054739207
7	0x3c885694	0.016642846
8	0x3d0af298	0.03392276
9	0xbcdccd84	-0.026953466
10	0xbc7c5698	-0.015401505
11	0xbcc029cc	-0.02345743
12	0xbb91b680	-0.0044468045
13	0xbd0615b4	-0.03273554
14	0x3cb4f098	0.02208738
15	0x3c9d57a4	0.01920683
16	0xbd316632	-0.04331035
17	0x3d336174	0.04379411
18	0x3d3aceb2	0.045607276
19	0x3caeb488	0.021326318
20	0xbd7588f4	-0.05994506
21	0x3c3237d8	0.010877572
22	0xba8be000	-0.0010671616
23	0x3d2ed9dc	0.042688236
24	0xbc3ea660	-0.011636347
25	0x3d01104a	0.031509675
26	0x3d7c3524	0.061574116
27	0xbd0d56f2	-0.034506746
28	0xbc649070	-0.013950452
29	0x3c71d2d0	0.014759734
30	0x3c925a94	0.017865457
31	0x3c4444d0	0.011979297
32	0xbc8ed280	-0.017434359
33	0xbb122da0	-0.0022305027
34	0x3c8263b4	0.015916683
35	0x3c678c98	0.014132641
36	0xbd670f74	-0.05641122
37	0xbd056bf0	-0.03257364
38	0x3c894834	0.016758062
39	0xbc9320cc	-0.017959975
40	0xbbf666f0	-0.0075195953
41	0xbcf8bdf8	-0.030364022
42	0x3d019ef4	0.03164573
43	0xbd5c2c70	-0.053753316
44	0x3d0a1aee	0.03371709
45	0x3a8dc1c0	0.0010815188
46	0x3bb33480	0.005468905
47	0xbca15f3c	-0.019698732
48	0x3d47318e	0.048631243
49	0xbd13b83c	-0.03606437
50	0xbbbc6bb0	-0.005750142
51	0xbcc34fc4	-0.023841746
52	0x3d00af60	0.03141725
53	0x3cb7f33c	0.02245485
54	0xbc9aa5a0	-0.018877804
55	0x3d16a456	0.036777817
56	0xbd0c1608	-0.034200698
57	0x3caa071c	0.020755343
58	0xbcd9ea3c	-0.02660095
59	0x3c9802ec	0.01855608
60	0xb9faff00	-0.00047873706
61	0x3c615478	0.013753049
62	0xbd10c1c2	-0.03534103
63	0xbd5c6ad6	-0.053812824
64	0x3c839df8	0.016066536
65	0x3d4b02c8	0.0495632
66	0xbd23ac04	-0.03995897
67	0x3b3f8b00	0.0029227138
68	0xbd1cf100	-0.038315773
69	0xbb5ddc20	-0.0033853129
70	0x3d15c134	0.036561206
71	0x3b6b92a0	0.003594555
72	0x3cd89ef0	0.026442975
73	0x3d792b60	0.06083238
74	0xbd01893c	-0.031625018
75	0xbc8f36f4	-0.017482258
76	0xbbdbbb50	-0.006705679
77	0x3cd53e50	0.02603069
78	0x3ba89fc0	0.005145997
79	0xbd76c3b8	-0.060245246
80	0x3d0b2e5e	0.033979766
81	0x3d2248a6	0.039620064
82	0xbd1bd258	-0.038042396
83	0x3b412e40	0.002947703
84	0x3d614048	0.054992944
85	0xbc253c20	-0.010085136
86	0x3d2983f6	0.041385613
87	0x3d1a9184	0.03773643
88	0xbd1317ec	-0.035911486
89	0xbd3a35ae	-0.04546135
90	0x3ccc85f4	0.024966218
91	0xbca3a228	-0.019974783
92	0x3c87067c	0.016482584
93	0x3c8df2cc	0.017327689
94	0x3d0079d4	0.031366184
95	0xbd76e4a2	-0.060276635
96	0xbd4a17ae	-0.04933899
97	0xbd0ea046	-0.034820817
98	0xbc457138	-0.012050919
99	0xbd342f58	-0.043990463
100	0xbd0bce04	-0.03413202
101	0x3ca06b1c	0.019582324
102	0xbd1eff72	-0.03881783
103	0xbcaf35f0	-0.021388024
104	0xbcfa1810	-0.030529052
105	0x3a647d00	0.0008716136
106	0xbd4fe04a	-0.050751008
107	0x3c117dc8	0.008880086
108	0xbccad334	-0.024758913
109	0x3d6ced02	0.057843216
110	0xbd6c6b8a	-0.057719745
111	0xbc43f410	-0.0119600445
112	0xbd0ea378	-0.034823865
113	0xbbc4d1a0	-0.0060064346
114	0xbbecbf30	-0.0072249398
115	0xbd0b58fa	-0.0340204
116	0xbc800490	-0.015627176
117	0xbca2fda4	-0.019896336
118	0x3d72b408	0.059253722
119	0x3d0a4500	0.03375721
120	0x3d377060	0.044784904
121	0x3d3e7568	0.046498686
122	0xbd75b55e	-0.05998742
123	0xbce19a40	-0.027539372
124	0x3cce0364	0.025148101
125	0xbd3e043c	-0.046390757
126	0x3cbc0278	0.022950396
127	0x3d16a9a6	0.036782883
128	0xbbd1dd90	-0.006404586
129	0x3d7e16e8	0.062033564
130	0xbbd14f20	-0.0063876063
131	0xbc8cf074	-0.0172045
132	0x3d77e962	0.060525306
133	0xbc68b190	-0.01420249
134	0xbce27668	-0.027644351
135	0xbd4029ec	-0.04691498
136	0x3d38e044	0.04513575
137	0xbb9e7760	-0.004836008
138	0x3cee8d18	0.029120013
139	0xbd7e491e	-0.06208145
140	0xbc50dd90	-0.012748137
141	0xbd0e00d0	-0.034668744
142	0xbd5af0ec	-0.053452417
143	0xbccd0cb8	-0.025030479
144	0x3d52c94a	0.051461495
145	0x3be566a0	0.0070007592
146	0x3a126200	0.0005584061
147	0xbc1bee08	-0.0095172
148	0x3d54ed8c	0.051984355
149	0x3cfda3c4	0.030961879
150	0xbd05227c	-0.03250359
151	0x3b54c320	0.0032464936
152	0x3d478efc	0.048720345
153	0x3ac0d000	0.0014710426
154	0x3c780188	0.015137084
155	0x3d47b95a	0.04876075
156	0xbd459636	-0.048238955
157	0x3cac5674	0.021037318
158	0x3c754908	0.014971025
159	0x3cb45e8c	0.02201774
160	0x3c7a9448	0.015294142
161	0x3d0e8728	0.034796864
162	0x3d0be83a	0.034157015
163	0x3d0918d4	0.033470944
164	0x3c8eb144	0.017418511
165	0x3cfab168	0.030602172
166	0x3d1eda64	0.038782492
167	0xbd2e13e4	-0.042499438
168	0xbd5346b2	-0.051581092
169	0x3b654d40	0.0034988672
170	0x3d1829ee	0.037149362
171	0xbd619d0a	-0.055081405
172	0xbcf52e8c	-0.029929422
173	0xbd26a074	-0.040680364
174	0x3d2a7cb4	0.041622832
175	0xbc369330	-0.011143491
176	0x3d70206a	0.058624662
177	0xbd2975dc	-0.041372165
178	0xbcee7ce8	-0.029112294
179	0x3ceeb340	0.029138207
180	0x3d296b4c	0.041362092
181	0xbd218cb2	-0.039440818
182	0x3cab0594	0.020876683
183	0x3d346ee6	0.044051073
184	0xbc0a4ab8	-0.008440666
185	0x3be59b70	0.007007055
186	0x3d015d42	0.03158308
187	0xbd04670c	-0.032324836
188	0xbbadbbc0	-0.0053019226
189	0x3ac92940	0.0015347376
190	0xbd2f7db0	-0.042844474
191	0x3d7c6c28	0.061626583
192	0xbcc8b660	-0.024501026
193	0x3c9d21b8	0.019181117
194	0xbd4b57ba	-0.04964421
195	0x3c98b46c	0.01864072
196	0xbd73829c	-0.05945073
197	0xbc416898	-0.011804722
198	0xbc5ff5e0	-0.013669461
199	0xbcf1a664	-0.029498287
200	0xbc954400	-0.018220901
201	0x3cbc9d50	0.023024231
202	0x3cab0fec	0.020881616
203	0x3d3a70e2	0.04551781
204	0xbb20a9a0	-0.0024515167
205	0xbd70d954	-0.05880101
206	0x3ca5ba7c	0.020230524
207	0xbca97900	-0.02068758
208	0x3d6862aa	0.05673472
209	0xbc309b98	-0.010779284
210	0xbc00bff0	-0.0078582615
211	0x3c12f028	0.0089683905
212	0xbcf8b328	-0.030358866
213	0x3d4b16c0	0.049582243
214	0xbc9113cc	-0.017709635
215	0xbca0ccf8	-0.019628987
216	0x3d31f386	0.043445133
217	0xbc1884f8	-0.009309046
218	0x3caa501c	0.020790152
219	0xbcf4b3d0	-0.029870898
220	0xbd0d93ea	-0.03456489
221	0x3c649460	0.013951391
222	0xbd75efb4	-0.06004305
223	0xbd277332	-0.040881343
224	0xbd5510e6	-0.05201807
225	0xbd57b350	-0.05266124
226	0x3c59c478	0.013291471
227	0x3d18b032	0.037277408
228	0x3cdb5a78	0.026776537
229	0x3ce7b3d8	0.028283998
230	0x3c9f7428	0.019464567
231	0xbd05fdd4	-0.032712772
232	0x3cb87390	0.022516042
233	0xbd0dc4c0	-0.034611464
234	0x3d1fac22	0.038982518
235	0x3d24e4a0	0.040257096
236	0x3c8be21c	0.01707559
237	0xbc99b2e4	-0.01876206
238	0xbd0e9088	-0.034805804
239	0xbd132ee8	-0.035933405
240	0x3cef99e0	0.029248178
241	0xbcbc3414	-0.022974052
242	0x3bdf1dc0	0.0068089664
243	0xbd0b550c	-0.034016654
244	0xbd11edbe	-0.03562712
245	0xbd7ad374	-0.061236814
246	0xbbcd7400	-0.006269932
247	0x3d6e8088	0.058228046
248	0xbd3b5f4e	-0.045745187
249	0x3d543a36	0.051813327
250	0xbd2436c4	-0.04009129
251	0x3d371e84	0.044706836
252	0xbb997030	-0.0046825632
253	0x3c33b790	0.010969058
254	0x3b6d12c0	0.0036174506
255	0xbd0ed58c	-0.034871623

fc3.weight f4 [1, 256]
0	0x3d0cd736	0.03438493
1	0xbd196828	-0.037452847
2	0x3cc6f83c	0.02428829
3	0x3c16f1e8	0.009212948
4	0x3d681070	0.0566563
5	0xbcfcd744	-0.030864365
6	0xbd150de0	-0.036390185
7	0x3c3df250	0.011593416
8	0x3c16f530	0.009213731
9	0xbd7da092	-0.06192071
10	0x3cfc42e8	0.030793622
11	0xbd7dfa46	-0.062006257
12	0x3c6e8ed8	0.014560424
13	0xbd7c537c	-0.061603054
14	0xbcbe9f88	-0.02326943
15	0x3b698d20	0.0035637096
16	0xbd3db91e	-0.04631912
17	0xbc92297c	-0.017842047
18	0xbd2b7a16	-0.041864477
19	0xbd603a9a	-0.054743387
20	0xbc8685a8	-0.016421154
21	0xbd1a11be	-0.037614577
22	0x3cb7fa48	0.02245821
23	0x3cf910b4	0.030403472
24	0x3c6c5ec8	0.0144268945
25	0xbc85bc84	-0.016325243
26	0xbc772e50	-0.015086725
27	0x3d2a171c	0.041525945
28	0x3cc159a8	0.023602322
29	0xbca5a8c8	-0.020222083
30	0xbcc1817c	-0.023621313
31	0xbd5f3574	-0.054494336
32	0x3c9519d8	0.0182008
33	0x3cddd238	0.02707778
34	0x3d44bc0e	0.048030905
35	0x3d32c982	0.043649204
36	0xbc6fe6c0	-0.014642417
37	0xbcaa0e2c	-0.02075871
38	0xbcdfb4f4	-0.027307965
39	0xbbc677a0	-0.006056741
40	0xbd72ff5e	-0.05932557
41	0x3d3bbcfe	0.045834534
42	0xbd7be33e	-0.061496012
43	0xbd08db3c	-0.033412203
44	0x3ce7524c	0.028237484
45	0x3d0fa52a	0.035069622
46	0xbd62a3be	-0.055331938
47	0xbc204858	-0.009782873
48	0x3d30e670	0.043188512
49	0xbd0abf5c	-0.0338739
50	0xbc91c970	-0.017796248
51	0xbcaa5da0	-0.020796597
52	0x3d134632	0.035955615
53	0xbce949cc	-0.028477572
54	0x3d674bca	0.056468762
55	0xbd201b4a	-0.039088525
56	0x3d51c848	0.051216394
57	0x3d2ea700	0.042639732
58	0x3d749880	0.059715748
59	0xbcebeb38	-0.028798684
60	0x3d2368a8	0.03989473
61	0x3d007138	0.031357974
62	0xbc8991ec	-0.016793214
63	0x3d4881ca	0.0489519
64	0x3d53f1ee	0.051744394
65	0xbd220df4	-0.039564088
66	0xbb0e4da0	-0.0021713749
67	0xbccef390	-0.025262624
68	0x3d5a809c	0.053345308
69	0x3c8803d4	0.016603388
70	0xbd4ef6ee	-0.05052846
71	0x3ce56ab8	0.028004989
72	0x3bb10a50	0.0054028407
73	0x3d2740d2	0.0408333
74	0x3a833000	0.0010008812
75	0xbc62ed58	-0.0138505325
76	0x3d5d2b34	0.05399628
77	0xbd2a5caa	-0.041592278
78	0x3cfdf14c	0.030998848
79	0xbcb985c0	-0.022646785
80	0xbd1355aa	-0.035970367
81	0x3d3eb792	0.046561785
82	0xbc302cb0	-0.010752842
83	0xbd4d7994	-0.050164774
84	0x3d63da1a	0.05562792
85	0xbc459450	-0.012059286
86	0xbd51a5b8	-0.051183432
87	0xbb8d3a00	-0.0043098927
88	0xbd27519a	-0.040849306
89	0xbce9072c	-0.028445803
90	0xbd43c410	-0.0477944
91	0xbcbe6b3c	-0.023244493
92	0x3d4ccbba	0.049998976
93	0x3babccb0	0.0052429065
94	0xbc784450	-0.015153006
95	0xbcb445f8	-0.02200602
96	0xbc06fa70	-0.00823842
97	0xbc1b3878	-0.009473912
98	0x3ce40748	0.027835503
99	0xbc08abf0	-0.008341774
100	0x3ccc16f8	0.024913296
101	0xbd7492a2	-0.059710152
102	0xbd4e6c98	-0.05039653
103	0x3d5e3768	0.05425206
104	0xbba3f870	-0.0050039813
105	0x3cb4b1f0	0.022057503
106	0x3c44f070	0.012020215
107	0xbd39e35a	-0.045382835
108	0x3c893274	0.01674769
109	0x3bea2940	0.0071460307
110	0x3bb0df40	0.005397707
111	0x3cdea8ec	0.027180158
112	0x3d09d218	0.033647627
113	0xbd480372	-0.04883141
114	0x3b002940	0.0019555837
115	0x3d0763fc	0.033054337
116	0x3aec5b80	0.001803264
117	0x3d582656	0.052770935
118	0xbd15c0b2	-0.03656072
119	0x3d3d3970	0.046197355
120	0x3d1f4d1e	0.038891904
121	0x3d4144e4	0.04718484
122	0xbd4af9d6	-0.04955467
123	0x3c28f280	0.010311723
124	0xbd511e62	-0.051054366
125	0x3d7113a0	0.058856606
126	0xbd4da43e	-0.05020546
127	0xbc3608b8	-0.011110477
128	0x3cb74bf4	0.022375084
129	0xbd61875e	-0.055060737
130	0x3ca2d07c	0.019874804
131	0xbd44d334	-0.04805298
132	0xbd3e6a68	-0.046488196
133	0xb9e73d00	-0.00044105202
134	0x3c5bb610	0.013410106
135	0x3d46e970	0.048562467
136	0xbd0435ba	-0.0322778
137	0xbd785b4c	-0.060633942
138	0x3cc06e44	0.023490079
139	0xbcd06240	-0.025437474
140	0xbd1101f4	-0.035402253
141	0x3d30fcda	0.043209888
142	0x3cd0fdec	0.025511704
143	0x3af0a480	0.0018359572
144	0x3d6c0d72	0.05763001
145	0xbccd4620	-0.025057852
146	0x3ca72ec4	0.020408042
147	0xbd475cbc	-0.048672423
148	0xbd7ec980	-0.062203884
149	0xbd00ed42	-0.031476267
150	0x3c91ecd0	0.017813116
151	0xbd67f266	-0.056627654
152	0x3cd1d954	0.025616325
153	0x3d3a63d6	0.045505367
154	0xbceecd40	-0.029150605
155	0x3d1b951c	0.037984
156	0xbd1d8cac	-0.038464233
157	0xbc9d5e94	-0.019210137
158	0xbb6abd00	-0.003581822
159	0x3ca53c04	0.02017022
160	0x3d0d278a	0.034461536
161	0x3d16cd32	0.036816783
162	0x3d4b1be4	0.049587145
163	0xbc43abe0	-0.011942834
164	0x3d795dfc	0.060880646
165	0x3d5cda06	0.05391886
166	0x3ce73038	0.028221235
167	0xbc9668ec	-0.018360578
168	0xbd3bf1e8	-0.045884997
169	0xbc1dc9a0	-0.009630591
170	0x3cb87804	0.022518165
171	0x3a3e3300	0.00072555244
172	0x3d2a5078	0.041580647
173	0xbd6968f2	-0.05698485
174	0x3d050b8e	0.032481723
175	0x3cfb09a0	0.030644238
176	0xbcce2bb8	-0.025167331
177	0xbd673734	-0.05644913
178	0x3c184370	0.009293422
179	0xbd3ee2a4	-0.04660286
180	0x3c82285c	0.015888385
181	0x3cc4679c	0.023975186
182	0xbd6601e0	-0.056154132
183	0x3d03e02c	0.03219621
184	0xbd3f20d6	-0.046662174
185	0x3d088cd0	0.033337414
186	0x3cace1f0	0.02110383
187	0xbcadcf34	-0.021216966
188	0x3c56fff8	0.013122551
189	0x3d312a7e	0.043253414
190	0x3d5d3af8	0.054011315
191	0x3c153f60	0.009109348
192	0xbd171548	-0.03688553
193	0xbd492534	-0.049107745
194	0xbd4e2382	-0.05032683
195	0xbd0ce406	-0.034397148
196	0xbc64ddd0	-0.0139689
197	0xbd247498	-0.040150255
198	0xbd2c99a6	-0.042138718
199	0xbc67d098	-0.014148854
200	0x3d583ad6	0.052790485
201	0x3d292816	0.041297995
202	0xbd518c2c	-0.05115907
203	0xbd2088ac	-0.03919284
204	0x3c3388b0	0.010957882
205	0x3d028378	0.03186366
206	0x3cd65e00	0.02616787
207	0xbd1ddc62	-0.03854025
208	0x3cd1b4d0	0.025598913
209	0xbd7eca40	-0.0622046
210	0x3c24acc0	0.010050952
211	0xbd4e8d26	-0.05042758
212	0x3d3991b6	0.045304976
213	0xbc898d64	-0.016791053
214	0xbc9b4a48	-0.018956318
215	0x3c8fde70	0.017562121
216	0xbd2609ca	-0.04053668
217	0x393a9800	0.00017794967
218	0xbc15ccd8	-0.009143077
219	0xbd7a7af6	-0.06115242
220	0xbcc9eea8	-0.024649933
221	0xbca276fc	-0.019832127
222	0x3d50e990	0.051003993
223	0x3bdd8200	0.006759882
224	0x3caa91a8	0.020821407
225	0x3d091a6c	0.033472463
226	0x3d7709ea	0.06031219
227	0x3d689324	0.05678095
228	0xba98a8c0	-0.0011646971
229	0xbd3984bc	-0.0452926
230	0xbccfeb68	-0.025380805
231	0xbd7f75ec	-0.06236832
232	0x3d1bcce6	0.038037203
233	0xbc4d3168	-0.012523986
234	0x3d1ab904	0.0377741
235	0x3cead784	0.028667219
236	0x3d1a6248	0.037691385
237	0xbd4f757a	-0.050649144
238	0xbc436940	-0.011926949
239	0xbcc636fc	-0.02419614
240	0xbc91d8a8	-0.017803505
241	0xbcdd2aa0	-0.026997864
242	0x3b373920	0.0027957633
243	0x3b19bfa0	0.0023460165
244	0xbd1960c6	-0.037445806
245	0x3b5e3020	0.0033903196
246	0xbc9fa8a8	-0.019489601
247	0xbd4e7d28	-0.050412327
248	0xbd4f2096	-0.050568186
249	0xbd1efcd6	-0.038815342
250	0xbc88b980	-0.016690016
251	0xbb65ce40	-0.0035065562
252	0xbcf9928c	-0.030465387
253	0x3cdbb3d4	0.026819147
254	0x3c92685c	0.017872028
255	0xbd50fefc	-0.051024422
