output/MAPPO/lxl/weight/critic_agent_5_ep_200.pth (torch, 280276 bytes, 5 tensors)

fc1.weight f4 [256, 12]
00000000: 2415 f9bd 065a 85be a0a1 89be 50b3 83bc
00000010: 7287 3c3e b040 5c3d 7f7e 40be 4b27 21be
00000020: 8ed0 233e e8f1 72bd fa51 843e 6c57 153e
00000030: 20cf 4ebe be7b 213e e0b6 093c 7c94 6d3e
00000040: d88f 193d e883 233d ac90 013e ea8d c6bd
00000050: e120 92be 2e2c 923e 524a 863e a036 f2bc
00000060: 4fa7 90be 582d 35be 6c2b 633e 7ce0 d2bd
00000070: 28ea 10bd bb66 20be 7a28 16be 307d 92bd
00000080: e0ec afbd 4c20 4a3e 7ad3 b3bd 605d 24bc
00000090: 88bc 883e c4df 843d e89f 053e 06e8 0c3e
000000a0: 187d 86bd 862f 2a3e 9019 f03d d036 3cbe
000000b0: c8df df3d 08f8 a33d d87f 833e e51e 82be
000000c0: b071 963d 26ed 333e 8231 4abe facc fcbd
000000d0: 70fd efbc 6eac 2fbe 6cdc 213e 5018 463d
000000e0: d0b8 543e d4de a43d c01d 0a3e 9ea3 0d3e
000000f0: 0473 bb3d 08aa 00be 04c5 3a3e bc6b 6f3e
00000100: e43a 5c3e 1068 cdbc 3892 56bd 9e76 33be
00000110: eca0 7c3e 1243 4cbe d8d9 d2bd 481d fbbd
00000120: 8997 63be f49e 4ebd dcec 76bd 0a16 a6bd
00000130: 540e 263e d1d0 84be 9efc 8d3e 3447 033e
00000140: 865a 5dbe 4836 863d 6c7c 923e 3c90 2c3e
00000150: 80c9 d3bb 200d 383c acd1 34be 5468 a7bd
00000160: 40b8 7d3e c05f 3cbc d0f2 31be 8693 3ebe
00000170: 0c2a 8abd 1608 0e3e 9054 593e b48a 66be
00000180: f873 f8bd 4848 833e b0ae 4b3d f2ca 063e
00000190: c011 3cbd e84e 433d 4277 c4bd b8fc 923e
000001a0: 9081 e23d d665 b7bd 20e8 643e 588b cbbd
000001b0: 08dc 4c3e fdd0 85be ec7e 39be 481e 5a3d
000001c0: c034 aabc 2654 40be c46d 7abd ac76 be3d
000001d0: 50c9 b9bc 0095 91ba a9d2 7bbe 58f8 73be
000001e0: f6b6 3a3e ab70 03be e0c1 563e aedc 5bbe
000001f0: a034 383c 8185 87be 3624 28be d0c2 b9bc
00000200: 0c0c 0c3e c073 58bc daf2 78be 183b 3c3e
00000210: c0e7 02bd e0cc 6c3d 08ae b63d b289 1e3e
00000220: f0da 7b3e c0d7 9f3d d8ec 913e a049 32bd
00000230: e0c0 133d d2d3 3b3e 0a39 d6bd fe21 893e
00000240: 8e89 3a3e 8bdb 52be 8031 923d b638 503e
00000250: 5827 713e 2856 903e 1ccf 1abe b813 523e
00000260: ca06 133e 9c82 363e ca4f 23be 0423 f33d
00000270: c1dc 56be 164f 2f3e 76ae 4e3e e607 813e
00000280: b624 8bbe dbbd 8cbe 4461 963d 940d 5cbe
00000290: b01c 39bd 847c d5bd 0408 713e 4042 d93d
000002a0: d4f6 49bd 7c6d 513e 802b 7abb 5420 ab3d
000002b0: d23c 19be f455 ab3d e02e 8bbc 837f 92be
000002c0: 22a5 4bbe ac94 783e 047a 0a3e 88d5 26be
000002d0: e811 fe3d b0de 953d 904d d93c 00f8 513c
000002e0: 0004 95bc 5c1a dfbd 300f 163e b4e3 1a3e
000002f0: 40d3 f43d 243b e23d 5690 95bd a8bf 203e
00000300: e278 1c3e 3a0c 4c3e f625 893e 7284 b2bd
00000310: 2029 123e a2be 53be 683c 8fbe 2032 89be
00000320: 347c 41be dca3 e03d 101b a93d e647 85be
00000330: cf53 93be 0029 953a 5859 853e 7f90 06be
00000340: eebe 433e 30e7 003d 39af 15be 10b1 763e
00000350: d4f0 65bd 50a2 643e 52cc 5cbe 6908 66be
00000360: c47f ec3d e0f5 e33d 9625 e9bd 83fd 17be
00000370: f069 37be 36e5 2b3e b8cc 333d d036 203e
00000380: 8030 5d3e 691c 4fbe 68ba f43d beb3 85bd
00000390: f496 6a3e 4083 be3c 5408 f6bd b009 87be
000003a0: 70a8 1d3d 9022 00bd f6c1 bdbd 10f2 c0bd
000003b0: a2a0 03be 20de 063d 4cc9 753e 2902 68be
000003c0: 30ee 243e 7c3d 423e d063 323d f4b0 6cbe
000003d0: a0e7 34be 3e26 303e 8cd1 f93d d0f7 6a3e
000003e0: 9499 ba3d c4bf f1bd ee44 8cbd b096 343e
000003f0: e4da 353e 88f4 3cbe 6877 763e c8fe dabd
-0.121622354 -0.26045245 -0.26881123 -0.016076714 0.18411043 0.05377263 -0.18798254 -0.15737645
0.15997526 -0.05931273 0.25843793 0.1458413 -0.201962 0.1576986 0.008405417 0.23201174
0.037490696 0.039920717 0.12652844 -0.09695037 -0.2854071 0.2854933 0.26228577 -0.029567063
-0.28252646 -0.17693079 0.22184533 -0.10296723 -0.03537956 -0.15664189 -0.14663878 -0.07152784
-0.08590102 0.19738883 -0.0878057 -0.010032028 0.26706338 0.064879924 0.1304928 0.13760385
-0.065668285 0.16619691 0.11723626 -0.18380284 0.10931355 0.080062926 0.25683475 -0.25414196
0.07345903 0.17570934 -0.19745448 -0.12343784 -0.029295653 -0.1715562 0.1580674 0.04836303
0.20773625 0.080503136 0.13487911 0.13831946 0.09152797 -0.12564862 0.18239218 0.23380941
0.2150684 -0.025074035 -0.05238554 -0.17525718 0.24670762 -0.1994746 -0.10295457 -0.12261444
-0.22225775 -0.05044456 -0.06028448 -0.08109672 0.16216403 -0.25940564 0.27731794 0.1282013
-0.21616563 0.06553322 0.2861055 0.16851896 -0.0064632297 0.011233598 -0.17658108 -0.08174196
0.24777317 -0.011497438 -0.17377782 -0.18610963 -0.06746301 0.13870272 0.21223664 -0.22513849
-0.12131494 0.25641084 0.04972714 0.13163355 -0.045915365 0.047682673 -0.09593059 0.28708434
0.11059868 -0.089549705 0.22354174 -0.09938687 0.2000581 -0.26136008 -0.18114823 0.053251535
-0.020777106 -0.187821 -0.061139837 0.092999786 -0.022679001 -0.0011107028 -0.24592079 -0.23825204
0.18233857 -0.12835948 0.20972395 -0.21470901 0.0112430155 -0.26469043 -0.16420063 -0.022675902
0.1367647 -0.013211191 -0.2431139 0.18381917 -0.031959295 0.05781257 0.089199126 0.15482214
0.24595237 0.07804823 0.2850101 -0.043527246 0.03607261 0.18342522 -0.10460098 0.26783746
0.18216535 -0.20591561 0.071383476 0.20334134 0.23550165 0.28190732 -0.15118068 0.20515335
0.14358059 0.17823261 -0.15948406 0.11871913 -0.20982648 0.17120013 0.20183739 0.2520134
-0.27176446 -0.27488598 0.07342771 -0.21489555 -0.045193374 -0.1042414 0.23538214 0.10608339
-0.04930766 0.20451921 -0.00381729 0.083557755 -0.14964607 0.08366004 -0.016990125 -0.2861291
-0.19887212 0.24275464 0.13523108 -0.16292393 0.12405759 0.07317865 0.026526242 0.012815475
-0.018190384 -0.108936995 0.14654231 0.15125924 0.11954355 0.110464364 -0.073029205 0.15698111
0.15280488 0.19926539 0.26786774 -0.08716668 0.142735 -0.2067819 -0.27975774 -0.26796055
-0.18895036 0.10968754 0.08257115 -0.26031417 -0.28774878 0.0011380017 0.26044726 -0.13141058
0.19115803 0.031470478 -0.14617623 0.24090981 -0.056137875 0.22327542 -0.21562317 -0.22464146
0.11547807 0.11130881 -0.11384122 -0.14842801 -0.17911506 0.16786656 0.043896407 0.1564591
0.21600533 -0.20225681 0.11949617 -0.06528424 0.22909147 0.023255944 -0.12013307 -0.26374578
0.038490713 -0.03128296 -0.09265511 -0.0942117 -0.12854245 0.03292668 0.2400257 -0.22657074
0.16106486 0.18968767 0.04355222 -0.23114377 -0.17666483 0.17202088 0.12198171 0.22946095
0.09111324 -0.118041545 -0.06849085 0.17635608 0.17759281 -0.18452656 0.24068987 -0.10693127

fc1.bias f4 [256]
00000000: 781d 7c3d b615 8b3e 6ce7 213e c450 bbbd
00000010: 328b 6fbe 7850 54be 48b7 493d 4436 86be
00000020: 1c04 7a3e 3e13 d3bd d087 803c d24d e8bd
00000030: 2abd 91bd c84b 11bd acc7 82be fc6a 7c3e
00000040: 38ed e8bd f473 2fbe ec97 07be d441 62be
00000050: 6012 d5bc 2c87 9a3d 042c a3bd 6448 cdbd
00000060: fce4 f73d 9257 933e daea 62be fe36 96bd
00000070: 1ebe 1fbe 9a62 7ebe 9735 52be 5c21 b83d
00000080: f9fc 1bbe 0af9 73be 18a7 a33d e49d 903e
00000090: 163b 903e 0edc 303e 6820 7e3d 5074 a1bc
000000a0: 72d0 5bbe c9f6 86be fe1a b1bd 303d 443d
000000b0: a181 1cbe 887d 94bd 7e99 15be 0012 803e
000000c0: 80af d73c 002b 23bd 605a 66be 9bc7 76be
000000d0: b88e 873d 004c ecba f02b adbc 10a6 643e
000000e0: 30e1 91bc ce51 8c3e 9402 6cbe 84f5 003e
000000f0: 4466 d73d 40f9 343d 5afd 1ebe 9095 c93c
00000100: acaa 713e 7dc0 2cbe bb48 1bbe 2a87 4f3e
00000110: 3ae2 91be d4c1 83bd 0ea9 adbd 164d 02be
00000120: e8b1 293e a0f1 be3d 069c c6bd 7097 e93c
00000130: 4079 173e 4e7c 8bbe 2c6c babd d885 7b3e
00000140: b8d8 e73d a98a 05be 735f 12be 800d 213c
00000150: b859 8ebd c030 acbd 4293 cbbd 188e 02bd
00000160: 0c46 2f3e 5eb1 8c3e f005 f5bc 801b 0b3c
00000170: 3888 163e 3c75 72bd 802f 98bb 60f0 84bc
00000180: c02c ab3c 7efc 183e 481b 5cbe 79e3 06be
00000190: 1453 8ebd d843 203e 62e8 fdbd 0700 7fbe
000001a0: 3994 22be 3a2f 193e 683d 913d 5a63 0b3e
000001b0: adf3 87be beb7 3cbe 80e9 dcbb ce2a 383e
000001c0: a615 483e 9055 6dbd d621 893e 243f f4bd
000001d0: ad70 01be 165a 9abd eccf 9c3d ef02 3fbe
000001e0: 40fe 353d 04d6 213e 28bf 6fbe f0c3 d13d
000001f0: ee16 78be 70b5 9f3d 7c68 62bd 581c 3dbe
00000200: c70a 53be f603 363e 8c1c f03d 9075 813e
00000210: 8881 87be affd 65be e815 0f3d b4fc bcbd
00000220: ac14 6d3e 9dca 09be a082 d43c 8925 54be
00000230: 005f f03c 2acd 60be 6a1f 1c3e 5405 8d3e
00000240: 646b b53d 6e97 57be d01f 9cbd 4038 a6bd
00000250: 96fc 0c3e 6072 36be dce9 38be 9f1f 34be
00000260: 9009 e63d c828 653e 104d 8b3d 9ac4 e0bd
00000270: d9ce 11be a0f0 2d3c 86ba 5cbe 6866 32be
00000280: 335f 0abe 1847 4f3d 3460 c53d 181f 2d3d
00000290: 4e93 c0bd 80e4 243c f84b c93d f420 863d
000002a0: 5478 3c3e 00c2 643b a0a1 cb3d 9426 e73d
000002b0: 5a50 923e a4ca 4fbd e841 2c3d 7eda 053e
000002c0: fe77 073e b035 78bd f05d 303e b0f1 663e
000002d0: 7824 50be eb1a 0bbe a828 bb3d e0a3 81bc
000002e0: 14f5 5a3e b8aa 763d 4ca2 6fbe c8c6 1bbe
000002f0: 062d 89bd b0f6 663d a4ab 1d3e 70fd 583e
00000300: b040 893e 8038 78bd d8e5 f93d 00d0 a639
00000310: 32ba 1f3e fce6 093e c4dd 29bd 6ebb eebd
00000320: 5cf4 903e 0059 e53d 8a88 563e 004c 49bc
00000330: d496 b03d c880 ed3d 3861 333d 4eff 0b3e
00000340: c2ff 0bbe a0dc 19bc 28d2 4abe 7475 4cbe
00000350: 60c0 383d 1067 5cbe b633 103e 1072 3f3e
00000360: c47f c2bd 8e87 edbd 7801 4abe 181e 993d
00000370: a82f 18bd 0a72 ddbd 3409 783e 68dd 833e
00000380: e60f a0bd c070 b83b c043 673e 203c f0bc
00000390: d09e 6f3e 3656 4ebe 22b7 353e 3047 e43c
000003a0: 18bf 5f3d 2843 753d 5061 f23d f856 683e
000003b0: 2c50 70be e031 d53c 204f 0e3c 00d7 d2bb
000003c0: b00b 1b3d a067 68bc 4c7e ff3d 2545 3cbe
000003d0: 4a3c 1b3e 4420 d03d 0022 8bbb e8c3 50be
000003e0: ab02 6fbe bc1e 6a3e a0d3 2cbe 81f6 72be
000003f0: 20b4 3abc 5443 6a3e b6e4 233e b446 e13d
0.06155154 0.27165002 0.15810937 -0.09146264 -0.23392943 -0.20733821 0.049247056 -0.26213276
0.2441563 -0.103064045 0.01568976 -0.11342968 -0.07116158 -0.03547266 -0.25542963 0.24650186
-0.11373371 -0.17134076 -0.13241547 -0.22095424 -0.026009738 0.07545313 -0.0796738 -0.10023573
0.12104222 0.28777748 -0.22159901 -0.07334708 -0.15599868 -0.24842301 -0.20528255 0.08990738
-0.1523322 -0.2382547 0.07990855 0.2824546 0.2817008 0.17271444 0.062042624 -0.019708782
-0.21466234 -0.26360157 -0.086477265 0.047909915 -0.15283825 -0.07250506 -0.14609334 0.25013733
0.026328802 -0.03983593 -0.22495413 -0.24099581 0.06619018 -0.0018028021 -0.021139115 0.22328973
-0.017807573 0.27406162 -0.23047858 0.12593657 0.105175525 0.044183016 -0.15526333 0.02460745
0.23600262 -0.16870303 -0.15164463 0.20266405 -0.2849291 -0.06433454 -0.0847951 -0.12724718
0.16571772 0.0932343 -0.09697728 0.028514594 0.14792347 -0.27243274 -0.091026634 0.24562776
0.11320633 -0.13041176 -0.14294223 0.009829879 -0.06950706 -0.08407736 -0.099401966 -0.031873792
0.17116565 0.2747907 -0.029910058 0.008490443 0.14700401 -0.059193835 -0.0046443343 -0.016227901
0.020895362 0.14940068 -0.21494782 -0.13172711 -0.0694944 0.1565088 -0.12397839 -0.24902354
-0.15876855 0.14959422 0.070917904 0.13612118 -0.26553097 -0.18429467 -0.0067417026 0.17985079
0.19539508 -0.057942927 0.26783627 -0.119261056 -0.12640639 -0.07536714 0.076568455 -0.18653463
0.044431925 0.15804297 -0.23412764 0.1024245 -0.24227497 0.07798278 -0.055275425 -0.18467844
-0.2060958 0.17774948 0.11724195 0.25285006 -0.26466012 -0.22460054 0.034933 -0.09227887
0.23152417 -0.13456197 0.025941193 -0.20717444 0.029342175 -0.21953264 0.15246359 0.27543128
0.08858374 -0.2105386 -0.07623255 -0.081161976 0.13768229 -0.17817068 -0.1805796 -0.17590187
0.11232293 0.22378838 0.06801808 -0.10974999 -0.14239062 0.0106164515 -0.21555528 -0.17421877
-0.13512878 0.05060491 0.0963749 0.04226598 -0.09403096 0.010064244 0.09828943 0.06549254
0.18405277 0.0034905672 0.09942937 0.11286655 0.28576928 -0.050730363 0.04205504 0.1307163
0.13229367 -0.060598075 0.17223334 0.22553134 -0.20326412 -0.13584487 0.09138614 -0.015825212
0.21382552 0.060221404 -0.23401755 -0.15212548 -0.06698041 0.056387603 0.15397507 0.21190429
0.26807165 -0.060600758 0.12202042 0.0003181696 0.15598372 0.1346702 -0.041471258 -0.11656843
0.2831143 0.11198616 0.20950523 -0.012286186 0.08622518 0.11596829 0.043793887 0.1367161
-0.13671783 -0.00939098 -0.19806731 -0.1996668 0.045105338 -0.2152369 0.14082226 0.18695855
-0.094970256 -0.11598121 -0.19727123 0.07476443 -0.037154824 -0.10812767 0.2422226 0.25754857
-0.078155324 0.005628675 0.22584438 -0.029325545 0.23400426 -0.20150074 0.17745641 0.027865976
0.0546256 0.0598785 0.11834967 0.22689426 -0.23468083 0.026024759 0.008685857 -0.0064343214
0.037852943 -0.014184862 0.12475261 -0.18385752 0.15159717 0.10162404 -0.0042459965 -0.20387232
-0.23340861 0.22863287 -0.16877604 -0.23726846 -0.011395484 0.22877246 0.16005215 0.10999814

fc2.weight f4 [256, 256]
00000000: 94fa 853c 3e93 3ebd 7880 0cbd 5e60 24bd
00000010: a293 05bd a2e1 743d ba33 2cbd 12fa 353d
00000020: 84cf 533d c600 7f3d a897 11bd ce04 38bd
00000030: 46b9 2d3d 421d 50bd c06d b93a 14a4 cdbc
00000040: 2ce2 9b3c a093 523b fe7c 08bd 3a34 3dbd
00000050: 7ca6 43bd 406a d83a a071 15bd c435 6b3d
00000060: c0c2 0dbc 401a 8abb a019 093c f00c 873c
00000070: c89d 023c e2e4 76bd ece1 d13c a290 093d
00000080: 409b 1dbb 60f8 603c 7cd0 98bc 5cea 6bbd
00000090: 48f9 b0bc 8642 483d ea3c 69bd 7801 2dbc
000000a0: 30a5 77bc e678 5abd 4ad2 22bd 2058 45bd
000000b0: 2c40 4abd 3e65 053d 0c56 e2bc 842c f5bc
000000c0: 3c0b b4bc 3c26 b63c e0ed de3c 7c99 68bd
000000d0: c0f7 76bb a85d 6c3c fcc8 44bd 3819 9b3c
000000e0: 18e1 cfbc a078 d7bc a0bf 303b 940b d7bc
000000f0: 4c34 383d 625c 603d 9c26 bf3c 504b 4bbd
00000100: 6854 6bbd 4ca2 963c 0047 b23b d835 2a3d
00000110: 9c39 c1bc 94b0 aabc e0cf e5bc 7848 75bd
00000120: 884d 2dbc f69c 583d 10d5 3cbc 9836 2cbc
00000130: 12c5 5fbd 0ab4 13bd 08be 29bc 5efa 743d
00000140: 70be bfbb 6633 203d a80d 0a3d 808b 933c
00000150: 1a26 6b3d 06e0 663d a042 683b 4c0f 9a3c
00000160: 1030 823b 70d0 3b3d a455 d0bc 00ab 4ebb
00000170: c027 d0ba 20f7 073d 007a c83b 2891 613d
00000180: 50dc 1f3c 6ce0 85bc aabc 5cbd a00c e53c
00000190: 8844 733d a028 263c 8076 243d 9830 40bd
000001a0: b6d4 61bd 0016 ad3a 80f3 4bbb 3010 0d3d
000001b0: 74e1 ac3c a2c2 3ebd c04a c5bc 805d 6cbc
000001c0: 107d 5abc 4057 c93c e04c e23b 6059 203c
000001d0: dcf9 4f3d 2c0a fb3c 6c23 dd3c f036 783d
000001e0: f059 bb3c c062 e13a ac32 a83c ae4e 45bd
000001f0: 40a6 1e3c bc0e 843c 28f6 a9bc d007 a73b
00000200: 7eaf 17bd 4821 a63c ccc4 673d 04b4 5abd
00000210: fee7 70bd f0f8 883b 007c ea3b 0824 10bc
00000220: 88a4 69bc 9c0a c1bc b4e1 b4bc 581e 423d
00000230: b84d 8f3c be72 403d d480 19bd 0043 11bb
00000240: 1cf1 a93c ae70 00bd dc1d 173d 600c f8bc
00000250: 7899 683d 9c96 9abc e863 da3c 2081 1fbd
00000260: 3084 de3c 681e c03c 6090 d93b 9c5d bdbc
00000270: 2008 babb 4c8d 88bc 38b0 c73c 4444 bdbc
00000280: 70e6 113c 787a 653d f08a 103c 62de 253d
00000290: d005 183c 8077 933a 20fa d13b 3e2d 483d
000002a0: 5002 533d 76fb 51bd 7c3c f9bc 60bf c03b
000002b0: c639 46bd 38ed bc3c c248 013d 8487 89bc
000002c0: 981b 7cbd 1c54 63bd 9096 d0bb 2881 d63c
000002d0: a025 2e3b c0a5 723b de64 1cbd f0a8 1b3c
000002e0: 7821 5bbd 5ae3 61bd 003a 81b9 40df 603b
000002f0: 463f 53bd 805a 3ebd dca1 68bd 302c 25bd
00000300: 103b 1dbd 7689 75bd f89d 09bd e010 db3b
00000310: 8044 5ebd da61 05bd b082 8f3b a8a4 313d
00000320: 0020 69bb 0057 ad3c 801c 53bd 107f 2f3c
00000330: 8843 56bd 1c61 473d fc0a 9bbc 9e4d 6abd
00000340: d0e0 11bd f0c6 a9bb 906f 38bd 28c3 a0bc
00000350: 12be 04bd 14d0 7f3d 00d9 baba 2a3b 75bd
00000360: f440 abbc 5065 1dbc 64f0 d3bc a2e6 533d
00000370: fa24 1d3d 0ce6 c73c f819 12bd 5080 30bd
00000380: a8cf 37bd 9869 03bd 8015 543c 50bf 6c3c
00000390: 2075 7d3b 183e 313d 1873 483d 94ad 623d
000003a0: 78ff 2c3d 1867 ebbc a470 3fbd 9883 203d
000003b0: c2ea 4a3d fc22 5f3d 4632 7e3d eca5 8dbc
000003c0: 8cf2 573d 7438 c83c c886 043d 68bc 77bd
000003d0: a44e e83c 0447 a13c 50c8 1dbd 94ea dbbc
000003e0: 7c27 483d a008 c43b 78c3 1d3d cec9 37bd
000003f0: 08c8 2bbc 04d5 7cbd e0de b13c a090 2dbc
0.016354837 -0.04652714 -0.034302205 -0.040130965 -0.032611497 0.059785493 -0.042041518 0.04442794
0.051711574 0.062256597 -0.03554502 -0.044926457 0.04241302 -0.050809152 0.0014147088 -0.025102653
0.019028746 0.0032131448 -0.033322327 -0.046192385 -0.047766194 0.0016511157 -0.036485314 0.05742432
-0.008652389 -0.004214555 0.008367926 0.016485661 0.007972188 -0.060276873 0.025620423 0.0335852
-0.0024048835 0.013731092 -0.0186541 -0.05759655 -0.021603242 0.048891567 -0.056942858 -0.010559432
-0.015115067 -0.053337954 -0.03975133 -0.048179746 -0.049377605 0.032567255 -0.027628921 -0.029928453
-0.021978013 0.022235028 0.027213037 -0.056787 -0.0037684292 0.014426626 -0.048043236 0.018932924
-0.025375888 -0.026302636 0.0026969686 -0.026250638 0.04497175 0.054775603 0.02333384 -0.04963237
-0.057453543 0.018387936 0.0054405928 0.041555256 -0.02358704 -0.020836152 -0.028053224 -0.059883565
-0.010577567 0.052884065 -0.011525407 -0.010511063 -0.0546313 -0.03606037 -0.010360248 0.05980908
-0.0058515593 0.039111517 0.03370443 0.018010855 0.057409383 0.05636599 0.0035440102 0.018806122
0.0039730147 0.04585308 -0.025431462 -0.003153503 -0.0015880987 0.03319466 0.006118059 0.055070072
0.009757116 -0.016342364 -0.05389086 0.027960122 0.05939153 0.010141522 0.040152073 -0.046921343
-0.055134498 0.0013205409 -0.003112048 0.034439266 0.021103598 -0.046572335 -0.024083495 -0.014426589
-0.013335481 0.024577737 0.006906137 0.009786934 0.050775394 0.030644499 0.02699443 0.060599267
0.022870034 0.0017195567 0.020531975 -0.048170738 0.009683192 0.016120307 -0.02074726 0.005097367
-0.037032597 0.020279542 0.056584165 -0.053394333 -0.058814995 0.0041800663 0.0071558952 -0.008797653
-0.014260419 -0.02356463 -0.02208028 0.04739222 0.017493114 0.046984427 -0.037476376 -0.002216518
0.020744853 -0.03135746 0.03689371 -0.030279338 0.056786984 -0.018870644 0.026658967 -0.038941503
0.027162641 0.023451999 0.0066395253 -0.023115925 -0.005677238 -0.016668938 0.02437602 -0.02310384
0.008905038 0.056025 0.008822188 0.040495284 0.00927873 0.0011250824 0.006407991 0.04887127
0.051515877 -0.051265202 -0.030424349 0.0058821887 -0.04839494 0.023062333 0.031563528 -0.016788252
-0.061549753 -0.055500135 -0.0063656047 0.026184633 0.002657272 0.0037025064 -0.038182132 0.009500727
-0.053498715 -0.05514846 -0.0002464801 0.0034312755 -0.051574014 -0.046473026 -0.056794986 -0.040325344
-0.038386405 -0.059945546 -0.033597916 0.0066853613 -0.054264545 -0.03256402 0.004379593 0.04336992
-0.0035572052 0.021159649 -0.05154085 0.010711446 -0.052310497 0.048676595 -0.018926136 -0.057202928
-0.03561479 -0.005181186 -0.04502827 -0.019624308 -0.032407828 0.0624543 -0.0014255345 -0.059870876
-0.020904996 -0.009606674 -0.025871463 0.05173362 0.03836534 0.024401687 -0.035669297 -0.04309112
-0.04487577 -0.032083124 0.012944579 0.014449909 0.0038674548 0.043272108 0.048937887 0.05534132
0.04223582 -0.028735682 -0.04673828 0.039187998 0.04954029 0.054476723 0.062059663 -0.017291032
0.052721545 0.024440981 0.0323551 -0.060482413 0.028357811 0.019687183 -0.03852111 -0.026845254
0.04886578 0.0059824735 0.03851649 -0.04487019 -0.010484703 -0.061726585 0.02171272 -0.010593563

fc2.bias f4 [256]
00000000: 605d ca3c 9e77 7b3d 109d d8bb 7419 f1bc
00000010: d029 47bd 9058 fcbc d075 28bd 6015 22bb
00000020: 40f6 de3c 00f0 35bb 32f7 4e3d 2cfb a03c
00000030: 9aa1 273d cc21 313d 7426 e6bc ac0a 403d
00000040: a450 e73c 5c47 143d c0ba 13bd 6040 7dbc
00000050: aa4b 48bd 0045 a0b9 72aa 39bd 9479 99bc
00000060: e829 883c c0f4 50bd 38f2 283c 2434 f63c
00000070: c4db 0a3d 04eb 8dbc 006f a6bb 6641 18bd
00000080: 24a1 353d a073 47bc 5c8d b1bc 7417 babc
00000090: e888 2ebd 7664 723d a27e 1c3d 3087 3abc
000000a0: c80b 56bd 3806 4fbc c8ef 1f3c 501a 1abd
000000b0: 8618 353d 0028 50bb ac75 153d 70fe 22bc
000000c0: 207a 453d b0ef a43c 702b 623d 34e2 f7bc
000000d0: c0a9 a4ba b8b8 81bc 14e4 5a3d 28f9 5fbc
000000e0: 82a4 153d 1c58 febc b66d 7fbd 5236 713d
000000f0: e073 183b 44ac 4cbd 8012 4abc b2ed 073d
00000100: f6f4 693d 50bb ddbc 6e62 293d 8251 7dbd
00000110: 42a0 16bd 801e 083a 82db 6abd 2095 58bd
00000120: 4ae5 323d 2094 60bc c855 3e3d 2092 d3bc
00000130: 884c 3d3c 0008 7339 a8fd 1cbc 68d3 ebbc
00000140: 8052 45bd a0f3 603b 0448 3fbd 6623 5abd
00000150: 9c0c a13c e0e5 db3b c01a 5abd 1270 31bd
00000160: 0038 3f3b b812 573c 5e48 38bd 6801 3c3c
00000170: 1c0d eabc 7c91 823c 78f7 61bd e00c 27bd
00000180: 1247 2b3d c0b5 033d d02a 4f3d a0b3 3abb
00000190: 5eec 52bd 5232 41bd 285b fabc 045b ca3c
000001a0: f85b 61bd 8049 aabb 3013 58bc 822e 72bd
000001b0: 548e 443d 4ca2 b43c 58b7 56bd beff 3dbd
000001c0: a01b 7b3d cc0f 03bd ecc6 783d 38d1 a73c
000001d0: 9c01 043d 364f 05bd d82c a7bc 18fb 413c
000001e0: 6cfa 4fbd 1ab0 1b3d ccc2 ce3c 7e1b 483d
000001f0: 5a36 103d b472 1f3d 06c0 7bbd c07e 1b3c
00000200: 8a8c 7bbd d08d 723d c0de c23a c868 59bd
00000210: 12d8 71bd aee8 6b3d 7600 35bd 7c81 003d
00000220: 42dc 6a3d 00c1 0c3d 1067 ce3b a03c 413b
00000230: 766c 193d 143e 66bd 28b0 78bc c893 043d
00000240: 9868 ea3c 4030 5ebc 4654 073d a05a 50bd
00000250: 58ef 9cbc 6446 993c 5043 503d 58a0 10bc
00000260: 78b1 aebc 26bd 723d 0037 f0b9 a049 cd3c
00000270: 400b 583d 2411 e8bc 187a a5bc 30aa ccbc
00000280: 4019 d43c a80d 0cbc 60ce 503c 905b 5dbc
00000290: 2854 9cbc 5423 4bbd c036 8a3c 4018 04bb
000002a0: 0018 5339 88c6 563c 6024 46bc b24c 113d
000002b0: 400b 13bc b0c1 2dbc c050 1ebd 5e9f 5b3d
000002c0: d0fc 5f3d da28 603d e688 28bd 2899 11bd
000002d0: 104e 1dbd 767a 783d 6411 99bc 4447 31bd
000002e0: 00e0 57b7 40d6 6b3b 805c 253d 4076 f0bb
000002f0: 8cbf f5bc 0066 22ba 86e1 1d3d a0d0 073c
00000300: 561b 2c3d 80cc 6c3d 808e 70bd fc2c ee3c
00000310: 0023 5c3b 104b 84bc 1021 66bc a820 1bbd
00000320: 763f 6ebd a4c3 d3bc 343b af3c 6a28 4bbd
00000330: 40df 6abc 64d2 dd3c aa3e 543d f008 5b3c
00000340: e84f 4fbd 4253 08bd b030 6d3c b4e1 29bd
00000350: 586a 41bc 1027 e1bb 06cd 6abd 4086 babb
00000360: f805 21bd 0eaf 623d bc96 b3bc 9a34 5e3d
00000370: b013 4c3c 0c03 7c3d 5247 2fbd f82c 753c
00000380: d6ce 2dbd 7cb7 37bd 3c3d b83c 342d 6e3d
00000390: 8093 753b a047 2b3c d83c 1b3c b070 adbb
000003a0: 7afa 5b3d 988a 0abc 3e8e 4c3d d042 c8bb
000003b0: 2c4e c3bc 409c c63c 34b8 1ebd 80d8 fe3b
000003c0: 6a79 14bd 0846 5b3d c004 d2bc 80f9 eaba
000003d0: 8a4b 343d 407d 00bc 7058 1fbd 32f1 72bd
000003e0: 1ed7 083d 5a09 703d 589c 54bd f8db 09bc
000003f0: f2a2 29bd 0090 b5b9 0006 213d ec0a 6abd
0.024702728 0.061393373 -0.00661052 -0.029431082 -0.04862386 -0.030803949 -0.04112798 -0.0024731979
0.02721703 -0.002776146 0.050528713 0.019651018 0.0409256 0.04324512 -0.028094508 0.046885177
0.028236695 0.036200866 -0.03606677 -0.015457243 -0.048900284 -0.00030568987 -0.045328565 -0.01873473
0.016621545 -0.05101466 0.010311656 0.03005416 0.03390099 -0.017323978 -0.00507915 -0.037171744
0.04434313 -0.012173563 -0.02167385 -0.022716261 -0.042611033 0.05917784 0.038206704 -0.01138477
-0.05225733 -0.01263576 0.009761758 -0.03762275 0.04421284 -0.0031762123 0.036489174 -0.009948358
0.04821217 0.020133823 0.055217206 -0.03025923 -0.0012562796 -0.015835151 0.05344017 -0.013670243
0.03653384 -0.031047873 -0.062360488 0.058889695 0.0023262426 -0.049968973 -0.012333512 0.03318567
0.05711838 -0.027066857 0.041353635 -0.06184531 -0.036773928 0.0005192533 -0.057338245 -0.05287659
0.0436757 -0.013707191 0.046468526 -0.025826514 0.011553891 0.00023177266 -0.009581961 -0.02878733
-0.04817438 0.00343249 -0.04669954 -0.053256415 0.019659333 0.006710753 -0.053248167 -0.04331977
0.0029177666 0.0131270215 -0.04499089 0.011474945 -0.028570704 0.015938513 -0.055167645 -0.040783763
0.041815825 0.032155752 0.05057794 -0.0028488412 -0.05149495 -0.04716713 -0.030561045 0.024701603
-0.05501935 -0.00519675 -0.013188168 -0.059126385 0.047987297 0.022050045 -0.052420944 -0.046386473
0.061305642 -0.031997487 0.06073658 0.020485505 0.032228097 -0.032546245 -0.020407125 0.011839651
-0.05077593 0.03800974 0.02523937 0.048854344 0.035208084 0.03892775 -0.061462425 0.009490669
-0.061413325 0.059217274 0.001486741 -0.053078443 -0.05904395 0.057594948 -0.044189893 0.031373486
0.05733896 0.034363747 0.006298907 0.0029485598 0.037456952 -0.056211546 -0.015178718 0.032367498
0.028614327 -0.013561308 0.033039354 -0.050867677 -0.019157097 0.018710323 0.050845444 -0.008827291
-0.021324858 0.059262417 -0.00045817345 0.025059521 0.052745104 -0.028328486 -0.02019982 -0.024983495
0.025890946 -0.008548178 0.012744516 -0.0135106 -0.019083098 -0.04959424 0.01687181 -0.0020156056
0.00020131469 0.013108857 -0.012093633 0.035473533 -0.00897485 -0.010605261 -0.038651228 0.05361878
0.05468446 0.05472646 -0.04114618 -0.03554645 -0.038404524 0.060663663 -0.01868505 -0.043280855
-1.2867153e-05 0.0035985857 0.040371418 -0.0073383152 -0.029998563 -0.0006195009 0.038545154 0.008289486
0.042018257 0.057812214 -0.05872965 0.029074185 0.0033590198 -0.016149074 -0.014045969 -0.03787294
-0.05816599 -0.025850125 0.021390535 -0.04959909 -0.0143354535 0.027077861 0.051817574 0.01336883
-0.050613314 -0.033282526 0.01447694 -0.041475013 -0.0118051395 -0.0068711117 -0.05732443 -0.0056922734
-0.039312333 0.055342726 -0.021922462 0.054249384 0.012455866 0.061526343 -0.042792626 0.014964335
-0.042433582 -0.04485272 0.022490136 0.058148578 0.003747195 0.010454088 0.0094749555 -0.0052929744
0.05370567 -0.008455895 0.04994034 -0.0061114803 -0.023840986 0.024244428 -0.03874989 0.0077772737
-0.036248602 0.053533584 -0.02563703 -0.001792714 0.044017352 -0.007842362 -0.0389027 -0.059312053
0.033408277 0.05860267 -0.051906914 -0.008414261 -0.041415162 -0.000346303 0.039312363 -0.057139322

fc3.weight f4 [1, 256]
00000000: 9ab4 283d 5093 4a3d 48bd fdbc 74b1 63bd
00000010: a033 c8bc 9c55 a63c 60a2 643b 5e13 493d
00000020: f859 a03c 50c9 1b3c b45e 0abd 9c55 b2bc
00000030: c295 41bd 684b 993c 9892 f2bc 204a 50bd
00000040: 60de 1fbd 00a6 2c3a c03b ff3b f07f 243c
00000050: 787f 733c a084 3c3b 6641 1ebd c01f 5c3d
00000060: 4a1c 253d 527b 193d e4d2 15bd b4be c0bc
00000070: 4469 5fbd f012 02bc 6cb5 553d 702b e03c
00000080: c063 213c 2c86 fc3c 84a6 a5bc 88ca 71bd
00000090: 204a 513b d0ab 89bb cac6 493d 0019 2e3b
000000a0: 2c51 1e3d ae22 143d 9843 c33c 883c 413c
000000b0: 1034 cebb f047 b63b e06e 78bd ae80 2e3d
000000c0: 0ae5 3a3d 50ba c4bb 5c87 063d 6e36 1f3d
000000d0: da28 17bd 8468 003d 04c0 613d 98ec 12bc
000000e0: 3072 df3b 085e d43c c242 013d 803b 12bc
000000f0: 4c67 953c 5af3 6e3d 88fb 5e3d 909e 12bd
00000100: 2c47 3e3d e8ad cd3c 783b 1b3d e0e7 493b
00000110: 6211 15bd 5ce8 f2bc 90bf 493c 10c3 c13b
00000120: 980a bc3c 2835 2b3c 0e78 113d 3c1f 5dbd
00000130: 1215 49bd 8adf 73bd 8c53 c6bc e4d0 cb3c
00000140: f0c1 8c3b ac48 643d c0e9 d6bb 64e5 d4bc
00000150: 78cd d83c f495 193d 8064 8c3b dc88 683d
00000160: e0a0 993c b43a 89bc c843 e53c 38ac 52bd
00000170: 961e 5fbd 4889 5f3d e81d a43c 9229 18bd
00000180: e817 07bc c61b 363d ecf9 c1bc b234 643d
00000190: b4e4 85bc 961c 4ebd 5ec0 003d d05c 123d
000001a0: e082 4e3d 9490 63bd b0b0 cf3b f29c 623d
000001b0: 7870 c5bc b06a 2dbc 0c13 ed3c 4066 613d
000001c0: 6c06 46bd 7c95 65bd 107c 12bc 289a 22bd
000001d0: 3895 343d d02c 8d3c 7a28 0cbd 5a93 13bd
000001e0: b869 e43c f284 67bd 18ef 17bd 6c14 a43c
000001f0: c04d 70bd a6aa 253d 00e1 3e3c 80db 61bb
00000200: d8c0 3abc 14b8 3bbd 02e8 41bd 0094 1ebb
00000210: acfa 4cbd 0090 99bc 8857 523c 3cfc c8bc
00000220: 345a 0d3d de1b 2fbd a086 383c 78a3 243d
00000230: 3a35 0dbd 824e 643d 624b 2f3d f81d f0bc
00000240: f8d4 0b3d 5698 27bd eeea 43bd f07b 053d
00000250: e8b7 53bd e4fc 643d 805b 2abb 22ab 5a3d
00000260: c82a 7ebc d822 37bc fce9 ac3c 78f9 fc3c
00000270: 9620 683d 406e e13a 9857 18bd a481 b6bc
00000280: ec1c 173d c042 ec3a d046 693c 58d7 593c
00000290: 74f3 c7bc a44d 043d 8a90 4f3d da37 76bd
000002a0: 3c03 463d d849 133d c039 3d3d f41f 75bd
000002b0: dc27 84bc 5671 1fbd a017 8fbc b072 ae3c
000002c0: c4a8 9e3c 8439 493d 0050 efba 94c0 0abd
000002d0: 88b5 1d3c 64c3 47bd dc5d cfbc 809f 75bd
000002e0: 30de bfbb 6840 d83c 9a44 6b3d 361a 75bd
000002f0: d85b 543d e428 88bc 06eb 73bd 7c6f e73c
00000300: e053 173c a49c 823c e2df 72bd 82f9 393d
00000310: a8b6 493d 50a8 1f3d 5237 713d d015 a4bc
00000320: 06a9 2b3d 8ad1 76bd fa06 69bd 4080 b6bc
00000330: 0ab5 6fbd 320c 7c3d 6a22 15bd f0c3 10bd
00000340: ba25 16bd 5c0e 5d3d 98ce 4a3c e03d 8f3b
00000350: 244a a33c d0ef 81bc a879 33bd 5081 ea3c
00000360: 9004 9b3b 86e3 2fbd d056 503d a2e5 5fbd
00000370: 087a 63bd ac8d 1c3d da7a 27bd b03e e2bc
00000380: 8a1e 53bd e4c1 9d3c ae37 04bd 3cfe b43c
00000390: 804a 15bc 9812 e4bc 60d3 0e3d 6249 45bd
000003a0: 78d6 bfbc dcfc 8c3c f0dd 57bc 00c4 14b9
000003b0: 723a 043d 9078 283d 005a 833a 6034 aebb
000003c0: b0ed 763c f655 1a3d 0082 b03a ac2f c5bc
000003d0: 703e c8bb c4e5 e33c f659 1dbd 8a97 0ebd
000003e0: 6091 d8bc 001f fe3c f8dc 18bd b6e6 713d
000003f0: 9425 4c3d e440 b53c b0df 4a3d f0a0 b13c
0.04118786 0.049456894 -0.030974045 -0.055589154 -0.02443868 0.020304494 0.0034886822 0.049090736
0.01957415 0.009508446 -0.033781722 -0.021769337 -0.04726196 0.018712714 -0.029610917 -0.05085194
-0.039030433 0.0006586015 0.007789105 0.010040268 0.014861934 0.0028765574 -0.038636588 0.053741217
0.04031018 0.037471123 -0.036578074 -0.023528434 -0.05454375 -0.007939085 0.05217497 0.027364463
0.009850442 0.030825697 -0.020221002 -0.05903104 0.003193505 -0.00420139 0.049261846 0.0026565194
0.03865163 0.036165886 0.023835942 0.011794217 -0.0062928274 0.005562775 -0.060652614 0.042603187
0.045628585 -0.0060036555 0.032843933 0.038870268 -0.036904193 0.031349674 0.05511476 -0.008967541
0.006819032 0.025923744 0.031557806 -0.008925319 0.018237732 0.058337547 0.054439098 -0.03579575
0.046454594 0.025107339 0.03789851 0.0030808374 -0.03639353 -0.029651813 0.012313738 0.005913146
0.02295427 0.010449685 0.035514884 -0.053984866 -0.04909236 -0.059539355 -0.02420976 0.02487988
0.00429558 0.055733368 -0.006558627 -0.025988288 0.026465163 0.037496522 0.0042844415 0.056771144
0.018753469 -0.016751625 0.027986422 -0.05143377 -0.05447253 0.05457428 0.020033792 -0.03714902
-0.008245446 0.04446008 -0.023678742 0.055714317 -0.016344406 -0.05032023 0.031433456 0.035733044
0.05041778 -0.055557802 0.0063382015 0.055325456 -0.02410148 -0.010584518 0.028939746 0.055029154
-0.048345968 -0.056050763 -0.008940712 -0.039697796 0.04408762 0.017233282 -0.03421829 -0.036029197
0.027882442 -0.05652327 -0.037093252 0.02002927 -0.0586679 0.040445946 0.011650324 -0.0034463108
-0.011398517 -0.045829847 -0.0473404 -0.0024197102 -0.050043747 -0.018745422 0.012838252 -0.024534337
0.034509853 -0.042751186 0.011262566 0.04019496 -0.03447459 0.055738933 0.0427965 -0.029311165
0.03413865 -0.040916763 -0.04783147 0.0325889 -0.05168906 0.055905238 -0.002599448 0.05338586
-0.0155131295 -0.011177741 0.021107666 0.030880675 0.0566717 0.0017198995 -0.03719291 -0.022278614
0.036892816 0.0018025264 0.014238074 0.013295971 -0.02440808 0.032300606 0.050674953 -0.060111858
0.04834293 0.035959095 0.046197653 -0.059844926 -0.016132288 -0.038926445 -0.01746732 0.021294922
0.019367583 0.049127117 -0.0018258095 -0.033875063 0.0096258 -0.048770323 -0.02531331 -0.059966564
-0.0058553442 0.026397899 0.05743847 -0.05983945 0.0518454 -0.01662106 -0.059550308 0.028251402
0.009236306 0.015943833 -0.059295543 0.045403965 0.04924646 0.038978875 0.05889065 -0.020029932
0.04190924 -0.060258426 -0.05689142 -0.022277951 -0.05852226 0.061535068 -0.036409773 -0.03534311
-0.036657073 0.053968772 0.012378357 0.0043713897 0.019932814 -0.015861422 -0.043817192 0.028626114
0.0047307685 -0.042941593 0.05086404 -0.054662354 -0.0555363 0.038221046 -0.040888645 -0.027617782
-0.051542796 0.019257493 -0.032279663 0.022093885 -0.009112 -0.027840897 0.03486955 -0.048165686
-0.023417696 0.017210416 -0.013175473 -0.00014187396 0.0322823 0.041130602 0.0010021329 -0.005316302
0.015071318 0.037679635 0.0013466477 -0.024070583 -0.0061109588 0.027819522 -0.03841587 -0.034812488
-0.026436508 0.031020641 -0.037320107 0.059057914 0.049840525 0.022125669 0.04952973 0.021683186
