output/MAPPO/lxl/weight/critic_agent_2_ep_9000.pth (torch, 280350 bytes, 5 tensors)

fc1.weight f4 [256, 12]
0	0xbd050ef0	-0.03248495
1	0xbe85f7a9	-0.26165512
2	0xbe1eff44	-0.15527064
3	0x3e6dc6f4	0.23220426
4	0x3d670978	0.056405514
5	0xbdca35c0	-0.09873533
6	0x3e867ede	0.26268667
7	0x3e8796a8	0.2648213
8	0x3df6cb18	0.12050456
9	0xbe80d0aa	-0.25159198
10	0x3d303ba0	0.043025613
11	0xbe46ea60	-0.19425344
12	0xbe6a5548	-0.22884095
13	0x3e173ee0	0.14770079
14	0xbe29c92a	-0.16580644
15	0xbe86598e	-0.262402
16	0xbc34d960	-0.011038154
17	0xbdd0d5d2	-0.10197033
18	0xbdb05a56	-0.0861098
19	0x3e89f15c	0.26941955
20	0x3dd99798	0.10624617
21	0x3db939a0	0.09044194
22	0x3db307ac	0.08741698
23	0xbdd29566	-0.10282402
24	0xbe54c0ba	-0.20776644
25	0x3e379514	0.17927963
26	0xbe7db64a	-0.24776569
27	0xbd5039c8	-0.050836354
28	0xbe7caddd	-0.24675699
29	0x3e859356	0.2608897
30	0xbe88655e	-0.26639837
31	0xbc9d6420	-0.019212782
32	0x3e785fb0	0.24255252
33	0x3dfa7798	0.12229842
34	0x3e45c47a	0.19313231
35	0x3dc5c08c	0.09655866
36	0x3e09ab84	0.13444334
37	0x3e00f1ce	0.12592241
38	0x3cfbfa30	0.030758947
39	0xbc5de4c0	-0.013543308
40	0x3d639aa8	0.055567414
41	0xbdfc51ee	-0.12320314
42	0xbc9f62b0	-0.019456238
43	0xbdbfbf38	-0.09362644
44	0x3e213734	0.15743715
45	0xbda26d78	-0.07931036
46	0x3e10825e	0.14112231
47	0xbe1bb4c0	-0.1520567
48	0x3e87da5c	0.26533782
49	0x3df701b0	0.12060869
50	0x3e7abf80	0.24487114
51	0x3e417ece	0.18896028
52	0xbe254574	-0.16139776
53	0x3db895f8	0.09012979
54	0xbd7144f0	-0.058903635
55	0x3e6f2ae4	0.23356205
56	0x3caf3ca0	0.021391213
57	0x3e34e20c	0.17664355
58	0xbc4782e0	-0.012177199
59	0x3ddc0904	0.10743907
60	0x3d859dc8	0.06524235
61	0x3d89bd0c	0.06725511
62	0x3e22e1e8	0.15906489
63	0xbe739a90	-0.2378943
64	0x3d935a20	0.07194924
65	0xbe516c52	-0.20451477
66	0xbe08225a	-0.13294354
67	0xbc36bd00	-0.01115346
68	0x3e328aa8	0.17435706
69	0xbe7c6da0	-0.24651194
70	0xbe2a3db6	-0.16625103
71	0xbda3fc42	-0.08007099
72	0xbe6219c8	-0.22080147
73	0xbe558e48	-0.20855057
74	0x3e14320a	0.14472213
75	0x3e3df782	0.18551448
76	0x3e26feb6	0.16308102
77	0xbc5b7240	-0.013393939
78	0x3e6530d0	0.22381902
79	0x3ba7db80	0.005122602
80	0x3e2f6d04	0.1713143
81	0xbe6c9cb6	-0.23106655
82	0xbd4a3bcc	-0.049373433
83	0xbe9268b8	-0.2859552
84	0xbe930a70	-0.287189
85	0x39cbdc00	0.0003888309
86	0xbe07496b	-0.132116
87	0xbe133a2c	-0.1437766
88	0x3c0fbae0	0.008772582
89	0xbe6dca4a	-0.23221698
90	0x3e8793a4	0.26479828
91	0xbe60b596	-0.2194427
92	0x3dce2df0	0.10067356
93	0xbc2893e0	-0.010289162
94	0xbe01fa90	-0.12693238
95	0xbda01dd0	-0.07818186
96	0x3deed14c	0.11661014
97	0xbd2a37f0	-0.041557252
98	0x3e80b5f8	0.2513883
99	0x3e0afdf8	0.13573444
100	0xbe59b7b8	-0.2126149
101	0xbe879c25	-0.26486316
102	0xbddb93a2	-0.10721518
103	0x3c3552e0	0.011067122
104	0x3e83680c	0.2566532
105	0x3e6d5274	0.23175985
106	0x3e720d24	0.23637825
107	0xbd168810	-0.036750853
108	0x3e486068	0.19568026
109	0xbe8c1ba3	-0.27364835
110	0x3e3275d8	0.17427766
111	0x3e353d94	0.17699271
112	0xbe58cc44	-0.21171671
113	0x3e902512	0.28153282
114	0x3dbd0b44	0.09230664
115	0xbd36613c	-0.044526324
116	0xbe8ce5a7	-0.2751896
117	0xbddaa7ee	-0.10676561
118	0xbe886c17	-0.26644966
119	0x3c3d4340	0.011551678
120	0x3e8e408a	0.27783614
121	0x3e155da0	0.14586496
122	0xbd9ad46a	-0.07560046
123	0x3e57ff4a	0.21093479
124	0x3e206368	0.1566292
125	0x3dd7237c	0.10504815
126	0xbd8a84d6	-0.06763618
127	0xbe66cf86	-0.22540101
128	0x3d3e7598	0.046498865
129	0xbc87a470	-0.016557902
130	0x3e679550	0.22615552
131	0x3e3af7de	0.18258616
132	0xbd179e18	-0.037016004
133	0xbe0cb3d6	-0.13740477
134	0x3d794f08	0.060866386
135	0xbe5a6a7f	-0.21329688
136	0x3c3e6320	0.011620313
137	0x3e78f308	0.24311459
138	0x3e33db32	0.17564085
139	0x3c96b570	0.018397063
140	0x3d2c5440	0.042072535
141	0x3dd99958	0.10624951
142	0xbe40f70e	-0.18844244
143	0xbe8dbbda	-0.27682382
144	0xbdc4eedc	-0.09615871
145	0x3e0a09b4	0.13480264
146	0xbe103c8b	-0.14085595
147	0x3e8edce0	0.2790289
148	0x3e45c004	0.1931153
149	0x3e910d5c	0.28330505
150	0xbdc4dd08	-0.09612471
151	0x3dba449c	0.090951174
152	0xbe5ff006	-0.21868905
153	0xbe303d3c	-0.17210859
154	0x3d989cd0	0.074517846
155	0x3e03f0f4	0.12884885
156	0x3e28f408	0.1649934
157	0x3e1a6f28	0.15081465
158	0x3d02ed08	0.031964332
159	0xbd05c948	-0.03266266
160	0x3e69feb8	0.22851074
161	0x3d669660	0.056295753
162	0xbe930165	-0.28712
163	0x3cfffa30	0.031247228
164	0xbe17fba9	-0.14842094
165	0x3dad2718	0.08454722
166	0xbd2f2c20	-0.04276669
167	0x3e180a28	0.14847624
168	0xbe8ef93d	-0.2792453
169	0x3e81efa4	0.25378144
170	0xbd0a93f0	-0.03383249
171	0x3cb98d80	0.02265048
172	0x3e3e6634	0.18593675
173	0xbdc74b40	-0.0973115
174	0xbdd9d3c0	-0.10636091
175	0xbde424fc	-0.11139867
176	0x3e831af4	0.256065
177	0xbcc86cb0	-0.024465889
178	0x3dde7c38	0.108635366
179	0xbe7db92d	-0.2477767
180	0xbe1bf97d	-0.15231891
181	0x3d87b60c	0.066265196
182	0xbdc2f60a	-0.095195845
183	0xbc08b7e0	-0.0083446205
184	0x3e83a10e	0.25708812
185	0xbcd5c630	-0.02609548
186	0x3e858d04	0.2608415
187	0xbe10ac9d	-0.14128347
188	0x3c87f1f0	0.016594857
189	0x3e0917ec	0.13388032
190	0x3de927ac	0.1138452
191	0x3d4a5818	0.04940042
192	0x3dadfff0	0.08496082
193	0xbe14efb7	-0.14544569
194	0x3e31a626	0.17348537
195	0xbe8afe7b	-0.27147278
196	0x3c0502e0	0.008118361
197	0x3e332c24	0.17497307
198	0x3e550dc2	0.2080603
199	0xbde5a98c	-0.11213979
200	0xbe7d2e76	-0.24724755
201	0xbda8b74e	-0.082380876
202	0xbe1f1c19	-0.15538062
203	0x3e8ca496	0.2746932
204	0xbd700db4	-0.05860682
205	0x3e2aa430	0.16664195
206	0xbd3ef618	-0.046621412
207	0x3bdbf700	0.0067127943
208	0xbc506380	-0.012719035
209	0x3dd7fe34	0.10546532
210	0x3e8d3e78	0.27586722
211	0x3d5f26e0	0.054480433
212	0xbdb7e2ac	-0.08978781
213	0x3d579b08	0.052638084
214	0x3d4f8840	0.050667048
215	0x3e443da8	0.19164145
216	0xbd863fe0	-0.06555152
217	0x3e90dca0	0.28293324
218	0x3e382ffc	0.17987055
219	0x3e8d6c2a	0.27621585
220	0xbd85f47e	-0.06540774
221	0xbe4164f5	-0.18886168
222	0xbd7345c4	-0.059392706
223	0x3dc4447c	0.09583375
224	0xbe032218	-0.12805974
225	0x3e6e251c	0.23256344
226	0x3e414554	0.18874103
227	0x3dc049fc	0.093891114
228	0x3e7eaf34	0.24871522
229	0xbe580516	-0.2109569
230	0x3d15a7c8	0.03653696
231	0xbd560128	-0.052247196
232	0xbe6ed968	-0.23325121
233	0x3da57dac	0.08080611
234	0xbe8e421e	-0.27784818
235	0x3e1a4ede	0.15069148
236	0x3e68f180	0.22748375
237	0x3e8b80d4	0.27246726
238	0x3e603138	0.21893775
239	0x3e0733dc	0.13203377
240	0x3e5ac9bc	0.21366018
241	0xbd123570	-0.035695493
242	0x3e862136	0.26197213
243	0x3cddd950	0.027081162
244	0xbe85ff8d	-0.26171532
245	0x3e358b0c	0.17728823
246	0xbd496ae8	-0.04917422
247	0xbe92e21d	-0.28688136
248	0xbe929c84	-0.28635037
249	0xbda9f8da	-0.08299418
250	0x3e712c78	0.2355212
251	0x3bfb6ec0	0.0076731145
252	0x3d2fd560	0.0429281
253	0x3e6f37f0	0.23361182
254	0xbe72ec2f	-0.2372291
255	0x3db5f6b0	0.088849425

fc1.bias f4 [256]
0	0x3e04ed18	0.12981069
1	0x3e5096d8	0.20370042
2	0xbe6a09a4	-0.2285524
3	0x3d964a28	0.07338363
4	0xbdce78c2	-0.100816265
5	0xbcb62110	-0.022232562
6	0x3e0b342c	0.1359412
7	0x3cd37270	0.025811404
8	0x3cb1c700	0.021701336
9	0xbd61214c	-0.054963395
10	0xbdfaca44	-0.1224561
11	0x3e3f47fa	0.186798
12	0x3e934f84	0.28771603
13	0x3e43f870	0.1913774
14	0x3e4c8eca	0.19976345
15	0xbe23ad14	-0.15983993
16	0x3e2090b8	0.15680206
17	0x3e2ea34a	0.17054477
18	0x3e31a542	0.17348197
19	0x3e7ab64c	0.24483603
20	0xbd9ae170	-0.0756253
21	0xbe38179d	-0.17977758
22	0x3e73ad2c	0.23796529
23	0x3c966a50	0.01836124
24	0x3e1bf1ae	0.15228912
25	0xbe6bf052	-0.23040894
26	0xbd894d40	-0.067041874
27	0xbddc38f4	-0.107530504
28	0x3dbc696c	0.09199795
29	0xbdb5eb50	-0.08882773
30	0xbe8c04ca	-0.27347404
31	0x3d9a81b8	0.07544273
32	0xbe8ebd7c	-0.2787894
33	0xbdaea2be	-0.08527134
34	0x3ddbf0b8	0.10739273
35	0xbe12d3d9	-0.14338626
36	0x3e3a7192	0.18207386
37	0xbdeef27e	-0.116673455
38	0xbe5a0c15	-0.21293671
39	0x3d193f10	0.037413657
40	0xbe7dee52	-0.24797943
41	0xbe724ff7	-0.23663317
42	0xbe1c5414	-0.15266448
43	0xbe6ade90	-0.22936463
44	0xbe70e6fa	-0.2352561
45	0x3e8c8800	0.2744751
46	0xbe89772d	-0.26848736
47	0x3e817320	0.25283146
48	0xbe42f289	-0.19037832
49	0x3e5de4d0	0.21669316
50	0xbdb226f0	-0.08698833
51	0x3d0da1b8	0.034578055
52	0xbe2658bc	-0.16244787
53	0x3e72af70	0.23699737
54	0x3d2e5be0	0.042568088
55	0x3dde6e18	0.108608425
56	0x3e4edfea	0.20202604
57	0xbe1e42d5	-0.15455182
58	0xbd37f220	-0.044908643
59	0x3dba2e04	0.09090808
60	0x3df9b340	0.12192392
61	0x3e763d18	0.24046743
62	0x3e48f754	0.19625598
63	0xbd722584	-0.05911781
64	0x3e4aa4fa	0.19789496
65	0xbd40e288	-0.047091037
66	0xbe4cb2a8	-0.19990027
67	0xbd9de364	-0.07709387
68	0xbe8eb75c	-0.27874267
69	0x3e7354b8	0.23762786
70	0x3ba4bc40	0.005027324
71	0x3e4d5ff6	0.20056137
72	0xbe87822f	-0.2646651
73	0x3e5997e8	0.21249354
74	0x3d7778e0	0.06041801
75	0xbd9f84fe	-0.07789038
76	0xbc38b120	-0.011272699
77	0x3d76cf58	0.060256332
78	0x3e59cb8c	0.21269053
79	0xbdd9ce6a	-0.106350735
80	0xbca46c80	-0.020071268
81	0x3dcd358c	0.10019979
82	0x3d764448	0.06012371
83	0xbe1b1425	-0.15144403
84	0x3e3ffc26	0.18748531
85	0xbe0520bc	-0.13000768
86	0xbe1e36d1	-0.15450598
87	0x3e3d05e4	0.18459278
88	0x3e3dfd90	0.18553758
89	0xbda215d2	-0.07914318
90	0x3e8bc492	0.2729841
91	0xbd9bc8fa	-0.076066926
92	0x3d9d328c	0.07675657
93	0x3e57a27a	0.21058074
94	0x3e9177c8	0.28411698
95	0xbd15beb8	-0.036558837
96	0xbdd3eb22	-0.103475824
97	0x3e4a887e	0.1977863
98	0x3e55a14c	0.20862311
99	0x3e7b4844	0.24539286
100	0x3d377610	0.044790328
101	0xbe8ad831	-0.27118066
102	0x3dd662b4	0.10468045
103	0x3dad11ac	0.08450636
104	0x3d2335f0	0.03984636
105	0x3d064798	0.03278312
106	0x3e86990c	0.2628864
107	0xbe67f3b5	-0.2265156
108	0x3e3de500	0.18544388
109	0xbdc3281a	-0.09529133
110	0xbe8d025a	-0.27540857
111	0x3e6be5ac	0.23036832
112	0x3e1e0976	0.15433297
113	0x3e8d232c	0.27565897
114	0x3e28c16a	0.16480032
115	0x3e2ca278	0.16858852
116	0xbdd2842e	-0.102791175
117	0xbe88d88f	-0.2672772
118	0x3e5367e6	0.20645103
119	0xbe6e17b5	-0.23251231
120	0xbc9232e0	-0.017846525
121	0x3da39f10	0.07989323
122	0xbcf74900	-0.030186176
123	0xbe0fed14	-0.14055282
124	0xbdd6c01a	-0.10485859
125	0x3dcb8c74	0.09938899
126	0x3dd3a11c	0.103334635
127	0x3d5582a0	0.052126527
128	0xbd4ff15c	-0.050767288
129	0xbe2eb3ce	-0.17060778
130	0x3e1dd656	0.15413794
131	0x3e5a8ca4	0.21342713
132	0x3e2b2cfa	0.16716376
133	0x3e1db486	0.15400895
134	0x3d3ba330	0.045809925
135	0x3e0fbb48	0.14036286
136	0x3a15d400	0.00057154894
137	0xbdab683e	-0.08369492
138	0x3cf354b0	0.029703468
139	0x3e90f8e6	0.28314894
140	0x3e8d4e20	0.27598667
141	0xbe4092aa	-0.18805948
142	0x3e9258ba	0.28583318
143	0xbe48292a	-0.19546953
144	0x3e7eb6a8	0.24874365
145	0x3e8b9352	0.27260834
146	0xbe8f4155	-0.27979532
147	0xbe508f57	-0.2036718
148	0x3db209b0	0.08693254
149	0x3e1ab06c	0.15106362
150	0xbe1faa19	-0.15592231
151	0x3e044670	0.12917495
152	0xbe73a547	-0.23793517
153	0x3d821e14	0.06353393
154	0x3cadbac0	0.021207213
155	0xbe834328	-0.25637174
156	0xbd404364	-0.04693927
157	0xbe22868a	-0.15871635
158	0xbe12c287	-0.14332019
159	0x3e4ec998	0.2019409
160	0x3e058c08	0.13041699
161	0x3ddb1048	0.10696465
162	0x3e7f71b0	0.24945712
163	0x3e7da5d0	0.24770284
164	0x3e02a7b2	0.12759283
165	0xbe71d614	-0.2361682
166	0x3d48afb0	0.048995674
167	0x3d58f158	0.05296454
168	0xbe039727	-0.12850629
169	0xbe2f25f1	-0.17104317
170	0x3defa730	0.1170181
171	0x3e785174	0.24249822
172	0x3e301cf4	0.17198545
173	0xbe0766db	-0.1322283
174	0x3e681eec	0.22668046
175	0x3e20e80e	0.15713522
176	0x3d0af140	0.03392148
177	0xbc0ce060	-0.008598417
178	0xbe8ff178	-0.28113914
179	0x3d63b148	0.05558899
180	0xbdfeb0f0	-0.12436092
181	0x3c386ce0	0.011256427
182	0x3e844710	0.25835466
183	0xbe810ad7	-0.25203583
184	0x3d86187c	0.06547639
185	0x3c0f1300	0.008732557
186	0x3d3f4ee0	0.04670608
187	0x3e5c4d00	0.21513748
188	0x3e5eab14	0.21744949
189	0x3df7c750	0.12098563
190	0x3de2ff88	0.11083895
191	0xbe72d1b5	-0.2371281
192	0x3e326864	0.17422634
193	0x3e330e16	0.17485842
194	0xbdb95648	-0.0904966
195	0x3dddcef4	0.10830489
196	0x3e7664ec	0.24061936
197	0x3e362220	0.17786455
198	0x3e3705b2	0.17873266
199	0x3c15b1c0	0.009136617
200	0xbe52ff38	-0.2060517
201	0xbddefed8	-0.10888451
202	0xbe8c7bbb	-0.2743815
203	0x3e4e97e2	0.20175126
204	0xbe58253e	-0.21107957
205	0x3e72dd94	0.23717338
206	0xbe011e4e	-0.12609217
207	0x3b2f5f80	0.0026759803
208	0xbe8cc8bd	-0.274969
209	0x3d94fdec	0.07274994
210	0xbe506d06	-0.20354089
211	0xbe3a53ec	-0.18196076
212	0x3ddb4c34	0.10707894
213	0x3db7a8e4	0.0896776
214	0x3e060b54	0.13090259
215	0x3d8739f0	0.066028476
216	0xbe0ff058	-0.14056528
217	0x3d1a8840	0.037727594
218	0xbdfc162c	-0.123089164
219	0xbddd2ed6	-0.10799949
220	0x3e1d9a00	0.15390778
221	0x3d9ed9cc	0.07756385
222	0x3e2a6d94	0.16643363
223	0xbe790b2a	-0.24320665
224	0x3e28f4b4	0.16499597
225	0xbe093a28	-0.13401091
226	0xbbf66f40	-0.0075205863
227	0x3dd4b42c	0.103859276
228	0xbd829c60	-0.063774824
229	0xbe54a3c0	-0.2076559
230	0x3e326fc8	0.17425454
231	0xbe685018	-0.22686803
232	0xbe86fcb8	-0.26364684
233	0xbcc50990	-0.024052411
234	0xbd7fa140	-0.06240964
235	0xbe3f25f4	-0.18666822
236	0xbc581d00	-0.013190508
237	0xbd89272e	-0.06696926
238	0x3dd8b624	0.105816156
239	0xbd90cd7e	-0.070704445
240	0xbe562e55	-0.20916112
241	0xbe18bfcf	-0.14916919
242	0xbe25781b	-0.16159098
243	0x3e0a15d2	0.13484886
244	0x3d0cd6a8	0.0343844
245	0x3e4ab4b8	0.19795501
246	0xbdcc58d2	-0.09977879
247	0xbd636dbc	-0.055524573
248	0xbe5ca821	-0.21548511
249	0xbdbb4a58	-0.09145039
250	0xbe2226fa	-0.15835181
251	0x3dd76f54	0.10519281
252	0x3e5de904	0.2167092
253	0xbcb98460	-0.02264613
254	0xbdb36c90	-0.08760941
255	0x3dc5ae20	0.09652352

fc2.weight f4 [256, 256]
0	0x3d6e9cae	0.05825489
1	0xbd659c1c	-0.05605708
2	0x3b9f8d10	0.004869111
3	0x3cb5b61c	0.022181563
4	0x3d5a65a8	0.053319603
5	0x3c8d3a30	0.01723966
6	0x3d7bc9c0	0.0614717
7	0x3d5e63fa	0.054294564
8	0x3cd42878	0.025898203
9	0x3d36d0ce	0.044632725
10	0x3cc433c8	0.023950472
11	0xbd08e546	-0.033421777
12	0xbbb897b0	-0.005633317
13	0x3c5f1828	0.013616599
14	0xbd23aa0c	-0.03995709
15	0xbcbf70bc	-0.023369186
16	0x3cfcd724	0.030864306
17	0x3bd815a0	0.006594375
18	0x3d151c0a	0.036403693
19	0x3d78fa82	0.060785778
20	0x3d31dc28	0.043422848
21	0xbd4c9304	-0.049944893
22	0x3d3176a6	0.043326043
23	0xbd176f66	-0.036971472
24	0xbc17ffe8	-0.009277321
25	0x3cec6df8	0.028861031
26	0x3ccf9e28	0.02534397
27	0xbcdced9c	-0.02696877
28	0xbd241be6	-0.04006567
29	0xbc9e4218	-0.019318625
30	0xbcf95f9c	-0.030441098
31	0x3c326e18	0.010890506
32	0x3d6bd260	0.057573676
33	0xbd594a8c	-0.05304961
34	0x3d440c3a	0.047863223
35	0xbc3a1cd8	-0.011359416
36	0x3d3bd64a	0.04585866
37	0x3abce8c0	0.0014412627
38	0x3d239e88	0.03994611
39	0x3c9b0264	0.018922038
40	0xbd600ab8	-0.054697722
41	0x3a437d80	0.00074573606
42	0xbd174ea8	-0.036940247
43	0xbd5eeac2	-0.0544231
44	0xbd0f21ba	-0.034944274
45	0x3d75af86	0.059981845
46	0x3ca5a498	0.020220086
47	0x3d515c0e	0.05111318
48	0xbcd0a2b0	-0.0254682
49	0x3c515d58	0.012778603
50	0xbd68cb62	-0.056834586
51	0xbbb9f210	-0.005674608
52	0x3d2f550a	0.04280571
53	0x3b830f90	0.003999658
54	0xbcd0236c	-0.025407515
55	0x3ced867c	0.028994791
56	0xbcbaca88	-0.022801653
57	0x3d485a34	0.04891415
58	0x3d2bacfc	0.041913018
59	0x3b9609e0	0.004578814
60	0x3d30cd2e	0.043164425
61	0x3d6d843a	0.05798743
62	0xbd5fb1fe	-0.054613106
63	0x3d18f368	0.037341505
64	0x3cd9cd70	0.026587218
65	0x3d7a70a8	0.061142594
66	0xbc9cb3f0	-0.01912877
67	0x3cbf3410	0.023340255
68	0x3d51f544	0.051259294
69	0x3c716f50	0.014736012
70	0xbd1dbba6	-0.038509034
71	0xbc9d44d0	-0.019197851
72	0xbd52c1e6	-0.051454447
73	0xbc657de0	-0.014007062
74	0x3d4c260c	0.04984097
75	0x3d323902	0.043511398
76	0xbd6ec890	-0.05829674
77	0xbd780faa	-0.060561813
78	0x3d7e700a	0.062118568
79	0xbba437f0	-0.005011551
80	0x3d347516	0.044056974
81	0x3d1b8eb8	0.037977904
82	0x3c548008	0.012969978
83	0x3c8125c0	0.01576507
84	0x3d57de42	0.052702196
85	0xbd75fca0	-0.060055375
86	0xbc8190fc	-0.015816204
87	0xbd74697c	-0.05967091
88	0x3cea26ac	0.028582893
89	0xbd76a364	-0.060214415
90	0x3d41c468	0.04730645
91	0xbcbedb44	-0.023297913
92	0x3d7dd2c0	0.061968565
93	0x3cbf22c4	0.023332007
94	0xbcc70340	-0.024293542
95	0x3c26c590	0.0101789385
96	0xbce67880	-0.02813363
97	0x3d2ea316	0.042636
98	0xbc18d928	-0.009329118
99	0xbc37ea98	-0.011225365
100	0x3d054c0c	0.032543227
101	0x3c6af940	0.014341652
102	0xbc9e5660	-0.019328296
103	0x3d254caa	0.040356316
104	0xbcb5c63c	-0.022189252
105	0xbc5f07b0	-0.013612673
106	0xbcd1b608	-0.025599495
107	0x3d0d1402	0.03444291
108	0xbc8a5e28	-0.0168906
109	0xbc58f308	-0.013241537
110	0x3d44fcb6	0.048092566
111	0x3ca08204	0.019593246
112	0xbd0cc968	-0.034371763
113	0xbd539d20	-0.051663518
114	0x3d15c1ee	0.0365619
115	0xbd7ef282	-0.062242992
116	0x3c83dcd4	0.01609651
117	0xbd2d9dbe	-0.042386763
118	0x3d14d9e4	0.03634061
119	0xbd5e6dae	-0.054303817
120	0xbd001ba6	-0.031276368
121	0xbabc5a40	-0.0014370158
122	0x3d1a32c2	0.037646063
123	0xbccf59a8	-0.025311306
124	0x3d1bc1d6	0.038026653
125	0xbd02f5b2	-0.031972595
126	0xbc5aba68	-0.013350107
127	0xbd6d30e4	-0.057907954
128	0xbd498d04	-0.04920675
129	0xbd2ca6ba	-0.04215119
130	0xbd7a5cde	-0.06112372
131	0xbce1769c	-0.027522378
132	0xbd4611b4	-0.048356727
133	0x3d76d8ea	0.06026546
134	0xbcaac9b4	-0.020848133
135	0xbd3f53f8	-0.04671094
136	0x3d139156	0.036027275
137	0x3d7a9b4c	0.06118326
138	0xbd47c36e	-0.04877036
139	0xbb9d4a00	-0.0048000813
140	0x3c401b28	0.011725225
141	0x3d648e26	0.055799626
142	0xbd0b5da2	-0.034024842
143	0x3bd10430	0.006378673
144	0x3d0553fe	0.032550804
145	0xbd08f2ca	-0.033434667
146	0xbd6898d8	-0.05678639
147	0x3d2396cc	0.039938733
148	0xbbd290d0	-0.0064259544
149	0x3d000e9c	0.031263933
150	0xbc2d4c28	-0.010577239
151	0xbc85378c	-0.016261838
152	0xbd77d49a	-0.060505487
153	0xbc930a58	-0.017949268
154	0xbce99e4c	-0.028517865
155	0x3d604328	0.054751545
156	0x3cd96090	0.026535302
157	0x3c331638	0.01093059
158	0x3bec8cc0	0.007218927
159	0x3d40f09c	0.047104463
160	0xbbc1f710	-0.0059193447
161	0xbaf010c0	-0.0018315539
162	0xbce94734	-0.028476335
163	0x3cdce31c	0.026963763
164	0x3d53a6a6	0.0516726
165	0xbd0b6432	-0.0340311
166	0xbd4453ba	-0.04793141
167	0xbd2ec6c6	-0.042670034
168	0x3d1cf9d2	0.038324185
169	0xbc77f188	-0.015133269
170	0x3d556462	0.052097686
171	0x3d268f50	0.040664017
172	0x3d467854	0.048454598
173	0x3cfad000	0.03061676
174	0x3ce225d8	0.027605936
175	0x3b14d860	0.0022711977
176	0xbcf7ed1c	-0.03026443
177	0x3c862a6c	0.01637765
178	0xbd5d9d30	-0.054104984
179	0xbd58248a	-0.05276922
180	0xbd7b24e4	-0.06131448
181	0x3d72a1f0	0.059236467
182	0xbce6ed5c	-0.028189354
183	0x3ce575ac	0.028010212
184	0x3d0d1242	0.03444124
185	0xbd6e57f8	-0.058189362
186	0xbcc17718	-0.023616359
187	0x3beb0a80	0.0071728826
188	0x3d270ca2	0.040783532
189	0x3d597ada	0.053095676
190	0xbd1e775e	-0.038688056
191	0xbc0388d8	-0.008028232
192	0xbcd2432c	-0.025666796
193	0x3cee80fc	0.029114239
194	0xbcfb492c	-0.03067454
195	0x3d1c5232	0.038164325
196	0xbcdb33cc	-0.026758097
197	0x3d7b7cae	0.0613982
198	0x3c0423a0	0.008065134
199	0x3d1ffe10	0.039060652
200	0x3c9be8e0	0.019031942
201	0x3d31a2a2	0.04336799
202	0xbbf12d50	-0.007360138
203	0x3cc739e0	0.02431959
204	0xbd36b6d4	-0.044607952
205	0x3a92b700	0.0011193454
206	0xbcd20b28	-0.025640085
207	0xbb129fc0	-0.002237305
208	0xbd6113de	-0.054950587
209	0x3d54159a	0.051778413
210	0x3cb06fe4	0.021537729
211	0x3c8ef978	0.01745294
212	0xbd12d0aa	-0.03584353
213	0x3c8fc888	0.017551675
214	0xbd403136	-0.04692193
215	0xbc8f4984	-0.01749111
216	0xbc8506bc	-0.016238563
217	0xbbf9a770	-0.007618837
218	0x3d737d08	0.05944541
219	0xbcaa00e4	-0.020752378
220	0xbb930870	-0.00448709
221	0x399cdb00	0.00029917806
222	0xbd5110fe	-0.051041596
223	0xbc7a47c0	-0.015275896
224	0x3d455382	0.048175342
225	0x3d648cce	0.055798344
226	0x3c7a7aa0	0.015288025
227	0x3c15cc18	0.009142898
228	0x3d49811a	0.049195386
229	0x3c539e18	0.01291611
230	0xbca1832c	-0.019715868
231	0x3d3f2a14	0.04667099
232	0xbd2d8466	-0.042362593
233	0x3d4b0fd6	0.04957565
234	0x3b687aa0	0.003547348
235	0xbd0c62bc	-0.034273848
236	0xbcd43e40	-0.02590859
237	0xbc0da318	-0.008644842
238	0xbd219752	-0.03945095
239	0x3c209a90	0.009802476
240	0xbd660ece	-0.056166463
241	0x3cc8ed08	0.024527088
242	0x3d7cd588	0.061727077
243	0x3d43dc34	0.047817424
244	0xbd6ed8b2	-0.058312126
245	0xbca5b0a8	-0.020225838
246	0xbc990e00	-0.018683434
247	0x3d0e6912	0.03476817
248	0x3c2d6a00	0.010584354
249	0xbc377388	-0.011196978
250	0x3d39a76a	0.045325674
251	0xbc486dd0	-0.012233213
252	0x3d48c548	0.049016267
253	0x3d4fc064	0.050720587
254	0xbd349618	-0.044088453
255	0x3c9afe88	0.018920198

fc2.bias f4 [256]
0	0xbc38ade0	-0.011271924
1	0xbcc4445c	-0.023958378
2	0x3d343090	0.043991625
3	0x3babdf40	0.0052451193
4	0x3cd3d3c4	0.025857814
5	0x3d5eeebe	0.0544269
6	0x3d4234ba	0.047413565
7	0xbc29b050	-0.010356978
8	0xbd5d4e68	-0.054029852
9	0x3d6d1526	0.057881497
10	0xbc08bfb8	-0.008346491
11	0x3ce624f0	0.028093785
12	0xbcea204c	-0.028579853
13	0xbd3158d6	-0.04329761
14	0xbc2e7360	-0.010647625
15	0x3d35db10	0.044398367
16	0x3d7a4cfc	0.061108574
17	0x3d575764	0.052573577
18	0x3d7392aa	0.05946604
19	0x3cc57e1c	0.024107985
20	0x3c4cdc50	0.0125036985
21	0xbd48898a	-0.048959292
22	0xbc485800	-0.012228012
23	0x3c69f5c0	0.014279783
24	0xbd49c656	-0.049261414
25	0x3d315f40	0.043303728
26	0x3bee18c0	0.007266134
27	0xbca5d434	-0.020242788
28	0xbd0a5a68	-0.033777624
29	0xbcaa4bd0	-0.020788103
30	0xbcee694c	-0.029102944
31	0x3d23e358	0.040011734
32	0x3cc3ee74	0.023917414
33	0x3cfce790	0.030872136
34	0xbc26fc60	-0.010192007
35	0x3d229c82	0.03970004
36	0x3ced5390	0.02897051
37	0x3d6c485e	0.057686202
38	0xbc14c7c0	-0.009080827
39	0xbcaef6a4	-0.021357842
40	0x3d532d10	0.051556647
41	0x3ba07100	0.004896283
42	0x3c8adf90	0.016952306
43	0xbd35f50a	-0.04442314
44	0xbc8ec3c4	-0.017427333
45	0xbc989e08	-0.018630043
46	0xbc8bb7ac	-0.017055355
47	0xba817700	-0.0009877384
48	0xbcfb00e8	-0.03064008
49	0x3d59e5e6	0.053197764
50	0x3b8d9970	0.0043212697
51	0x3d786534	0.06064339
52	0xbd04c3a8	-0.032413155
53	0x3c78a2a8	0.015175499
54	0xbbaf85d0	-0.005356528
55	0xbd11b5a2	-0.03557361
56	0x3d67c484	0.056583896
57	0x3d39439a	0.045230485
58	0x3bfc4090	0.007698126
59	0x3d73cbac	0.05952041
60	0xbbad4990	-0.0052883103
61	0xba9e68c0	-0.0012085661
62	0x39f57e00	0.0004682392
63	0x3ba3c050	0.0049972907
64	0x3d07e2ac	0.033175156
65	0xbcbb1b3c	-0.022840135
66	0x3d6196e2	0.055075534
67	0xbbaedcb0	-0.0053363666
68	0x3b94ee00	0.0045449734
69	0x3d73b710	0.059500754
70	0x3c916e04	0.017752655
71	0xbd50566c	-0.05086367
72	0xbc5004f0	-0.01269649
73	0xbc23d0a0	-0.009998471
74	0xbd1a90ec	-0.037735865
75	0xbd34f848	-0.044182092
76	0x3ca4ec94	0.02013234
77	0xbab31b00	-0.0013664663
78	0x3c9c4578	0.019076094
79	0xbd58fba4	-0.05297436
80	0xbd19024a	-0.0373557
81	0x3c937cd4	0.018003859
82	0xbd41cc38	-0.0473139
83	0x3cc38078	0.02386497
84	0xbd0c1900	-0.03420353
85	0x3d261342	0.04054571
86	0x3d51fb4c	0.051265046
87	0x3d2b134a	0.041766442
88	0x3d2e5832	0.04256458
89	0xbd4806e0	-0.04883468
90	0xbd194b3a	-0.037425257
91	0xbcd4bc90	-0.02596882
92	0x3c8faeb8	0.017539367
93	0x3d07343a	0.03300879
94	0xbccdfaa4	-0.025143929
95	0x3d05d4bc	0.032673582
96	0x3a950980	0.0011370629
97	0x3c782798	0.015146159
98	0x3ce7d614	0.028300323
99	0x3c3438e8	0.010999896
100	0xbd71326a	-0.05888597
101	0x3d523a20	0.051324964
102	0x3c228f80	0.009921908
103	0xbbd83610	-0.0065982416
104	0xbc4ca7e0	-0.012491196
105	0xbcd98a00	-0.026555061
106	0x3c912dfc	0.017722122
107	0x3c953e50	0.01821819
108	0xbd40d8fa	-0.047081925
109	0xbbd37c90	-0.006454058
110	0xbcf65944	-0.030071862
111	0xbd72be44	-0.059263483
112	0x3d0498a8	0.032372147
113	0x3d671cc8	0.056423932
114	0xbcbe5548	-0.023234025
115	0x3c5daf30	0.0135305375
116	0x3d3b4fb6	0.045730315
117	0xbbb8d510	-0.0056406334
118	0xbccef8c0	-0.025265098
119	0xbc68da68	-0.014212228
120	0x3ce17b74	0.027524687
121	0x3d3b0d82	0.04566718
122	0x3cd14d2c	0.025549494
123	0x3bde6130	0.006786488
124	0x3c0242e0	0.007950515
125	0x391d8600	0.00015022606
126	0xbcc64ec8	-0.024207488
127	0xba52f780	-0.00080477446
128	0xbc0440c0	-0.008072078
129	0x3c02a298	0.007973336
130	0x3d1ed598	0.038777918
131	0x39d1ee00	0.0004004091
132	0xbc39ea00	-0.011347294
133	0x3adaebc0	0.0016702339
134	0x3d479b58	0.04873213
135	0xbd0fe9ea	-0.035135187
136	0x3d65437e	0.05597257
137	0x3d6532a0	0.055956483
138	0x3d01bbd4	0.031673267
139	0xbd0c9142	-0.034318216
140	0x3c0053c0	0.007832468
141	0x3c37a0d0	0.011207774
142	0x3d45a178	0.04824969
143	0xbbe0ec60	-0.0068641156
144	0xbc396798	-0.011316203
145	0xbd5e55a6	-0.0542809
146	0xbcb51a00	-0.022107124
147	0x3cc7c96c	0.024388038
148	0x3b90d1a0	0.0044195205
149	0xbcd7b3cc	-0.026330851
150	0x3d424e5c	0.04743801
151	0xbd150c1e	-0.03638851
152	0xbc93bfb4	-0.018035747
153	0x3c087250	0.0083280355
154	0x3c7b4a70	0.0153375715
155	0xbcabf7b0	-0.02099213
156	0xbc9eb070	-0.019371241
157	0x3d7f1636	0.06227704
158	0xbc625d38	-0.01381617
159	0xbd0cfc48	-0.03442028
160	0xbc846500	-0.016161442
161	0xbcf75b18	-0.030194804
162	0x3d0c07ec	0.034187242
163	0x3b273fc0	0.0025520176
164	0x3cd3bfec	0.025848351
165	0x3d6849f4	0.056711152
166	0x3d4fa846	0.050697587
167	0xbd7e28d4	-0.062050655
168	0x3c130500	0.00897336
169	0xbd1d5af8	-0.038416833
170	0xbd4ffa62	-0.050775893
171	0x3d646dbc	0.055768713
172	0x3d67e1d0	0.056611836
173	0xbd79cb38	-0.06098482
174	0x3d7d8af8	0.06190011
175	0x3d1969d8	0.037454456
176	0x3d0ab224	0.033861294
177	0x3d08c8ca	0.033394612
178	0x3c442bc0	0.011973321
179	0x3d5f5312	0.05452258
180	0x3c164d38	0.009173684
181	0x3c52cb50	0.012865856
182	0x3c8b7e3c	0.017027967
183	0x3ceadb14	0.028668918
184	0xbd33ea12	-0.0439244
185	0xbcbdfdc4	-0.023192294
186	0xbd2d4d06	-0.042309783
187	0x3c9a0570	0.01880142
188	0xbd042094	-0.03225763
189	0xbd5f4976	-0.054513417
190	0x3aa5e140	0.0012655631
191	0x3d4bc2f0	0.049746454
192	0x3d7106a2	0.058844216
193	0xbd05d762	-0.03267611
194	0x3c9f6528	0.019457415
195	0x3d1afe3c	0.037840113
196	0x3d5e96ca	0.054343022
197	0x3d78e398	0.060763925
198	0xbcad87c8	-0.02118291
199	0x3c0978f8	0.008390658
200	0xbd6592c2	-0.056048162
201	0xbd0f44c8	-0.034977704
202	0xbd55aff2	-0.052169748
203	0xbd34ed72	-0.044171758
204	0xb9ff7500	-0.00048724562
205	0x3b3b0180	0.002853483
206	0x3ca4fc54	0.02013985
207	0x3cfa96e0	0.03058952
208	0x3c995724	0.01871831
209	0x3d2c6034	0.042083934
210	0xbd2bb3aa	-0.041919388
211	0x3aaa7bc0	0.0013006851
212	0x3cf80734	0.030276872
213	0xbd0f3616	-0.03496369
214	0xbd5add4c	-0.0534337
215	0x3c55b500	0.013043642
216	0x3d08781c	0.03331767
217	0x3d77a9a2	0.06046451
218	0x3d1b9ce6	0.037991427
219	0xbd57707e	-0.052597515
220	0xbc65cdb0	-0.0140260905
221	0xbca16dd8	-0.019705698
222	0x3d53859c	0.05164109
223	0x3bbdc900	0.0057917833
224	0xbca38e30	-0.019965261
225	0x3d71689e	0.05893766
226	0xbd0e26e8	-0.034705073
227	0x3cc5639c	0.024095349
228	0x3d70fd82	0.058835514
229	0xbb8ea950	-0.0043536797
230	0xbcdb5d50	-0.026777893
231	0xbd6c8bde	-0.057750575
232	0xbc0f7bf0	-0.008757576
233	0x3c8eaf90	0.0174177
234	0x3d4ac906	0.049508117
235	0xbd38278c	-0.04495959
236	0x3d6b12a0	0.05739081
237	0x3d088d90	0.03333813
238	0xbc201720	-0.009771138
239	0xbd183d3e	-0.03716778
240	0x3d1a5d76	0.037686788
241	0x3cdf7124	0.02727563
242	0xbd5b14ee	-0.053486757
243	0x38b1f800	8.486211e-05
244	0xbb7d8740	-0.0038685352
245	0xbd7cb3cc	-0.061694905
246	0x3c228f10	0.009921804
247	0xbd26ace6	-0.040692233
248	0x3d5917a8	0.053001076
249	0x3d484d44	0.04890181
250	0x3d18f8fc	0.037346825
251	0x3c23d6b0	0.009999916
252	0xbcb7463c	-0.022372358
253	0x3d66121c	0.056169614
254	0xbd3d81b2	-0.046266265
255	0x3d5757d8	0.05257401

fc3.weight f4 [1, 256]
0	0x3d1fe702	0.039038666
1	0x3d6434ce	0.05571442
2	0x3a878f40	0.0010342374
3	0xbbb04f70	-0.0053805634
4	0xbd7f5c4c	-0.06234388
5	0x3d45b586	0.048268817
6	0xbc9b1274	-0.018929698
7	0x3d61aa6a	0.05509416
8	0xbd1ba796	-0.03800162
9	0x3d572afa	0.05253122
10	0x3d1acafe	0.037791245
11	0xbd244a54	-0.040109947
12	0xbd2d5366	-0.042315863
13	0x3c0356b8	0.008016281
14	0xbba6eb10	-0.0050939396
15	0x3d6a5c06	0.057216667
16	0xbd0a673c	-0.03378986
17	0xbd53dbb6	-0.051723205
18	0xbc989798	-0.018626973
19	0x3b946c40	0.004529506
20	0xbc6d8ad0	-0.0144984275
21	0x3c4c1058	0.0124550685
22	0xbbbcc210	-0.0057604387
23	0x3ce62df8	0.028098091
24	0xbd46ed08	-0.048565894
25	0xbd5e11e4	-0.05421628
26	0xbd1c374a	-0.038138665
27	0xbd78441a	-0.06061182
28	0xbd3d1872	-0.04616589
29	0xbb333a40	-0.0027347952
30	0x3bbb3ed0	0.005714275
31	0x3bf50e10	0.007478483
32	0xbd6152f2	-0.055010743
33	0xbd1fbef8	-0.03900048
34	0xbcf52348	-0.02992405
35	0xbc71a4c0	-0.014748752
36	0x3d601b1c	0.054713354
37	0x3c48a218	0.012245677
38	0xbcbc8900	-0.023014545
39	0x3d1cd2b6	0.038286887
40	0xbd4bc5e0	-0.049749255
41	0x3c9798a8	0.01850541
42	0xbc7ccc28	-0.015429534
43	0xbd2c1e30	-0.042020977
44	0x3d5de58a	0.054173984
45	0x3c7d9a90	0.015478745
46	0x3d04e4c6	0.032444738
47	0xbd72dc70	-0.059292257
48	0x3d681056	0.056656204
49	0xbd190506	-0.037358306
50	0x3bb65c50	0.0055652037
51	0x3d0505f8	0.032476395
52	0x3d7aa8ce	0.06119614
53	0x3d6fe966	0.058572195
54	0xbc4b7200	-0.012417316
55	0x3caff5fc	0.0214796
56	0xbc4e1430	-0.012578055
57	0x3c3e16d0	0.011602119
58	0x3ac9c400	0.0015393496
59	0x3c1aae78	0.009441011
60	0x3c6f4b60	0.014605373
61	0xbcc6fc8c	-0.024290346
62	0x3d287f66	0.04113712
63	0x3d2df11c	0.042466268
64	0xbc2e6228	-0.010643519
65	0xbb87b960	-0.0041419715
66	0xbbf0aea0	-0.0073450357
67	0x3cd0c504	0.02548457
68	0x3cb23284	0.021752603
69	0x3d559d12	0.052151747
70	0x3bd5aaa0	0.006520584
71	0x3d252932	0.04032249
72	0xbd285284	-0.041094318
73	0x3cf72980	0.030171156
74	0x3d7d24ee	0.061802797
75	0x3d00edde	0.031476848
76	0xbd04c03a	-0.032409884
77	0x3d44d0b8	0.048050612
78	0x3cffc918	0.031223819
79	0xbd416d72	-0.047223516
80	0x3bb7ab90	0.0056051686
81	0x3cebce4c	0.028784893
82	0xbd4a144c	-0.049335763
83	0x3d2a7920	0.04161942
84	0x3d22d5c6	0.03975465
85	0xbbd0f810	-0.0063772276
86	0xbcb82704	-0.022479542
87	0xbd72c180	-0.059266567
88	0x3d2a3bb4	0.041560844
89	0xbd15c5b4	-0.036565498
90	0x3c4dba48	0.01255662
91	0x3d0e5204	0.034746185
92	0xbc051af8	-0.008124106
93	0x3cb243ac	0.021760784
94	0x3d5b07dc	0.053474292
95	0x3d475ae4	0.048670664
96	0x3c314b58	0.010821186
97	0xbb6472e0	-0.003485851
98	0x3cf1e350	0.029527336
99	0x3d4c3a0e	0.049860053
100	0x3cd0caf8	0.025487408
101	0xbc883808	-0.01662828
102	0xbd305692	-0.04305131
103	0x3d177f80	0.036986828
104	0xbd12964e	-0.035787873
105	0xbc7290f0	-0.014805064
106	0xbd69179e	-0.05690729
107	0xbd118bb6	-0.03553363
108	0x3cdb6d94	0.02678565
109	0xbd308bcc	-0.04310207
110	0x3b992ec0	0.0046747625
111	0xbcbf4004	-0.023345955
112	0xbca13640	-0.019679189
113	0xbce38128	-0.027771547
114	0x3d28b320	0.041186452
115	0xbd13da54	-0.036096886
116	0xbd101bf2	-0.0351829
117	0xbd5eba84	-0.054377094
118	0xbd05b0f2	-0.03263945
119	0x3d5b5cb0	0.05355519
120	0xbd264b4a	-0.040599145
121	0xbd15276a	-0.03641454
122	0xbc8cf2b4	-0.017205574
123	0x3d36b006	0.044601463
124	0x3c6ea9b8	0.014566831
125	0xbd51ff9e	-0.051269166
126	0x3d5c9f1a	0.05386267
127	0xbd3a9b1e	-0.045558088
128	0xbbce0040	-0.006286651
129	0x3d22575e	0.0396341
130	0xbb49e820	-0.0030808523
131	0xbd18aaae	-0.037272148
132	0xbd4318fa	-0.04763124
133	0x3cf64d78	0.030066237
134	0xbd5f697e	-0.054543965
135	0x3cce9b04	0.025220402
136	0xbc4c8f10	-0.012485281
137	0x3d60cce0	0.054882884
138	0x3c718158	0.014740311
139	0xbcb965a8	-0.022631481
140	0xbc856864	-0.016285129
141	0x3d5d518c	0.054032847
142	0x3d29e948	0.04148224
143	0xbc798388	-0.015229113
144	0xbc60a088	-0.013710149
145	0xbcf21b8c	-0.029554151
146	0x3cd02234	0.025406934
147	0xbc9ca984	-0.0191238
148	0xbb500ba0	-0.003174521
149	0x3d401d94	0.046903208
150	0xbd45386a	-0.048149504
151	0xbd32ff84	-0.04370071
152	0xbd3eeae8	-0.046610743
153	0xbd7664da	-0.060154773
154	0x3cae804c	0.021301411
155	0xbcc53890	-0.024074823
156	0x3d08b30e	0.033373885
157	0xbcf8f910	-0.0303922
158	0x3d5cbc3c	0.05389045
159	0x3d6678de	0.05626761
160	0xbd08a4b2	-0.03336019
161	0xbcc7178c	-0.02430322
162	0x3d2d1760	0.04225862
163	0x3ce1190c	0.027477764
164	0xbd511d4e	-0.051053338
165	0xbd29653a	-0.041356303
166	0xbcece1c8	-0.028916255
167	0x3cb1a960	0.02168721
168	0xbd6cc9a6	-0.057809494
169	0xbc8b662c	-0.017016493
170	0x3d53c366	0.05170002
171	0xbd4291d0	-0.04750234
172	0x3c995794	0.018718518
173	0x3d76dd40	0.060269594
174	0x3c850e98	0.01624231
175	0x3cdba538	0.02681218
176	0x3d0f8ba6	0.03504529
177	0x3d166df0	0.03672594
178	0xbd3e1012	-0.046402045
179	0x3d7dadfe	0.06193351
180	0x3c9e30fc	0.019310467
181	0xbb2f8fe0	-0.0026788637
182	0x3cfc8864	0.030826755
183	0x3ccdc45c	0.025118046
184	0xbb32e8a0	-0.00272993
185	0x3bc9f420	0.006163135
186	0xbd75e546	-0.060033105
187	0xbd5bb88c	-0.053642794
188	0x3c83e780	0.016101599
189	0x3cdad750	0.026713997
190	0xbd58057a	-0.052739598
191	0x3c5ee660	0.01360473
192	0xb92d2800	-0.00016513467
193	0x3d4854a0	0.04890883
194	0x3d631a1e	0.05544483
195	0xbd2b3f58	-0.041808456
196	0x3bf7d080	0.007562697
197	0xbd1bfac2	-0.03808094
198	0x3d176bd6	0.036968075
199	0xbd7ac95e	-0.061227195
200	0xbca72f70	-0.020408362
201	0xbcd1c93c	-0.025608651
202	0xbd0fbd74	-0.035092786
203	0x3bfa24d0	0.007633783
204	0xbd4737b0	-0.048637092
205	0x3d75c390	0.060000956
206	0x3d5fead6	0.054667316
207	0xbb7f90a0	-0.0038996115
208	0xbd182568	-0.03714505
209	0x3cc24df8	0.023718819
210	0xbd666624	-0.056249753
211	0xbc4ea708	-0.012613066
212	0x3ceb42d4	0.02871839
213	0x3d2230dc	0.039597377
214	0xbcc3a728	-0.023883417
215	0xbbfae0e0	-0.0076562017
216	0x3b526b20	0.0032107309
217	0xbc9917e8	-0.018688157
218	0xbcf2f46c	-0.029657565
219	0xbd217a5e	-0.03942334
220	0xbd75a2c0	-0.059969664
221	0x3d3882ca	0.045046605
222	0xbce52e38	-0.02797614
223	0x3d09df66	0.033660315
224	0x3c6ebc70	0.014571294
225	0x3d009dd4	0.031400517
226	0x3c1af5f0	0.00945805
227	0x3be86a20	0.007092729
228	0xbd3c6f3a	-0.04600451
229	0x3d22b978	0.039727658
230	0xbc9ec6f8	-0.019381985
231	0x3d0b21a2	0.03396762
232	0x3cc2af28	0.023765162
233	0xbd10f29c	-0.03538762
234	0xbce44998	-0.027867123
235	0xbd570afe	-0.052500717
236	0xbd6369a8	-0.055520684
237	0xbd471e7e	-0.048613064
238	0xbd7728e2	-0.060341723
239	0x3d667d3c	0.056271777
240	0x3ca800cc	0.020508192
241	0x3cfd5c44	0.030927785
242	0xbca20efc	-0.019782536
243	0xbc9bb1d0	-0.019005686
244	0x3c3ba420	0.011452705
245	0xbd12cf6e	-0.03584235
246	0xbc8a581c	-0.016887717
247	0xbd7dd35e	-0.061969154
248	0xba977c00	-0.0011557341
249	0xbd3d0f2e	-0.046157055
250	0x3d576e92	0.052595682
251	0x3b9b7950	0.004744686
252	0x3bd0fa70	0.0063775107
253	0xbd3a5208	-0.045488387
254	0x3ccd5734	0.025065996
255	0xbc0d3ba8	-0.00862018
