output/MAPPO/lxl/weight/critic_agent_3_ep_2700.pth (torch, 280350 bytes, 5 tensors)

fc1.weight f4 [256, 12]
0	0x3e3f2c8e	0.1866934
1	0x3d990420	0.0747149
2	0xbe1a1973	-0.1504877
3	0x3e7ed60c	0.2488634
4	0xbd96abcc	-0.073569864
5	0x3e849142	0.25892073
6	0x3e770730	0.24123836
7	0xbc80a2a0	-0.015702546
8	0x3d705048	0.058670312
9	0x3dc9f170	0.09860504
10	0x3e8df516	0.27726048
11	0xbe350fe8	-0.17681849
12	0xbe8a324f	-0.26991507
13	0xbe195838	-0.14975059
14	0xbe456456	-0.19276556
15	0x3da09f58	0.078428924
16	0xbe90b0b7	-0.28259823
17	0xbced5700	-0.028972149
18	0x3e021448	0.12703049
19	0x3e85bd9c	0.26121223
20	0x3e4b9c0a	0.19883743
21	0x3e0a29ea	0.13492551
22	0xbe0fe5ef	-0.14052556
23	0xbdc0172e	-0.09379421
24	0xbd692ba0	-0.05692637
25	0x3e911d80	0.2834282
26	0x3e427f64	0.18993908
27	0xbe6af772	-0.22945955
28	0xbd8ce2a8	-0.06879169
29	0x3e185b38	0.14878547
30	0xbd6f3104	-0.058396354
31	0xbe28ba1c	-0.16477245
32	0xbd3cfcc4	-0.046139494
33	0x3e927622	0.28605753
34	0x3e91db46	0.28487605
35	0xbe27c582	-0.16383937
36	0x3e112504	0.14174277
37	0x3e7de810	0.24795556
38	0xbcbec280	-0.023286104
39	0x3d527e28	0.051389843
40	0xbe060165	-0.1308647
41	0xbdd7bdac	-0.10534224
42	0xbdb143c8	-0.08655506
43	0xbd1f14fc	-0.03883837
44	0xbd4ec7fc	-0.05048369
45	0x3d1acdc8	0.037793905
46	0x3e85de44	0.26146138
47	0xbcccfcd0	-0.025022894
48	0x3d8a77bc	0.06761119
49	0x3e0e839e	0.13917395
50	0xbd5e7b24	-0.054316655
51	0x3e18822a	0.14893404
52	0xbdc5a4d4	-0.09650579
53	0xbe5047ea	-0.20339933
54	0xbe8a56eb	-0.27019438
55	0xbdb9c19a	-0.0907013
56	0xbe4dc348	-0.20094025
57	0x3dfe2180	0.12408733
58	0x3e893426	0.267976
59	0xbcfbeb40	-0.030751824
60	0xbdbfb46a	-0.09360583
61	0xbe6e6a5c	-0.2328276
62	0xbe299608	-0.16561139
63	0x3d7634c0	0.0601089
64	0x3bac0ec0	0.005250782
65	0x3e815420	0.25259495
66	0xbe8762e5	-0.26442638
67	0xbda5ad6a	-0.08089717
68	0x3db49d5c	0.088190764
69	0x3e5df298	0.21674573
70	0xbe2a9992	-0.16660145
71	0x3e237fe8	0.15966761
72	0x3c8d35a0	0.017237484
73	0x3c8eb9d0	0.017422587
74	0x3e86a138	0.26294875
75	0x3d24f1d0	0.040269673
76	0x3e75d5f0	0.24007392
77	0xbd100400	-0.035160065
78	0xbd9dc228	-0.07703048
79	0xbe3466b8	-0.17617309
80	0xbdd8d332	-0.10587157
81	0x3db07548	0.086161196
82	0x3ba114c0	0.0049158037
83	0x3e72b06c	0.23700112
84	0xbe0939fa	-0.13401023
85	0x3ced3c40	0.028959394
86	0xbdd113c2	-0.10208847
87	0x3b82e000	0.003993988
88	0x3e719df4	0.2359541
89	0x3daf4688	0.08558375
90	0x3c8be950	0.017079026
91	0x3d040c40	0.032238245
92	0x3dfa43cc	0.122199625
93	0xbe5ef264	-0.21772152
94	0xbcfeaf90	-0.031089574
95	0xbe85b58e	-0.26115078
96	0x3c8d28f0	0.017231435
97	0x3e0642ac	0.13111371
98	0xbe3112cd	-0.17292328
99	0xbe409268	-0.1880585
100	0xbe31258e	-0.17299482
101	0xbdc99c5a	-0.09844275
102	0x3d9a2638	0.07526821
103	0xbe50744c	-0.20356864
104	0x3e939374	0.28823435
105	0xbd35b880	-0.044365406
106	0xbe05f101	-0.13080217
107	0xbe87813e	-0.2646579
108	0xbdf4f240	-0.11960268
109	0x3d846874	0.06465235
110	0x3e8685fc	0.26274097
111	0xbdda08a8	-0.10646182
112	0x3e8205c8	0.25395036
113	0x3d1004c0	0.03516078
114	0x3db4b3cc	0.08823356
115	0x3dda2f34	0.106535345
116	0x3e791820	0.24325609
117	0x3c55de20	0.013053447
118	0x3d1c6088	0.038177997
119	0x3e390c0c	0.18071002
120	0xbbcef580	-0.006315887
121	0x3d3e1578	0.046407193
122	0x3dcdb148	0.10043579
123	0xbd2d1a30	-0.042261302
124	0x3dbab8e8	0.09117299
125	0xbd0c3220	-0.03422749
126	0x3ce08dd0	0.027411371
127	0x3dbde508	0.092722
128	0x3dd5efb4	0.1044611
129	0x3e583186	0.21112642
130	0xbe318fca	-0.17340007
131	0xbdc7776c	-0.09739575
132	0xbd683d84	-0.05669929
133	0x3e631a08	0.22177899
134	0x3cce4c10	0.025182754
135	0xbd9eaa7c	-0.07747361
136	0x3c5991c0	0.013279378
137	0xbd7e4304	-0.06207563
138	0x3dd7d3b0	0.10538423
139	0x3e8c6e2e	0.2742781
140	0x3d90f424	0.07077816
141	0xbe0d6af5	-0.13810332
142	0xbe8ec4e6	-0.27884597
143	0xbd5fb5f0	-0.05461687
144	0xbe7e4aec	-0.24833268
145	0x3e44e75e	0.19228885
146	0x3e275840	0.16342258
147	0xbd3c9b8c	-0.04604678
148	0x3e399a82	0.18125346
149	0x3e92891c	0.2862023
150	0x3e69b134	0.22821504
151	0x3e86ab44	0.2630254
152	0x3e05f6ea	0.13082471
153	0x3dcf02b4	0.101079375
154	0xbd816706	-0.06318478
155	0x3e1b48c0	0.1516447
156	0x3e8df4b6	0.27725762
157	0xbe720eb9	-0.23638429
158	0xbe0e83af	-0.13917421
159	0x3c684f40	0.014179051
160	0x3e812314	0.25222075
161	0x3e7121fc	0.2354812
162	0xbe6ee768	-0.23330462
163	0xbe674990	-0.22586656
164	0x3cfd36d0	0.030909926
165	0x3e47cbd6	0.19511351
166	0x3e907faa	0.282224
167	0x3dcd2ac8	0.100179255
168	0x3e808c4a	0.25107032
169	0xbc4a76e0	-0.012357444
170	0xbe935aa7	-0.287801
171	0xbe61b10c	-0.22040194
172	0x3e2707c0	0.1631155
173	0x3e180604	0.14846045
174	0xbd14e1f8	-0.036348313
175	0x3d5672a0	0.05235541
176	0x3df15c9c	0.11785242
177	0xbe3cd616	-0.18441042
178	0x3e60e75c	0.21963257
179	0xbe319689	-0.17342581
180	0x3cce0330	0.025148004
181	0xbe2c0582	-0.16798976
182	0x3cffab70	0.031209677
183	0xb9641800	-0.00021752715
184	0xbc0a90e0	-0.008457392
185	0xbe2a67a6	-0.16641101
186	0xbcc47410	-0.023981124
187	0xbcf2ff80	-0.029662848
188	0xbe3f81e0	-0.18701887
189	0x3dd9fdb0	0.1064409
190	0xbe22e52e	-0.15907738
191	0x3cd236e0	0.025660932
192	0x3e1b9940	0.15195179
193	0x3d8d1ed0	0.06890643
194	0xbdc29022	-0.095001474
195	0xbe402e0a	-0.18767563
196	0x3e924e94	0.28575575
197	0x3e4c6daa	0.19963709
198	0xbe7ebb4e	-0.24876139
199	0xbe831861	-0.25604537
200	0x3c9f73a0	0.019464314
201	0xbe23400a	-0.15942398
202	0x3e907270	0.2821231
203	0xbe850de7	-0.2598717
204	0x3e385780	0.18002129
205	0xbe088b99	-0.13334502
206	0x3d28b280	0.041185856
207	0xbd0f6f20	-0.035018086
208	0x3b2ae700	0.0026077628
209	0xbd8c3308	-0.06845671
210	0xbe72ff71	-0.23730256
211	0xbdb2b794	-0.08726421
212	0xbe21c73d	-0.1579866
213	0xbe01949e	-0.12654349
214	0xbbd7ce00	-0.0065858364
215	0xbe85b3bf	-0.26113698
216	0x3e50cc4a	0.2039043
217	0x3d4f8e98	0.050673097
218	0xbe890c1d	-0.26767054
219	0xbe7c0595	-0.24611504
220	0xbe1132c2	-0.14179519
221	0x3e7cb080	0.24676704
222	0xbe6d9e0e	-0.23204824
223	0xbe1e9b9c	-0.15489048
224	0xbdd760b2	-0.1051649
225	0x3d6717f0	0.056419313
226	0x3e12b620	0.14327288
227	0x3e3c4f6e	0.18389675
228	0x3e911d1c	0.2834252
229	0x3e2f436a	0.1711556
230	0xbd47c848	-0.048774987
231	0xbd16a228	-0.036775738
232	0xbe294389	-0.16529669
233	0x3e16b086	0.14715776
234	0x3e887d04	0.2665788
235	0xbda6e72a	-0.0814956
236	0xbe667a2c	-0.22507542
237	0xbe7efd9a	-0.24901429
238	0x3e479922	0.1949201
239	0xbd2877fc	-0.04113005
240	0x3e8bf4e6	0.2733528
241	0xbe2f74b0	-0.17134356
242	0x3df31fb0	0.11871278
243	0x3ac22100	0.001481086
244	0x3e7b4ecc	0.24541777
245	0x3dea9450	0.114540696
246	0x3cc99e00	0.024611473
247	0x3d8260d0	0.06366122
248	0x3d6c5138	0.057694644
249	0x3dd9cab8	0.10634369
250	0x3e17ab06	0.14811334
251	0x3a79b400	0.0009525418
252	0x3e92ceaa	0.28673297
253	0x3e36259a	0.17787781
254	0x3dde8cd0	0.108667016
255	0x3e5da0c0	0.21643353

fc1.bias f4 [256]
0	0xbe294a34	-0.16532212
1	0xbe8eab6c	-0.2786516
2	0x3e72ca20	0.23709917
3	0x3dae857c	0.08521554
4	0x3e640128	0.22266066
5	0x3d4dcbf8	0.050243348
6	0xbe1a766a	-0.15084234
7	0x3e2ef220	0.17084551
8	0x3e406248	0.18787491
9	0x3daaea10	0.08345425
10	0x3d788e40	0.060682535
11	0x3e7ab4d8	0.24483049
12	0xbe1bda9c	-0.15220112
13	0x3e8529d6	0.2600848
14	0x3e46a57e	0.19399068
15	0x3a652a00	0.0008741915
16	0x3dff2c4c	0.12459621
17	0x3de9ebf0	0.11421955
18	0xbe37058e	-0.17873213
19	0xbdb2cd12	-0.0873052
20	0xbe147c7d	-0.14500614
21	0x3dda39c0	0.10655546
22	0x3af87200	0.0018954873
23	0xbe0e15a9	-0.1387545
24	0xbe80a524	-0.25125992
25	0xbe35d5be	-0.17757317
26	0xbdba0e9a	-0.09084816
27	0x3ca34f80	0.01993537
28	0x3d901b04	0.07036403
29	0xbe6ebeea	-0.23315015
30	0xbda28ce6	-0.079370305
31	0x3d7d63a0	0.061862588
32	0x3e4ce00a	0.20007339
33	0x3e60523c	0.2190637
34	0xbb4a0200	-0.0030823946
35	0x3e5db10c	0.2164957
36	0xbd7a430c	-0.061099097
37	0x3d4dd9d0	0.05025655
38	0x3e68c600	0.22731781
39	0xbe7af697	-0.24508129
40	0xbe2f4488	-0.17115986
41	0xbe71a79a	-0.23599091
42	0xbe509856	-0.20370612
43	0xbe5c51ec	-0.21515626
44	0x3d9cf854	0.07664552
45	0xbe916c8d	-0.2840313
46	0xbe40d9f8	-0.18833148
47	0x3e5a7d48	0.21336854
48	0x3e891ea2	0.26781183
49	0xbd8e2704	-0.069410354
50	0x3e176e48	0.14788163
51	0xbd200280	-0.039064884
52	0x3de6948c	0.11258802
53	0x3dfab314	0.12241188
54	0x3e85483e	0.2603168
55	0xbe720956	-0.23636374
56	0xbe036650	-0.12831998
57	0xbe1663e8	-0.14686549
58	0x3d03a698	0.032141298
59	0xbd2a9c8c	-0.0416532
60	0x3e1558e8	0.14584696
61	0xbd5ade80	-0.05343485
62	0xbe3c70ea	-0.18402448
63	0xbe8eca6f	-0.2788882
64	0xbc16a440	-0.009194434
65	0x3e00fa04	0.12595373
66	0x3e7e7c44	0.24852091
67	0x3e2abec8	0.1667434
68	0x3e2e3212	0.17011288
69	0xbca7c530	-0.020479769
70	0x3e1cc0c6	0.15307912
71	0x3e1df370	0.15424895
72	0xbe82e66e	-0.2556643
73	0x3e0e3700	0.13888168
74	0xbe887be9	-0.26657036
75	0x3dc48a58	0.095966995
76	0xbe4b18f2	-0.19833735
77	0xbb9f02c0	-0.0048526227
78	0xbdbcc63c	-0.09217498
79	0xbe8c74f8	-0.2743299
80	0xbe348e97	-0.17632519
81	0x3e85c0fe	0.26123804
82	0x3be3f6c0	0.006956905
83	0x3d224f88	0.03962663
84	0x3e21a622	0.15786031
85	0x3de16564	0.11005667
86	0xbe06a114	-0.13147384
87	0x3e6e7c3c	0.23289579
88	0xbe0d8617	-0.13820682
89	0x3e24bc78	0.1608752
90	0xbe079277	-0.13239466
91	0x3d084e70	0.03327793
92	0x3dfa2cb8	0.12215561
93	0x3e93aa1e	0.28840727
94	0x3e495c74	0.19664174
95	0xbd874f80	-0.0660696
96	0xbd4318a8	-0.047630936
97	0x3e24da9c	0.16099018
98	0xbe80ffa9	-0.25195053
99	0x3e7cab5c	0.24674743
100	0xbde335d2	-0.1109425
101	0xbe1d3736	-0.15353093
102	0x3e8b19c6	0.271681
103	0xbd099a60	-0.03359449
104	0xbdcf87b2	-0.10133304
105	0xbe4af9f2	-0.19821909
106	0x3d64a118	0.055817693
107	0xbe4db71a	-0.20089379
108	0x3e59b7d4	0.21261531
109	0x3d086080	0.033295155
110	0x3e7b8f98	0.24566495
111	0x3dcd7520	0.100321054
112	0x3de8a094	0.11358753
113	0x3c9e1eb0	0.019301742
114	0x3e0655dc	0.1311869
115	0x3d96cd7c	0.07363412
116	0xbc3957c0	-0.011312425
117	0xbdb092b8	-0.086217344
118	0xbe2299ef	-0.15879034
119	0xbdf1710c	-0.1178914
120	0xbdc1b4e8	-0.09458333
121	0x3e364b92	0.17802265
122	0xbdf7e1de	-0.121036276
123	0xbdd22de8	-0.10262662
124	0x3e858038	0.26074386
125	0xbc6e6660	-0.014550775
126	0x3d0c73b8	0.034290045
127	0xbe7a8714	-0.2446559
128	0xbdf7bc72	-0.1209649
129	0xbe8e5367	-0.27798006
130	0x3b0c8000	0.0021438599
131	0xbe0d0741	-0.13772298
132	0x3e9360a0	0.28784657
133	0xbe335b7e	-0.1751537
134	0xbe7ba639	-0.24575128
135	0x3e8dabf2	0.27670246
136	0x3e8f36e8	0.27971578
137	0x3e2a83fe	0.16651914
138	0xbcf34060	-0.029693782
139	0x3e73dab0	0.23813891
140	0xbe933c95	-0.28757158
141	0x3cc29d20	0.023756564
142	0x3e6c89f4	0.230995
143	0xbd379a4c	-0.044824883
144	0x3dd4e580	0.10395336
145	0x3d9920d0	0.074769616
146	0x3dd24704	0.102674514
147	0x3e7e0de4	0.24809986
148	0x3e6e0a04	0.23246008
149	0xbe77b554	-0.24190265
150	0xbcb6bec0	-0.022307754
151	0x3dc9e690	0.098584294
152	0x3dd063f8	0.101753175
153	0xbdb4817e	-0.08813761
154	0xbe383c42	-0.17991737
155	0xbe1c15c3	-0.15242676
156	0xbe0d25aa	-0.13783899
157	0xbcf1da20	-0.029522955
158	0xbde9f574	-0.114237696
159	0x3e6f60d8	0.23376787
160	0xbd929186	-0.07156663
161	0xbe5c0136	-0.21484837
162	0x3e3f0dda	0.18657628
163	0x3df11f18	0.11773509
164	0xbe321a7a	-0.17392913
165	0x3d4caeb8	0.049971312
166	0x3e3e8ede	0.18609187
167	0x3ce88da0	0.028387845
168	0xbd9601e0	-0.073245764
169	0xbe3d818b	-0.18506448
170	0x3e838236	0.2568528
171	0xbca90a00	-0.020634651
172	0xbe8cc424	-0.27493393
173	0x3e8e6f94	0.27819502
174	0xbe19c1f2	-0.1501539
175	0x3dabda24	0.083912164
176	0x3e22ccf6	0.15898499
177	0x3e89e45c	0.26932037
178	0xbe19b1d8	-0.15009248
179	0xbe749ba0	-0.23887491
180	0xbe6d0e12	-0.23149899
181	0x3e79164c	0.24324912
182	0x3df73124	0.1206992
183	0x3d7b07f8	0.061286896
184	0xbc2efec0	-0.010680854
185	0x3d611528	0.054951817
186	0xbe0b1f14	-0.13586074
187	0xbe2f06bf	-0.17092417
188	0xbcf6f8d0	-0.03014794
189	0xbe06d829	-0.13168396
190	0xbe877841	-0.26458934
191	0x3e015d5a	0.12633267
192	0xbce678f0	-0.02813384
193	0xbd1f2dc8	-0.03886202
194	0xbd9552fe	-0.0729122
195	0xbe3feed4	-0.1874345
196	0x3d726228	0.05917564
197	0x3d882cc8	0.06649166
198	0x3e770c18	0.24125707
199	0xbe908f04	-0.28234112
200	0x3e5634b6	0.20918545
201	0x3d628300	0.055300713
202	0xbdd78c80	-0.10524845
203	0x3c981520	0.01856476
204	0x3e8d1208	0.2755282
205	0x3cbb2970	0.022846907
206	0xbe0ebcde	-0.13939235
207	0x3e04e5d0	0.12978292
208	0xbdb13d62	-0.08654286
209	0x3e3a3c32	0.18187025
210	0x3da01028	0.078155816
211	0x3e83ccc6	0.25742167
212	0x3dd20e50	0.10256636
213	0x3da31db4	0.0796465
214	0x3e7e27d0	0.24819875
215	0x3e47e1aa	0.19519678
216	0x3dde5e88	0.10857874
217	0xbd9963aa	-0.074897125
218	0x3e0271b0	0.12738681
219	0x3e5e919c	0.21735233
220	0x3e25339c	0.16132969
221	0x3dcc23d8	0.09967774
222	0xbe815eb9	-0.2526758
223	0x3e2e69b8	0.17032516
224	0x3deb555c	0.114908904
225	0xbe812315	-0.25222078
226	0x3e8eb9d2	0.27876145
227	0xbe39c0ea	-0.18139997
228	0x3e7af5a4	0.24507767
229	0xbddd43cc	-0.10803947
230	0xbda1a554	-0.07892862
231	0xbe3bac60	-0.18327475
232	0x3d849e34	0.06475487
233	0x3e36acda	0.17839375
234	0xbb0d9600	-0.00216043
235	0x3cbf38f0	0.02334258
236	0x3e2eb3fa	0.17060843
237	0xbe2b0503	-0.1670113
238	0x3e80e69e	0.25175947
239	0xbdd387e2	-0.10328652
240	0xbe373592	-0.17891529
241	0xbdf12000	-0.11773682
242	0xbe939166	-0.28821868
243	0xbe5a48b8	-0.21316803
244	0xbe423d4d	-0.18968697
245	0xbe00ec13	-0.12590055
246	0x3e8c1ac2	0.27364165
247	0x3e45d6d0	0.19320226
248	0xbe133313	-0.14374952
249	0x3e92d284	0.28676236
250	0x3d6f1dd0	0.05837804
251	0x3e226f3c	0.15862745
252	0x3e82fe0a	0.2558444
253	0x3e47552a	0.19466081
254	0x3e14b6c6	0.14522848
255	0x3e8a2c66	0.26986998

fc2.weight f4 [256, 256]
0	0xb8d1e800	-0.0001000911
1	0xbc70d2a8	-0.014698662
2	0xbbd63270	-0.0065367743
3	0xbd1c94ea	-0.038227953
4	0x3d3a0728	0.04541698
5	0xbd153ef8	-0.036437005
6	0x3d27b8a6	0.04094758
7	0xbcb077e4	-0.021541543
8	0xbd51684e	-0.051124863
9	0xba02b200	-0.00049856305
10	0xbd2e421a	-0.042543508
11	0x3d0f375e	0.03496491
12	0xbba1ef30	-0.0049418435
13	0xbc706f80	-0.014675021
14	0x3d2d59b2	0.04232187
15	0x3d6395de	0.055562846
16	0xbd3c9662	-0.046041854
17	0xbd4c89ca	-0.049936093
18	0xbd4e5d8a	-0.050382175
19	0x3cbc5dc4	0.02299393
20	0x3d20f45c	0.03929554
21	0x3cc255ac	0.023722492
22	0xbd07f492	-0.033192225
23	0xbd03c8c2	-0.03217388
24	0x3d7d5ac4	0.06185414
25	0xbd48789e	-0.048943155
26	0x3bcd7320	0.0062698275
27	0x3d6c3410	0.05766684
28	0xbce8f99c	-0.028439336
29	0x3d2826dc	0.041052684
30	0x3d4dab8a	0.05021242
31	0xbcdc5298	-0.026894853
32	0x3d07065e	0.032965057
33	0xbd6727ea	-0.05643455
34	0xbd6bb1a6	-0.057542466
35	0xbcae1470	-0.02124998
36	0xbc109178	-0.008823745
37	0x3d73428c	0.059389636
38	0x3c4531e0	0.012035817
39	0x3d510e18	0.05103883
40	0xbcf86c48	-0.03032507
41	0xbc329ce0	-0.01090166
42	0xbd0d59c8	-0.03450945
43	0xbd5bbd98	-0.053647608
44	0x3b98c8c0	0.004662603
45	0x3c88285c	0.016620807
46	0x3b46c8a0	0.0030331984
47	0xbd312974	-0.043252423
48	0xbd1c9e20	-0.038236737
49	0x3d796c2a	0.06089417
50	0xbd180024	-0.03710951
51	0x3d089da2	0.033353455
52	0x3ce39c40	0.027784467
53	0x3d586de4	0.052839175
54	0x3d088d2a	0.03333775
55	0x3cfb606c	0.030685626
56	0x3bfc8e40	0.007707387
57	0x39a82400	0.0003207028
58	0x3ae9f040	0.0017848089
59	0x3caba8a4	0.020954438
60	0xbd0a3db4	-0.03375025
61	0x3d31a5e8	0.04337111
62	0xbd314ab2	-0.043284126
63	0xbcb47308	-0.022027507
64	0x3cde7864	0.027157016
65	0xbd6bc87a	-0.057564236
66	0xbd185de0	-0.0371989
67	0x3d0c7c28	0.034298092
68	0xbd226398	-0.03964576
69	0x3bcec450	0.0063100234
70	0x3d310748	0.043219835
71	0x3d51e7a8	0.051246315
72	0x3d361da6	0.04446187
73	0x3d60fe60	0.05493009
74	0x3d59c9c8	0.05317095
75	0x3794f000	1.7754734e-05
76	0x3a78bb80	0.0009488389
77	0x3ce38be0	0.027776659
78	0xbd638808	-0.05554965
79	0x3c816f60	0.015800178
80	0xbc89ac50	-0.016805798
81	0xbac6f900	-0.0015180409
82	0xbd5e909a	-0.05433712
83	0x3c187bb0	0.009306833
84	0xbbcc7e40	-0.006240636
85	0x3d1c4c04	0.03815843
86	0x3d187ae0	0.037226558
87	0x3ccd35c4	0.025050052
88	0xbd6b98ce	-0.057518773
89	0x3c82fb18	0.015988871
90	0x3d578e34	0.05262585
91	0xbd79295a	-0.06083045
92	0xbd233cec	-0.03985302
93	0xbd2576a2	-0.04039634
94	0xbcd067d8	-0.025440142
95	0xbd5479da	-0.05187402
96	0x3d2e7bde	0.042598598
97	0xbd37d12a	-0.04487721
98	0xbc0b9650	-0.008519724
99	0xbb1bafe0	-0.0023755953
100	0xbb978500	-0.004624009
101	0xbd3e4ade	-0.046458118
102	0x3d7c8976	0.06165453
103	0x3b4db700	0.0031389594
104	0x3ca392b0	0.019967407
105	0x3ce1bbc0	0.027555346
106	0xbcd7ce4c	-0.026343487
107	0xbbcf1970	-0.006320171
108	0xbd317730	-0.043326557
109	0x3cf10e08	0.029425636
110	0xbd59f3c2	-0.05321098
111	0x3ccc3320	0.024926722
112	0xbd3b4bf8	-0.045726746
113	0x3d4eb268	0.05046311
114	0x3d28cd28	0.041211277
115	0xbcc9f78c	-0.024654172
116	0xbd652bc4	-0.05594994
117	0xbc8d2cb8	-0.017233238
118	0x3d0d9804	0.0345688
119	0xbcfa0074	-0.030517794
120	0xbd2f5536	-0.042805873
121	0x3ccbf704	0.02489806
122	0x3caccb18	0.021092936
123	0xbbf90820	-0.0075998455
124	0xbd6b7300	-0.05748272
125	0x3d4040ea	0.046936907
126	0xbd5292da	-0.05140958
127	0xbce640b4	-0.028107025
128	0x3d1122a6	0.035433434
129	0x3d4146ec	0.047186777
130	0x3cf3a5c0	0.029742122
131	0x3c7ffa60	0.015623659
132	0x3c8eb71c	0.017421298
133	0xbd76c526	-0.06024661
134	0xbc9c7090	-0.019096643
135	0xbcee92bc	-0.029122703
136	0xbcb9a564	-0.022661872
137	0xbd13e152	-0.036103554
138	0x3d060b5c	0.032725677
139	0x3d483252	0.048876114
140	0xbd5ccc76	-0.053905927
141	0xbc4dba50	-0.012556627
142	0xbc5c1e78	-0.013434999
143	0xbd7baad6	-0.06144222
144	0xbcd4c9c8	-0.025975123
145	0x3d04a502	0.032383926
146	0xbd35e714	-0.044409826
147	0xbd778de4	-0.06043805
148	0xbd52abb2	-0.051433273
149	0x3d3c4192	0.04596097
150	0x3d3306f4	0.043707803
151	0xbc844894	-0.01614789
152	0x3d1b2c82	0.037884243
153	0x3d24610a	0.040131606
154	0x3d4e9ad8	0.05044064
155	0x3c4bdbf0	0.012442574
156	0x3d636a2a	0.055521168
157	0xbd2fde82	-0.04293681
158	0xbd5fda70	-0.054651678
159	0xbd022878	-0.031776875
160	0xbd624c70	-0.055248678
161	0xbb4fc300	-0.0031701922
162	0x3a544f00	0.000809893
163	0xbd309120	-0.043107152
164	0x3cd09c00	0.025465012
165	0xbd385cd0	-0.045010388
166	0xbcff2128	-0.03114374
167	0xbd2460ae	-0.040131263
168	0xbd7a9906	-0.06118109
169	0x3d5dcbc8	0.05414942
170	0x3ba11df0	0.004916899
171	0x3c01fd78	0.007933967
172	0x3d45067e	0.048101895
173	0x3bbbb040	0.0057277977
174	0x3cd0e768	0.025500968
175	0x3bb8b480	0.0056367517
176	0x3c58b3a8	0.013226427
177	0x3ccd4084	0.025055178
178	0x3d25df22	0.040496
179	0xbc909f7c	-0.017654173
180	0xbc4120e8	-0.011787631
181	0xbd22b860	-0.039726615
182	0xbd0f5652	-0.03499443
183	0x3cb8d7f0	0.022563905
184	0xbd7c82b6	-0.061648093
185	0x3c9b9994	0.01899413
186	0xbce36d10	-0.027761966
187	0x3d3c1d44	0.045926347
188	0x3d1cd10a	0.038285293
189	0xbd0bdec0	-0.034147978
190	0x3b1e9760	0.0024199113
191	0x3d56cd98	0.052442163
192	0xbd3404f8	-0.04395005
193	0xbbe55120	-0.0069981962
194	0xbc922be8	-0.017843202
195	0xbd1389ce	-0.036020093
196	0x3d0101ba	0.031495787
197	0x3cab8218	0.020936057
198	0x3b833bc0	0.0040049255
199	0xbc47c2d0	-0.012192443
200	0x3cbe2498	0.023210809
201	0xbc759880	-0.014989972
202	0xba7c9280	-0.00096348673
203	0xbd36b9cc	-0.044610783
204	0xbd7230c6	-0.059128545
205	0xbc089a58	-0.00833758
206	0x3c97d714	0.018535174
207	0x3d146498	0.036228746
208	0xbd4619e4	-0.048364535
209	0xbd6da1a8	-0.058015496
210	0x3c242640	0.010018885
211	0xbc818fe8	-0.01581569
212	0xbd335efa	-0.04379175
213	0x3d7866dc	0.06064497
214	0x3d10b02e	0.035324268
215	0xbc039b58	-0.008032642
216	0x3cbcd8dc	0.023052625
217	0x3d30b4da	0.043141223
218	0xbc34ebf0	-0.01104258
219	0xbd173dda	-0.03692422
220	0xbc3e1148	-0.0116008
221	0xbd11a23e	-0.035555117
222	0x3b523460	0.0032074675
223	0xbd373332	-0.044726558
224	0xbc1ad528	-0.0094502345
225	0x3d01c112	0.031678267
226	0xbd328c0c	-0.04359059
227	0xbbe27d40	-0.0069119036
228	0x3d06cab6	0.032908164
229	0x3c7b7f80	0.015350223
230	0xbd58993c	-0.05288051
231	0x3d6d975c	0.058005676
232	0x3d6a08a0	0.05713713
233	0x3d62a994	0.055337504
234	0x3ca46d54	0.020071663
235	0x3bf6a420	0.0075268894
236	0xbcf3f6f0	-0.029780835
237	0x3d4e7210	0.050401747
238	0x3d19f02c	0.03758256
239	0x3c4d0fe8	0.012515999
240	0xbd43fe76	-0.047850095
241	0xbd60137a	-0.054706074
242	0x3d7e8340	0.06213689
243	0xbd094c6c	-0.033520147
244	0x3c3c56c0	0.011495292
245	0xbd5ee8c0	-0.054421186
246	0x3d4a7f06	0.049437545
247	0x3d042924	0.032265797
248	0xba809000	-0.000980854
249	0x3ced1708	0.028941646
250	0xbd17058a	-0.036870517
251	0x3c4b25c8	0.0123991445
252	0x3cd8efa0	0.02648145
253	0xbccd8508	-0.025087848
254	0x3be28140	0.0069123805
255	0x3c4c6dc0	0.012477338

fc2.bias f4 [256]
0	0x3bfe5c70	0.0077624843
1	0x3d2fdece	0.042937092
2	0x3c59b100	0.013286829
3	0x3bf143f0	0.007362835
4	0x3d44e646	0.04807117
5	0x3a9aab40	0.0011800304
6	0x3c9429f8	0.018086419
7	0xbd5896be	-0.052878134
8	0xbd7bef82	-0.06150771
9	0x3d528c54	0.05140336
10	0xbcae16cc	-0.021251105
11	0xbd1dabc4	-0.038493887
12	0xbd7aaf02	-0.061202057
13	0xbcd7354c	-0.026270531
14	0x3cb14a34	0.021641828
15	0x3bfd5680	0.007731259
16	0x3d35eb14	0.04441364
17	0x3d0f56da	0.034994937
18	0xbd7efefa	-0.062254883
19	0x3d20645a	0.039158203
20	0xba91ba00	-0.0011118054
21	0xbd3be1b2	-0.045869537
22	0xbd13a90c	-0.036049888
23	0xbd6de410	-0.058078825
24	0xbd5c307e	-0.053757183
25	0x3d0780f0	0.03308195
26	0x3d26c024	0.040710583
27	0x3d494712	0.049140044
28	0xbd753608	-0.05986598
29	0x3d1a6fb0	0.03770417
30	0xbcd0f4d0	-0.02550736
31	0xbd1301f6	-0.035890542
32	0xbd2432b8	-0.04008743
33	0xbd55fac4	-0.0522411
34	0xbc59d230	-0.0132947415
35	0xbca746b4	-0.020419456
36	0xbd36dfea	-0.044647135
37	0x3c983b88	0.018583074
38	0xbc7b0260	-0.01532039
39	0xbb38e600	-0.0028213263
40	0x3d39197c	0.04519032
41	0xbc8372e0	-0.016045988
42	0x3cbba7f0	0.022907227
43	0xbd152ada	-0.03641782
44	0x3cb5c5e8	0.022189096
45	0xbcbd6354	-0.023118652
46	0xbd27ebd2	-0.04099638
47	0xbbd965a0	-0.006634429
48	0xbbec6f70	-0.007215433
49	0xbbf1a3b0	-0.0073742494
50	0xbc7c6fb8	-0.015407495
51	0x3c131b18	0.008978628
52	0xbbf294d0	-0.0074029937
53	0xbcc17704	-0.023616321
54	0x3d127072	0.035751767
55	0x3d0ac148	0.033875734
56	0xbd225f10	-0.03964144
57	0x3c0b30c0	0.00849551
58	0xbd0ca732	-0.034339137
59	0xbcf38a48	-0.029729024
60	0xbd182344	-0.037143007
61	0xbd4757e4	-0.048667803
62	0xbd49a684	-0.049231067
63	0xbc7a47f8	-0.015275948
64	0x3c598440	0.01327616
65	0xbc90ac80	-0.01766038
66	0xbd7b7c0a	-0.06139759
67	0xbb8119a0	-0.0039398223
68	0xbc157570	-0.009122238
69	0xbcf85af4	-0.030316807
70	0xbd14f68a	-0.03636793
71	0x3c4f4440	0.012650549
72	0xbd3c53dc	-0.045978412
73	0xbd139c54	-0.036037758
74	0xbbb4a7f0	-0.005513184
75	0xbd0c07c6	-0.0341871
76	0xbd06163e	-0.032736056
77	0xbcc1a230	-0.023636907
78	0x3d650984	0.055917278
79	0xbcefee08	-0.029288307
80	0xbd3f5834	-0.046714976
81	0x3d24ed62	0.04026545
82	0xbd3e475a	-0.046454765
83	0x3c099e30	0.008399531
84	0xbbd13aa0	-0.0063851625
85	0x3a1a2280	0.00058797747
86	0xbbfee000	-0.0077781677
87	0x3d046144	0.032319322
88	0x3d1cbcce	0.038265996
89	0xbd4ce830	-0.05002612
90	0xbc3dcbc8	-0.01158423
91	0x3ce90db4	0.028448917
92	0xbcf69380	-0.03009963
93	0x3cc039b0	0.023465008
94	0x3cc27a78	0.023740038
95	0xbcb3e424	-0.021959372
96	0xbb4e3120	-0.0031462386
97	0xbd64ba44	-0.0558417
98	0xbca15abc	-0.019696586
99	0xbcb15a20	-0.02164942
100	0xbd6814b2	-0.05666036
101	0xbd37f4bc	-0.04491113
102	0xbc71c760	-0.014757007
103	0xbd379202	-0.04481698
104	0xbcd93b54	-0.026517548
105	0xbd4f309e	-0.050583474
106	0xbccbef00	-0.024894238
107	0xbd63f26e	-0.05565112
108	0x3ceaa298	0.028641984
109	0xbd6a78e2	-0.05724419
110	0xbcdb82e0	-0.026795805
111	0xbd653b0e	-0.055964522
112	0xbd11f79c	-0.03563653
113	0xbc5b9c80	-0.013404012
114	0x3cfda56c	0.030962668
115	0xbcb23b04	-0.021756656
116	0xbd04962e	-0.032369785
117	0x3bf4ba40	0.007468492
118	0x3d680136	0.05664178
119	0xbbf72c50	-0.0075431243
120	0xbca64924	-0.020298548
121	0x3d09b64e	0.033621125
122	0xbc37ff80	-0.01123035
123	0xbc9ed630	-0.019389242
124	0xbc23dce0	-0.010001391
125	0x3d245e82	0.040129192
126	0xbae8f540	-0.0017773286
127	0xbd593680	-0.05303049
128	0xbca801ac	-0.02050861
129	0x3d510c3a	0.05103705
130	0x3cb1a728	0.021686152
131	0x3d58f5f8	0.05296895
132	0x3d0f7680	0.03502512
133	0xbcf7c7f0	-0.030246705
134	0xbc603448	-0.01368434
135	0x3d337c28	0.043819577
136	0xbd3898bc	-0.045067534
137	0x3c9a0008	0.018798843
138	0x3d236d24	0.039899006
139	0x3ca2e510	0.019884616
140	0xbb6676c0	-0.0035165995
141	0x3c629f90	0.013831988
142	0xbd5736cc	-0.052542493
143	0x3d4a044a	0.049320497
144	0x3af25000	0.0018486977
145	0x3d5d67e8	0.05405417
146	0x3d47d2d2	0.04878504
147	0xbc73f498	-0.014889859
148	0xbcbcf914	-0.023067988
149	0xbd3eddc6	-0.04659822
150	0x3d60d952	0.054894753
151	0xbd3c1d68	-0.04592648
152	0x3cad7260	0.021172702
153	0xbca5dae4	-0.020245977
154	0x3caa9c04	0.020826347
155	0xbcd6ebc4	-0.026235469
156	0xbd483096	-0.04887446
157	0x3d604ae0	0.054758906
158	0xbc611f40	-0.013740361
159	0xbd6cd9a0	-0.05782473
160	0x3c176d78	0.009242408
161	0x3c1d5930	0.0096037835
162	0xbd2db43e	-0.04240822
163	0xbd5caf42	-0.053878076
164	0x3b898530	0.0041967854
165	0xbd65c944	-0.056100145
166	0xbd71e1a0	-0.059053063
167	0xbd2c00ac	-0.04199283
168	0x3d7466c0	0.059668303
169	0xbc7dd300	-0.015492201
170	0x3d3519ce	0.044214062
171	0x3d3dbf9a	0.046325304
172	0xbc832228	-0.016007498
173	0xbc029500	-0.007970095
174	0xbcf7c268	-0.030244067
175	0x3acee100	0.0015783608
176	0xbce08d20	-0.027411044
177	0xbd3c3d10	-0.04595667
178	0x3d162e98	0.03666553
179	0xbd7e9036	-0.06214925
180	0xbc135708	-0.008992918
181	0x3c298080	0.010345578
182	0xbd233bae	-0.039851837
183	0xbcebe594	-0.028795995
184	0xbd238a24	-0.039926663
185	0x3d638b82	0.055552967
186	0x3be8a150	0.007099308
187	0x3d1b9772	0.037986226
188	0xbd46091e	-0.04834854
189	0xbc1f9370	-0.009739742
190	0x3d3d6f58	0.046248764
191	0x3d48c57a	0.049016453
192	0x3c0a2f00	0.008434057
193	0xbce47964	-0.027889915
194	0xbd603d70	-0.05474609
195	0xbcad67a0	-0.021167576
196	0x3cfb4680	0.030673265
197	0xbc59e4f0	-0.013299212
198	0xbc90b7ac	-0.017665707
199	0x3d089d10	0.03335291
200	0xbd44413e	-0.047913782
201	0xbcb57e80	-0.022155046
202	0xbc891cf4	-0.016737439
203	0x3d26b75e	0.040702216
204	0x3cd31cc4	0.025770552
205	0x3d29eae6	0.041483782
206	0xbd553230	-0.052049816
207	0x3d17eecc	0.03709297
208	0x3d2b2bd6	0.041789852
209	0x3d10ed8c	0.035382792
210	0xbc429148	-0.011875458
211	0x3cc4711c	0.023979716
212	0xbd680ccc	-0.05665283
213	0x3cc68410	0.024232894
214	0xbd287508	-0.041127235
215	0xbd4ec6b2	-0.05048246
216	0x3d6680a2	0.056275018
217	0x3d083944	0.033257738
218	0xbd10f4f6	-0.035389863
219	0xbd45a73e	-0.048255198
220	0x3d3e1822	0.046409734
221	0x3d67199e	0.056420915
222	0x3c661178	0.014042251
223	0x3bf98970	0.007615261
224	0xbc85ec4c	-0.016348027
225	0xbc540e88	-0.012942918
226	0x3d430084	0.047607914
227	0xbd6a43f6	-0.05719372
228	0x3ccae408	0.024766937
229	0x3c316928	0.010828294
230	0xbbb3f940	-0.0054923594
231	0xbd6490ca	-0.055802144
232	0xbc8ceda8	-0.017203167
233	0xbc086490	-0.008324757
234	0x3d290b7e	0.041270725
235	0xbd0082a6	-0.031374596
236	0xbcd65fa8	-0.02616866
237	0x3d084ae4	0.033274546
238	0xbd0bfbe6	-0.034175776
239	0xbd319cb2	-0.043362327
240	0xbc930bc8	-0.017949954
241	0xbb83a9b0	-0.004018031
242	0x3d19a69a	0.0375124
243	0x3d047686	0.032339595
244	0x3c4159b0	0.011801168
245	0x3d157fc2	0.036498792
246	0xbd6c42ec	-0.05768101
247	0xbc9e346c	-0.019312106
248	0x3d352446	0.044224046
249	0x3d0c18ee	0.034203462
250	0x3d497f1e	0.049193494
251	0xbcf2e108	-0.029648319
252	0xbca3f120	-0.020012438
253	0xbcad1240	-0.021126866
254	0xbd24168c	-0.040060565
255	0x3ae1c280	0.0017224103

fc3.weight f4 [1, 256]
0	0xbb802cc0	-0.0039115846
1	0x3c141960	0.009039253
2	0xbd4b7c78	-0.04967925
3	0xbd56fc8e	-0.05248695
4	0xbc639dd0	-0.013892606
5	0x3bcbc4f0	0.006218545
6	0xbd4c6124	-0.049897328
7	0xbbf86200	-0.007580042
8	0xbd347fe4	-0.04406728
9	0x3d6f0626	0.058355473
10	0xbd4ef9da	-0.050531246
11	0x3d18b8c0	0.037285566
12	0xbd3e28a4	-0.046425477
13	0x3d6bdb74	0.057582334
14	0xbd79bee0	-0.06097305
15	0xbc9ec8bc	-0.019382827
16	0xbd78e350	-0.060763657
17	0x3c5a9380	0.013340831
18	0x3d05ecb2	0.032696433
19	0xbc2a64a8	-0.010399975
20	0x3d21a010	0.039459288
21	0x3ca297d8	0.019847795
22	0xbb0fa9e0	-0.0021921322
23	0x3ca0c624	0.01962573
24	0x3d46cf76	0.048537694
25	0xbd75c294	-0.060000017
26	0x3d6c46ca	0.057684697
27	0xbd250fd4	-0.040298298
28	0x3ccbc25c	0.024872951
29	0x3c4089c0	0.011751592
30	0xbd77e892	-0.06052453
31	0xbc980b94	-0.018560208
32	0xbd61eaa8	-0.055155426
33	0x3b339c60	0.002740644
34	0xbd2db2e6	-0.04240694
35	0x3d372a6e	0.0447182
36	0x3d6502ea	0.055910982
37	0x3c9c666c	0.019091807
38	0xbccbc5c8	-0.024874583
39	0xbd247f60	-0.040160537
40	0x3c9f6740	0.019458413
41	0xbd5d2dee	-0.05399888
42	0xbd48c170	-0.0490126
43	0xbd5d10f0	-0.05397123
44	0xbd760302	-0.060061462
45	0xbd46e910	-0.04856211
46	0x3d30066a	0.042974867
47	0x3aed8280	0.0018120557
48	0xbd39772e	-0.045279674
49	0xbd75e208	-0.060030013
50	0x3d512ca0	0.05106795
51	0x3bc503b0	0.0060124025
52	0x399ff200	0.00030507147
53	0x3ce2ea4c	0.027699612
54	0x3d574e74	0.052565053
55	0x3d722718	0.059119314
56	0x3c980968	0.018559173
57	0xb8ceec00	-9.866804e-05
58	0x3c49da30	0.012320086
59	0x3d3fa210	0.046785414
60	0x3b30d7c0	0.0026984066
61	0x3d1e2e82	0.038618572
62	0xbd7bae10	-0.061445296
63	0xbbe0bf70	-0.0068587586
64	0x3c679038	0.0141335055
65	0x3d1e07b6	0.038581572
66	0x3d107d8a	0.035275973
67	0x3cc61e48	0.024184361
68	0x3d7aa43c	0.061191782
69	0x3b99e980	0.004697025
70	0x3cd66754	0.026172318
71	0xbcab667c	-0.020922892
72	0xbb134920	-0.0022474006
73	0xbd691ea4	-0.056913987
74	0x3d5a4b42	0.053294428
75	0xbd1cfe72	-0.038328595
76	0x3d7e11fa	0.062028863
77	0xbd6c2fd2	-0.057662793
78	0xbcbc309c	-0.022972398
79	0x3d27dbee	0.040981226
80	0xbc6f6c28	-0.014613189
81	0x3cc4ff34	0.024047472
82	0xbd6770da	-0.056504108
83	0x3d17854c	0.036992356
84	0xbd2fd8ba	-0.042931296
85	0xbc778a90	-0.0151087195
86	0x3d637a12	0.055536337
87	0xbd322c5c	-0.043499336
88	0xbc7d5a80	-0.015463471
89	0x3d1b103c	0.03785728
90	0x3d033138	0.03202936
91	0xbd3fbf16	-0.046813093
92	0x3d758516	0.059941374
93	0xbcdb19a8	-0.026745632
94	0x3cd2f8f0	0.025753468
95	0xbc318d10	-0.010836855
96	0x3c59fee0	0.013305396
97	0x3c28df88	0.0103072
98	0x3c14da18	0.009085201
99	0xbce5e710	-0.02806428
100	0xb941de00	-0.00018488616
101	0xbd09d2de	-0.033648364
102	0x3cfb6944	0.030689843
103	0x3d6f3f00	0.05840969
104	0x3ab3d040	0.001371868
105	0x3bb7e280	0.0056117177
106	0x3c0ca2b0	0.00858371
107	0x3c427228	0.011868037
108	0xbd0d2850	-0.034462273
109	0xbd6d0678	-0.057867497
110	0x3bfde9a0	0.0077487975
111	0x3d1da204	0.03848459
112	0x3d169858	0.03676638
113	0x3d3a3f00	0.045470238
114	0x3d293048	0.04130581
115	0x3bb86b10	0.005627997
116	0x3d264c0e	0.040599875
117	0xbd344d58	-0.044019073
118	0x3c2c5ea8	0.010520615
119	0xbcd7ed58	-0.026358292
120	0x3d5ba80a	0.05362705
121	0x3d6ac0e8	0.057312876
122	0xbd0754d0	-0.033039868
123	0xbca71380	-0.02039504
124	0xbd345a92	-0.044031687
125	0x3d5a9f40	0.05337453
126	0x3d651e5a	0.05593715
127	0xbd02c7a8	-0.03192869
128	0x3d740020	0.05957043
129	0xbd0bc160	-0.034119964
130	0xbbda75d0	-0.0066668764
131	0x3d2edf64	0.04269351
132	0xbd5bd18e	-0.053666644
133	0xbc385260	-0.0112501085
134	0x3ce7d44c	0.028299473
135	0xbd0e7194	-0.034776285
136	0x3d5f77fc	0.054557785
137	0xbbd8c720	-0.0066155344
138	0x3c8a91d4	0.01691524
139	0xbcdae908	-0.026722446
140	0x3d3ad644	0.045614496
141	0xbd77e26c	-0.060518667
142	0xbd787dee	-0.06066697
143	0xbcab8c44	-0.020940907
144	0x3c98e608	0.018664375
145	0xbd1b9012	-0.037979193
146	0x3d4ea952	0.050454445
147	0xbd42b700	-0.047537804
148	0xbd10d4b2	-0.035359092
149	0xbd607fec	-0.054809496
150	0xbc9caa10	-0.01912406
151	0x3ce667b0	0.028125614
152	0x3d30b1fc	0.04313849
153	0xbd504718	-0.05084905
154	0xbd25cbae	-0.040477447
155	0xbd0eff46	-0.034911416
156	0x3d220d08	0.03956321
157	0x3bdb0600	0.006684065
158	0xbd7ca76e	-0.06168311
159	0xbc8c1300	-0.017098904
160	0xbbea86b0	-0.0071571693
161	0xbd2618f2	-0.040551133
162	0xbb55b1a0	-0.0032607093
163	0x3cbb6834	0.022876836
164	0x3cb4dcec	0.022078
165	0xbb315960	-0.0027061328
166	0xbc9a4cd0	-0.018835455
167	0x3cae73a0	0.021295369
168	0xbd76037e	-0.060061924
169	0x3d45fab4	0.048334792
170	0xbc538750	-0.012910679
171	0xbc292898	-0.01032462
172	0xbc8504b8	-0.016237602
173	0xbd61b536	-0.055104457
174	0xbd4f9c86	-0.05068638
175	0x3cc86f50	0.02446714
176	0x3bedba60	0.0072548836
177	0x3d475d90	0.048673213
178	0x3d72c922	0.059273846
179	0x3d2b0d44	0.041760698
180	0x3d630c34	0.05543156
181	0xbb404220	-0.0029336289
182	0xbd4294b4	-0.047505096
183	0x3d2c7f64	0.042113677
184	0xbd73d28c	-0.059526965
185	0xbd1e3222	-0.03862203
186	0xbccbcf3c	-0.02487909
187	0x3d48d5e8	0.049032122
188	0x3bfbbe80	0.0076826215
189	0xbbf4b630	-0.0074680075
190	0xbd0209a8	-0.03174749
191	0xbcc08794	-0.023502149
192	0xbd17a786	-0.037024997
193	0xbd230746	-0.03980186
194	0xbd406a16	-0.04697617
195	0x3c0132f0	0.00788568
196	0xbd71dbee	-0.059047632
197	0xbd6a1888	-0.0571523
198	0x39c96800	0.00038415194
199	0xbb7d9ea0	-0.0038699284
200	0x3cefa51c	0.029253535
201	0x3d547d76	0.05187746
202	0xbbdc16a0	-0.0067165643
203	0x3be71f70	0.007053308
204	0xbc1b0500	-0.009461641
205	0xbd22f600	-0.039785385
206	0x3d3a6bda	0.04551301
207	0xbcd71ecc	-0.026259802
208	0xbbf85d40	-0.0075794756
209	0xbc738f70	-0.014865741
210	0x3d240808	0.04004672
211	0x3d1bf662	0.038076766
212	0xbbaeaea0	-0.0053308755
213	0xbb7fa080	-0.0039005578
214	0xbc51b768	-0.012800075
215	0xbd015422	-0.031574376
216	0x3cedd5e8	0.029032663
217	0x3cbd8c6c	0.023138247
218	0xbd385266	-0.045000456
219	0x3d678c84	0.05653049
220	0xbca92b74	-0.020650603
221	0xbc492fd8	-0.012279473
222	0xbb092ac0	-0.0020930022
223	0xbc4ca120	-0.012489587
224	0xbd30c2f8	-0.043154687
225	0x3d2555f0	0.04036516
226	0xbc15e198	-0.009148024
227	0x3acd5400	0.0015665293
228	0xbcbbc6e0	-0.02292198
229	0xbc520a10	-0.012819782
230	0x3d31e4ca	0.04343108
231	0xbca24b7c	-0.019811384
232	0x3bff6910	0.007794507
233	0xbd6ea9b4	-0.05826731
234	0x3d3dff26	0.046385907
235	0xbd497f94	-0.049193934
236	0xbc5e4278	-0.013565652
237	0x3c077920	0.008268625
238	0x3d0a8bdc	0.033824787
239	0x3d04a102	0.03238011
240	0xbbb31c30	-0.0054660067
241	0xbbcb4150	-0.006202854
242	0xbc5ba318	-0.013405584
243	0x3cc13d30	0.023588747
244	0x3d3d64b0	0.0462386
245	0x3d60c968	0.054879576
246	0x3c329c98	0.010901593
247	0x3d3a3222	0.045457967
248	0x3d1fb7d4	0.03899367
249	0x3b154460	0.002277635
250	0xbc647810	-0.013944641
251	0xbc68f900	-0.0142195225
252	0x3d5d39ba	0.05401013
253	0xbd076044	-0.03305079
254	0xbd730f66	-0.059340857
255	0xbd4150c0	-0.04719615
