output/MAPPO/lxl/weight/critic_agent_1_ep_800.pth (torch, 280276 bytes, 5 tensors)

fc1.weight f4 [256, 12]
000000 e9 b7 46 be 34 dc 8f be de 09 4a be 56 cf 2d be
       -0.19406094 -0.2809769 -0.19730327 -0.16973624
000010 d8 2c 56 be 00 3f 17 3b b8 1e a5 bd fc ac b0 bd
       -0.20915544 0.0023078322 -0.080625 -0.08626744
000020 08 3a 84 bd 0c 70 7a bd 9a c2 e5 bd fc 36 4e 3e
       -0.06456381 -0.061142012 -0.11218758 0.20138162
000030 90 d9 24 be c4 8e c3 bd b2 43 93 be 78 7d 3b 3e
       -0.16098619 -0.09548715 -0.28762585 0.18309581
000040 87 de 44 be 0e 08 56 3e 36 25 3e be 98 5d c1 3d
       -0.19225512 0.2090151 -0.18568882 0.0944168
000050 30 1f 32 be 04 a7 22 be e8 fe 0f 3d f0 ad e1 bc
       -0.1739471 -0.15884024 0.035155207 -0.02754876
000060 64 8c 44 3e 24 59 8e be 08 50 2d be 98 b0 1c 3d
       0.1919418 -0.27802384 -0.16925061 0.03825435
000070 1e c0 e5 bd 3a 66 3d be a6 86 3e 3e 8e bc 1c 3e
       -0.11218284 -0.18496028 0.18606052 0.15306303
000080 52 26 09 3e 14 c0 3d 3e b9 6f 86 be a0 99 39 3c
       0.13393524 0.18530303 -0.26257113 0.011328131
000090 f6 dd b9 bd b4 c8 ac 3d 78 37 b7 bd 30 06 87 3c
       -0.09075539 0.084367186 -0.08946127 0.016482443
0000a0 c8 50 3e bd 3a 65 7d be 1d 31 01 be ce 1d 08 3e
       -0.046463758 -0.24745646 -0.12616391 0.1329262
0000b0 30 04 51 3d 5c 88 a7 3d 74 cf e9 bd 5c 58 83 3d
       0.051029384 0.08180305 -0.11416522 0.064133376
0000c0 90 78 8b 3c b0 f0 ca 3c dc eb 6f 3e 20 95 0a 3c
       0.017025262 0.024772972 0.23429817 0.008458406
0000d0 f0 b5 4f 3d 10 3d 44 3e 80 c9 98 bb 50 a8 70 3e
       0.05071062 0.19163918 -0.0046626925 0.23501706
0000e0 4e ca 09 be 82 66 87 be f2 97 be bd d6 6c 42 3e
       -0.1345608 -0.26445395 -0.09306325 0.1898683
0000f0 1c 81 80 be b0 b1 4d 3d c0 af a3 bc ef 1e 7d be
       -0.25098503 0.050218284 -0.019981265 -0.24718831
000100 34 3d 8d 3d 75 3a 23 be d6 00 07 3e b2 89 80 be
       0.06896439 -0.15940268 0.13183913 -0.25105053
000110 1c 82 82 be 85 df 85 be 38 c9 89 3e 28 4a 26 bd
       -0.2548989 -0.26147094 0.2691133 -0.040598065
000120 3c 4f 3f be 7e e4 12 be 48 87 cb bd 50 9c 27 3e
       -0.1868257 -0.14344975 -0.09937912 0.16368222
000130 e0 b4 8a 3e 69 4f 8a be 4c 5d 20 3e fa 47 12 be
       0.27091122 -0.2701371 0.1566059 -0.1428527
000140 c0 98 13 be 90 54 26 bd 34 32 2f 3e 10 57 99 3c
       -0.14413738 -0.04060799 0.17108995 0.018718272
000150 0e bc 36 be 10 a6 52 3e a8 4b 14 bd 2a 1d 0b 3e
       -0.17845175 0.2057116 -0.036204964 0.13585344
000160 18 7b 0b 3d c8 d9 67 3e ba 54 3e be 85 ac 6f be
       0.03405294 0.2264167 -0.18587008 -0.23405655
000170 f6 16 1a 3e f4 ed 1d 3e 12 fa ee bd 88 c3 4f bd
       0.15047821 0.15422803 -0.11668791 -0.050723583
000180 3e c0 45 be 80 7a e2 3d a0 ef 12 3c cc 71 62 bd
       -0.19311616 0.11058521 0.008968264 -0.055284306
000190 b4 1b bc 3d 9b b8 6e be 80 77 20 be 14 0c ea 3d
       0.091849715 -0.23312609 -0.15670586 0.11428085
0001a0 fa de 2a 3e 8a b4 8c 3e 82 46 9a bd 9e de 84 3e
       0.16686621 0.2748149 -0.075329795 0.25951093
0001b0 fe b5 93 be e0 e1 7c 3c 2c d3 24 bd 26 79 40 be
       -0.28849787 0.015434712 -0.04024045 -0.18796214
0001c0 98 ec b1 3d 3c b3 fc bd 8a 5d f0 bd 8c 1c b7 bd
       0.08687705 -0.12338874 -0.11736591 -0.08940992
0001d0 e0 b7 9b bc 50 d2 22 bd 18 5f a7 3d e5 43 83 be
       -0.019008577 -0.03975135 0.081724346 -0.25637737
0001e0 d0 45 9b 3c 56 15 bb bd 00 3f 6d bc 51 0a 85 be
       0.018954188 -0.09134929 -0.014480352 -0.25984433
0001f0 c2 7a 0c be 18 ea a9 bd 10 21 5a 3e bc 45 3f be
       -0.13718703 -0.08296603 0.21301675 -0.18678945
000200 e2 75 1b 3e ce 15 73 be b4 31 8a 3e 10 73 ec 3d
       0.15181687 -0.23738787 0.26991045 0.11545384
000210 03 7c 8e be e0 63 b3 bc 98 0a fc 3d 22 8f b8 bd
       -0.27828988 -0.02189821 0.12306708 -0.090116754
000220 4c 9e c7 3d e4 46 14 3e 57 00 20 be 20 e2 e6 3d
       0.097469896 0.14480168 -0.1562513 0.11273599
000230 88 7c 8f 3d f8 39 38 3e c0 5e ed 3b b8 8d 91 3e
       0.07006174 0.17990863 0.007243961 0.28428435
000240 a4 64 4e bd b4 f0 3d 3e 30 1c 1c bd 29 0e 80 be
       -0.050388947 0.18548852 -0.03811282 -0.25010803
000250 c4 9d 29 be 76 42 27 be ac f9 39 bd 08 3d 68 3e
       -0.16564089 -0.16333947 -0.04540412 0.22679532
000260 48 06 0f 3e 60 6d 59 3e ca 61 0c 3e 35 e0 8f be
       0.1396724 0.2123313 0.13709179 -0.28100744
000270 18 25 71 be 98 87 d4 3d 9c 8a 5a 3e de be 24 3e
       -0.23549306 0.10377425 0.21341938 0.16088435
000280 ea 2a 80 3e b0 37 6c 3e 38 7a 7b 3e 30 f3 bf 3d
       0.2503274 0.23068118 0.24558342 0.09372556
000290 2a 0c 06 3e b6 e1 8b 3e d0 5a 4d 3d 72 86 78 be
       0.13090578 0.2732064 0.050135434 -0.24270037
0002a0 e5 14 3f be cc 70 8f 3e 2c fb 5e 3e 9c 35 5b 3e
       -0.18660314 0.28015745 0.21775502 0.21407169
0002b0 3c c5 43 3e b8 83 11 3e 29 f7 72 be 10 0b cb 3d
       0.19118208 0.14210403 -0.23727097 0.099142194
0002c0 08 6d 78 3e c8 7b 38 3e d0 48 e1 bc f5 30 83 be
       0.24260342 0.18015969 -0.02750054 -0.2562329
0002d0 58 49 4a 3d ff a5 25 be 43 a0 85 be 19 f2 0b be
       0.049386352 -0.16176604 -0.26098832 -0.13666572
0002e0 f8 37 08 3d 58 56 5e 3e 80 ce 8b bd 30 40 23 bd
       0.0332565 0.21712625 -0.06826496 -0.039856136
0002f0 74 3c 3f be 50 ef 49 3e 58 01 77 3e 70 68 93 3d
       -0.18675405 0.19720197 0.24121606 0.07197654
000300 a8 11 41 bd 58 9d b1 bd 40 76 0f bd 3d 8a 6f be
       -0.04713598 -0.08672589 -0.03502488 -0.23392577
000310 b0 f2 05 3e 74 01 f1 bd 79 ec 5a be d8 a3 b2 bd
       0.13080859 -0.11767855 -0.2137927 -0.08722657
000320 b0 78 b1 bd 80 24 82 3d 88 47 a6 bd 1b e6 13 be
       -0.086655974 0.06354618 -0.08119112 -0.14443247
000330 bc 0a fc 3d b8 53 10 be 02 d8 21 3e e4 ae f1 3d
       0.12306735 -0.14094436 0.15805057 0.11800936
000340 c6 2b 85 3e b1 15 93 be 08 22 90 be 16 36 06 be
       0.2600996 -0.28727487 -0.28150964 -0.1310657
000350 5e 7f 86 be 58 df 0f bd c8 f0 79 3e 6c 1e 7b 3e
       -0.26269048 -0.035125107 0.24408257 0.24523324
000360 80 4b ac bb ce 18 20 3e a4 5c 83 3e fe d2 53 be
       -0.0052580237 0.15634462 0.25656617 -0.20685956
000370 46 f7 55 be ce e9 3b be bd da 11 be 4c 74 37 bd
       -0.20895109 -0.18350908 -0.14243598 -0.044788644
000380 ec b5 27 3e 12 18 18 be a0 2b 0b 3c aa 0c e0 bd
       0.16377991 -0.14852932 0.008494288 -0.109399155
000390 47 83 03 be e0 48 78 3c 70 b5 80 3c 72 92 e0 bd
       -0.12843047 0.0151540935 0.015711516 -0.10965432
0003a0 f2 a9 81 be 88 d9 79 be 3c 06 8b 3e 00 be 90 3e
       -0.2532497 -0.24399388 0.27153194 0.28269958
0003b0 00 a6 94 bd 18 18 84 be 00 3b f1 3a fc bd c5 bd
       -0.072582245 -0.25799632 0.0018404424 -0.09655377
0003c0 7c bf 9f bd ca af 86 bd 10 d0 cc 3c 68 72 77 3e
       -0.078001946 -0.06576498 0.025001556 0.24164736
0003d0 88 69 65 3e 28 53 58 be 6c 85 f9 3d f2 58 2a 3e
       0.22403538 -0.21125472 0.12183651 0.16635492
0003e0 ee 3f 17 3e a2 d6 73 be fc 5c 61 bd d0 2f 4f 3d
       0.14770481 -0.23812345 -0.055020317 0.050582707
0003f0 34 be 04 3e 66 ed 64 be 60 ba 20 3e a4 59 83 3e
       0.12963182 -0.22356185 0.15696096 0.25654328

fc1.bias f4 [256]
000000 d1 68 0d be 8c f4 2d 3e c0 b1 ec 3d ea 01 8b be
       -0.13809516 0.16987818 0.115573406 -0.27149898
000010 98 8f 13 3d b0 55 33 3d 62 a6 82 be 85 85 80 be
       0.036025614 0.04378289 -0.25517565 -0.25101867
000020 40 04 a0 3c b8 5b 01 3d 94 b6 40 bd 24 1b 48 be
       0.019533277 0.03158161 -0.04704912 -0.19541603
000030 00 29 48 be 68 b4 35 3e 18 08 79 3e 1a 73 bd bd
       -0.1954689 0.17744601 0.24319494 -0.092504695
000040 04 07 ca 3d bc d7 b0 3d 3c 26 75 be b8 e7 34 be
       0.098646194 0.08634898 -0.23940367 -0.17666519
000050 24 d1 5f bd 80 38 1c bb 1c 88 68 3e 78 26 29 3e
       -0.05464281 -0.0023837388 0.22708172 0.16518581
000060 80 57 f0 3d 56 73 0d be 1a 70 52 be 58 83 f4 3d
       0.11735439 -0.13813528 -0.20550576 0.11939114
000070 99 3c 89 be 20 14 33 be f2 2e 35 3e 2a 58 7e be
       -0.26804045 -0.17488146 0.1769369 -0.2483832
000080 40 c6 8b 3b d2 52 3e be 3e d5 00 be 8c a8 2b 3e
       0.0042655766 -0.18586281 -0.12581345 0.16763514
000090 b0 44 d7 bc 06 2b 93 3e 9a 2f 38 be c0 84 50 3c
       -0.02627787 0.28743762 -0.17986909 0.012726963
0000a0 a0 42 c4 bd d2 91 37 3e e6 bb 13 3e 44 c5 61 bd
       -0.0958302 0.1792672 0.14427146 -0.055119768
0000b0 84 55 05 3e d0 48 a6 bc 67 10 0f be 80 1f 72 bc
       0.13020903 -0.020298392 -0.13971101 -0.014778018
0000c0 e5 1c 09 be 1b f1 14 be b8 a9 7f bd 7a e9 35 3e
       -0.13389929 -0.145451 -0.062417716 0.17764845
0000d0 88 10 82 bd 8a 4c 80 3e f4 c8 59 be 48 f1 27 3e
       -0.06350809 0.25058395 -0.21268064 0.16400635
0000e0 d4 b4 62 be 5b f1 2c be b8 ca f2 3d e8 01 6e 3e
       -0.22139293 -0.16888945 0.11855072 0.23242915
0000f0 40 51 8a 3e 40 1b ba 3d 40 39 20 3d 20 21 c1 bc
       0.27015114 0.09087229 0.039117098 -0.023575366
000100 9c 47 80 be f8 e3 aa 3d a0 53 b6 3d 42 79 fd bd
       -0.25054634 0.08344263 0.08902669 -0.12376644
000110 10 36 0a 3e 7e 81 9c bd 00 32 20 bc f0 d0 56 3d
       0.13497186 -0.07641886 -0.009777546 0.052445352
000120 20 97 43 3c 40 f8 85 3d eb f6 34 be 18 f7 89 be
       0.0119378865 0.065414906 -0.17672317 -0.2694633
000130 54 b0 1b 3e af eb 89 be f4 f2 2c be f2 37 4f 3e
       0.15203983 -0.26937625 -0.16889554 0.20236185
000140 08 b4 16 bd c0 34 e0 bc 80 bf 40 be 00 69 54 3c
       -0.036792785 -0.027368903 -0.18823051 0.012964487
000150 58 c8 72 3e 90 d6 76 be 40 cc a0 bb 5a c3 82 3e
       0.23709238 -0.24105287 -0.004907161 0.25539666
000160 65 d0 23 be ee e3 0f 3e c0 e9 13 bc b5 5d 78 be
       -0.15997465 0.14051792 -0.009027898 -0.24254496
000170 c0 b9 9b bb 10 7f ef bd b0 5f 8d 3e 58 01 52 bd
       -0.0047523677 -0.11694157 0.27612066 -0.051270813
000180 18 91 b2 bd f1 03 48 be 44 ad f0 3d 42 47 30 be
       -0.08719081 -0.19532754 0.11751798 -0.17214683
000190 a0 79 96 3c 58 3d 12 bd 0a 18 18 3e 08 0a 71 be
       0.018368542 -0.035703033 0.1485292 -0.23538983
0001a0 bc c1 69 3e aa 28 3a be d0 bf 22 3e 48 11 a2 3d
       0.2282781 -0.18179575 0.15893483 0.079134524
0001b0 08 2c cc 3d 24 fe 59 3e 50 cc 42 be 3c 8d 71 be
       0.09969336 0.21288353 -0.19023252 -0.23589033
0001c0 73 db 8a be 8c 52 6c 3e 52 df 44 3e 6c be d3 bd
       -0.2712055 0.23078364 0.19225815 -0.103390545
0001d0 06 bc 29 be 80 78 36 3e c4 67 e1 3d c8 42 36 3d
       -0.16575631 0.17819405 0.1100612 0.04449728
0001e0 78 ca e1 bd e2 68 2b be 8c c9 75 bd 70 76 2b 3d
       -0.11024946 -0.16739228 -0.060006663 0.041860998
0001f0 6c 5c 0b 3e 76 0d 5d be 92 42 1d 3e 30 9c f8 3c
       0.13609475 -0.21587166 0.15357426 0.030347914
000200 52 a1 6c be e6 9d ac bd 70 57 12 3e 50 0d df 3d
       -0.23108414 -0.08428554 0.14291167 0.10891211
000210 50 e0 7c 3e 50 cc 69 3e 50 f0 72 3d 20 38 14 bc
       0.24694943 0.22831845 0.05931121 -0.009046584
000220 f0 af e7 3d 9c e7 88 3e 5f 88 91 be 08 ef 2b 3e
       0.11312854 0.26739204 -0.28424355 0.16790402
000230 f8 4c 53 3e 60 f3 5d 3e 4c 27 82 be 18 5d 7e 3e
       0.2063483 0.21674871 -0.25420606 0.248402
000240 60 ea dd bc 9a 83 32 3e de b1 ec bd 30 7e 2c 3d
       -0.027089298 0.17433015 -0.11557363 0.04211253
000250 02 f9 ef bd e4 65 64 be 8c 1a 2e be 6d 23 93 be
       -0.11717416 -0.22304493 -0.17002314 -0.28737965
000260 c0 22 6a 3c 04 00 8f be 50 81 76 3e fc c6 c6 3d
       0.014290512 -0.279297 0.24072766 0.09705922
000270 e6 d3 bd bd f4 bb 8d be 5e e9 2a 3e 10 b2 d7 3c
       -0.09268932 -0.2768246 0.16690585 0.026330024
000280 fe cf 7f be 34 2d 85 be 40 32 62 3e 92 93 5f be
       -0.24981686 -0.2601105 0.22089481 -0.21833637
000290 14 df 58 3e 1c 94 4d bd 14 5d cc 3d 6c 27 77 3e
       0.21178848 -0.050190076 0.09978691 0.24136132
0002a0 ec a6 88 3e de f5 21 3e 5d d2 89 be 14 07 59 3e
       0.2668985 0.15816447 -0.26918307 0.21194106
0002b0 4a 72 84 3e cc c1 54 be ea 82 26 3e 10 19 80 3e
       0.25868446 -0.20777053 0.16260877 0.2501912
0002c0 7c a8 90 3e 84 89 22 3e 58 88 4b 3e 64 26 58 3e
       0.28253543 0.1587277 0.1987623 0.21108395
0002d0 bf 53 35 be 36 7d a9 bd 48 e4 56 3d 96 d5 b5 bd
       -0.17707728 -0.08275835 0.0524638 -0.08878629
0002e0 86 08 30 be 50 b7 47 be eb 66 06 be 28 f9 d3 3d
       -0.17190751 -0.19503522 -0.13125198 0.10350257
0002f0 60 52 d9 3d e6 17 75 be 2a b0 ac bd 8e e8 28 3e
       0.10611415 -0.23934898 -0.08432038 0.16494963
000300 04 f4 7e 3e 08 88 2b 3d 2c c8 51 3e ce 3e 22 3e
       0.24897772 0.041877776 0.20486516 0.1584427
000310 28 96 14 3e ba 7d 3d 3e a8 7c 29 be 80 2d 52 be
       0.14510405 0.18504992 -0.16551459 -0.2052517
000320 9c db 5f 3e d2 ee 4d be e8 b9 31 3e 8c 93 48 be
       0.21861118 -0.20110634 0.17356074 -0.19587535
000330 80 e6 7e be 30 a0 50 3d e4 60 78 3e 5c f2 b4 3d
       -0.24892616 0.050934017 0.24255711 0.08835289
000340 ac 09 75 3e e6 90 29 3e 11 bd 40 be 30 db 9b 3c
       0.23929471 0.1655918 -0.18822123 0.019025415
000350 40 93 d3 bd c0 90 f2 3d fe 15 53 3e a8 90 0a 3e
       -0.1033082 0.11844015 0.20613858 0.13531744
000360 e0 21 36 bd d0 7d 2b 3d 78 9f 3a 3e 6e 70 3c 3e
       -0.0444659 0.04186803 0.18224895 0.18402264
000370 6a 7e 1b 3e 00 3f aa 3b 96 31 ea bd ac b3 f5 3d
       0.15184942 0.0051954985 -0.11435239 0.1199716
000380 08 d7 2c 3d 8a 49 08 be d5 8b 78 be 5e a7 d7 bd
       0.042197257 -0.13309303 -0.24272092 -0.1052997
000390 64 eb 47 bd dc 85 61 3e a0 91 37 be 7c 5a 2c be
       -0.04880847 0.2202372 -0.17926645 -0.16831392
0003a0 ec 0e f0 3d 54 68 c0 3d 36 72 38 be 34 b5 e3 3d
       0.11721596 0.09394899 -0.18012318 0.11118546
0003b0 98 dd c9 3d 00 66 4e 3b 64 58 42 3e 96 7f 3d 3e
       0.09856719 0.0031493902 0.18979031 0.18505701
0003c0 50 1c de bc 40 57 b1 bd ba d0 21 3e 40 11 b0 3d
       -0.02711311 -0.0865922 0.15802279 0.0859704
0003d0 5a 87 86 3e 88 d0 32 be 70 c3 51 be c0 3c cc 3d
       0.2627514 -0.17462361 -0.2048471 0.09972525
0003e0 d6 fb 89 3e 58 32 4e bd 60 4a 43 3c 00 25 7c 3d
       0.26949948 -0.05034098 0.011919588 0.061558723
0003f0 94 57 f7 3d 60 f2 fd bc f0 e1 84 3e 60 e7 e2 3c
       0.12077251 -0.030999362 0.25953627 0.027698219

fc2.weight f4 [256, 256]
000000 42 0d 2c bd f8 d5 ac 3c 20 8a 05 3c e0 6d 14 bb
       -0.04200483 0.021098122 0.008150607 -0.0022648498
000010 b8 59 86 bc ce 9f 09 bd 9e b1 64 bd a0 13 b2 3b
       -0.016400203 -0.033599667 -0.05583345 0.0054344684
000020 b2 dc 4f 3d 9c ae 17 bd e8 9f cd bc c4 76 7f 3d
       0.05074758 -0.037031755 -0.025100663 0.062369123
000030 cc 33 a5 bc f4 d1 12 bd dc c2 26 3d fe 14 39 bd
       -0.0201663 -0.03584476 0.040713176 -0.045186035
000040 00 a5 f1 3b 00 e0 e8 b7 5c 29 7d bd be 69 6e bd
       0.007374406 -2.7760863e-05 -0.06180702 -0.058206312
000050 44 ad 29 bd 5c b7 2c bd 40 24 5b bd 88 73 84 bc
       -0.041425005 -0.042167053 -0.053501368 -0.01616837
000060 98 d9 ca bc 30 af 38 3c 9a 75 36 3d f6 bc 76 bd
       -0.02476196 0.011272237 0.044545747 -0.0602388
000070 04 86 3c bd 38 9c 0d 3c a0 d5 39 3c b4 16 6f 3d
       -0.046026245 0.0086432025 0.011342436 0.05837126
000080 b8 63 23 3c 34 0e 74 3d 34 67 1a bd c0 22 f6 3a
       0.009972505 0.059583858 -0.03769608 0.0018778667
000090 14 8a 19 3d 20 89 e7 bb 6c e2 ab bc 70 21 fc bb
       0.037485197 -0.007065907 -0.02098199 -0.0076944157
0000a0 cc 7f 78 bd 38 42 92 3c 08 cd 7e bd 10 9b 0f 3c
       -0.06066875 0.017853841 -0.06220725 0.008764997
0000b0 74 02 8b 3c f0 27 18 3c 40 25 f0 bb 30 81 bd bb
       0.016968943 0.009286866 -0.0073286593 -0.0057832226
0000c0 84 43 76 bd c8 16 58 3c ca 25 5c 3d 24 73 5c 3d
       -0.06012298 0.013189025 0.053746976 0.053820744
0000d0 00 24 f3 ba 14 6c 5a bd f2 74 1a 3d 70 14 52 3d
       -0.0018550158 -0.053325728 0.037709184 0.051289022
0000e0 36 a9 39 3d 88 ec 51 3c f0 5e 75 3d b4 7c 6b bd
       0.045327388 0.012812741 0.059904993 -0.057491973
0000f0 70 ef f1 3c 7e 77 53 bd 4c a9 d4 3c 9e 9d 16 bd
       0.029533118 -0.05162763 0.025959633 -0.03677141
000100 f0 85 57 3c ce 95 19 3d 6e 98 43 bd 7e 87 63 3d
       0.013154492 0.03749638 -0.04775279 0.055549137
000110 e4 7b bb 3c 74 4f 29 bd 00 b9 94 ba 9a 38 29 bd
       0.022886224 -0.041335538 -0.0011346638 -0.041313745
000120 d0 11 3c 3c 98 68 91 bc e0 15 54 3b e0 84 6f bc
       0.011478856 -0.01775007 0.0032361671 -0.014619082
000130 c4 72 e3 3c 00 41 b7 b9 80 9e f0 3b e0 a2 20 3c
       0.027764685 -0.0003495291 0.0073431134 0.009804457
000140 90 9b bd 3b 16 55 28 bd a2 19 58 bd 54 d3 57 3d
       0.0057863668 -0.04109677 -0.05275882 0.052691773
000150 74 fe 28 bd 54 0e 28 bd 92 c8 56 bd 3c 35 f4 bc
       -0.04125829 -0.04102929 -0.052437373 -0.02981054
000160 f0 67 ec bb 98 9c 30 bc 00 40 0d bc 48 e1 7f 3d
       -0.0072145388 -0.010779522 -0.008621216 0.062470704
000170 06 00 6e 3d 10 47 a3 bc d0 e4 fb 3c b8 8d fa 3c
       0.05810549 -0.019931346 0.030748755 0.030585155
000180 0e 49 3f 3d 04 51 76 3d 50 11 cf bb d4 a2 f2 bc
       0.04670053 0.060135856 -0.0063192025 -0.029618658
000190 fa 92 78 bd 32 cd 20 bd 52 d8 1e bd 5c 17 2e 3d
       -0.060687043 -0.03925819 -0.038780518 0.042502746
0001a0 b8 05 32 bc 6a 15 19 bd a0 40 2b bc c4 68 a8 3c
       -0.010865621 -0.037373938 -0.0104524195 0.020557769
0001b0 34 50 8b 3c f0 bc 65 3d f6 bc 5e 3d 88 e1 3d bd
       0.017006017 0.056088388 0.054379426 -0.04635766
0001c0 00 11 6a bb 10 ca 93 3c 6c a5 e0 bc 18 90 94 bc
       -0.00357157 0.018040687 -0.02742263 -0.018135116
0001d0 a0 b2 21 3b 6e 67 61 3d 42 c0 5c 3d 34 f5 09 3d
       0.002467312 0.05503028 0.05389429 0.03368111
0001e0 0c 92 43 bd 8c 8d 3b 3d 80 bb 0b ba 9e 5a 3f 3d
       -0.047746703 0.045789286 -0.0005330369 0.04671728
0001f0 6e 27 54 3d 36 74 5e bd c0 6b 56 3c 90 e5 bd bb
       0.051795416 -0.054310046 0.013087213 -0.0057951882
000200 80 60 09 3a 2e 44 6f 3d 46 e8 44 bd 68 e9 86 bc
       0.0005240515 0.05841463 -0.048073076 -0.016468719
000210 00 57 2b bd 0e 6f 52 3d 40 c0 91 bb 0e b3 04 3d
       -0.041831017 0.05137544 -0.004447967 0.032397322
000220 1e bd 4d 3d d8 1b 5a 3c 08 4b 80 3c 34 f5 1b bd
       0.050229184 0.0133123025 0.015660778 -0.03807564
000230 1c aa 34 bd 30 fc 07 bc ce 11 59 3d d0 4c 84 bb
       -0.04410754 -0.008299872 0.052995495 -0.004037477
000240 60 0f 0f bc 50 fd 63 3d e4 58 c1 3c 78 f8 55 3d
       -0.008731693 0.0556615 0.023601957 0.05223891
000250 58 7e 35 bc c4 82 04 3d a0 b5 87 bb 38 5b 4f bd
       -0.011077486 0.03235127 -0.0041415244 -0.050624102
000260 b2 c5 5d 3d fc 7d c7 3c 08 08 17 3d 76 da 52 bd
       0.054143615 0.024352066 0.036872894 -0.05147787
000270 22 35 12 bd 14 1c 82 bc 40 ee 2f 3b 1e 43 40 bd
       -0.035695203 -0.01588253 0.002684489 -0.046939008
000280 b4 3a eb 3c 24 24 ff bc f0 c0 ff 3c 4c a3 71 3d
       0.028714515 -0.031145163 0.03121993 0.058993623
000290 02 fd 2c 3d cc 3b 25 bd 7a f3 11 3d 40 f8 14 3b
       0.042233475 -0.04034023 0.035632588 0.0022730976
0002a0 00 d0 fe b8 78 3d 2f bc c0 3a d8 bc 64 be c2 3c
       -0.00012150407 -0.010695808 -0.026395202 0.023772426
0002b0 0c af 7b bd d0 5b 5c bc e0 32 03 bd 4a 61 17 bd
       -0.061446235 -0.013449624 -0.03203094 -0.036958016
0002c0 1c 78 70 bd 80 4c 22 bb c0 40 73 3c 40 20 3b 3d
       -0.058708295 -0.0024764836 0.014846981 0.045685053
0002d0 b8 f6 0b 3d 0c fb 03 3d 0a ef 6e bd 98 c1 59 3c
       0.034170836 0.03222184 -0.058333434 0.013290785
0002e0 44 12 b8 3c c0 e6 82 bb 24 2c 8e 3c e0 ab 23 bd
       0.022469647 -0.0039947927 0.017355032 -0.039958835
0002f0 bc 82 70 3d 00 62 b1 3a 18 ec 5d bc ac 5d d9 3c
       0.058718428 0.0013533235 -0.013545059 0.026533924
000300 58 43 12 bd 50 61 8e 3b aa 1c 08 3d 30 d6 49 bd
       -0.035708755 0.0043450966 0.03323046 -0.04927653
000310 50 ce 69 bd 78 f8 26 bc c8 70 15 3d 40 09 64 bc
       -0.05708152 -0.0101910755 0.03648451 -0.013918221
000320 4c a6 06 3d 30 25 41 3c 74 f6 12 3d e8 6c 2d 3d
       0.032873437 0.011788651 0.035879567 0.04234019
000330 d6 2e 6f bd 00 d1 bd 3a c8 cc 9d 3c c0 dc 4d 3b
       -0.058394276 0.0014481843 0.019262686 0.0031412095
000340 f6 4e 2e 3d fe 41 5c 3d 80 78 31 ba e8 f1 25 3c
       0.04255577 0.053773873 -0.000676997 0.010128476
000350 b8 9e 0c 3d c8 ec 2e 3c 76 17 3c bd 4e 11 67 3d
       0.034331053 0.01067657 -0.04592081 0.056412987
000360 2c 0e 11 3d 62 c5 46 bd b2 1c 15 bd 7a dd 56 3d
       0.035413906 -0.048528083 -0.03640432 0.05245731
000370 dc 09 e0 3c ba 18 22 bd 60 7d ef 3b 42 3e 72 bd
       0.027348451 -0.039574362 0.007308647 -0.059141405
000380 ba 69 0a 3d 54 84 ed 3c 20 ac da bc e4 5e ad 3c
       0.033792235 0.028993763 -0.026693404 0.021163411
000390 de 83 39 bd ce b3 0a bd 24 82 00 bd 5a 70 72 bd
       -0.045291774 -0.03386288 -0.03137411 -0.059189178
0003a0 fc 79 46 bd b8 c4 4d bc 72 b4 3f bd 9a a5 72 3d
       -0.048456177 -0.012559108 -0.046802945 0.05923996
0003b0 68 26 6e bc 44 6b 9d 3c b4 b0 b0 bc c6 16 64 3d
       -0.014535524 0.019216187 -0.021568634 0.05568578
0003c0 dc 34 5e bd 5c 51 8b 3c 90 2a f7 bb 80 27 b5 3c
       -0.05424963 0.017006569 -0.0075429156 0.022113562
0003d0 00 a8 cb bb 00 ad 4c ba d0 91 4e 3c 00 8d 69 bd
       -0.0062150955 -0.00078077614 0.012608007 -0.057019234
0003e0 40 f7 c8 ba ba 0d 14 bd 78 8a 00 3d 34 98 2c bd
       -0.0015332475 -0.036145903 0.031382054 -0.04213734
0003f0 d0 38 e5 3b d0 1e 0b 3d bc 3b 9b bc dc 55 fe 3c
       0.006995298 0.033964932 -0.018949382 0.0310468

fc2.bias f4 [256]
000000 e0 59 ed 3c f8 4f cd 3c 20 5a 1d bb a8 be f0 bc
       0.02897352 0.025062546 -0.0024010018 -0.029387787
000010 e0 65 0c bc c0 44 91 3b 6c 3b 55 bd 1a 33 16 bd
       -0.008569211 0.0044332445 -0.052058622 -0.036669828
000020 c0 64 cb 3a 00 59 ea 3b 10 98 99 3b 2a 9c 3b bd
       0.0015517697 0.007151723 0.0046873167 -0.045803227
000030 8a d3 5d bd 88 a2 cd bc 2e c7 2c bd b2 18 11 bd
       -0.054156817 -0.025101915 -0.04218214 -0.035423942
000040 04 fb 97 3c d8 53 cf 3c 9c 3a 85 bc 10 89 a9 3b
       0.01855231 0.025308535 -0.016263299 0.00517381
000050 9a 7b 5a bd 88 ba 8c bc 38 00 cb bc 02 11 59 bd
       -0.053340532 -0.017178789 -0.024780378 -0.052994736
000060 20 88 1d 3b 64 1e 2f bd 30 d3 b9 3c d4 0f 9e bc
       0.0024037436 -0.042753592 0.02268371 -0.019294657
000070 cc c3 2c bd 40 6f f1 3b 24 ed 96 3c 38 e9 9b 3c
       -0.042178914 0.0073679984 0.018423624 0.019032106
000080 ec 04 42 bd 82 66 1a 3d c0 9f 97 bb d0 b0 1e 3d
       -0.047367975 0.037695415 -0.004627198 0.03874284
000090 b4 5e 23 3d ba cd 50 3d 32 95 70 3d 3e 03 57 3d
       0.039885238 0.050977446 0.058736034 0.052493326
0000a0 ac b6 23 3d e8 bb f2 3c 90 16 fa bc 5c 76 94 bc
       0.03996913 0.029630616 -0.030528337 -0.018122844
0000b0 3a 67 79 bd 68 36 10 3c 44 61 8d bc 00 f0 e1 bc
       -0.06088946 0.008802034 -0.017258294 -0.027580261
0000c0 10 81 df bc 3a 9f 68 3d ea 4a 5e bd 84 52 50 bd
       -0.027283221 0.056792475 -0.054270662 -0.050859943
0000d0 6a cf 4d 3d 58 fd 03 bd 18 e0 8e bc 20 09 16 3b
       0.050246634 -0.03222403 -0.01744084 0.0022893623
0000e0 74 38 41 bd b2 f8 7c 3d b2 43 14 3d 9e e3 20 3d
       -0.04717298 0.06176061 0.03619737 0.039279573
0000f0 64 37 9c bc 0c c7 ad bc 6a 81 60 bd 28 48 79 3c
       -0.019069381 -0.021213077 -0.05481092 0.015214957
000100 74 1a 96 bc 40 d5 47 bc 9c 2e a6 bc 98 30 e3 3c
       -0.01832316 -0.012196839 -0.020285897 0.027733132
000110 b8 24 b3 3c 70 9b a5 bb 64 96 5a 3d a6 3c 64 3d
       0.021868095 -0.00505393 0.05336608 0.0557219
000120 0c 8f 52 3d 44 19 c5 bc 0e 86 69 bd 50 e1 d4 3b
       0.05140595 -0.0240599 -0.05701261 0.006496586
000130 68 21 fb 3c b8 0f 03 3c 0c be 2b bd a0 f5 ee 3c
       0.030655578 0.007999353 -0.04192929 0.029169858
000140 c0 40 40 bc 78 92 05 3d d4 02 b5 3c 7c e8 89 3c
       -0.011734188 0.032610387 0.022096075 0.01683449
000150 b8 db 5d bd 00 f2 46 bb f8 5d 60 3d 50 46 42 3c
       -0.05416462 -0.0030356646 0.054777116 0.011857584
000160 16 fc 00 bd 50 15 74 3c dc c0 30 3d 82 5f 42 3d
       -0.031490408 0.014897659 0.043152675 0.047454365
000170 80 4f 06 bb 4a e0 4e bd 84 6a 3a bd 64 79 a4 bc
       -0.0020494163 -0.050506867 -0.045511737 -0.020077415
000180 ac dc 07 3d 78 cc 41 bd 4c 64 30 3d 28 de 01 bd
       0.033169433 -0.047314137 0.0430644 -0.031706005
000190 a4 bf 01 bd e0 17 62 3d 26 e3 0b bd 78 b3 7c 3c
       -0.031676903 0.05519855 -0.034152173 0.015423648
0001a0 b8 19 95 bc 0c d7 75 bd c2 58 48 bd 70 64 f6 3b
       -0.01820074 -0.060019538 -0.04891277 0.0075192973
0001b0 28 3f ae bc fc 9d 74 bd 36 4d 52 bd b6 b1 77 3d
       -0.02127035 -0.05972098 -0.051343165 0.060472213
0001c0 0a c3 03 3d 98 1b 4a 3d a0 2c 0c bb c0 b6 bb 3c
       0.032168426 0.04934272 -0.0021388903 0.02291429
0001d0 ac c9 eb bc 68 d6 95 bc 38 3b 64 3d 7e cb 0d bd
       -0.028782688 -0.018290713 0.055720538 -0.034617893
0001e0 76 18 21 bd 98 76 34 bc 00 3d 67 3b 1c 1d 06 3d
       -0.03932997 -0.011014603 0.0035284162 0.032742605
0001f0 74 d4 76 3d 36 1f 38 bd 28 3e 32 bd f8 fa 94 3c
       0.060261205 -0.04495164 -0.043516308 0.018186077
000200 3e 27 20 3d 00 04 cf 39 3c 8c 40 bd b4 0c c1 3c
       0.039099924 0.00039485097 -0.047008738 0.023565628
000210 ce 30 22 3d 34 51 1d bd 34 cb 90 bc c0 57 f1 ba
       0.039597325 -0.03840752 -0.01767502 -0.0018412992
000220 48 f9 50 bc fc 8a 6f 3d c0 2b 14 3c 40 14 f5 ba
       -0.012754746 0.058482155 0.009043634 -0.0018698052
000230 c4 d8 7b bd 2c 86 0e 3d 2e 94 59 bd ca c0 35 bd
       -0.06148602 0.034795925 -0.05311983 -0.04437331
000240 4a 08 1d bd 1e 22 68 3d 7a e8 1b 3d d0 98 8d bb
       -0.038337983 0.05667316 0.038063504 -0.004321195
000250 fe 2a 69 bd d0 42 84 bb e4 d6 b2 bc 94 a0 ba bc
       -0.056925766 -0.004036285 -0.021830983 -0.022781648
000260 ea 58 51 bd b8 8a 73 3d 8c d2 b4 3c 38 89 1e 3c
       -0.051110186 0.059458464 0.022073053 0.00967627
000270 60 8e 6c 3c cc 02 a9 bc f0 28 0d 3c 14 34 4c bd
       0.014438242 -0.020631216 0.008615717 -0.049854353
000280 90 d4 29 3d 4c f6 42 3d d0 42 94 3b 64 65 98 3c
       0.04146248 0.04759817 0.0045245662 0.018603034
000290 a8 ba d1 bc c0 23 8c 3a 24 70 b0 3c 1c b5 fa bc
       -0.0256017 0.0010691807 0.021537848 -0.030603938
0002a0 f0 b4 91 bb 40 10 13 3c 84 de 07 3d 80 93 65 bc
       -0.0044466183 0.008976042 0.03317119 -0.0140122175
0002b0 80 24 65 3c a0 b1 da 3c 48 01 c4 bc 00 94 a0 b9
       0.013985753 0.026696026 -0.023926392 -0.00030627847
0002c0 84 08 b5 bc 0e 80 0d bd 00 26 c8 39 00 7a 24 b9
       -0.022098787 -0.03454595 0.00038175285 -0.00015685707
0002d0 d0 b1 62 bd 60 ef 94 3b cc 83 93 3c b8 27 30 3c
       -0.055345356 0.0045451373 0.018007182 0.010751657
0002e0 54 d2 ea 3c 30 fd 03 bc 26 78 4b bd 2e 86 05 bd
       0.028664745 -0.00805597 -0.04967513 -0.032598667
0002f0 0e 59 26 bd 1a c1 3c bd 7e 66 0d bd 7a 88 7d bd
       -0.040612273 -0.046082594 -0.034521572 -0.061897732
000300 a4 1f 01 bd d8 97 13 bd 20 03 7c bb 3c 8a 8c 3c
       -0.031524315 -0.03603348 -0.003845401 0.017155759
000310 38 40 b6 3c 3a 51 08 bd fc f4 f5 3c a4 93 02 bd
       0.022247419 -0.03328059 0.030024044 -0.031879082
000320 e0 a0 d2 3c 06 43 2e bd 00 a7 62 3b 40 84 04 bb
       0.025711477 -0.042544387 0.0034584403 -0.0020220429
000330 7e 72 02 bd c0 0c 8d 3b b8 9a 7d 3c f0 5e 5f bd
       -0.03184747 0.0043044984 0.015478782 -0.0545339
000340 e0 32 23 bc e0 4f d9 3b 08 51 4d 3c 98 03 32 3d
       -0.00996086 0.0066318363 0.012531526 0.04346046
000350 dc 49 6d bd 92 3f 00 3d 7e 63 78 3d d4 e8 fc 3c
       -0.057931766 0.031310625 0.06064176 0.03087274
000360 a8 77 7b bc f6 52 13 3d aa 9b 03 bd 10 90 53 bc
       -0.0153483525 0.03596779 -0.032130875 -0.012912765
000370 40 82 c3 bb 90 30 37 3d 1c ef 91 3c 7c a2 76 bd
       -0.0059664547 0.044724047 0.017814212 -0.06021355
000380 a0 23 4d 3b 68 d1 e7 bc a2 58 03 bd 0c ac 34 bd
       0.0031301752 -0.028298095 -0.03206695 -0.04410939
000390 b4 16 10 3d 90 d0 9e bc 16 ac 29 3d 04 a3 02 bd
       0.0351779 -0.01938656 0.04142388 -0.031893745
0003a0 08 a5 f2 3c e4 55 26 bd f0 0c 5d bd c0 ef 56 bd
       0.029619709 -0.040609255 -0.053967416 -0.052474737
0003b0 20 46 3f bc 14 70 bf 3c 28 ce f7 bc 80 8f 26 ba
       -0.011674434 0.023368873 -0.03024967 -0.00063537806
0003c0 bc 9b 60 3d 00 30 3d 3a b8 8b 04 bc 40 a3 3e 3d
       0.05483602 0.00072169304 -0.008089952 0.046542406
0003d0 68 6d 05 3c 10 4b 6c bd 16 cb 0f bd fe a1 14 3d
       0.00814376 -0.057688773 -0.035105787 0.0362873
0003e0 e8 25 a2 3c e4 4c 2e bd 50 14 d0 bc 7e 48 34 3d
       0.019793466 -0.042553797 -0.02540031 0.044014446
0003f0 68 06 32 bd a8 b0 04 bc 56 ad 51 bd 36 fe 14 3d
       -0.04346314 -0.008098759 -0.051190697 0.036375247

fc3.weight f4 [1, 256]
000000 30 5c 7d bc f4 ee 78 bd b0 0e d8 3b 78 c8 07 3c
       -0.015463874 -0.06077476 0.0065935478 0.008287542
000010 8a ba 13 bd e0 4c 2c 3d 00 e0 6d bb 0a 50 4b bd
       -0.03606657 0.0420655 -0.0036296844 -0.049636878
000020 50 ae 33 3c ca f1 65 3d 04 c3 af bc 30 1b ee bb
       0.010966852 0.05613879 -0.021455295 -0.0072664246
000030 20 9d 51 3c b0 4f ac bc c0 93 ed bb 10 14 ef 3c
       0.012793809 -0.021034092 -0.007250279 0.029184371
000040 d6 c7 78 3d 8e d6 5b bd a0 e6 4a bd 9a ec 39 bd
       0.060737453 -0.053671412 -0.049536347 -0.045391656
000050 1c 2f ce bc 98 a7 3a 3d 44 41 0f bd b6 50 08 3d
       -0.025168948 0.045569986 -0.03497435 0.033280097
000060 1c 65 76 bd 10 d2 d7 bc 30 60 a1 bb 9c 02 62 3d
       -0.06015502 -0.026345283 -0.0049247965 0.05517827
000070 28 85 5d 3d a0 75 fa bb 94 7f 4b 3d c0 86 5f bd
       0.054082066 -0.0076434165 0.049682215 -0.054571867
000080 7c 6c 13 bd fa fc 5b 3d 28 72 15 bc 84 ec d1 3c
       -0.03599213 0.053708054 -0.009121455 0.025625475
000090 82 1a 47 bd 6e 4d 18 bd b8 ef 06 bc d8 1f 64 bd
       -0.048609264 -0.037183218 -0.008235864 -0.05569443
0000a0 58 fb 3c bc 64 cd 94 3c c8 0d 71 bd 16 ba 7f bd
       -0.011534534 0.018164344 -0.058851033 -0.062433325
0000b0 7c 01 aa bc dc 97 0f 3d 28 8d fc 3c 12 7e 4c bd
       -0.02075266 0.035056934 0.030829027 -0.049924918
0000c0 f4 80 2e 3d 78 0e fd 3c fa 64 65 bd 00 8c 41 39
       0.042603448 0.030890688 -0.056004502 0.00018458068
0000d0 60 64 7d 3d a8 61 ed 3c 84 17 7a 3d 78 f0 7e 3d
       0.061863303 0.02897723 0.061057582 0.062241048
0000e0 18 da 92 bc b4 91 d3 bc d8 7c 7b 3c d8 1f 79 3d
       -0.01792626 -0.025826313 0.015349589 0.060821384
0000f0 7c 83 79 bd e0 8a 55 bd 24 74 8c 3c ba db 41 bd
       -0.06091641 -0.052134395 0.017145224 -0.04732869
000100 68 ea 70 3d d4 bb d9 bc d8 4b 78 bc b8 87 73 3c
       0.058817297 -0.026578821 -0.015154801 0.014863901
000110 80 1c a7 bb 60 25 28 3c f8 db 27 bc 24 29 70 bd
       -0.005099833 0.010262817 -0.010245316 -0.058632985
000120 18 29 90 3c 16 49 55 bd e0 2a 31 3c ec 69 d3 3c
       0.01759772 -0.052071653 0.010813445 0.025807343
000130 ba dd 23 3d 60 12 2c 3b cc f6 3d bd 86 4d 59 3d
       0.040006377 0.002625607 -0.046377942 0.053052448
000140 5c fd 02 bd 5c 79 d0 3c 80 ac 63 3a 90 15 fe bc
       -0.031979904 0.025448494 0.00086850673 -0.031016141
000150 b0 cb 43 bd 80 75 38 3d 5c d0 7e bd 54 8a 47 bd
       -0.047801673 0.04503393 -0.062210426 -0.048715904
000160 00 b1 87 ba b0 7f e8 3b c8 5c 19 bd 84 44 4e 3d
       -0.0010352433 0.0070952997 -0.037442 0.05035831
000170 60 bc 71 bb 10 16 62 bd 36 9e 0d 3d 2c dc f9 bc
       -0.0036885962 -0.05519682 0.03457471 -0.030500494
000180 ca bd 6d bd 0e 1a 4d bd 98 ed 3c bd 1c f6 49 bd
       -0.058042325 -0.050073676 -0.046125025 -0.049306974
000190 64 3d d9 bc 14 36 d8 bc 40 7d d6 3c 60 65 4d bc
       -0.026518531 -0.026392974 0.02618277 -0.012536377
0001a0 2a 65 53 bd 4c 56 c3 3c 3c 80 21 3d 40 4f 3a bd
       -0.05161015 0.02384486 0.039428934 -0.045485735
0001b0 14 c7 a8 3c c0 63 4b bc 84 c4 c2 3c be 0c 56 3d
       0.02060274 -0.012413919 0.023775347 0.052258246
0001c0 20 75 e3 3b d0 a6 ce bb 0e db 64 bd 2c a2 20 3d
       0.0069414526 -0.0063065067 -0.05587297 0.03921716
0001d0 a0 c5 72 3c e8 d3 65 3d b0 60 87 3c 10 77 7e bd
       0.014817625 0.056110293 0.016525596 -0.062125266
0001e0 1a 32 04 bd 66 4e 61 bd 7c 02 75 bd 80 ef 2e 3d
       -0.032274343 -0.055006407 -0.059816822 0.042708874
0001f0 2e 5d 6b 3d 50 e3 e2 3b 78 b7 43 bd 92 d4 2e bd
       0.05746191 0.0069240704 -0.04778239 -0.04268319
000200 40 05 c9 bc 9c a8 34 bd 70 d4 98 3c 38 1a 15 bd
       -0.024538636 -0.04410611 0.018655986 -0.036401957
000210 64 2d d9 3c a8 5c d5 bc bc 34 14 3d a8 f0 44 bc
       0.026510902 -0.026045159 0.036183104 -0.012020268
000220 00 3f 06 bb f6 13 0a 3d e0 d3 1e 3b 7c 88 95 bc
       -0.0020484328 0.033710442 0.0024235174 -0.018253557
000230 42 ab 7e 3d 08 0e 35 3d ee 0b 0d bd 50 48 53 bc
       0.062175043 0.044202834 -0.034435205 -0.012895659
000240 a0 06 3a 3d 50 2b 29 3c 0a 5d 7b bd 74 b4 45 3d
       0.045416474 0.010325268 -0.061368026 0.048267797
000250 18 e2 74 3d e0 3f 0c 3c 30 a1 9e 3c 24 93 66 3d
       0.059785932 0.008560151 0.01936397 0.056292668
000260 54 ab 0b bd 40 bc d9 3c 7c ad 97 3c fe ea 39 3d
       -0.034098938 0.026579022 0.018515341 0.04539012
000270 a0 dd 42 3c d0 57 37 bd 80 a7 24 ba 78 5d 68 3c
       0.01189366 -0.04476148 -0.0006281063 0.014182441
000280 50 4e 30 bd 02 ae 08 bd d6 8f 20 3d bc f5 94 bc
       -0.043043435 -0.03336907 0.039199673 -0.018183582
000290 e0 f8 a8 bc c8 eb d0 3c a6 c9 59 3d a4 b2 bf 3c
       -0.020626485 0.025503054 0.053170823 0.023400612
0002a0 50 c2 58 3d a0 57 9d 3b 20 37 14 3b 6a 28 49 3d
       0.052919686 0.0048017055 0.0022615865 0.049110807
0002b0 d4 da bd 3c 80 41 32 bc a2 4a 4c bd 3c 35 b1 3c
       0.023175634 -0.010879874 -0.049875863 0.02163183
0002c0 9e 69 37 bd 70 c3 30 bd c2 e7 30 bd 58 33 2e 3d
       -0.04477846 -0.043155134 -0.04318977 0.042529434
0002d0 5e 41 4e 3d a4 0c 37 bd 04 d2 46 3d 80 48 5c ba
       0.050355308 -0.04468979 0.04854013 -0.00084031373
0002e0 ae 1f 51 bd e2 0a 2d 3d f4 bd 57 3d 58 bb 91 bc
       -0.051055603 0.042246707 0.052671388 -0.017789528
0002f0 6e 3b 65 3d 0c 96 54 bd 6a ca 73 3d 5c 28 81 3c
       0.05596488 -0.05190091 0.05951921 0.015766315
000300 e8 d8 3e 3c 76 43 49 bd 90 6f 2d bd 00 97 0c ba
       0.011648394 -0.0491366 -0.042342722 -0.0005363077
000310 56 46 02 bd 14 1a 73 3d ec f8 33 bd 58 2e 05 3c
       -0.03180536 0.059351042 -0.043938562 0.008128725
000320 c8 c8 7b bc d2 67 3f bd 9e ce 47 3d 40 29 c4 3b
       -0.015367694 -0.04672987 0.04878103 0.0059863627
000330 64 a5 6e bd b0 90 65 3c 78 25 ac bc 00 cb b4 3b
       -0.058263198 0.014011547 -0.02101396 0.0055173635
000340 08 71 5a 3d c0 fc da bb 00 d3 a2 ba 10 d3 d6 3c
       0.05333045 -0.006682962 -0.0012422502 0.02622369
000350 56 95 1e bd 98 25 39 bd 94 f5 28 3d 54 d2 68 bd
       -0.038716637 -0.045201868 0.041249827 -0.05684121
000360 a8 a8 76 3d 4a 6a 1c 3d 5c 7c ec bc 70 78 50 bd
       0.060219437 0.038187303 -0.028867893 -0.05089611
000370 b2 e5 79 3d b0 90 d6 3c 28 aa 10 bd c4 87 30 bd
       0.06101007 0.02619204 -0.035318524 -0.043098226
000380 70 5e 89 bc 76 80 1a 3d 80 1b 78 3a ec 75 7f 3d
       -0.016768664 0.037720166 0.0009464547 0.06236832
000390 fc f4 d4 3c 24 73 e8 3c 34 c5 6d 3d e0 b1 3f 3d
       0.025995724 0.028375216 0.058049396 0.046800494
0003a0 7a ee 2f 3d a0 1b 2b bb 00 26 64 bc b0 91 05 3d
       0.04295204 -0.0026108995 -0.0139250755 0.03260964
0003b0 28 a2 8e 3c 26 60 2b 3d 3c 5e 92 bc c4 f7 4e 3d
       0.017411307 0.04183974 -0.0178672 0.050529256
0003c0 fc 33 c5 3c ca 9e 16 bd 00 52 8a b9 60 c3 1f bc
       0.02407264 -0.036772527 -0.00026382506 -0.009751171
0003d0 b4 de d6 bc b0 f4 d0 3c 48 f7 82 3c 44 39 23 bd
       -0.02622924 0.025507301 0.015987054 -0.039849535
0003e0 64 b0 9c bc 88 72 19 3c 40 2d b7 3a bc 7b 05 bd
       -0.019127078 0.009365685 0.0013975278 -0.032588705
0003f0 16 5c 54 bd 2c 99 88 bc b8 f1 cd bc 58 1f 7a 3d
       -0.051845632 -0.0166746 -0.025139675 0.061065048
